models/cross_entropy/batchsize=100-hiddensize=256-lr=0.01-gamma=.9-PART=180.pt (torch_old, 272411 bytes, 6 tensors)

net.0.weight f4 [256, 5]
00000000: b2a7 5fbe 5c02 6c3e 3095 ccbc 06bc 09be
00000010: c05f 47be a56c c73e d96f 353e b605 7c3e
00000020: b35d 30be 1364 a4be 4429 3ebe f8dd b0be
00000030: e447 e43d 4c64 8cbd ac3d 7abe 721a e0be
00000040: 158b 3f3e b4eb bd3e 0820 83be a4ff 283d
00000050: 9889 4fbd b8b7 ed3d 44ce d3bd b0ab e43c
00000060: a079 1ebe 02f9 79bd 3ab7 97be 8031 6d3e
00000070: 3286 b1be 20ed 9e3e 31f1 f6bd 6c18 91bc
00000080: c1a6 58be d939 03bf 5818 3c3e e3f4 353e
00000090: 7033 ddbe 7b61 ac3d a2db f93a 222e 963e
000000a0: 824d 783e 4090 dabe 4227 973e 69c3 2bbe
000000b0: 32d9 f13d 9eda 5ebe 6c90 973e 15ac eabe
000000c0: c781 503d 066f c13e 98c5 08be b115 d23e
000000d0: c149 883e 1542 3abe 3b2e 173e fd42 9b3d
000000e0: f622 63bc e8d1 7d3e 60f2 58be b853 213e
000000f0: a74d f93e 00d3 913e 543f bcbe c037 96bd
00000100: 5874 68be afe0 d3be b431 913e a8e1 23bd
00000110: 6b54 71be 6895 6c3e 4f8e 993e d38b f03d
00000120: 9cc1 e6be 0251 aabd 3fa2 903e 1e94 853c
00000130: 9f5e 8c3d f4ac eabe 316a fc3b a783 3f3e
00000140: ab74 4fbd 5d94 173f 4cff 3b3e 34b0 b8bd
00000150: 458f bcbd 5029 9abe 1229 dc3e 9467 98be
00000160: e81b cebe af98 193e 092c f9be 5ea8 aabe
00000170: bfe0 80be 7e55 72be 4d55 fdbd aca1 53be
00000180: 2aaa 4d3d ae96 ba3e b7e2 863e 25a9 00bd
00000190: 6a43 8ebe b5da 6abd 3e8d dcbe 7c11 b73d
000001a0: ab28 533e 14dc cfbe babf 0f3e d262 3e3e
000001b0: c56e 89bd 64ef a83e 3dea b5be 4b7c 6d3e
000001c0: 61b6 b3be 3a1c adbb 9dc0 8c3e ef9d 413e
000001d0: 7a6d 3d3e f384 76be a194 b5be d3bd 3b3e
000001e0: ce71 47be b4b8 783e a6e1 e1be 004d 11bd
000001f0: 6f51 ddbe e717 c1be 8059 d9bd 681d d63d
00000200: 9a14 a6be 7a9f e33e f24a aa3d 9815 81be
00000210: aca4 bd3e 6dd8 073e 39a0 3b3d 435b b5be
00000220: f061 bfbc 700f e03d 1519 dfbe 05af 90be
00000230: 27d5 8fbe 7bd1 0e3e 26d6 3ebd 59b0 fd3d
00000240: ded5 aebc 05ac 103c 3153 cabd d0d5 11be
00000250: 2700 96bd d85d 7f3e e4c3 5dbe ca60 d6be
00000260: 4591 dd3c f673 8d3d 9903 e93d 33d7 ccbe
00000270: e6f3 bd3e 876e 553e 7e07 3cbe 2e71 0cbe
00000280: 9d77 af3e b412 5cbe 26e8 30be c947 b5be
00000290: 61f9 653e 0055 90bc 00b6 c53d e496 223e
000002a0: 5a99 96be a0f1 7a3e 447f 98bd 14c2 0e3e
000002b0: bbfd 2a3e f64a 92be 64ac a33e daa6 d9be
000002c0: c045 323e 488b 29be a609 a53e 543a c0bd
000002d0: f163 87be 20e7 68bd 7cc2 d73e 7054 583e
000002e0: 0c30 b6be 38d7 b5be a4c7 1e3e 7fe1 893e
000002f0: 2fcc f5be e7da cb3d 23d1 a23d eb93 c0be
00000300: 5936 6e3b f0a7 81be 21ff 3c3c 0be6 debe
00000310: 8406 d43e c070 ef3c e9a4 8dbe 9ef2 a2be
00000320: 7c4d b5bc d508 9a3e 8a49 653e 2e7b 49be
00000330: ba64 5b3e f0ef de3c 6ae2 d13e b07b e7bd
00000340: a43c 073e 3c9c 84be e229 0fbe 5312 22be
00000350: 8ec6 0bbf dc2f 5a3e b6bc 89be 237a 6d3e
00000360: cfdb b6be d5c0 9bbe 7641 823e 189f 9cbe
00000370: 7735 f13d ec74 96bd ec66 15bd 78bd 9f3d
00000380: c85e 3d3e c509 353e 3a2f 813e 3d47 b2be
00000390: 94e4 b13e e676 97be 8c64 1cbe a13e 5cbe
000003a0: 5b00 bbbd 5dbf f9be 693c 8d3e 5e1b 71be
000003b0: 745d 72be 53c1 6a3e 4096 9abd 9146 2bbe
000003c0: f9b7 b0be 0d0a 38bd df30 b93e b0ee 0dbe
000003d0: c4b9 42be 03f3 c3be 4077 86bb 045c 883e
000003e0: 7819 a43e 95f8 c3be e164 c63d 462f 25be
000003f0: 2c01 a1be 8963 b8be cb51 f6be 04c9 81be
-0.21841314 0.23047775 -0.024973482 -0.13450631 -0.1947012 0.38950077 0.17718448 0.24611554
-0.17223243 -0.321076 -0.18570429 -0.3454435 0.111465245 -0.068550676 -0.24437588 -0.43770176
0.187054 0.3709389 -0.25610375 0.041259423 -0.05066833 0.11607307 -0.103420764 0.027913898
-0.15476084 -0.061028488 -0.29631978 0.23163414 -0.34672695 0.31040287 -0.12057722 -0.01771184
-0.21157362 -0.51260144 0.18368661 0.17769198 -0.43203306 0.084170304 0.0019062648 0.29332072
0.24248317 -0.4268818 0.2952214 -0.16773762 0.11809005 -0.21763083 0.29602373 -0.45834413
0.050905015 0.37780017 -0.13356626 0.41032174 0.2661877 -0.18189271 0.1476373 0.075811364
-0.013863316 0.24787104 -0.21186209 0.15754592 0.48692057 0.28481293 -0.36767066 -0.07334852
-0.22700632 -0.41382357 0.28358233 -0.040010124 -0.23567359 0.23103869 0.29991385 0.11745419
-0.45069587 -0.08316232 0.28248784 0.01630598 0.06853985 -0.45835078 0.0077030887 0.18702565
-0.050648373 0.5921076 0.18359107 -0.09017983 -0.09207014 -0.30109644 0.43000084 -0.29766524
-0.40255666 0.1499965 -0.4866641 -0.3333158 -0.25171468 -0.23665425 -0.123697855 -0.20667142
0.05021111 0.36443084 0.26344845 -0.03141131 -0.27785808 -0.05733748 -0.4307651 0.08938882
0.20620982 -0.40597594 0.14037982 0.18592384 -0.06710581 0.3299514 -0.35530272 0.23191945
-0.35100082 -0.005282906 0.27490702 0.18907903 0.18498793 -0.24074154 -0.35464957 0.18334131
-0.19477007 0.24289209 -0.4411747 -0.035473824 -0.4322619 -0.3771355 -0.10612774 0.104548275
-0.32437593 0.44457608 0.08315076 -0.25211787 0.37039697 0.13266154 0.045807097 -0.3542119
-0.02336213 0.109404445 -0.43573824 -0.2825853 -0.2809231 0.13947098 -0.046590947 0.12387151
-0.021342214 0.008830075 -0.09879149 -0.14241719 -0.07324248 0.24938142 -0.21656758 -0.4187072
0.027046809 0.069068834 0.11377639 -0.40007934 0.37100142 0.20842944 -0.18362233 -0.1371505
0.34270945 -0.2149151 -0.17276058 -0.3540633 0.22458412 -0.017618656 0.09653854 0.15877873
-0.29413873 0.24506235 -0.07446149 0.13941222 0.16698353 -0.28572816 0.3196746 -0.4251011
0.1740942 -0.16557038 0.32233924 -0.09386125 -0.26443437 -0.056861043 0.42140567 0.2112596
-0.35583532 -0.3551576 0.15505844 0.26929852 -0.48007342 0.09953862 0.07950046 -0.37612852
0.0036348312 -0.2532344 0.011535437 -0.43534884 0.4141122 0.029228568 -0.2766488 -0.31825727
-0.022131674 0.30084863 0.22391334 -0.19675896 0.21425143 0.02721402 0.40993053 -0.113028884
0.13206726 -0.25900447 -0.13980821 -0.15827303 -0.54599845 0.2130732 -0.26901788 0.23191123
-0.35714576 -0.30420557 0.25440568 -0.3059013 0.11777776 -0.0734652 -0.036475107 0.0779981
0.18493187 0.17679508 0.25231344 -0.34819975 0.34744704 -0.295829 -0.1527273 -0.21508266
-0.09130927 -0.4877881 0.27585152 -0.23545596 -0.23668462 0.2292531 -0.07548189 -0.16726138
-0.3451536 -0.04493146 0.36170098 -0.13860583 -0.19016176 -0.3827134 -0.004103571 0.26632702
0.3205068 -0.3827559 0.0968721 -0.16131315 -0.31446207 -0.3601344 -0.48109278 -0.25348675

net.0.bias f4 [256]
00000000: 4ccf e4be e3a6 b1be 5d57 dbbd fe7b 263d
00000010: 9498 debd c6e8 733e 2be8 383e 8856 8a3e
00000020: 39d9 65be 0ec0 693e 877f a4be 0a5f 4e3e
00000030: e678 83bd 3572 d5be 83f4 8fbd 2969 e6bc
00000040: 672f ca3c f964 d73e a0b9 743e 1438 2bbe
00000050: 8eee e0bd 5793 49be d977 3abd df55 c93e
00000060: 84b8 d1be 35e5 d0be 5801 8bbe b4d1 3c3e
00000070: b844 4e3d 3068 6bbe 381e 8c3e 82a5 e83d
00000080: c0f8 a8bc e4e6 96be 1508 11be 9809 43bd
00000090: d0cc 8fbe 6000 d03c 924f dc3d 108f 7bbe
000000a0: 3492 80be ce28 bcbe 2844 a83e aff5 f13e
000000b0: 7891 d5be da4f 913e 3957 0f3e 0e08 0c3e
000000c0: ae53 6bbe ba39 81be 73e6 a73e ff4d 24bd
000000d0: daf6 58bd 09fb 193f 9ddb 4d3e b5ca 0abe
000000e0: d6b1 e9be 179b 3dbe 6db8 8f3e 9b02 60bb
000000f0: 4c5b 8f3e 684b d2bd d457 fd3d 5da5 00be
00000100: e62b 5dbe 1a4c 51bd a0c1 76be a4dc bdbd
00000110: 902e f2bc 5473 64be fb0b a4bd 3bb7 f43d
00000120: 1d3f 89be 506b 26bd 96ff 02be 52d6 2abe
00000130: 08a2 d53d 9ac0 e73b ba1b e1be eed7 4cbe
00000140: 3ed2 45be 5f46 973e c0e5 3ebe 70f8 a73d
00000150: ef84 393e 7dcc 74be eafe a03e e7ad fabe
00000160: dca7 74be 93b0 a1be 6a9b e53d 2944 a5bd
00000170: 05c7 80be bc0b a8be fa5e 473e d0fa 47be
00000180: 09b3 83be 3ef9 29be 74d8 893e a592 71be
00000190: 0024 54bb 0ada b63d 0a61 17be 42b8 343e
000001a0: 5de1 dcbe 661a 8abe 484c d1be 5d8a babe
000001b0: 44d2 2d3e d36e bcbe 3604 9abe 97eb 9f3e
000001c0: 2db4 4cbe a06b 1abd 79a5 623e ba39 8a3e
000001d0: 0210 5e3d 3128 7abe 9c9e 143e b983 b33e
000001e0: 820c 77be d434 2fbe c151 9c3e 32e3 9ebe
000001f0: 3562 a93e 1103 55be 2be2 70be 8add 4bbd
00000200: ec16 6fbe 7d8d 623e 4bb0 76be 620c 49be
00000210: b49a 97bd 3860 85be df08 3d3e de95 973e
00000220: 5573 dfbe e8de 2e3e 157c 8e3d ea09 9bbe
00000230: 1f5f a13e 252f 77be 1e22 0e3e 807b 62bd
00000240: 99cf 633e 3b74 76be 6a27 babe 4e3e cbbd
00000250: 6ec1 44be 40b7 673c 4839 803e f046 a4be
00000260: ad3b 073e 5f31 563e 3a3d d13e 1e58 583d
00000270: dd8b 213e 5e8a d03e 44b5 a6be 14cc 833e
00000280: 82b6 f63d 4420 9cbe 288e ddbe c441 36bd
00000290: 547f 21be 7643 39be e05d 7d3c 3e4d bc3e
000002a0: 9634 d3be 192c bd3e f44b 7f3e c01e abbd
000002b0: 8da3 d3be 78e4 473d c0a4 1c3e 59dc 83be
000002c0: dfa9 3fbe 442e 22bc 1026 3b3e 9d04 97be
000002d0: f5af 0dbe 7823 c9be a4f3 86bd 74b3 ef3d
000002e0: e08e 2e3d 48ab 72bd 07f1 b1ba b24b fcbe
000002f0: 1b54 b1be 1b6b 51be 2d9b 24be 66df 9f3d
00000300: 3539 aabe 421c a03e 103d d7be e0f7 21be
00000310: fa80 93be 02e5 b53e 92a9 db3b f681 fd3c
00000320: d0b5 1ebe 32e0 e9bc 1670 9bbe bb81 dd3d
00000330: 3d62 e33d 7a99 c4ba 080d c2be ded5 dabe
00000340: 1cf4 b4bb 9af6 59be f427 c1be 6a36 0bbd
00000350: 7e27 743e 97e4 9a3e 9ff7 8fbe 4ffc 4cbe
00000360: e061 67bd ef7e b23e f590 58be 69d2 4cbe
00000370: cbfa ea3e 3efe 0c3d 8c91 97be e5e4 453e
00000380: 14f3 aebd 22c9 49be bf99 4dbe eda2 f43d
00000390: 30cc 26bd 209c 8b3e 048d aabe a342 743e
000003a0: 7072 fb3e dc01 4d3e 8097 8b3e a952 493e
000003b0: 2078 e43d 1b23 bd3d cbc0 81be 747e 98bd
000003c0: db1e afbe 5aac 593e cd45 b5be e087 2fbe
000003d0: dbd8 8c3e a26d bbbe d625 273e 257b 74be
000003e0: 4b3e 043f e3d6 a13e 963c a53e 6233 a8be
000003f0: 7e9a c0be a1ea 2f3e b576 cb3d ebd4 853c
-0.44689405 -0.34697637 -0.107100226 0.040645592 -0.10868946 0.23819265 0.18057315 0.27019143
-0.22446145 0.2282717 -0.32128546 0.20153442 -0.06419544 -0.41688696 -0.07029059 -0.028126316
0.024680806 0.42069224 0.23898935 -0.16720611 -0.10983001 -0.19685112 -0.045524452 0.39323327
-0.40961087 -0.4079987 -0.27149463 0.1843937 0.050358504 -0.22988963 0.27366805 0.11359693
-0.020626426 -0.2947303 -0.1416324 -0.04761657 -0.28085947 0.025390804 0.10757364 -0.24566293
-0.25111544 -0.36749882 0.328645 0.47257754 -0.41712546 0.28381234 0.13998117 0.13674948
-0.2298114 -0.25239354 0.32793006 -0.040113445 -0.05296979 0.60148674 0.20103307 -0.13553889
-0.4564349 -0.18516193 0.28070393 -0.003418124 0.2799934 -0.10268289 0.123702675 -0.12563081
-0.21598777 -0.051097967 -0.240973 -0.092705995 -0.029563218 -0.22309619 -0.080100976 0.11949011
-0.26805964 -0.040629685 -0.12792811 -0.16683319 0.10431296 0.0070725204 -0.43966466 -0.20004246
-0.19318482 0.29545876 -0.1864233 0.082016826 0.18117116 -0.23906131 0.31444484 -0.48960802
-0.23892158 -0.31580028 0.112112835 -0.08069641 -0.2515184 -0.32821453 0.19469824 -0.19529271
-0.2572253 -0.16598985 0.26922953 -0.23591097 -0.003237009 0.089283064 -0.14783111 0.17648414
-0.4314069 -0.26973265 -0.4087851 -0.36433688 0.16974741 -0.36803302 -0.30081338 0.31234428
-0.19990607 -0.037700295 0.22133435 0.26997167 0.054214485 -0.24429394 0.1451363 0.35061434
-0.24125865 -0.17109996 0.30531123 -0.3103271 0.3308274 -0.20801951 -0.23523776 -0.049771823
-0.23348588 0.22124286 -0.24090688 -0.1963363 -0.07402554 -0.26049972 0.18460415 0.29606527
-0.4364268 0.1707722 0.069572605 -0.30281 0.31517884 -0.24139078 0.13880202 -0.05529356
0.22247161 -0.24067776 -0.36358196 -0.09923993 -0.19214413 0.014142811 0.25043702 -0.3208537
0.13206358 0.20917271 0.40867025 0.05281841 0.1577601 0.40730566 -0.3256017 0.25741637
0.12046529 -0.30493367 -0.4327252 -0.044496313 -0.15771228 -0.1809214 0.015464276 0.3677768
-0.41251057 0.36947706 0.24931318 -0.083554745 -0.41335717 0.04880187 0.15297222 -0.2575405
-0.18717144 -0.009898726 0.18276238 -0.29495707 -0.13836654 -0.39284873 -0.065894395 0.1170415
0.042616725 -0.059245378 -0.001357586 -0.492765 -0.3463448 -0.20451014 -0.1607482 0.07806282
-0.3324677 0.3127156 -0.42038774 -0.15817213 -0.2880934 0.35526282 0.006703564 0.03094576
-0.15499043 -0.028549287 -0.30358952 0.1081576 0.11102722 -0.0014999353 -0.37900567 -0.42741293
-0.005522264 -0.21285477 -0.37725794 -0.03398744 0.2384319 0.30252525 -0.28118607 -0.20018123
-0.056489825 0.34862468 -0.21149047 -0.2000214 0.45894465 0.03442215 -0.2960323 0.19325598
-0.08542457 -0.19705632 -0.2007818 0.11945138 -0.040722072 0.2726755 -0.3331071 0.23853545
0.49110746 0.2002024 0.27264023 0.19660439 0.111557245 0.092352115 -0.25342402 -0.07445994
-0.34203228 0.21257153 -0.35404816 -0.17141676 0.27509198 -0.3660708 0.16323027 -0.23875101
0.5165755 0.31609258 0.32272786 -0.32851702 -0.37617868 0.17179348 0.09934751 0.016336879

net.2.weight f4 [256, 256]
00000000: 5a5f 75bd 782b 85bd 56a1 19bd a897 aebd
00000010: 00be 003d e4e2 3dbd 5396 f0bd 7365 ffbd
00000020: 4ee5 e9bc 98a3 84bd 3b53 813c 5f52 543a
00000030: 8d15 823c c0da d53b d85d 9fbd c429 4ebd
00000040: 6ce2 c8bc 7edd 86bc 70ab adbd 3048 0bbc
00000050: 479e efbd 6e9e 7dba 5070 25bd 26d5 87bd
00000060: f2e7 553d 983b eabc a47c 7cbd 8a8b 14bd
00000070: aa20 44bc 2626 e8bd becc 7ebc ecae 253d
00000080: 1d5e 60bc 88e1 62bc e140 fd3c b038 4d3d
00000090: 64d0 35bd 1475 39bd 38b0 b0bd 24fc 58bd
000000a0: 1e7c fb3c fc69 ff3c a944 cebc 9d74 e4bc
000000b0: a73c 88bd 3a60 5dbd 3164 acbc 4849 59bd
000000c0: 5208 6ebd b25d 1bbd 3efe 2cbc 4fe3 6dbd
000000d0: 3f85 3abd 044f f3bd 7832 1cbd 40d0 a0bd
000000e0: e14c 5bbd 765a 9cbd 3860 02bd 7c9b d0bd
000000f0: e2ca 2f3d 3856 6c3c 7095 aa3d 0662 43bd
00000100: 02e4 0ebc b39d 91bd 0114 b2bc 0ece c8bd
00000110: bc7a 413d dcfb 12bc ef27 05be 5d8b d4bc
00000120: d3b0 2cbd 50b7 d8bc 607b 1fbd 89eb 9e3c
00000130: c68c 66bd 0fd5 c3bc 58d6 10bc 1096 ef3b
00000140: 5eea 0cbe dcd1 5dbc eabc f8bb a01b 66bb
00000150: da78 bebb 8870 493d 0858 30bd e0ba 2a3c
00000160: 52c5 02bd b4b5 fabd dbdb 05be eefc af3c
00000170: 4508 dfbc 48dd a33c 6e92 96bd ab6b b7bd
00000180: 3911 bfbd 3812 2bbc 05cf dabc 39cd 21bb
00000190: a25b 2fbd fa1e 983b fe76 2cbd d1ec 6cbd
000001a0: 56bf 1cbd 30c9 5dbc 40e1 02bb abbc 79bd
000001b0: 2a7c 1ebd c4d2 24bd b0b9 6fbd 79b2 03be
000001c0: 55a7 95bc 00ed 86b9 66d4 693c b0aa e2bc
000001d0: 04f8 8bbd 2e63 093d ec11 933c 736b e0bd
000001e0: 3e37 7cbc 7034 5abd ae3b a7bd e7a2 a8bc
000001f0: d2f3 2fbd 14ff 4fbd eccc 47bd 7cc3 abbd
00000200: 7426 743d ac01 31bd 8903 cdbd 429b 5bbd
00000210: e069 753c c86a 1abc c227 19bd 4ea0 fdbd
00000220: a21f 49bd d280 94bc 39cb cf3c 28ec 623c
00000230: 83d0 b0bd 526d b3bb 4ce8 57bd d2c9 15bd
00000240: 9d21 aebd 7f6c adbd a8a0 f83c 1b84 e0bd
00000250: e0b5 edbc 7016 ef3c 9b5f 873c 54ee 21bd
00000260: da71 a2bc a7f2 25bd 028f 993c b117 15bd
00000270: a421 02be f9bd 04be ba7e 4b3d 5da5 30bc
00000280: 5a8b dbbd 9a2d 23bd af3e bebc b6ed adbd
00000290: 88e1 113c 5251 383d 8e6f 773d 06f9 bcbd
000002a0: d6ce 613c 2e46 3aba f883 0fbd 8c28 debc
000002b0: 102f 56bd 866b 59bd 7b17 40bc ecd6 0e3d
000002c0: 1ed6 a5bd fd90 a33b 46a8 99bd 403e d93c
000002d0: cf16 14bd c000 0fbb fc6a 2b3d 468c 0abd
000002e0: 7475 3b3d 609a 21bc 1e92 8bbd 6b2a 82bd
000002f0: ce48 5a3d 0893 42bc 7c9d 8dbd 1b7e 11bd
00000300: 51b4 df3c e3ca 6ebd 3ab2 c0bd 8b3d 9fbd
00000310: e881 0abc 8976 77bc bc7c abbd 1dd3 20bc
00000320: 5078 ebbb b48f 103d bebb 18bd 2c11 c33c
00000330: 1e8f b1bc 9549 e9bd d836 e63c de4d 4dbd
00000340: fef4 a2bd 183d 203d 461a 6cbd e518 6dbd
00000350: 815c 4fbd 172e c7bc 7429 35bd c065 92bb
00000360: 700e f73b 2789 eebd f1bc a8bc ba32 b23d
00000370: 2b2b babd c7c7 6abb 5124 b4bd 861e 12bd
00000380: d0ad ec3b 2278 53bd 72df 43bd 1a2a 86bc
00000390: 888c 473c e6aa 4ebd 701d 7ebd b1e7 5ebd
000003a0: 516c 0bbe e6c1 4d3d 9dbc f0bd e05b 75bb
000003b0: e4e8 9dbd 1f03 a4bd ab85 ecbd 19ed 18bd
000003c0: 043a 953c bb6b 6abd 7265 f8ba 54c4 363d
000003d0: e8e6 5ebb 14b9 8cbd 4eb9 c2bd 98a1 e539
000003e0: fce2 c7bd d31e f5bd fdcf 6dbd 6878 9cbd
000003f0: e22a 59bd a400 e1bd f5ec 983c 7ab7 0fbe
-0.059905387 -0.06502432 -0.037507378 -0.0852502 0.031431198 -0.046358958 -0.11747422 -0.12470522
-0.028551724 -0.064765155 0.015786758 0.00080994325 0.015879417 0.006526321 -0.07781571 -0.0503328
-0.024522029 -0.016463038 -0.08479965 -0.008501098 -0.11700111 -0.0009674792 -0.040390313 -0.06632452
0.052223153 -0.02859287 -0.061642304 -0.036265887 -0.011970678 -0.11335401 -0.015551744 0.04045002
-0.013694313 -0.013847716 0.030914726 0.05010289 -0.04438819 -0.04527767 -0.08627361 -0.052974835
0.030698832 0.031178467 -0.025179224 -0.027887637 -0.066521935 -0.054046847 -0.021043869 -0.053048402
-0.058113404 -0.03793115 -0.010558663 -0.058078106 -0.04553723 -0.118803054 -0.03813407 -0.078522205
-0.053540114 -0.076344416 -0.031830043 -0.10185906 0.042918094 0.014424853 0.08329284 -0.047700904
-0.0087213535 -0.07110157 -0.021738054 -0.09804927 0.04723619 -0.008971181 -0.13003515 -0.02594536
-0.04216082 -0.026454598 -0.03893602 0.019399421 -0.056286596 -0.023905305 -0.008840166 0.00731159
-0.13761279 -0.013538804 -0.0075908797 -0.003511168 -0.0058127465 0.049179584 -0.043052703 0.010420531
-0.03192646 -0.12241688 -0.1307215 0.021482911 -0.027225623 0.020002976 -0.07352148 -0.08956083
-0.09329457 -0.010441355 -0.026710043 -0.0024688973 -0.042811997 0.0046423646 -0.042105667 -0.057843033
-0.03826841 -0.013536736 -0.0019970685 -0.060970943 -0.03869263 -0.040240064 -0.058526695 -0.1286105
-0.018268267 -0.0002573505 0.014271831 -0.02766928 -0.068344146 0.03354185 0.017952882 -0.10957994
-0.01539403 -0.053272665 -0.0816568 -0.02058549 -0.042957135 -0.05078037 -0.048779413 -0.08386895
0.059606984 -0.043214485 -0.1001044 -0.053614862 0.014978856 -0.009424873 -0.03739143 -0.12384091
-0.049102433 -0.018127833 0.025365459 0.013850249 -0.086335205 -0.0054756785 -0.05271177 -0.036569424
-0.08502505 -0.084679596 0.030350044 -0.10962697 -0.029017389 0.029185504 0.01652508 -0.039533928
-0.01982968 -0.040514614 0.01874495 -0.036399547 -0.12708145 -0.12963094 0.049681403 -0.010781613
-0.107199386 -0.03983841 -0.02322325 -0.084926054 0.0089038685 0.044999428 0.06040912 -0.09227185
0.013782224 -0.00071057945 -0.035037965 -0.027118944 -0.052290976 -0.053081058 -0.011724348 0.034872934
-0.0809748 0.004991649 -0.07502799 0.02651894 -0.036154564 -0.0021820515 0.041850075 -0.03382518
0.04576631 -0.009863466 -0.06814979 -0.06355747 0.05329209 -0.011875875 -0.069148034 -0.035520654
0.027307661 -0.058298957 -0.09408994 -0.0777541 -0.008453824 -0.015103945 -0.083734006 -0.009815958
-0.007185973 0.035293296 -0.03728842 0.0238119 -0.021674689 -0.11390988 0.028102323 -0.050123088
-0.07956885 0.039120764 -0.057642244 -0.05788507 -0.050625328 -0.02431397 -0.044228986 -0.004467696
0.007539563 -0.116472535 -0.020597907 0.087010816 -0.09090265 -0.0035824643 -0.08795989 -0.03567364
0.0072228685 -0.05162824 -0.047820516 -0.016377497 0.012179501 -0.05045595 -0.062039793 -0.054420177
-0.13615538 0.050233744 -0.11754725 -0.0037438795 -0.07710436 -0.08008408 -0.11548933 -0.03733549
0.01821614 -0.057231646 -0.0018951131 0.044620827 -0.0034012143 -0.06871238 -0.09508 0.0004379868
-0.09760091 -0.1196877 -0.05805968 -0.07640153 -0.05301941 -0.1098645 0.018667677 -0.14034835

net.2.bias f4 [256]
00000000: 4905 f8bd e4f0 d43c 6660 0b3d 009d cb3b
00000010: d402 77bd 30e3 91bb 5859 0b3c 6eb2 16bd
00000020: 8c48 38bd 39b1 40bd acd6 123d ec51 003d
00000030: 3e08 cfbc 2c75 863c dfd7 0cbe 921d e73c
00000040: 3197 74bd 8324 4f3b 98ad d4bc 3cad 96bc
00000050: 2d07 37bd 6324 fabc a66d 2bbd f027 f7bd
00000060: dcd1 d8bd 92ab 4e3d 2d6c debc c6af 95bc
00000070: 4599 c9bd 5842 8cbd af93 533d f09d 11bc
00000080: 8e9c 24bc c332 a2bd 9c75 e63b 05e8 48ba
00000090: 2923 3cbc 98c9 76bd b784 63bc ee1a 90bc
000000a0: 7a58 8ebd 28c7 d4bc 9163 c63b ffca b0bd
000000b0: 8d8a 9f3a 1ae7 b5bc 48fb 29bd e1af 14bd
000000c0: 93d7 d9bc d519 98bd c0f4 c53c cef2 c33b
000000d0: 74be 56bd 588b 10bc 6962 96bc b8af 2bbc
000000e0: 2416 1ebd fab8 b6bd 6563 72bd 689a 4abd
000000f0: 17c9 26bd 7c33 debd 4ca8 673c 20f8 193c
00000100: ba81 dbbc c089 3f3d 4825 853b acac 25bd
00000110: 496c 8dbd d9e9 253b 8962 bebd 7339 f3bb
00000120: 7e21 563d 9196 c33c 12f3 903c 14ff d3bd
00000130: d05a efbc b0c2 8ebd 0c8f 033a 60b0 683b
00000140: d33d 78bd aa75 ca3c c4b5 e1bd 543e 0a3d
00000150: ce29 7dbd d7b1 b0bd 592d aabd 4c07 b1bc
00000160: a617 0ebe 71f0 a5bc 6a70 b1bc b0fb 7ebd
00000170: fe3d 22bd 2420 203d e15b 8bbd 085a 04bc
00000180: c48f 4cbd df3d b4ba 4cc2 71bd 622a 9c3c
00000190: 51e8 72bd 9423 0fbd 7111 2cbd 18bf 2dbb
000001a0: 09f4 8cbc 534d 09bd 0c05 10bc 3f46 e2bc
000001b0: 7e61 28bd 28e6 d5bd 594a 833e 9af8 c8bd
000001c0: 4c6e 703d 79a0 7cbd 067b edbc 7e62 57bd
000001d0: f7b0 9e3c 6345 75bb 9daa e9bd e916 dbbd
000001e0: 925b 173d b6b9 353c a011 563b 4a15 53bc
000001f0: e369 36bd 60b2 60bc 66bf 5dbd ceb7 e23d
00000200: d04f 52bc c2d0 8c3a 44fc d1bd c8ce 71bc
00000210: 626c 0dbb 5a08 873b 088f 29bd 93ed f0bc
00000220: 4f01 57bb a98e 20bc ee46 47bd c10f 06bd
00000230: f003 253d 9ee9 d5bd ed4c 41bd 4a11 2bbc
00000240: 9cbe c0bd bc01 5c3c c138 f4bd a925 a1bd
00000250: e23b 20be 5fd2 21bd da66 1ebd 24c6 4ebd
00000260: 1489 64bd 3e51 54bd 4179 993d 66d2 45bd
00000270: fdc1 e3bd 800e a6bb ebc7 9dbd dec4 173d
00000280: 4ab3 39bd 2327 593d 4ee3 84bd 5742 15bd
00000290: ab84 d73c e4c4 13be cf38 93bc fb42 253d
000002a0: a5ac 95bd b026 713d 46cc 22bd 380b 92bc
000002b0: 0883 fabc ab0b 1b3d 1c47 c1bc 123b f7bd
000002c0: 28fb 61bd 9438 b5bc e282 aebd 6764 83bd
000002d0: 646b 00bd dbfa 8a3d 664e 69bd 3419 f0bd
000002e0: 3cd8 48bc 6447 5dbc 34b6 f63c 883f 0bbc
000002f0: 26ef 693d 9951 a3bd 9c9e 063c 98e2 78bd
00000300: e0c5 6f3c e763 19bb b55e 96ba 65d7 c7bd
00000310: e143 95bd 8d8b 5dbd eb25 cbbd ff71 dbbd
00000320: 08d1 74bd 2202 d8bc ff8d 8ebd b08c 203c
00000330: 327b d2bd 4229 e4bc 4e5d 163d 7c92 d2bd
00000340: 1cd6 83bc 3805 52bd 7574 d53c 96e8 6a3c
00000350: dda9 d6bd 089f 8abb ab69 c7bd fbe9 173b
00000360: d4f9 ddbd 229e 8fbd 36d3 14bd c08b 61bb
00000370: 0bae 0b3b 006a 3fbc 21a7 8fbd 69b7 883c
00000380: 8376 98bd 0610 8cbd 9678 5d3c 3ee9 2cbd
00000390: 4b16 55bd 0473 09bd 217f af3b 160a 7cbc
000003a0: ce7b b1bd 2de4 79bd 2c00 f33c 2efd 92bc
000003b0: 6186 67bd f243 5dbd 904d 24bd c8ad 75bd
000003c0: 5f7b 3ebd e4b0 96bd b37e 82bd 5f05 613d
000003d0: b20b f1bd 13f2 09bd 0799 a9bb 4a0e 453d
000003e0: 0812 5f3d 4392 2ebd 3ad8 023e ee95 abbd
000003f0: dc12 f33c 465d 733d 795e 9fbd 4907 73bd
-0.12110383 0.025993772 0.03402748 0.006213784 -0.06030543 -0.0044521317 0.008505188 -0.036791258
-0.04499106 -0.047044013 0.03584926 0.031328127 -0.025272485 0.016413294 -0.13754223 0.028212342
-0.0597145 0.0031607456 -0.025961682 -0.018393151 -0.044684578 -0.030534929 -0.041852616 -0.12068164
-0.105869025 0.05045659 -0.027151192 -0.018272292 -0.09843687 -0.068485916 0.051654514 -0.008887753
-0.010047091 -0.07919838 0.007033063 -0.0007663968 -0.011482992 -0.06025085 -0.013886622 -0.017590966
-0.06950469 -0.025973871 0.0060543497 -0.086324684 0.0012172029 -0.022204924 -0.041499406 -0.036300544
-0.026592052 -0.07426802 0.024164557 0.0059798723 -0.052427724 -0.008822285 -0.018357472 -0.010478906
-0.038595334 -0.08922 -0.05917682 -0.04946366 -0.040719118 -0.108496636 0.014139246 0.0093975365
-0.026795257 0.046762228 0.004063282 -0.040447876 -0.069054194 0.0025316386 -0.09296138 -0.00742262
0.052278034 0.023875507 0.01769403 -0.10351387 -0.029218107 -0.069707274 0.0005018569 0.0035505518
-0.060605835 0.02471431 -0.11020997 0.033750847 -0.061807446 -0.0862767 -0.08309431 -0.021609925
-0.13876209 -0.020256253 -0.021660049 -0.062251747 -0.0396099 0.03909315 -0.06804634 -0.008078106
-0.049941793 -0.0013751349 -0.059023187 0.019063178 -0.059303585 -0.03494604 -0.04200882 -0.0026511606
-0.017206209 -0.033521008 -0.008790266 -0.027621387 -0.0411086 -0.104442894 0.2564266 -0.09813042
0.058698937 -0.061676476 -0.028989326 -0.052584164 0.019371493 -0.003742539 -0.11409495 -0.10697729
0.036952563 0.01109164 0.0032664314 -0.012883494 -0.044534575 -0.013714403 -0.05413761 0.11070214
-0.012836412 0.0010743367 -0.10253194 -0.014758773 -0.0021579494 0.0041208686 -0.04139617 -0.02941016
-0.0032807176 -0.009799638 -0.04865163 -0.032729868 0.04028696 -0.104449496 -0.047192503 -0.010441134
-0.09411356 0.013428148 -0.119248874 -0.07868511 -0.15647843 -0.039507266 -0.038672306 -0.05048193
-0.05579479 -0.05183529 0.074938305 -0.048296355 -0.11120985 -0.0050676465 -0.07704147 0.03705298
-0.045337 0.05301584 -0.064886674 -0.03644022 0.026308378 -0.14430577 -0.017971424 0.04034708
-0.0730832 0.058874786 -0.03974559 -0.017827615 -0.030580059 0.037852924 -0.023593478 -0.12071814
-0.055171162 -0.022121705 -0.08521058 -0.064156346 -0.031352416 0.06786128 -0.056959532 -0.11723557
-0.012258586 -0.01350579 0.030116178 -0.008499034 0.057112835 -0.07974548 0.008216526 -0.06076297
0.014634579 -0.0023405494 -0.0011472317 -0.0975788 -0.072883375 -0.054088164 -0.09919342 -0.107151024
-0.05976966 -0.026368205 -0.06960677 0.0097991675 -0.10277404 -0.027851705 0.036710076 -0.10281846
-0.016093306 -0.05127451 0.026056508 0.014337679 -0.104816176 -0.004230384 -0.097369514 0.0023180235
-0.108386666 -0.07012583 -0.03633424 -0.0034415573 0.0021313454 -0.011682987 -0.07014299 0.01668902
-0.07444479 -0.06838994 0.013517519 -0.042214625 -0.052023213 -0.033556953 0.005355731 -0.015383264
-0.08666192 -0.06100862 0.029663168 -0.017942991 -0.056524638 -0.054019876 -0.040113032 -0.059980184
-0.046504375 -0.07357958 -0.06371822 0.054936763 -0.11769809 -0.033678126 -0.005175713 0.04810933
0.054460555 -0.042619955 0.12777796 -0.08378206 0.029672079 0.059415124 -0.07781691 -0.05933312

net.4.weight f4 [2, 256]
00000000: 84c3 2b3c 21e9 703c ae03 15bd 80cb 38bd
00000010: d85f 8a3c 5e4d 1b3d c2f1 373d 622a 343a
00000020: d264 1dbd e0ba e4bc 60a0 31bd f5dc 543d
00000030: 6c51 dcbc 10c6 c1bc ab8b b1bd 981e abbc
00000040: 42d9 c23b 1588 15bc aee2 583d 1e49 a93b
00000050: 94d2 7abc 4ded bf3c 2188 373c 3ce2 3c3d
00000060: b043 993c bab1 133d 0669 c53c 0b97 893c
00000070: a329 20bd 489a 5d3b 2b47 6dbc d021 fb3c
00000080: 35fd 56bd c230 b73b 41c2 4fbc d9e4 043d
00000090: a704 86bd e49f 533d 64fc 8c3d a2db 9dbd
000000a0: 2237 2a3d 907e e63b 5268 b7bc 2ba1 c8bd
000000b0: 93ec c8bd 5052 55bd 5c87 843c 3f57 f0bc
000000c0: 5e5a a33c 9534 743d 807e dfbc 2b4e 0bbd
000000d0: a04d 5dbc 3cc4 d2bc 759a ce3d 68ef 4abc
000000e0: 6e92 513d 1fb0 9ebd 428f 923d 8d50 a13c
000000f0: 0702 d03d fad2 b6bc 56d7 8cbd 1cb3 f63c
00000100: 57f4 9e3d 8025 81ba 0ea0 92bd 73c9 553d
00000110: 4267 47bb f31a 28bd 32b3 25bd 5226 043d
00000120: 2c90 113d 9383 60bd 2ce7 e8b9 cc74 95ba
00000130: 9a2f 873d 50d1 fabc 4128 27bc 441b 79bd
00000140: 6ccd bd3c 3029 90bd 1ea7 853c 6030 e1bb
00000150: a837 a6bc 7677 12bd 5744 2fbc 041c 84bc
00000160: 2205 6a3c a633 4ebd fc29 e9bb 9fbc 153d
00000170: e2e5 393d 3eb4 74bd a2ad ae3d 5c28 e93c
00000180: e159 833d d1b0 8e3d 8574 18bd f46c 18bb
00000190: 8a9f 1dbd b910 ecbc e5f8 29bd b652 803d
000001a0: 4700 ba3c 0ca2 d8bc bab1 21bd 48c6 18bd
000001b0: 7e7f e13c cebd c93c f8aa 053e f05e a1bc
000001c0: 709c b53c fffe 513d 2671 313c 0445 c63c
000001d0: 72fa 733d 701f ebba e677 343d 258b b73c
000001e0: eab3 2abd 1a63 46bd 1c2d 8c3c 495a 04bc
000001f0: 11bf 94bd 9c51 243d ce2f bfbb 9570 603e
00000200: 2837 46bc 3bf2 5a3d 0c50 843d 88eb 833c
00000210: cb1c d3bc 060b 3dbd 4173 4abd b31e 773d
00000220: 4e46 dd3c 9bef bebd ab96 4d3c beda 903c
00000230: 982d 13bd b714 193d aaa1 93bd 4c9a 003a
00000240: 67ee 38bc 345e b23d 887a 033b d705 a9bd
00000250: 693d 15bd 18d0 0c3d da76 7b3d 9460 cabc
00000260: 0c3f f7bc d688 7cbd 4cc4 8e3c c04b e3bb
00000270: f3b4 14ba d278 09bd 8379 6f3d 82ea cdbb
00000280: ba47 e93c a613 32bd a627 383d f790 07bd
00000290: 64e9 bf3a 6730 2a3d 8afa 97bc 54be 5a3c
000002a0: 8823 b3bc 664b 0e3a f519 37bd 2f72 9e3b
000002b0: 28e7 dfbc c3b5 b63b 2c5a 50bd 5c3a 673d
000002c0: c426 e5bc 0d67 813c 844f 87bc 5607 9b3d
000002d0: 5d29 973d 8d70 433d 58f7 b7bc 2d1c 183c
000002e0: dcb3 44bd 3d0c 1e3c 1c33 68bd ea44 49bc
000002f0: 8817 983b 4ef4 b23d 1af1 8b3c d6f2 57bd
00000300: 02c6 19bd 741e 1dbc 0922 56ba 1bcd dd3c
00000310: 5ac5 15bc 31e9 82bc 1235 713c 93da 283d
00000320: 3666 5a3c 0ede a7bb bea9 aa3b a8a5 44bd
00000330: 9a29 1bbb 6c33 1b3d 61aa a73a 81ff a13c
00000340: e88d 653d 7081 293d 5346 45bb c0f6 a1bd
00000350: 465b 4abe eff7 1cb9 f31b 2e3d 53fd 3bbd
00000360: 8212 a23c c83a 85bd 8dc5 443d b0e7 0bbc
00000370: d574 4e3c 5431 febc b898 62bc b272 34bb
00000380: 5657 c43c 249e 653c 9501 1a3c b4d4 7c3e
00000390: ddfe abbc 559f 7f3c d66f 96bc 1fa8 adbb
000003a0: b184 39bc 1d20 b5bc 724d 1dbd 95e1 993d
000003b0: 4c63 8e3c 6e14 48bd a4f8 25bb e8d7 2f3a
000003c0: adbe 423c 6034 5f3d 665c 10bd e444 443d
000003d0: dd73 073d 7174 8fbc 7042 193d 948e 79bd
000003e0: a886 7abd 477c 2fbc 3d19 433e 0417 773d
000003f0: e4c4 753d c8a6 61bc 6bc9 bc3d 0c93 323b
0.010483626 0.01470402 -0.036380462 -0.045115948 0.016891405 0.03791558 0.044908293 0.00068727706
-0.038426228 -0.02792114 -0.043365836 0.051968534 -0.026894294 -0.023654014 -0.08669218 -0.020888612
0.0059463093 -0.009126683 0.052950554 0.005166187 -0.015308995 0.023428584 0.011201889 0.04611419
0.018709034 0.036058165 0.02409793 0.016795656 -0.039102208 0.0033813883 -0.0144823 0.030655771
-0.05248757 0.005590529 -0.012680591 0.03244481 -0.06543856 0.051666155 0.06884077 -0.07707907
0.041556485 0.0070341304 -0.022388611 -0.09796365 -0.09810748 -0.052080452 0.016177826 -0.029338477
0.019940551 0.05962046 -0.027282 -0.034010094 -0.013507277 -0.025728337 0.10088054 -0.01238618
0.051165037 -0.07748436 0.071562305 0.01969173 0.10156637 -0.022317398 -0.068770096 0.030114703
0.07761448 -0.0009853095 -0.07159434 0.05219407 -0.0030426537 -0.041041326 -0.040454097 0.032263108
0.035537884 -0.05481298 -0.00044422725 -0.0011402606 0.06600876 -0.030617386 -0.010202468 -0.06081702
0.023169242 -0.07039106 0.01631504 -0.006872222 -0.02029021 -0.035758458 -0.010697446 -0.01612664
0.01428345 -0.050342225 -0.0071156006 0.036556836 0.04538525 -0.059742205 0.085292116 0.028461628
0.064136274 0.06967319 -0.037220497 -0.00232583 -0.038482226 -0.028816568 -0.04149713 0.06265776
0.02270521 -0.026444457 -0.039476134 -0.03729847 0.027526613 0.024626639 0.130535 -0.01969859
0.022169322 0.051268574 0.010830199 0.024202831 0.059565015 -0.0017938446 0.044059657 0.022405216
-0.041675486 -0.048434354 0.017111354 -0.008078166 -0.072630055 0.04011689 -0.005834556 0.21917947
-0.012098111 0.053453665 0.0646058 0.016103521 -0.025770565 -0.04615309 -0.04942632 0.06033201
0.027011063 -0.09323045 0.012548129 0.01768243 -0.035932153 0.03737327 -0.07208569 0.00049058045
-0.011287308 0.08709374 0.0020062048 -0.08253067 -0.03643552 0.03437814 0.061392643 -0.024704255
-0.03018143 -0.061653934 0.017427586 -0.0069365203 -0.00056727155 -0.03356249 0.058465492 -0.006284059
0.028476585 -0.04347577 0.044959687 -0.033097234 0.0014641699 0.041550066 -0.018552084 0.013351042
-0.021867529 0.00054281054 -0.04470249 0.004835389 -0.027331904 0.005575867 -0.050867245 0.05645214
-0.027972586 0.015796209 -0.016517408 0.075697586 0.07380936 0.04771476 -0.02245681 0.009284061
-0.04802309 0.0096464725 -0.056689367 -0.012284497 0.004641477 0.08738004 0.01708274 -0.05272182
-0.03754235 -0.00958978 -0.0008168524 0.027075341 -0.009141291 -0.015980335 0.014722126 0.041224074
0.013330033 -0.0051229065 0.005208223 -0.048009545 -0.002367592 0.037890837 0.0012791866 0.019775154
0.056043535 0.041383207 -0.003010173 -0.07908392 -0.1976138 -0.00014969682 0.042507123 -0.045895886
0.019784216 -0.06505352 0.04803996 -0.008539125 0.012601097 -0.03102938 -0.013830356 -0.0027534184
0.023967426 0.014014754 0.009399791 0.24690515 -0.020995552 0.015601953 -0.018363874 -0.0052995826
-0.01132314 -0.02211004 -0.038403936 0.075137295 0.017381333 -0.04884761 -0.0025325203 0.0006707893
0.011886281 0.054493308 -0.035244368 0.04791726 0.03306948 -0.017511578 0.037416875 -0.06092699
-0.061163574 -0.010710782 0.19052596 0.060324684 0.060002223 -0.013772674 0.09218105 0.0027248291

net.4.bias f4 [2]
00000000: 91b1 a83d 7d71 19bd
0.08236993 -0.037461746
