models/cross_entropy/batchsize=100-hiddensize=256-lr=0.01-gamma=.99-PART=0.pt (torch_old, 272411 bytes, 6 tensors)

net.0.weight f4 [256, 5]
-0.123808734 -0.21872249 -0.37850782 -0.07226477 0.039300084 0.31773385 0.2858028 -0.017219305
0.10876595 -0.045090165 -0.30384693 0.29799908 -0.09958652 -0.15152448 -0.25533465 -0.034635067
-0.4375005 -0.0915339 -0.43818894 0.41212326 -0.24086599 0.2336328 0.1376148 -0.12923063
-0.32408872 -0.0011993432 0.19369161 0.04789623 0.3339985 -0.096124016 -0.2552879 0.047118396
0.37407225 0.27431422 -0.43065232 0.26921204 0.11073321 -0.17545086 0.026091717 -0.1540079
0.17451872 0.019507 0.041115858 -0.35530892 0.15236704 -0.10155385 0.05192637 -0.01974483
-0.381782 0.44128427 0.2637552 -0.29592007 -0.3850274 -0.16409737 -0.4363274 0.288886
0.403551 0.4353637 -0.15046856 -0.15244147 0.37895128 -0.330439 0.17013706 0.303518
0.3317576 0.30168578 0.2664806 0.4116972 0.4470915 -0.34244397 0.1304006 -0.17682946
0.16764331 0.4083514 -0.312383 0.091776215 -0.31214142 -0.30048457 -0.3096232 0.22531722
-0.053016778 -0.19883224 0.0030762656 -0.17481178 -0.18315674 0.033105373 -0.26549715 -0.20519635
0.18185025 0.14935464 -0.019313604 0.42019588 -0.053444594 0.078942895 -0.2241261 0.11907585
0.2750177 -0.30809528 0.16088933 0.10834434 -0.3225039 0.41865283 -0.43109226 0.10018611
-0.3100289 0.18456312 0.07103014 -0.23343238 -0.12411456 -0.22807251 0.051315717 0.30282632
0.3313876 0.14369419 -0.13011 0.053529978 -0.2598235 -0.116963774 -0.39448354 0.28645456
-0.19938698 0.0074543953 0.09610939 0.19854492 0.0426583 0.3063085 0.4390647 0.4369022
-0.015713215 0.3903542 0.29783633 0.23454207 0.34779948 -0.020023964 -0.09545456 -0.2040758
0.38648653 -0.013468319 0.092906475 -0.13685885 0.26123425 -0.0846532 -0.016003408 0.03398785
0.24894509 -0.19127388 0.40952978 0.4232225 -0.09813912 0.39151067 0.2972129 -0.22753091
-0.28121912 -0.18809663 -0.070544094 -0.05603834 0.30680776 0.15909794 0.35440177 -0.3352664
-0.43119988 0.42200106 -0.41710103 0.22576493 -0.41197237 0.33075416 0.41891763 -0.037691273
0.19651738 -0.36584005 -0.06980866 0.10852853 0.20376213 -0.16339734 -0.16955465 0.16774827
0.122262254 -0.3026588 -0.20681396 -0.08580097 0.32101297 0.141882 -0.13116798 0.31167534
0.3754391 -0.31705964 -0.3107849 0.027139839 -0.40196207 -0.17240141 0.03755361 0.42577535
-0.38219836 -0.026699722 -0.36573088 0.055142056 0.15976983 0.37631792 -0.38431022 -0.27913797
0.29592258 -0.14351411 0.0016238773 0.42022148 -0.36489624 -0.32706743 -0.09645204 -0.111768804
0.39591125 0.1486667 0.18555096 -0.18614177 0.12625343 0.16392468 -0.25924125 -0.025339354
-0.08265616 -0.4207426 -0.41378704 0.19862506 0.22226234 -0.2589106 -0.12630169 0.22618346
-0.34991682 0.3791045 0.22039598 -0.24066044 0.3102733 0.0023651812 -0.38505307 -0.0541955
-0.013354589 0.0074220877 0.36880764 -0.1805669 -0.0019929307 0.29889145 0.028796732 -0.12124217
0.39318845 -0.16966295 0.3259538 0.4167935 -0.3185607 -0.36481816 0.16500753 -0.33023944
0.43566546 -0.0004873532 -0.3226594 0.12190765 -0.20245937 -0.22225806 -0.0964337 0.3358494
00000000: 6f8f fdbd caf8 5fbe c7cb c1be 8dff 93bd
00000010: 20f9 203d 03ae a23e bf54 923e 800f 8dbc
00000020: afc0 de3d 77b0 38bd d391 9bbe 5693 983e
00000030: 04f4 cbbd 3c29 1bbe 39bb 82be 80dd 0dbd
00000040: 1100 e0be 2076 bbbd 4d5a e0be d201 d33e
00000050: 93a5 76be 703d 6f3e e5ea 0c3e 0955 04be
00000060: f5ee a5be 4833 9dba 1857 463e d62e 443d
00000070: da01 ab3e abdc c4bd 18b5 82be 38ff 403d
00000080: 6686 bf3e ea72 8c3e 767e dcbe 29d6 893e
00000090: 18c8 e23d 64a9 33be 4cbe d53c 3fb4 1dbe
000000a0: 09b5 323e 25cd 9f3c 1a69 283d 0deb b5be
000000b0: 1b06 1c3e 77fb cfbd bfb0 543d e9bf a1bc
000000c0: ee78 c3be 03f0 e13e ec0a 873e d682 97be
000000d0: 5022 c5be 2409 28be 4e66 dfbe dee8 933e
000000e0: 3d9e ce3e fee7 de3e 6e14 1abe 9e19 1cbe
000000f0: e705 c23e 4d2f a9be 6938 2e3e b666 9b3e
00000100: 22dc a93e 8f76 9a3e 2570 883e fac9 d23e
00000110: 2de9 e43e d154 afbe bc87 053e c812 35be
00000120: b0aa 2b3e 6f13 d13e aaf0 9fbe 2bf5 bb3d
00000130: 00d1 9fbe 1dd9 99be ef86 9ebe 8fb9 663e
00000140: 1f28 59bd ae9a 4bbe 2c9b 493b dc01 33be
00000150: 718d 3bbe 8099 073d 3eef 87be fe1e 52be
00000160: f436 3a3e 6cf0 183e 9037 9ebc ea23 d73e
00000170: b8e8 5abd d0ac a13d 5081 65be 0ade f33d
00000180: 1fcf 8c3e aabe 9dbe 2cc0 243e a3e3 dd3d
00000190: 3b1f a5be aa59 d63e 20b8 dcbe 602e cd3d
000001a0: 1cbc 9ebe 1dfe 3c3e 4078 913d e608 6fbe
000001b0: c62f febd d78b 69be 6e30 523d 0d0c 9b3e
000001c0: a3ab a93e 9224 133e 8e3b 05be 4042 5b3d
000001d0: 9607 85be b48a efbd bff9 c9be 2caa 923e
000001e0: 1a2c 4cbe 0044 f43b 00d5 c43d 5c4f 4b3e
000001f0: 78ba 2e3d 78d4 9c3e 17cd e03e a5b1 df3e
00000200: 00b9 80bc 81dc c73e 017e 983e cc2b 703e
00000210: c612 b23e 4c09 a4bc ae7d c3bd 3ff9 50be
00000220: 90e1 c53e 39aa 5cbc c045 be3d ba24 0cbe
00000230: 7fc0 853e a85e adbd 9419 83bc d836 0b3d
00000240: 76eb 7e3e 4ddd 43be e3ad d13e 9fb0 d83e
00000250: 2afd c8bd 1674 c83e 4a2c 983e ddfd 68be
00000260: f4fb 8fbe 679c 40be 6c79 90bd 7588 65bd
00000270: e815 9d3e 92ea 223e 2674 b53e 0aa8 abbe
00000280: 3bc6 dcbe 8610 d83e 448e d5be ec2e 673e
00000290: 0bee d2be 9c58 a93e 5f7c d63e 2a62 1abd
000002a0: da3b 493e 634f bbbe d8f7 8ebd 3544 de3d
000002b0: 05a7 503e a251 27be bc9f 2dbe 34c6 2b3e
000002c0: a264 fa3d 18f6 9abe 0ac7 53be 6bb8 afbd
000002d0: d05b a43e 8449 113e e650 06be e993 9f3e
000002e0: 8e39 c03e a455 a2be 331f 9fbe 5e54 de3c
000002f0: f9cd cdbe ff89 30be d0d1 193d 3aff d93e
00000300: 81af c3be 60b9 dabc 1441 bbbe a3dc 613d
00000310: b49a 233e beac c03e 4fc4 c4be 2ceb 8ebe
00000320: 2a83 973e 5df5 12be 48d8 d43a 4527 d73e
00000330: aed3 babe 6275 a7be a688 c5bd 0be7 e4bd
00000340: e1b4 ca3e 153c 183e 1201 3e3e f39b 3ebe
00000350: 9448 013e dfdb 273e 45bb 84be 7a94 cfbc
00000360: a247 a9bd 936b d7be e5db d3be 5e64 4b3e
00000370: bd98 633e ee8f 84be 3b55 01be a39c 673e
00000380: 4c28 b3be fc19 c23e 7caf 613e b16f 76be
00000390: 24dc 9e3e 2801 1b3b ad25 c5be 1afc 5dbd
000003a0: 35cd 5abc fc34 f33b 5bd4 bc3e 88e6 38be
000003b0: d49b 02bb 4d08 993e 20e7 eb3c d14d f8bd
000003c0: ff4f c93e 20bc 2dbe 6be3 a63e f565 d53e
000003d0: 631a a3be 72c9 babe bcf7 283e 2515 a9be
000003e0: 8b0f df3e 7083 ffb9 9d33 a5be b8aa f93d
000003f0: 8251 4fbe 9e97 63be 087f c5bd 74f4 ab3e

net.0.bias f4 [256]
0.33227068 0.08439923 -0.33041197 -0.30486548 0.24161403 0.15387692 -0.3941334 0.15400018
0.09314935 -0.04049898 -0.24462959 0.36347803 0.23683058 0.44338486 0.2852496 0.41023174
0.29909247 -0.33477658 -0.42948484 0.029659597 0.01166749 0.38156915 -0.35551527 -0.3120497
-0.27833286 0.29710612 -0.35668516 0.033312663 -0.19912599 -0.2494892 0.32175174 -0.11522025
0.3373751 0.157175 0.030669212 0.235319 0.34449795 0.42784163 -0.17879859 0.3344137
0.21727906 0.4545818 0.38730094 0.27360484 0.151398 -0.34947854 0.048896033 0.13726807
0.101272054 -0.02344449 0.34672105 -0.40252036 0.18879884 -0.19394875 -0.3074268 -0.088608935
0.24578837 -0.36166978 -0.21286234 -0.07469499 0.17138758 0.45049873 0.3559348 0.23213442
-0.27772665 0.1722426 0.10780728 0.25522226 -0.13918984 -0.36763763 -0.0017289519 -0.18719332
0.1504336 -0.0012729727 0.052088384 -0.22399072 -0.38015193 -0.43524605 -0.019768573 -0.4408197
-0.19234884 0.25270593 0.0919622 -0.4164272 -0.059294287 0.073404625 -0.315519 -0.37601966
-0.28308618 -0.16875765 -0.30709785 0.116699174 -0.2540325 -0.36520046 -0.42862096 0.36993766
0.011069989 -0.32723677 -0.07830782 0.41606954 0.35580474 -0.37463048 -0.2567749 -0.44564542
-0.39784336 -0.23186891 -0.08983612 0.24666312 0.25774235 0.16719925 -0.016433947 -0.32327345
-0.19085717 0.24142173 -0.11632776 -0.20871505 0.13506666 -0.28332606 0.40630603 0.065538116
0.3738527 -0.08570629 -0.35534924 0.35465956 -0.119971 -0.37096494 0.039293032 -0.4144291
-0.29585657 0.04508364 0.001148263 -0.43206012 -0.2822582 0.43330905 -0.28022897 -0.07505347
-0.07805514 -0.115582526 0.45451635 0.072484516 -0.3206656 0.034757078 0.22125824 -0.40221995
0.10173164 0.10183763 0.12746572 0.103340164 -0.34061092 0.2004081 0.2701512 -0.27759063
0.12305511 0.26506534 0.10976148 -0.45396337 -0.09339534 -0.32598332 -0.32905248 0.30070245
-0.30384204 -0.3964111 -0.20357247 0.24346192 0.24638833 0.36952895 -0.17990436 0.38107997
-0.3459641 0.14582945 0.06677735 -0.3991648 0.43896496 -0.14007123 -0.22226243 -0.13029397
0.2735229 0.16313626 0.08723955 0.31089765 -0.2484343 0.19355945 0.23151866 -0.3056757
0.317051 -0.08908582 -0.015479134 -0.39810276 0.17436278 0.1975601 0.33117193 0.1637941
0.19831459 0.31547332 0.14159091 -0.100572586 -0.42208126 -0.07159888 -0.25808257 -0.06644323
-0.18551613 -0.36595494 -0.07514319 0.24428242 -0.14081067 -0.03573141 -0.44409522 0.038149424
-0.059377372 -0.41123304 0.2317805 0.0073853135 -0.35039034 -0.27070504 0.3181665 -0.1417779
0.09709673 -0.33282936 0.046510603 -0.42051184 0.33080858 -0.13190016 -0.32812446 0.17483962
-0.11887482 -0.23756073 0.15996872 0.39959496 -0.03315466 0.17995048 -0.0741662 -0.3777876
-0.35322514 0.07165299 0.2893189 0.12862085 0.2676396 0.14759544 -0.047533896 0.33477795
0.32927436 0.2940781 0.23863073 -0.33718133 0.16775632 -0.26423404 -0.20296136 0.20935926
0.4365657 0.43014994 -0.14500394 -0.080593646 0.29800636 -0.11658124 0.3007341 0.35878742
00000000: 621f aa3e 81d9 ac3d c22b a9be 5417 9cbe
00000010: ab69 773e e991 1d3e dacb c9be 39b2 1d3e
00000020: 16c5 be3d 42e2 25bd 2e80 7abe cb19 ba3e
00000030: b783 723e 5703 e33e 3c0c 923e e509 d23e
00000040: a622 993e d667 abbe 70e5 dbbe aff8 f23c
00000050: 0029 3f3c 085d c33e 1906 b6be fac4 9fbe
00000060: a581 8ebe 4b1e 983e 709f b6be dc72 083d
00000070: afe7 4bbe 197a 7fbe a5bc a43e 98f8 ebbd
00000080: 6ebc ac3e 7cf2 203e 003e fb3c 77f7 703e
00000090: 0962 b03e 0f0e db3e fa16 37be 4638 ab3e
000000a0: 677e 5e3e f2be e83e 4f4c c63e ef15 8c3e
000000b0: 1408 1b3e daee b2be 3547 483d 0090 0c3e
000000c0: b967 cf3d a90e c0bc 6c85 b13e 2617 cebe
000000d0: 7c54 413e 809a 46be 0c67 9dbe 9a78 b5bd
000000e0: f2af 7b3e c82c b9be 96f8 59be b0f9 98bd
000000f0: 3a80 2f3e c5a7 e63e 163d b63e a5b4 6d3e
00000100: 3032 8ebe 5d60 303e 10ca dc3d 7eac 823e
00000110: c887 0ebe 003b bcbe 009e e2ba 9baf 3fbe
00000120: 440b 1a3e e0d9 a6ba a15a 553d d35d 65be
00000130: 46a3 c2be 92d8 debe b4f1 a1bc 1fb3 e1be
00000140: 18f7 44be ac62 813e ae56 bc3d f235 d5be
00000150: 91de 72bd 2a55 963d b58b a1be a685 c0be
00000160: acf0 90be cece 2cbe ee3b 9dbe faff ee3d
00000170: 8c10 82be 8efb babe 3574 dbbe 7868 bd3e
00000180: e65e 353c 948b a7be da5f a0bd 1107 d53e
00000190: 0a2c b63e 91cf bfbe 0078 83be a32b e4be
000001a0: 20b2 cbbe 0b6f 6dbe 00fc b7bd 4295 7c3e
000001b0: cef6 833e 4836 2b3e 7ca0 86bc 1984 a5be
000001c0: 1070 43be 4237 773e 403d eebd 66b9 55be
000001d0: ea4e 0a3e 1d10 91be 5807 d03e d938 863d
000001e0: 9f69 bf3e c886 afbd 56f0 b5be f095 b53e
000001f0: 5bb3 f5bd 1eef bdbe bbf1 203d 0d30 d4be
00000200: 837a 97be 9fa9 383d 5081 963a fc36 ddbe
00000210: 2684 90be afda dd3e 2c7a 8fbe a2b5 99bd
00000220: 60db 9fbd 88b6 ecbd 5eb6 e83e c372 943d
00000230: 482e a4be 705d 0e3d 8591 623e c6ef cdbe
00000240: ae58 d03d 3f90 d03d 6086 023e 02a4 d33d
00000250: 8e64 aebe c837 4d3e 4251 8a3e 5c20 8ebe
00000260: 5104 fc3d a5b6 873e a0ca e03d e36d e8be
00000270: 0e46 bfbd 49e7 a6be 9179 a8be acf5 993e
00000280: 2f91 9bbe 65f6 cabe 4d75 50be 154e 793e
00000290: 394d 7c3e e632 bd3e d938 38be ea1c c33e
000002a0: 3522 b1be 5154 153e 90c2 883d 545f ccbe
000002b0: 04c0 e03e d56e 0fbe c398 63be c86b 05be
000002c0: 320b 8c3e 310d 273e a6aa b23d fa2d 9f3e
000002d0: 9065 7ebe 7334 463e 3a13 6d3e 8681 9cbe
000002e0: 8254 a23e a072 b6bd 329c 7dbc 20d4 cbbe
000002f0: 288c 323e 324d 4a3e 5e8f a93e a4b9 273e
00000300: fb12 4b3e b885 a13e 35fd 103e 00f9 cdbd
00000310: 091b d8be 6fa2 92bd 6623 84be 6313 88bd
00000320: f1f7 3dbe 725e bbbe ace4 99bd 2c25 7a3e
00000330: ac30 10be 195b 12bd 7360 e3be 9242 1c3d
00000340: b035 73bd 238d d2be de57 6d3e 8000 f23b
00000350: 5d66 b3be da99 8abe b8e6 a23e 3a2e 11be
00000360: a6da c63d 9c68 aabe e781 3e3d 544d d7be
00000370: be5f a93e d610 07be eeff a7be 2809 333e
00000380: a474 f3bd 1f43 73be d7ce 233e b697 cc3e
00000390: 2ecd 07bd f044 383e 73e4 97bd 606d c1be
000003a0: edd9 b4be cebe 923d 9b21 943e 2fb5 033e
000003b0: 0f08 893e 4223 173e e7b2 42bd 0468 ab3e
000003c0: a696 a83e 6891 963e 9d5b 743e 08a3 acbe
000003d0: 50c8 2b3e af49 87be 1ad5 4fbe 4662 563e
000003e0: 8a85 df3e 9d3c dc3e ea7b 14be 480e a5bd
000003f0: 4a94 983e 25c2 eebd d2f9 993e fcb2 b73e

net.2.weight f4 [256, 256]
-0.028675001 -0.050811805 0.020356894 -0.004603438 -0.07208593 0.03190425 0.013628118 -0.030125728
-0.021186095 0.004306306 0.009416111 -0.019429412 0.0303208 -0.06137868 -0.039650336 -0.0412319
0.026652109 -0.017725572 0.013573177 0.019836467 0.020185508 0.030484417 -0.04657931 0.023606747
0.018496856 0.014178211 0.014517194 0.026053995 -0.06405989 -0.018983683 -0.07185275 -0.035767015
0.0044127787 -0.023746233 -0.015793882 -0.008928169 0.047111426 -0.045874014 -0.047175594 -0.063235044
0.022850303 -0.052084394 -0.046774488 0.026261453 0.023953622 -0.03066726 -0.06057592 -0.021502836
-0.024141261 -0.022425825 0.03779164 0.025430933 -0.055355106 -0.02314578 -0.041654557 -0.0055997213
0.049103435 -0.040870324 0.011181004 -0.043095373 0.025967643 -0.020426773 -0.008939138 0.01185517
-0.055667385 -0.0022105705 -0.0524579 -0.011606119 -0.0011417763 -0.027862892 0.05074907 0.028926725
-0.055431135 0.025202893 0.046313044 0.033750504 -0.0012064334 -0.060305566 0.03538628 0.006843604
-0.051897004 0.00069535803 0.055882998 -0.017998591 0.019183733 -0.0020793537 -0.0028603673 0.051049523
0.053017292 0.017897196 0.046441987 -0.052170727 -0.058124244 -0.012839166 -0.0015253248 -0.01947152
-0.046896853 0.0038266815 -0.07043797 0.0047212606 -0.01747657 0.05151455 0.028900757 0.032674126
0.011916615 0.006739624 0.0083113685 -0.0530603 -0.053089783 0.045964055 0.032668285 0.011832833
-0.0067954957 -0.07223895 0.061473668 -0.012477828 -0.04939139 0.030884609 -0.055408135 0.009456844
-0.06360437 0.012906137 -0.021717586 -0.053439956 -0.0052462434 -0.009340748 -0.033975355 0.015839066
0.053455688 0.0116511155 0.005466624 -0.04016918 -0.0043521896 -0.058124725 0.029852852 0.011525429
0.044601277 0.045333102 -0.0541606 -0.019143697 -0.05586197 -0.056074485 -0.010711774 0.048384003
0.0035892772 0.008232346 0.019521905 -0.07084028 -0.056088723 0.0417032 -0.018330462 0.05475589
-0.05144015 -0.05812498 0.010957412 0.021273758 0.039521627 0.008257813 0.028463036 -0.052571815
-0.061420925 -0.043455616 -0.04834064 -0.023215638 0.025778994 0.0034296634 0.0010344004 -0.016471341
-0.007909425 0.042347066 0.00880044 -0.043926373 0.02029875 -0.051124405 0.027473226 -0.046857126
-0.00083722174 -0.013340248 0.030608024 0.00630033 -0.013535835 0.044085223 0.026312226 -0.05611848
0.050206684 -0.06260698 0.031688605 -0.05263997 0.0395244 0.03052169 0.011952674 -0.04266433
-0.01890209 0.010111071 -0.068318255 0.003434755 -0.039815094 -0.0025388794 -0.060611904 -0.026310975
-0.004901234 0.04006031 0.014325626 0.04015345 -0.047655296 -0.037201934 0.013227478 -0.06837331
0.060485207 0.03550846 0.023448233 0.034648374 -0.024308689 0.046499826 0.03977392 0.038215533
-0.041543573 -0.0051316824 -0.036062438 -0.027371421 -0.01904323 -0.0024514794 -0.05264189 -0.02239184
-0.046384774 0.022641905 -0.067522876 0.0075846827 0.029941287 -0.01758006 -0.067210145 0.054122582
0.016673714 -0.038134072 0.051596522 -0.0036614174 -0.05236363 -0.053344 -0.016420852 -0.03110585
0.04343239 -0.010106523 0.027403025 0.035894834 -0.04056443 -0.064921394 -0.06387066 -0.033471595
-0.050345834 -0.00864023 -0.0039924756 0.04225745 0.048924252 0.03758119 -0.00027468894 -0.052044883
00000000: d6e7 eabc 0a20 50bd 80c3 a63c 70d8 96bb
00000010: caa1 93bd 08ae 023d 7848 5f3c 3bca f6bc
00000020: 768e adbc ea1b 8d3b 0846 1a3c 6e2a 9fbc
00000030: 5463 f83c 3668 7bbd 6468 22bd c8e2 28bd
00000040: 8655 da3c 3835 91bc 0862 5e3c 1680 a23c
00000050: 145c a53c 75ba f93c f2c9 3ebd f062 c13c
00000060: b886 973c ba4b 683c 86d9 6d3c 306f d53c
00000070: d531 83bd ab83 9bbc 8927 93bd 6f80 12bd
00000080: 1299 903b 7687 c2bc 2c62 81bc 7447 12bc
00000090: e9f7 403d 64e6 3bbd 323b 41bd 6081 81bd
000000a0: 8f30 bb3c 7256 55bd 9b96 3fbd 4222 d73c
000000b0: 633a c43c e839 fbbc 751e 78bd b726 b0bc
000000c0: e5c3 c5bc 5db6 b7bc 68cb 1a3d 8854 d03c
000000d0: 09bc 62bd 389c bdbc f89d 2abd de7d b7bb
000000e0: af20 493d a467 27bd 8830 373c c684 30bd
000000f0: 18ba d43c 0c56 a7bc 7675 12bc 303c 423c
00000100: 7c03 64bd 38df 10bb 18de 56bd 9727 3ebc
00000110: a8a7 95ba b840 e4bc 42de 4f3d bdf7 ec3c
00000120: c20b 63bd 4c76 ce3c bfb2 3d3d f83d 0a3d
00000130: 3021 9eba f802 77bd 34f1 103d 5040 e03b
00000140: f491 54bd b048 363a 92e5 643d c871 93bc
00000150: 3427 9d3c c445 08bb 0075 3bbb 4e19 513d
00000160: a928 593d 249d 923c f439 3e3d f9b0 55bd
00000170: b013 6ebd 5e5b 52bc 68ed c7ba bd82 9fbc
00000180: ea16 40bd 10c9 7a3b c841 90bd ceb4 9a3b
00000190: 062b 8fbc ec00 533d 48c1 ec3c 4ed5 053d
000001a0: e83d 433c 10d8 dc3b 682c 083c c255 59bd
000001b0: ac74 59bd ce44 3c3d 2ecf 053d 80de 413c
000001c0: c0ac debb 04f2 93bd d0cb 7b3d ce6f 4cbc
000001d0: a04e 4abd b801 fd3c a4f3 62bd e1f0 1a3c
000001e0: 0243 82bd 4374 533c 14e9 b1bc dbe3 5abd
000001f0: aee8 abbb f009 19bc be29 0bbd eec0 813c
00000200: 5af4 5a3d 52e4 3e3c 5e21 b33b 7088 24bd
00000210: d09c 8ebb 3114 6ebd f88d f43c 27d5 3c3c
00000220: d4af 363d 34af 393d 81d7 5dbd 3ed3 9cbc
00000230: 85cf 64bd 5cae 65bd 7080 2fbc 4e2e 463d
00000240: 143a 6b3b f6e0 063c 67ec 9f3c b514 91bd
00000250: 4abd 65bd fad0 2a3d c429 96bc b647 603d
00000260: e8b2 52bd 7614 6ebd b886 333c 4e46 ae3c
00000270: 6ee1 213d c74b 073c 502b e93c 8b55 57bd
00000280: 8294 7bbd 84fe 31bd d600 46bd b92e bebc
00000290: 782e d33c 34c4 603b b894 873a e8ee 86bc
000002a0: 8896 01bc 1e74 2d3d b82f 103c 24ec 33bd
000002b0: 9049 a63c d367 51bd 880f e13c 42ed 3fbd
000002c0: 0079 5bba 0e91 5abc aebd fa3c 0073 ce3b
000002d0: 68c5 5dbc b592 343d bd8c d73c 7edc 65bd
000002e0: 86a5 4d3d 1738 80bd e9cb 013d 029d 57bd
000002f0: 56e4 213d a008 fa3c 26d5 433c cbc0 2ebd
00000300: 8ed8 9abc e8a8 253c 71ea 8bbd a019 613b
00000310: 2715 23bd 5463 26bb 3044 78bd 1d8a d7bc
00000320: 889a a0bb 4816 243d 08b6 6a3c f277 243d
00000330: 3332 43bd 0e61 18bd 10b8 583c 4e07 8cbd
00000340: 56bf 773d 5271 113d 8216 c03c 74eb 0d3d
00000350: 0423 c7bc 9a76 3e3d fae9 223d e487 1c3d
00000360: 9829 2abd ac27 a8bb 35b6 13bd 083a e0bc
00000370: 8c00 9cbc 00a9 20bb 069f 57bd 186f b7bc
00000380: f6fd 3dbd 847b b93c 6f49 8abd ee88 f83b
00000390: 6e47 f53c 0f04 90bc 79a5 89bd a4af 5d3d
000003a0: 5097 883c 7932 1cbd e056 533d 64f4 6fbb
000003b0: 3f7b 56bd 3d7f 5abd 0685 86bc b2d1 febc
000003c0: 29e6 313d d495 25bc 4f7c e03c 7606 133d
000003d0: e326 26bd 82f5 84bd 9fce 82bd 8319 09bd
000003e0: 6f37 4ebd c08f 0dbc 50d3 82bb 2616 2d3d
000003f0: cc64 483d bcee 193d 2004 90b9 042d 55bd

net.2.bias f4 [256]
0.0243425 0.0428439 0.04639957 0.06956294 -0.0021072747 -0.04523893 -0.038361378 0.039613545
0.04238924 -0.068558335 -0.0087993825 0.04310696 -0.024714304 0.010962215 0.012322046 -0.016214892
-0.057009675 0.017276488 -0.037139244 -0.054461293 0.0050721 -0.020643279 -0.0018699551 0.015567157
-0.026301283 -0.055185378 0.007940592 0.030374207 0.04398212 0.0026753265 -0.006221302 0.051808976
-0.008236233 0.01018393 0.01747936 -0.05279292 0.014253972 0.001401186 0.045209028 -0.001574792
0.0012549981 -0.028435668 0.057284035 0.024838092 0.047273107 0.051968746 -0.01819646 -0.023095429
0.05649564 -0.038049173 -0.03925001 -0.009997606 -0.01883284 0.023702629 0.035410542 0.027664619
0.041871708 0.027117316 -0.033427387 0.011390582 -0.051503144 -0.012969109 -0.014471402 0.044232063
-0.018335044 0.047947302 0.028340299 0.049821228 0.069252804 -0.05213468 -0.004096143 0.034739375
-0.027825236 0.06254067 -0.05212512 -0.013824568 0.027065888 -0.006285131 0.039018393 -0.044221833
0.026323415 0.050416853 0.023432635 0.031623185 -0.04775419 0.040707164 0.024527956 0.056336194
-0.032726225 0.0024090912 -0.044633657 -0.05148031 -0.054393105 -0.014457158 -0.06978327 -0.020518709
-0.050890394 0.022282228 0.027913027 0.048607364 0.03641952 0.047388285 0.024928756 -0.04242896
-0.014166504 -0.06710188 0.02390369 0.0059585236 -0.018159468 0.0418093 -0.061440237 -0.05592215
-0.022943282 0.009401216 -0.0049366876 -0.028080577 0.0062132133 0.019578168 -0.051439617 -0.04619424
0.047214266 0.033046164 0.022173151 0.046859037 -0.032680623 -0.024268977 0.0634818 -0.0206834
-0.022425208 -0.015466861 -0.033750467 -0.051136024 0.03560804 0.026372384 -0.003863887 -0.03652902
0.03686434 -0.008561248 0.061074093 -0.031119391 0.016376482 0.024142371 0.01817237 -0.023049906
0.0050181895 -0.01966279 -0.0008621337 -0.013532163 -0.050488718 -0.046434514 0.054223664 0.02388754
-0.018018067 0.035063583 0.044278964 0.03023307 0.005883325 0.019051686 -0.004940477 -0.012394837
-0.0712209 -0.043436803 0.03412215 -0.037687972 -0.037165172 -0.057953604 -0.016292501 -0.013327124
0.009053474 0.069599174 -0.047421247 -0.03452473 -0.02494742 -0.053192288 -0.048953004 -0.018914491
-0.06445879 0.06926973 0.010625068 -0.040466692 0.017376527 -0.0120651405 0.0501535 0.05181797
-0.00016862992 0.041621894 -0.032337084 0.0304658 -0.068958975 0.061648227 0.013046481 0.01949203
0.037714288 -0.04415795 0.0373141 0.0024331836 0.054091647 0.038934413 -0.0364644 -0.0581256
-0.04555878 -0.046185065 -0.004579475 0.04839626 -0.0067500025 -0.0379823 0.025537614 0.04028374
-0.04660011 -0.03128057 -0.052038446 -0.0333447 -0.009017043 0.002378054 0.012074418 0.04654721
0.01037766 0.01771764 0.014235988 -0.043525577 0.028351605 -0.003579067 -0.06458 -0.06997224
-0.04460905 0.052344546 -0.050855078 -0.009799606 -0.04687464 0.03020487 0.013089849 0.04121261
-0.034504253 -0.038679093 -0.044875942 -0.03506866 -0.032780178 0.012302235 0.020829724 -0.03004811
-0.040928647 0.03448536 0.042417295 0.04752838 0.02743923 0.04210645 0.006134892 -0.059556916
0.014200046 -0.0090287635 0.038807236 0.05167442 0.017521087 0.044481475 0.013424374 -0.060972646
00000000: ec69 c73c 167d 2f3d 7a0d 3e3d 0477 8e3d
00000010: 341a 0abb 754c 39bd d220 1dbd d041 223d
00000020: 57a0 2d3d 5068 8cbd 492b 10bc ec90 303d
00000030: a775 cabc dd9a 333c 68e2 493c 18d5 84bc
00000040: fa82 69bd 6c87 8d3c 521f 18bd ce12 5fbd
00000050: dc33 a63b 181c a9bc 4819 f5ba 640d 7f3c
00000060: ca75 d7bc 100a 62bd 4219 023c 54d3 f83c
00000070: 9826 343d 8854 2f3b 10dc cbbb a635 543d
00000080: 44f1 06bc 80da 263c e030 8f3c 643d 58bd
00000090: 7e89 693c 00a8 b73a 1a2d 393d 4069 ceba
000000a0: c07e a43a ebf1 e8bc aaa2 6a3d 4179 cb3c
000000b0: 72a1 413d 2edd 543d be10 95bc a032 bdbc
000000c0: f967 673d 73d9 1bbd 9ec4 20bd 00cd 23bc
000000d0: 5447 9abc 042c c23c a50a 113d e9a0 e23c
000000e0: ab81 2b3d 2225 de3c 28eb 08bd 909f 3a3c
000000f0: f6f4 52bd 637c 54bc 7619 6dbc ae2c 353d
00000100: 6033 96bc 6464 443d ea29 e83c 5811 4c3d
00000110: 6ad4 8d3d 2d8b 55bd f038 86bb e04a 0e3d
00000120: c0f1 e3bc 5315 803d 2681 55bd 7180 62bc
00000130: 48b9 dd3c 80f3 cdbb c0d1 1f3d f421 35bd
00000140: 34a4 d73c e781 4e3d ccf5 bf3c 5087 013d
00000150: e699 43bd 8ebc 263d daee c83c c8c0 663d
00000160: ef0b 06bd d8e1 1d3b c8d1 36bd 04dd 52bd
00000170: 4ecb 5ebd b7dd 6cbc 88ea 8ebd da16 a8bc
00000180: 7272 50bd 3889 b63c dca9 e43c 8418 473d
00000190: a22c 153d 381a 423d 6437 cc3c fdc9 2dbd
000001a0: a01a 68bc b66c 89bd acd1 c33c b83f c33b
000001b0: 2ac3 94bc 3b40 2b3d c2a8 7bbd a00e 65bd
000001c0: 8df3 bbbc 8f07 1a3c f0c3 a1bb 3d09 e6bc
000001d0: 3698 cb3b 6562 a03c 59b2 52bd 2c36 3dbd
000001e0: bf63 413d 6a5b 073d 78a4 b53c 43ef 3f3d
000001f0: 1edc 05bd bccf c6bc bf02 823d 3c70 a9bc
00000200: 12b5 b7bc b868 7dbc ee3d 0abd 0274 51bd
00000210: bcd9 113d e60a d83c 4439 7dbb 749f 15bd
00000220: 10ff 163d 7a44 0cbc d428 7a3d 18ee febc
00000230: f927 863c 39c6 c53c 39de 943c 28d3 bcbc
00000240: a06f a43b dc13 a1bc d000 62ba 01b6 5dbc
00000250: 42cd 4ebd 1e32 3ebd a219 5e3d cdaf c33c
00000260: a09a 93bc d59e 0f3d dc5d 353d 58ab f73c
00000270: e8c8 c03b 4812 9c3c bae3 a1bb b713 4bbc
00000280: 43dc 91bd caea 31bd abc3 0b3d b45e 1abd
00000290: 823a 18bd c260 6dbd da77 85bc 025a 5abc
000002a0: 0655 143c 038a 8e3d c83c 42bd ce69 0dbd
000002b0: 885e ccbc 28e0 59bd f282 48bd 90f2 9abc
000002c0: f802 84bd 4add 8d3d c414 2e3c 67c0 25bd
000002d0: 3859 8e3c deac 45bc c26d 4d3d 143f 543d
000002e0: 40d2 30b9 b87b 2a3d e473 04bd 6a93 f93c
000002f0: 5d3a 8dbd da82 7c3d e8c0 553c c0ad 9f3c
00000300: 4c7a 1a3d f7de 34bd abd6 183d 0c76 1f3b
00000310: 348f 5d3d b179 1f3d b25b 15bd 1c15 6ebd
00000320: d89b 3abd 8d2c 3dbd 6c0f 96bb 283b 463d
00000330: 202f ddbb 5493 1bbd 4234 d13c 9000 253d
00000340: c2df 3ebd 0e20 00bd 4426 55bd 7494 08bd
00000350: 38bc 13bc 20d9 1b3b c8d3 453c 4aa8 3e3d
00000360: 1007 2a3c 9624 913c 103e 693c e047 32bd
00000370: a041 e83c c88e 6abb 8542 84bd 9b4d 8fbd
00000380: fbb7 36bd 3c67 563d 6a4d 50bd 878e 20bc
00000390: 9fff 3fbd 3470 f73c ce76 563c 8ece 283d
000003a0: 5554 0dbd f86d 1ebd d6cf 37bd 28a4 0fbd
000003b0: 8244 06bd 508f 493c 19a3 aa3c 7427 f6bc
000003c0: cca4 27bd 8540 0d3d c2bd 2d3d 1ead 423d
000003d0: 3cc8 e03c d077 2c3d 3407 c93b f4f1 73bd
000003e0: 4fa7 683c 61ed 13bc 56f4 1e3d 8ea8 533d
000003f0: 6288 8f3c 3532 363d e8f1 5b3c 74be 79bd

net.4.weight f4 [2, 256]
0.055288933 0.0015851483 0.010733868 0.010605562 0.059275195 0.026288021 0.055766217 0.033647273
0.045581013 0.03428583 -0.052306905 -0.0003176853 0.058484156 0.015068323 -0.052842937 -0.022519834
-0.058151975 0.042909943 -0.02783446 0.006209486 0.034634408 -0.00032886863 0.039705444 -0.03763946
0.036736533 -0.038079076 0.012927107 0.002186683 0.043210506 0.025676403 0.013009947 -0.03204166
0.049146928 0.029927373 0.031789437 -0.042656146 -0.06961383 0.043502994 0.057493992 0.033685736
-0.046358503 0.032820895 0.018688042 -0.01596169 -0.026076961 0.050196987 0.03221812 -8.3334744e-05
0.019596808 0.0201679 0.0042624436 0.028085135 -0.0068569556 0.0028355177 -0.022322398 -0.020940475
-0.036068156 0.017065307 0.023866057 0.026423454 -0.013124065 -0.02602631 -0.016564181 -0.046501797
-0.03375495 0.026910644 -0.03843296 -0.028526045 0.06306675 -0.008386868 0.027942367 0.025460556
0.026130913 0.066333964 -0.032461196 0.008087519 0.04638786 0.06086701 0.047306888 0.004023172
0.0018280689 0.052826203 -0.050935596 0.022212747 0.015225641 -0.015832637 -0.02059247 0.031694487
-0.032371104 0.027081463 0.0016605332 0.04996609 0.012472322 0.014533664 -0.05139248 0.062757924
-0.040627234 0.045107774 0.011605471 -0.027977645 -0.04999093 -0.050594784 0.05014573 -0.012660701
0.02044037 -0.021686167 -0.010987155 0.024189198 0.04641714 0.0038556112 0.027091771 -0.006620732
0.026116176 0.042210292 -0.016366635 0.027456794 -0.043941118 0.004717702 0.02575525 0.042615414
0.0088124825 -0.0571993 0.009285137 0.04582276 0.032570295 -0.060118824 0.05874195 -0.033200756
0.06311258 0.023555368 0.054899357 -0.037331715 0.054902144 0.070341714 0.019555852 0.04558166
0.07112806 0.01816587 -0.01286073 0.039837733 0.004422378 -0.0019232761 0.055512864 0.037340432
-0.048963286 -0.0054521933 -0.05463059 0.019624671 -0.00093982276 -0.007929927 0.059060164 0.06704409
-0.038316526 0.021059772 -0.03417603 0.033115786 0.06365099 0.023773395 -0.04386217 -0.028732602
-0.048797008 0.03512221 -0.047797117 -0.0024443194 0.025588661 0.0014038952 0.018693563 -0.020414453
-0.047810145 0.0128020365 0.00042360649 0.029222928 -0.032232672 0.0023883358 -0.0055632964 -0.038314715
0.025969874 0.046983615 -0.034555405 0.06876254 -0.051732395 -0.047135554 -0.051595412 0.042404894
0.07010856 -0.025793605 -9.295158e-05 0.022228092 0.0040937327 -0.0038749203 -0.00888253 -0.012923229
0.0049647987 0.035831526 -0.050207082 -0.030515354 -0.011918135 -0.03189864 0.050705113 0.007615648
-0.0018209592 -0.037465245 -0.0069091115 0.0048340093 0.05283752 -0.005538607 0.05846798 0.03969869
-0.031471334 -0.030300036 -0.016803361 -0.014554903 -0.06052033 0.040185284 -0.020816945 0.041077174
0.061157525 0.07247783 0.029204242 0.04575931 0.018027864 0.071382225 0.03942586 -0.037822023
0.005243061 -0.006317988 0.0451049 -0.0025377637 -0.012320344 0.04259903 0.001964664 0.02975043
-0.050852038 0.039244052 0.024292044 0.019610167 0.050171882 -0.010499842 0.0034892503 0.0282059
-0.014158791 0.045765385 0.06880999 0.04066579 0.03050382 0.003737771 0.062489703 0.02065973
-0.015026628 0.063784525 0.046816833 0.04536286 -0.008604637 -0.027228734 -0.04918343 -0.016720027
00000000: a676 623d c0c4 cf3a 1bdd 2f3c f3c2 2d3c
00000010: 8cca 723d fa59 d73c 1e6b 643d b9d1 093d
00000020: 28b3 3a3d 4c6f 0c3d c43f 56bd 008f a6b9
00000030: 158d 6f3d 21e1 763c d671 58bd 847b b8bc
00000040: c430 6ebd 56c2 2f3d 1805 e4bc f278 cb3b
00000050: cfdc 0d3d 006c acb9 2da2 223d d62b 1abd
00000060: 0c79 163d cef8 1bbd 37cc 533c 744e 0f3b
00000070: 80fd 303d 5257 d23c ac27 553c 1e3e 03bd
00000080: 4a4e 493d 402a f53c a435 023d 36b8 2ebd
00000090: b291 8ebd 3230 323d d27e 6b3d 0efa 093d
000000a0: 6ae2 3dbd 346f 063d aa17 993c 17c2 82bc
000000b0: 5a9f d5bc 5b9b 4d3d 26f7 033d 00c4 aeb8
000000c0: 7c89 a03c 2737 a53c f8ab 8b3b cc12 e63c
000000d0: 50b0 e0bb 18d4 393b 76dd b6bc 5c8b abbc
000000e0: 34bc 13bd 8bcc 8b3c c082 c33c 0076 d83c
000000f0: 5106 57bc 2135 d5bc 9bb1 87bc ab78 3ebd
00000100: a142 0abd b673 dc3c e16b 1dbd 74af e9bc
00000110: 2429 813d 1369 09bc 64e7 e43c a892 d03c
00000120: 7f10 d63c 1ada 873d 08f6 04bd 8381 043c
00000130: 3201 3e3d b04f 793d dec4 413d d0d4 833b
00000140: d09b ef3a 4a60 583d d8a1 50bd 82f7 b53c
00000150: f874 793c 72b3 81bc 8ab1 a8bc 14d2 013d
00000160: 9097 04bd f2d9 dd3c 40a6 d93a 3ea9 4c3d
00000170: b658 4c3c 9b1e 6e3c ec80 52bd 3a87 803d
00000180: be68 26bd eec2 383d e024 3e3c 6031 e5bc
00000190: 4ac3 4cbd 7a3c 4fbd 9c65 4d3d d46e 4fbc
000001a0: 9072 a73c 30a7 b1bc 7803 34bc 6d28 c63c
000001b0: e61f 3e3d 6cae 7c3b 90ef dd3c baf2 d8bb
000001c0: 97f1 d53c b3e4 2c3d 5213 86bc 12ed e03c
000001d0: 9afb 33bd f496 9a3b adfc d23c 808d 2e3d
000001e0: 3b62 103c d049 6abd b020 183c a5b0 3b3d
000001f0: 6e68 053d 283f 76bd 669b 703d 84fd 07bd
00000200: 2b41 813d 30f7 c03c 26de 603d 24e9 18bd
00000210: 12e1 603d 510f 903d 9833 a03c d6b3 3a3d
00000220: 97ab 913d 97d0 943c d0b5 52bc e42c 233d
00000230: 98e9 903b 7016 fcba 7561 633d 48f2 183d
00000240: ba8d 48bd 50a8 b2bb 53c4 5fbd ebc3 a03c
00000250: 705e 76ba 86ec 01bc 12e9 713d 694e 893d
00000260: caf1 1cbd 8b85 ac3c 2afc 0bbd 6ba4 073d
00000270: 735b 823d 6cc0 c23c d2a8 33bd a260 ebbc
00000280: 5fdf 47bd 4edc 0f3d e9c6 43bd e030 20bb
00000290: 509f d13c e802 b83a 3e23 993c 363c a7bc
000002a0: 92d4 43bd a2bf 513c 8017 de39 ec64 ef3c
000002b0: 6806 04bd a085 1c3b 504c b6bb e4ef 1cbd
000002c0: c6be d43c e471 403d f889 0dbd 60d3 8c3d
000002d0: 59e5 53bd 3611 41bd b655 53bd c1b0 2d3d
000002e0: 1495 8f3d 1c4d d3bc 00ef c2b8 b017 b63c
000002f0: b824 863b 60f2 7dbb 0888 11bc f3bb 53bc
00000300: c0af a23b 14c4 123d f1a5 4dbd 56fb f9bc
00000310: 4844 43bc 26a8 02bd 2ab0 4f3d b08c f93b
00000320: 40ad eeba 2875 19bd d465 e2bb 9c66 9e3b
00000330: 286c 583d 347d b5bb 1f7c 6f3d 189b 223d
00000340: 16e8 00bd c837 f8bc 34a7 89bc b077 6ebc
00000350: 2ae4 77bd 5399 243d 4c88 aabc 8a40 283d
00000360: 5080 7a3d 426f 943d bc3d ef3c 1d6e 3b3d
00000370: 2caf 933c d830 923d 037d 213d 44eb 1abd
00000380: fccd ab3b 2007 cfbb eabf 383d 9c50 26bb
00000390: 45db 49bc 527c 2e3d 98c1 003b 2cb7 f33c
000003a0: 3a4a 50bd 5fbe 203d 1c00 c73c 80a5 a03c
000003b0: 0881 4d3d 8807 2cbc e8ab 643b 0f10 e73c
000003c0: 46fa 67bc 7c74 3b3d 41ec 8c3d 2c91 263d
000003d0: 26e3 f93c 64f5 743b 34f5 7f3d 983e a93c
000003e0: 3f32 76bc 76a1 823d 02c3 3f3d 68ce 393d
000003f0: 77fa 0cbc cb0e dfbc 9074 49bd 70f8 88bc

net.4.bias f4 [2]
-0.014874161 0.049941815
00000000: c1b2 73bc ca8f 4c3d
