models/cross_entropy/batchsize=100-hiddensize=256-lr=0.01-gamma=.9-PART=120.pt (torch_old, 272411 bytes, 6 tensors)

net.0.weight f4 [256, 5]
000000 b2 a7 5f be 5c 02 6c 3e 30 95 cc bc 06 bc 09 be
       -0.21841314 0.23047775 -0.024973482 -0.13450631
000010 c0 5f 47 be 4f 40 b4 3e 8c fe 37 3e 4f 71 81 3e
       -0.1947012 0.35205314 0.17968196 0.2528176
000020 07 5d 3a be ff af a4 be 12 29 3e be 13 de b0 be
       -0.1819955 -0.32165524 -0.18570355 -0.3454443
000030 7b 48 e4 3d 1b 64 8c bd 78 3d 7a be e0 8b c7 be
       0.11146637 -0.06855031 -0.24437511 -0.38973904
000040 50 d2 28 3e 43 e6 b8 3e 90 5c 8d be f4 01 23 3d
       0.16486478 0.36113176 -0.27609682 0.039796785
000050 98 89 4f bd b8 b7 ed 3d 44 ce d3 bd b0 ab e4 3c
       -0.05066833 0.11607307 -0.103420764 0.027913898
000060 a0 79 1e be 58 8f 24 bd 2b a2 8a be c6 f5 80 3e
       -0.15476084 -0.040175766 -0.2707685 0.2518751
000070 d8 10 af be e5 01 a2 3e f7 fa f6 bd ce 35 91 bc
       -0.34192538 0.3164207 -0.120595865 -0.017725851
000080 37 a9 58 be 32 3a 03 bf ed 15 3c 3e f2 ae 42 3e
       -0.211583 -0.51260674 0.18367739 0.19012049
000090 b5 75 d2 be 4f 9c cb 3d b6 29 a0 3b 44 c3 97 3e
       -0.41105428 0.09941923 0.004887785 0.29641163
0000a0 a8 28 69 3e 66 f8 e6 be 05 6d 8e 3e 8a 60 3f be
       0.22769415 -0.45111388 0.2781755 -0.1868917
0000b0 76 03 d3 3d 7d c1 65 be 29 97 8e 3e 54 8b ef be
       0.103033945 -0.22437091 0.278497 -0.46785986
0000c0 c3 0e 8e 3c f4 48 b1 3e 78 e7 eb bd 47 bd df 3e
       0.017341023 0.3462597 -0.115187585 0.43699095
0000d0 e2 e2 7c 3e 41 95 2b be cb 62 23 3e 8c 96 c8 3d
       0.24695924 -0.16756155 0.15955655 0.097943395
0000e0 64 b6 b0 3c 58 02 8c 3e 69 80 4e be f7 82 2c 3e
       0.021571346 0.27345538 -0.20166172 0.16846834
0000f0 f1 b6 f1 3e c0 17 a3 3e 6f ab b0 be 52 8c 27 bc
       0.47209886 0.31854057 -0.34505793 -0.010226326
000100 d4 7e 37 be af e0 d3 be b4 31 91 3e a8 e1 23 bd
       -0.17919475 -0.41382357 0.28358233 -0.040010124
000110 6b 54 71 be 68 95 6c 3e 95 f9 a2 3e 7d 78 15 3e
       -0.23567359 0.23103869 0.3183104 0.14596744
000120 86 1a dd be 67 dd 8d bd 85 3d 97 3e 03 fd a9 3c
       -0.43184298 -0.06926995 0.29539123 0.020750528
000130 fe 90 90 3d af 3f e9 be 79 dd 2d 3c 78 ad 42 3e
       0.07058905 -0.455564 0.010611885 0.19011486
000140 44 20 1d bd 8d 9e 1b 3f 8a 5a 44 3e cc 1b 9b bd
       -0.03836085 0.60788804 0.19175163 -0.07573661
000150 16 f9 95 bd 94 b8 a0 be 1f 5c d7 3e ac c4 93 be
       -0.073229 -0.31390822 0.4206247 -0.28860986
000160 d3 13 d1 be 14 6b 0f 3e 01 2c f9 be 66 a8 aa be
       -0.40835437 0.14005691 -0.48666385 -0.33331603
000170 b7 e0 80 be 6b 55 72 be 25 55 fd bd d9 66 4d be
       -0.25171444 -0.23665397 -0.12369756 -0.20058765
000180 23 25 d2 3c 24 27 b2 3e 14 8f 8d 3e 6d 87 98 bc
       0.025652474 0.34795487 0.27648222 -0.018619264
000190 62 43 8e be 5c da 6a bd 37 8d dc be a2 11 b7 3d
       -0.27785784 -0.05733715 -0.43076488 0.0893891
0001a0 bc 28 53 3e 9b 46 c4 be 74 e5 43 3e d9 be 2c 3e
       0.20621008 -0.38335118 0.19130498 0.16869678
0001b0 ec f2 a6 bd a3 ad a4 3e 2e ea b5 be 63 7c 6d 3e
       -0.081518024 0.32163724 -0.35530227 0.23191981
0001c0 50 b6 b3 be 5a 17 ad bb ae c0 8c 3e 9e 2a 48 3e
       -0.3510003 -0.0052823247 0.27490753 0.19547507
0001d0 41 76 48 3e f1 2e 68 be 3d 39 b2 be 81 86 3e 3e
       0.1957636 -0.22674157 -0.34809294 0.18605997
0001e0 ce 71 47 be b4 b8 78 3e a6 e1 e1 be 00 4d 11 bd
       -0.19477007 0.24289209 -0.4411747 -0.035473824
0001f0 6f 51 dd be e7 17 c1 be 80 59 d9 bd 68 1d d6 3d
       -0.4322619 -0.3771355 -0.10612774 0.104548275
000200 9a 14 a6 be 7a 9f e3 3e 6c 59 bf 3d 85 85 69 be
       -0.32437593 0.44457608 0.09343228 -0.2280484
000210 c9 06 bd 3e 92 fe 0d 3e aa 3c 69 3d 43 5b b5 be
       0.3691924 0.13866642 0.05694262 -0.3542119
000220 f0 61 bf bc 70 0f e0 3d 15 19 df be 05 af 90 be
       -0.02336213 0.109404445 -0.43573824 -0.2825853
000230 cc d2 8f be fb d8 0e 3e fd b3 3e bd 98 c0 fd 3d
       -0.28090513 0.13949959 -0.04655837 0.1239025
000240 b7 9c ae bc 61 ad 10 3c 11 53 ca bd bb d5 11 be
       -0.021314962 0.008830399 -0.09879125 -0.14241688
000250 fe ff 95 bd eb 5d 7f 3e 93 65 51 be e2 18 cb be
       -0.07324217 0.2493817 -0.20448904 -0.39667422
000260 46 cf 35 3d ad c0 90 3d 41 c1 e7 3d 85 25 b6 be
       0.044387124 0.07068 0.11316157 -0.355755
000270 8e 17 b5 3e 15 da 40 3e 0a b0 5d be 3d 7c 13 be
       0.35369533 0.18833192 -0.21649185 -0.14402862
000280 b8 d0 ad 3e 18 00 54 be ba 1f 28 be 33 cc bc be
       0.33948302 -0.20703161 -0.16418353 -0.36874542
000290 25 a4 5e 3e 00 55 90 bc 00 b6 c5 3d e4 96 22 3e
       0.21742304 -0.017618656 0.09653854 0.15877873
0002a0 5a 99 96 be a0 f1 7a 3e f9 44 71 bd 9c 2e 27 3e
       -0.29413873 0.24506235 -0.058903668 0.16326374
0002b0 0c 29 39 3e 78 ab 89 be 0c dc ac 3e da a6 d9 be
       0.18082064 -0.26888633 0.33761632 -0.4251011
0002c0 c0 45 32 3e 48 8b 29 be a6 09 a5 3e 54 3a c0 bd
       0.1740942 -0.16557038 0.32233924 -0.09386125
0002d0 f1 63 87 be 20 e7 68 bd 7c c2 d7 3e 70 54 58 3e
       -0.26443437 -0.056861043 0.42140567 0.2112596
0002e0 0c 30 b6 be c9 70 a3 be f0 d2 0b 3e b5 c9 8d 3e
       -0.35583532 -0.31921986 0.13654685 0.27692953
0002f0 fb b6 ef be e8 12 f1 3d db 73 85 3d 77 6b ac be
       -0.4681929 0.11771184 0.06516238 -0.3367574
000300 5d 3a 3a bd b1 a2 87 be 3c f4 fd bb 0b e6 de be
       -0.045465816 -0.2649131 -0.0077500623 -0.43534884
000310 84 06 d4 3e c0 70 ef 3c e9 a4 8d be 9e f2 a2 be
       0.4141122 0.029228568 -0.2766488 -0.31825727
000320 e4 2d 5b bc a5 c2 9c 3e ca de 66 3e 05 35 3e be
       -0.01337764 0.30617252 0.22545925 -0.18574913
000330 46 56 69 3e f0 ef de 3c 6a e2 d1 3e b0 7b e7 bd
       0.22786817 0.02721402 0.40993053 -0.113028884
000340 a4 3c 07 3e 3c 9c 84 be d5 30 0f be 3a 0e 22 be
       0.13206726 -0.25900447 -0.13983472 -0.1582574
000350 f1 c6 0b bf 1e 2c 5a 3e b8 be 89 be c6 31 71 3e
       -0.54600435 0.21305892 -0.2690332 0.23554143
000360 7b 5c b2 be 1b f4 95 be 95 e4 82 3e 80 56 9e be
       -0.34836182 -0.292878 0.2556502 -0.3092537
000370 a4 35 f1 3d be 74 96 bd 8e 66 15 bd a6 bd 9f 3d
       0.11777809 -0.073464856 -0.036474757 0.077998444
000380 dd 5e 3d 3e 10 40 3d 3e 41 70 85 3e e1 d3 a8 be
       0.18493219 0.18481469 0.26062205 -0.3297415
000390 86 da b5 3e 74 1e 95 be 85 0e 18 be dc c6 50 be
       0.35518283 -0.29124796 -0.14849289 -0.20388359
0003a0 28 4a c9 bd e6 8a f8 be 80 d8 8d 3e 63 a1 4e be
       -0.09828597 -0.4854347 0.2770424 -0.20178752
0003b0 69 e1 c3 be 9c 3d 43 3e 7d 44 d7 bd 5f d0 3e be
       -0.38257912 0.19066471 -0.1051111 -0.18634175
0003c0 f0 b7 b0 be b5 09 38 bd e8 30 b9 3e 9d ee 0d be
       -0.34515333 -0.044931132 0.36170125 -0.13860555
0003d0 af b9 42 be 03 f3 c3 be 40 77 86 bb 04 5c 88 3e
       -0.19016145 -0.3827134 -0.004103571 0.26632702
0003e0 78 19 a4 3e 95 f8 c3 be 8c a1 d3 3d 0e 79 1f be
       0.3205068 -0.3827559 0.10333547 -0.15573522
0003f0 1d 0a 9f be f6 d8 b6 be 37 30 f4 be cf 6b 78 be
       -0.31062403 -0.35712403 -0.47693035 -0.24259876

net.0.bias f4 [256]
000000 4c cf e4 be 43 be ac be 96 56 db bd b2 2f 8b 3d
       -0.44689405 -0.33738908 -0.10709874 0.067962065
000010 94 98 de bd 52 64 7c 3e cc e3 38 3e 08 ff 8b 3e
       -0.10868946 0.24647644 0.18055648 0.2734301
000020 d2 ac 6d be 17 47 4d 3e 87 67 a0 be 6a d1 5a 3e
       -0.23210457 0.2004665 -0.31328985 0.21368948
000030 e0 29 24 bd 35 72 d5 be 70 ae 72 bd b2 ec c9 bc
       -0.040078998 -0.41688696 -0.059248388 -0.024648998
000040 dc bb 4f 3d ae 29 cf 3e b3 b9 74 3e 31 99 1e be
       0.050716266 0.40461487 0.23898964 -0.15488125
000050 68 ee e0 bd 7e c1 45 be 3f 77 3a bd 84 47 c7 3e
       -0.109829724 -0.19312093 -0.04552388 0.3892175
000060 84 b8 d1 be 35 e5 d0 be 1e ea 80 be b4 d1 3c 3e
       -0.40961087 -0.4079987 -0.25178617 0.1843937
000070 8d 5a 4e 3d 1d 68 6b be 0d d3 89 3e 71 63 0a 3e
       0.050379325 -0.22988935 0.2691883 0.13514496
000080 f2 9d 59 bc e4 e6 96 be 83 76 f9 bd 98 09 43 bd
       -0.013282286 -0.2947303 -0.121808074 -0.04761657
000090 d0 cc 8f be 51 b1 5d 3d b7 4b 97 3d 10 8f 7b be
       -0.28085947 0.05412418 0.07387488 -0.24566293
0000a0 a2 c2 6e be ce 28 bc be dc 41 a8 3e 2e 6a ec 3e
       -0.23316434 -0.36749882 0.32862747 0.4617476
0000b0 6f 91 d5 be d5 e3 90 3e dd 91 0e 3e 31 c7 06 3e
       -0.4171252 0.28298822 0.1392283 0.13161923
0000c0 99 53 6b be ba 39 81 be 86 c7 aa 3e 18 89 01 bd
       -0.22981109 -0.25239354 0.3335535 -0.031624883
0000d0 b0 f6 58 bd bb 70 16 3f 92 1d 79 3e 86 78 e1 bd
       -0.052969635 0.58765763 0.24327686 -0.11009316
0000e0 cf b1 e9 be f9 9a 3d be 4a 4f 92 3e 4a 98 4c bb
       -0.4564347 -0.18516149 0.28576118 -0.00312187
0000f0 57 43 88 3e ae 07 ad bd f9 57 fd 3d d4 f1 01 be
       0.26613876 -0.084487304 0.12370295 -0.12689906
000100 4b 14 45 be 20 c1 0b bd 84 c5 67 be aa c9 ac bd
       -0.19246022 -0.034119725 -0.2263394 -0.08436902
000110 90 2e f2 bc 2c 72 4d be 20 ce 9f bd ca b8 f4 3d
       -0.029563218 -0.20063084 -0.07802987 0.11949308
000120 0a 3f 89 be 50 6b 26 bd 96 ff 02 be 3f d6 2a be
       -0.26805907 -0.040629685 -0.12792811 -0.16683291
000130 4c c1 d6 3d 8f d9 a8 3c ba 1b e1 be ee d7 4c be
       0.10486087 0.020611553 -0.43966466 -0.20004246
000140 1c d2 45 be 74 46 97 3e db 29 3f be 70 f8 a7 3d
       -0.19318432 0.2954594 -0.1866831 0.082016826
000150 60 77 48 3e 7d cc 74 be e7 98 9e 3e dd ad fa be
       0.19576788 -0.23906131 0.3097603 -0.48960772
000160 38 7d 65 be 8a 18 93 be 51 b3 19 3e fa 43 a5 bd
       -0.22411048 -0.2872966 0.1500981 -0.08069606
000170 ff c6 80 be ad 0b a8 be 0e db 56 3e a9 67 4a be
       -0.25151822 -0.32821408 0.20982 -0.19766106
000180 bb a0 6c be 3e f9 29 be e9 bc 8c 3e b7 49 68 be
       -0.23108189 -0.16598985 0.27487877 -0.2268437
000190 00 24 54 bb a5 62 e0 3d a6 f0 17 be a1 55 38 3e
       -0.003237009 0.10956315 -0.14837894 0.18001415
0001a0 5d e1 dc be 66 1a 8a be 48 4c d1 be b6 65 b0 be
       -0.4314069 -0.26973265 -0.4087851 -0.344526
0001b0 46 15 3d 3e 78 b2 b2 be 36 04 9a be 0c ad a6 3e
       0.18465146 -0.34901786 -0.30081338 0.325539
0001c0 87 76 39 be a0 6b 1a bd 32 69 63 3e ba 39 8a 3e
       -0.18111621 -0.037700295 0.22208098 0.26997167
0001d0 94 87 80 3d 31 28 7a be 9c 9e 14 3e b3 89 b4 3e
       0.062758595 -0.24429394 0.1451363 0.35261306
0001e0 92 4a 70 be d4 34 2f be a9 b8 9a 3e 7b 5b 92 be
       -0.23465946 -0.17109996 0.3021901 -0.2858542
0001f0 44 62 a9 3e 25 8f 4b be 07 e2 70 be 91 9a 1d bd
       0.33082783 -0.19878824 -0.23523723 -0.038477484
000200 ec 16 6f be 4a 13 75 3e 6e ef 76 be 62 0c 49 be
       -0.23348588 0.2393314 -0.24114773 -0.1963363
000210 b4 9a 97 bd 38 60 85 be 3b 61 5d 3e c2 df 9c 3e
       -0.07402554 -0.26049972 0.21619122 0.30639464
000220 e1 26 df be b5 57 3b 3e 28 bd b9 3d 0b 4b 96 be
       -0.4358435 0.18295176 0.09069282 -0.29354128
000230 c5 9d 98 3e 06 1d 67 be ba e3 10 3e 80 7b 62 bd
       0.2980787 -0.22569665 0.14149371 -0.05529356
000240 9a 6e 43 3e 9b 52 67 be 6a 27 ba be 6d ac 1a be
       0.1908516 -0.22590105 -0.36358196 -0.15104838
000250 6e c1 44 be 40 b7 67 3c 12 8c 87 3e f0 46 a4 be
       -0.19214413 0.014142811 0.26474053 -0.3208537
000260 60 63 0a 3e 92 31 56 3e 2c ff d6 3e 86 cb 97 3d
       0.13514471 0.20917347 0.41991556 0.07411866
000270 72 ea 2c 3e b2 25 c9 3e 44 b5 a6 be 3e d1 86 3e
       0.16886309 0.39286572 -0.3256017 0.26331514
000280 99 16 13 3e 44 20 9c be 48 85 e7 be 0a 46 0e bd
       0.14364089 -0.30493367 -0.45218873 -0.034734763
000290 54 7f 21 be 76 43 39 be e0 5d 7d 3c 7b 65 bd 3e
       -0.15771228 -0.1809214 0.015464276 0.36991486
0002a0 8c e4 e0 be f0 95 be 3e 12 18 7a 3e 0e 76 a2 bd
       -0.43924367 0.37223768 0.24423245 -0.079326734
0002b0 8d a3 d3 be 28 fd 4d 3d b7 da 19 3e ac 95 9b be
       -0.41335717 0.050290257 0.1502484 -0.30387628
0002c0 51 50 2b be 0f d1 73 ba 19 59 43 3e 6e 25 9b be
       -0.16729857 -0.00093008665 0.19076957 -0.30301994
0002d0 1d c9 08 be 78 23 c9 be a4 f3 86 bd 6c ce 0e 3e
       -0.13357969 -0.39284873 -0.065894395 0.13945931
0002e0 e0 8e 2e 3d 48 ab 72 bd ae cd b0 3c 2b 1e f3 be
       0.042616725 -0.059245378 0.02158245 -0.47483954
0002f0 1b 54 b1 be de 2b 3b be 15 9b 24 be 57 1b b6 3d
       -0.3463448 -0.18278453 -0.16074784 0.088919334
000300 50 7e a2 be be 63 9d 3e c0 35 d4 be 34 22 1c be
       -0.31736994 0.3074016 -0.41447258 -0.15247422
000310 e3 c8 8b be b0 71 b7 3e f5 9a cb 3c 88 5d 78 3d
       -0.27301702 0.35828924 0.024854163 0.060636073
000320 d0 b5 1e be 60 df e9 bc 16 70 9b be e9 81 dd 3d
       -0.15499043 -0.028548896 -0.30358952 0.10815794
000330 d6 42 fe 3d 54 7b 0b bd 08 0d c2 be de d5 da be
       0.12415092 -0.03405316 -0.37900567 -0.42741293
000340 7f 42 b2 3b 9a f6 59 be f4 27 c1 be e8 9a 6f bb
       0.005440056 -0.21285477 -0.37725794 -0.0036560837
000350 92 a0 7e 3e 8c 7e 99 3e a3 19 84 be 4f fc 4c be
       0.2486594 0.2997936 -0.2580081 -0.20018123
000360 e0 61 67 bd 51 cb b3 3e 69 f4 2c be b5 d7 35 be
       -0.056489825 0.35116056 -0.1689011 -0.17758067
000370 61 dd e4 3e 78 fe 0c 3d 02 cb 90 be 1b c0 52 3e
       0.4470015 0.034422368 -0.28279883 0.20581095
000380 14 f3 ae bd 06 c9 49 be 87 03 3d be 40 77 0b 3e
       -0.08542457 -0.1970559 -0.18458377 0.13619709
000390 30 cc 26 bd fd 63 90 3e 04 8d aa be 40 1e 83 3e
       -0.040722072 0.28201285 -0.3331071 0.25609016
0003a0 33 4b f1 3e dc 01 4d 3e 93 97 8b 3e 76 53 49 3e
       0.47127685 0.2002024 0.2726408 0.19660744
0003b0 cd 80 04 3e ba 14 cf 3d 1b c1 81 be 78 80 4a bd
       0.12939759 0.10111375 -0.2534264 -0.049438924
0003c0 db 1e af be 6a 90 55 3e c3 45 b5 be e6 54 1c be
       -0.34203228 0.20855871 -0.35404786 -0.15266761
0003d0 8a 7b 89 3e 3d 45 bb be cf 25 27 3e e7 c0 6d be
       0.26852065 -0.36576262 0.16323017 -0.23218118
0003e0 e2 19 03 3f a0 a5 a5 3e ab 3c a5 3e 4f 33 a8 be
       0.5121137 0.32352924 0.32272848 -0.32851645
0003f0 7e 9a c0 be b7 54 30 3e ab 1c c7 3d eb ef 29 3d
       -0.37617868 0.17219816 0.09722265 0.04148857

net.2.weight f4 [256, 256]
000000 5a 5f 75 bd 49 2b 85 bd 56 a1 19 bd 74 97 ae bd
       -0.059905387 -0.065023966 -0.037507378 -0.08524981
000010 00 be 00 3d 75 e2 3d bd 1c 96 f0 bd 3b 65 ff bd
       0.031431198 -0.046358544 -0.11747381 -0.1247048
000020 54 e4 e9 bc 64 a3 84 bd ff 53 81 3c 71 6e 54 3a
       -0.028551258 -0.06476477 0.015787123 0.0008103615
000030 4b 16 82 3c c0 da d5 3b a5 5d 9f bd 56 29 4e bd
       0.01587977 0.006526321 -0.07781533 -0.05033239
000040 0c e2 c8 bc b2 dc 86 bc 4a ab ad bd 7d 46 0b bc
       -0.02452185 -0.016462658 -0.084799364 -0.008500692
000050 0b 9e ef bd cd 84 7d ba ed 6f 25 bd f2 d4 87 bd
       -0.11700066 -0.0009670973 -0.040389944 -0.06632413
000060 f2 e7 55 3d 98 3b ea bc 35 7c 7c bd 8a 8b 14 bd
       0.052223153 -0.02859287 -0.06164189 -0.036265887
000070 01 1f 44 bc e6 25 e8 bd bf ca 7e bc ec ae 25 3d
       -0.0119702825 -0.113353536 -0.015551268 0.04045002
000080 56 5c 60 bc 88 e1 62 bc b5 41 fd 3c b0 38 4d 3d
       -0.01369389 -0.013847716 0.03091512 0.05010289
000090 64 d0 35 bd a7 74 39 bd f9 af b0 bd 24 fc 58 bd
       -0.04438819 -0.045277264 -0.08627314 -0.052974835
0000a0 ea 7c fb 3c fc 69 ff 3c 9a 43 ce bc e3 73 e4 bc
       0.030699212 0.031178467 -0.02517872 -0.02788729
0000b0 7d 3c 88 bd ce 5f 5d bd 46 63 ac bc c1 48 59 bd
       -0.06652162 -0.054046445 -0.021043431 -0.0530479
0000c0 52 08 6e bd b2 5d 1b bd 7c fc 2c bc e6 e2 6d bd
       -0.058113404 -0.03793115 -0.010558244 -0.058077715
0000d0 e7 84 3a bd c8 4e f3 bd 05 32 1c bd 0c d0 a0 bd
       -0.0455369 -0.11880261 -0.03813364 -0.07852182
0000e0 7e 4c 5b bd 49 5a 9c bd c9 5f 02 bd 3b 9b d0 bd
       -0.053539746 -0.07634408 -0.03182963 -0.10185858
0000f0 ed ca 2f 3d d8 57 6c 3c 47 95 aa 3d 7a 61 43 bd
       0.042918134 0.01442524 0.08329254 -0.047700383
000100 27 e2 0e bc 84 9d 91 bd 30 13 b2 bc cd cd c8 bd
       -0.008720911 -0.07110122 -0.021737665 -0.098048784
000110 bc 7a 41 3d 1a fa 12 bc d4 27 05 be a3 8a d4 bc
       0.04723619 -0.008970762 -0.13003474 -0.025945013
000120 80 b0 2c bd 50 b7 d8 bc 60 7b 1f bd 9a eb 9e 3c
       -0.04216051 -0.026454598 -0.03893602 0.019399453
000130 58 8c 66 bd 36 d4 c3 bc 58 d6 10 bc 10 96 ef 3b
       -0.056286186 -0.023904901 -0.008840166 0.00731159
000140 40 ea 0c be 2b d0 5d bc 3d b9 f8 bb a0 1b 66 bb
       -0.13761234 -0.013538401 -0.0075904415 -0.003511168
000150 6b 75 be bb 88 70 49 3d 9c 57 30 bd e0 ba 2a 3c
       -0.005812337 0.049179584 -0.0430523 0.010420531
000160 d8 c4 02 bd 7e b5 fa bd bd db 05 be b3 fc af 3c
       -0.031926006 -0.12241648 -0.13072105 0.021482801
000170 88 07 df bc 29 de a3 3c 2f 92 96 bd 77 6b b7 bd
       -0.02722527 0.020003395 -0.07352101 -0.08956044
000180 05 11 bf bd 38 12 2b bc 2a ce da bc b9 c6 21 bb
       -0.09329418 -0.010441355 -0.026709635 -0.0024685098
000190 a2 5b 2f bd 3a 22 98 3b 84 76 2c bd 64 ec 6c bd
       -0.042811997 0.004642752 -0.042105213 -0.057842627
0001a0 56 bf 1c bd 30 c9 5d bc 40 e1 02 bb 45 bc 79 bd
       -0.03826841 -0.013536736 -0.0019970685 -0.060970563
0001b0 b9 7b 1e bd 61 d2 24 bd b0 b9 6f bd 5e b2 03 be
       -0.03869221 -0.040239695 -0.058526695 -0.1286101
0001c0 73 a6 95 bc 00 ed 86 b9 09 d6 69 3c b0 aa e2 bc
       -0.018267846 -0.0002573505 0.014272221 -0.02766928
0001d0 c5 f7 8b bd 2e 63 09 3d ec 11 93 3c 3f 6b e0 bd
       -0.06834368 0.03354185 0.017952882 -0.109579556
0001e0 56 35 7c bc 70 34 5a bd 77 3b a7 bd 2f a2 a8 bc
       -0.015393576 -0.053272665 -0.08165639 -0.020585148
0001f0 5f f3 2f bd ab fe 4f bd ec cc 47 bd 49 c3 ab bd
       -0.042956706 -0.05077998 -0.048779413 -0.08386857
000200 74 26 74 3d 3f 01 31 bd 4a 03 cd bd 42 9b 5b bd
       0.059606984 -0.04321408 -0.10010393 -0.053614862
000210 e0 69 75 3c c8 6a 1a bc 45 27 19 bd 1a a0 fd bd
       0.014978856 -0.009424873 -0.037390966 -0.123840526
000220 3f 1f 49 bd f1 7f 94 bc a6 cb cf 3c 28 ec 62 3c
       -0.049102064 -0.018127413 0.025365662 0.013850249
000230 42 d0 b0 bd e5 69 b3 bb f7 e7 57 bd d2 c9 15 bd
       -0.08633472 -0.00547527 -0.052711453 -0.036569424
000240 63 21 ae bd 50 6c ad bd a8 a0 f8 3c ec 83 e0 bd
       -0.08502462 -0.084679246 0.030350044 -0.10962662
000250 e0 b5 ed bc 70 16 ef 3c 64 60 87 3c 54 ee 21 bd
       -0.029017389 0.029185504 0.016525455 -0.039533928
000260 1b 71 a2 bc 2d f2 25 bd de 8f 99 3c 29 17 15 bd
       -0.019829324 -0.04051416 0.018745359 -0.03639904
000270 89 21 02 be de bd 04 be ba 7e 4b 3d bb a3 30 bc
       -0.12708105 -0.12963054 0.049681403 -0.010781224
000280 26 8b db bd 9a 2d 23 bd 18 3e be bc 82 ed ad bd
       -0.107199 -0.03983841 -0.023222968 -0.08492567
000290 88 e1 11 3c 52 51 38 3d 8e 6f 77 3d cf f8 bc bd
       0.0089038685 0.044999428 0.06040912 -0.09227144
0002a0 60 d0 61 3c 44 2a 3a ba a3 83 0f bd af 27 de bc
       0.013782591 -0.0007101635 -0.035037648 -0.027118532
0002b0 10 2f 56 bd 21 6b 59 bd b0 15 40 bc 4e d7 0e 3d
       -0.052290976 -0.05308068 -0.011723921 0.0348733
0002c0 ec d5 a5 bd 24 94 a3 3b 12 a8 99 bd 02 3f d9 3c
       -0.08097443 0.004992025 -0.0750276 0.026519302
0002d0 6c 16 14 bd c0 00 0f bb fc 6a 2b 3d d8 8b 0a bd
       -0.036154196 -0.0021820515 0.041850075 -0.03382477
0002e0 74 75 3b 3d 60 9a 21 bc e9 91 8b bd 3d 2a 82 bd
       0.04576631 -0.009863466 -0.068149395 -0.063557126
0002f0 ce 48 5a 3d b0 91 42 bc 4d 9d 8d bd b2 7d 11 bd
       0.05329209 -0.011875555 -0.06914768 -0.035520263
000300 0e b5 df 3c 70 ca 6e bd 05 b2 c0 bd 62 3d 9f bd
       0.027308013 -0.05829853 -0.094089545 -0.0777538
000310 48 80 0a bc b0 74 77 bc 86 7c ab bd 6d d1 20 bc
       -0.008453436 -0.015103504 -0.0837336 -0.009815556
000320 50 78 eb bb 15 90 10 3d be bb 18 bd c9 10 c3 3c
       -0.007185973 0.035293657 -0.03728842 0.023811715
000330 55 8e b1 bc 61 49 e9 bd d8 36 e6 3c de 4d 4d bd
       -0.021674315 -0.11390949 0.028102323 -0.050123088
000340 ce f4 a2 bd 18 3d 20 3d 46 1a 6c bd 6d 18 6d bd
       -0.07956849 0.039120764 -0.057642244 -0.057884622
000350 14 5c 4f bd 24 2d c7 bc 17 29 35 bd c0 65 92 bb
       -0.050624922 -0.024313517 -0.04422864 -0.004467696
000360 70 0e f7 3b f3 88 ee bd 3a bc a8 bc 90 32 b2 3d
       0.007539563 -0.11647215 -0.020597566 0.0870105
000370 ec 2a ba bd f3 c1 6a bb 24 24 b4 bd 1a 1e 12 bd
       -0.09090218 -0.003582117 -0.08795956 -0.03567324
000380 d0 ad ec 3b b4 77 53 bd 06 df 43 bd 41 29 86 bc
       0.0072228685 -0.05162783 -0.047820114 -0.016377093
000390 88 8c 47 3c 78 aa 4e bd 70 1d 7e bd 2c e7 5e bd
       0.012179501 -0.05045554 -0.062039793 -0.05441968
0003a0 36 6c 0b be e6 c1 4d 3d 63 bc f0 bd e0 5b 75 bb
       -0.13615498 0.050233744 -0.11754682 -0.0037438795
0003b0 ac e8 9d bd e6 02 a4 bd 73 85 ec bd bb ec 18 bd
       -0.07710394 -0.08008365 -0.11548891 -0.03733514
0003c0 04 3a 95 3c 4e 6b 6a bd 70 57 f8 ba 54 c4 36 3d
       0.01821614 -0.05723124 -0.0018946957 0.044620827
0003d0 fd df 5e bb e5 b8 8c bd 0f b9 c2 bd 16 d3 e5 39
       -0.003400802 -0.06871203 -0.095079534 0.00043835555
0003e0 b9 e2 c7 bd 9d 1e f5 bd 76 cf 6d bd 34 78 9c bd
       -0.09760041 -0.1196873 -0.05805918 -0.076401144
0003f0 e2 2a 59 bd 6c 00 e1 bd c3 ed 98 3c 59 b7 0f be
       -0.05301941 -0.109864086 0.018668061 -0.14034785

net.2.bias f4 [256]
000000 13 05 f8 bd b1 48 aa 3c 66 60 0b 3d 00 9d cb 3b
       -0.12110343 0.020786615 0.03402748 0.006213784
000010 d4 02 77 bd 41 df 91 bb 58 59 0b 3c 44 b2 16 bd
       -0.06030543 -0.004451663 0.008505188 -0.0367911
000020 8c 48 38 bd a5 5f 22 bd ac d6 12 3d 42 eb e1 3c
       -0.04499106 -0.039641995 0.03584926 0.027578
000030 d0 07 cf bc 2c 75 86 3c c1 d7 0c be e3 1b e7 3c
       -0.02527228 0.016413294 -0.13754179 0.02821154
000040 77 96 74 bd 9b 74 33 3b 98 ad d4 bc cd 0f 5d bc
       -0.059713807 0.0027382735 -0.025961682 -0.013492537
000050 a6 06 37 bd ac 23 fa bc 6c 6d 2b bd b5 27 f7 bd
       -0.044684075 -0.030534588 -0.0418524 -0.120681204
000060 b2 d1 d8 bd ed 39 59 3d 9a 10 e2 bc c1 ae 95 bc
       -0.10586871 0.053033758 -0.027595807 -0.018271806
000070 1c 99 c9 bd 2e 42 8c bd 7b a1 6c 3d f0 9d 11 bc
       -0.098436564 -0.0684856 0.057771187 -0.008887753
000080 07 9b 24 bc 99 32 a2 bd 4d 76 e6 3b 42 7a c7 bb
       -0.010046727 -0.07919807 0.0070331455 -0.0060875723
000090 8f 21 3c bc 98 c9 76 bd a7 82 63 bc 4e 1a 90 bc
       -0.01148261 -0.06025085 -0.01388613 -0.017590668
0000a0 50 58 8e bd 28 c7 d4 bc a4 65 c6 3b d0 ca b0 bd
       -0.06950438 -0.025973871 0.006054597 -0.086324334
0000b0 35 94 9f 3a 65 e6 b5 bc 48 fb 29 bd 7f af 14 bd
       0.0012174906 -0.022204587 -0.041499406 -0.03630018
0000c0 0c 7c d7 bc bd e0 97 bd c0 f4 c5 3c ca 3e e9 3b
       -0.026304267 -0.07415912 0.024164557 0.0071180807
0000d0 74 be 56 bd 58 8b 10 bc 9c 60 96 bc b8 af 2b bc
       -0.052427724 -0.008822285 -0.018356614 -0.010478906
0000e0 24 16 1e bd c0 90 8c bd 0e 63 72 bd 0f 9a 4a bd
       -0.038595334 -0.06863546 -0.059176497 -0.049463328
0000f0 be c8 26 bd 52 33 de bd c4 a9 67 3c 20 f8 19 3c
       -0.040718786 -0.10849632 0.014139596 0.0093975365
000100 04 81 db bc c0 89 3f 3d 13 27 85 3b 53 ac 25 bd
       -0.026794918 0.046762228 0.004063496 -0.040447544
000110 fa 6b 8d bd 3a f0 25 3b 5f 62 be bd b1 88 30 bc
       -0.069053605 0.0025320188 -0.092961065 -0.010774777
000120 7e 21 56 3d 37 97 c3 3c 7f f3 90 3c ea fe d3 bd
       0.052278034 0.023875816 0.017694233 -0.103513554
000130 fb 59 ef bc 8a c2 8e bd 79 a7 03 3a 60 b0 68 3b
       -0.02921771 -0.06970699 0.0005022209 0.0035505518
000140 65 3d 78 bd 31 76 ca 3c 95 b5 e1 bd 54 3e 0a 3d
       -0.060605425 0.024714561 -0.11020962 0.033750847
000150 ce 29 7d bd b5 b1 b0 bd 2f 2d aa bd 4c 07 b1 bc
       -0.061807446 -0.08627645 -0.08309399 -0.021609925
000160 88 17 0e be 1e ef a5 bc 87 6f b1 bc 42 fb 7e bd
       -0.13876164 -0.020255622 -0.021659626 -0.062251337
000170 fe 3d 22 bd 24 20 20 3d ad 5b 8b bd 08 5a 04 bc
       -0.0396099 0.03909315 -0.06804595 -0.008078106
000180 4c 8f 4c bd 7b 2c b4 ba 19 c2 71 bd cf 2a 9c 3c
       -0.049941346 -0.0013746166 -0.059022997 0.019063381
000190 f8 e7 72 bd 4d 47 07 bd b9 10 2c bd 04 b8 2d bb
       -0.059303254 -0.033026982 -0.042008135 -0.0026507387
0001a0 05 f3 8c bc 20 4c 09 bd 84 04 10 bc ac 45 e2 bc
       -0.017205724 -0.033519864 -0.008790139 -0.027621113
0001b0 25 61 28 bd f4 e5 d5 bd b6 74 7e 3e 1c f8 c8 bd
       -0.04110827 -0.10444251 0.24849209 -0.09812948
0001c0 4c 6e 70 3d f4 9f 7c bd 0b 7a ed bc 7e 62 57 bd
       0.058698937 -0.06167598 -0.028988859 -0.052584164
0001d0 96 aa 76 3c 3a 3d 75 bb 73 aa e9 bd bf 16 db bd
       0.015055319 -0.0037420527 -0.11409464 -0.10697698
0001e0 92 5b 17 3d 81 1d 4a 3c a0 11 56 3b 2c ea f3 3c
       0.036952563 0.012336136 0.0032664314 0.029774748
0001f0 c2 68 36 bd 60 b2 60 bc 8a bc 5d bd 04 1a bf 3d
       -0.0445335 -0.013714403 -0.054134883 0.09331134
000200 d0 4f 52 bc 3f dc 8c 3a 1a fc d1 bd c8 ce 71 bc
       -0.012836412 0.0010746791 -0.10253163 -0.014758773
000210 de 66 0d bb dd 0a 87 3b ae 8e 29 bd fb d7 05 bd
       -0.0021576206 0.004121168 -0.041395836 -0.03267668
000220 54 fd 56 bb 0f 8d 20 bc 73 46 47 bd 90 0f 06 bd
       -0.0032804804 -0.009799256 -0.04865117 -0.032729685
000230 03 04 25 3d 4c 91 d4 bd b1 4c 41 bd a2 01 f1 ba
       0.04028703 -0.10379276 -0.04719228 -0.0018387327
000240 5d be c0 bd 5b 03 5c 3c 82 38 f4 bd 7a 25 a1 bd
       -0.09411309 0.013428534 -0.119248405 -0.07868476
000250 d4 94 0b be 19 d2 21 bd 90 66 1e bd 24 c6 4e bd
       -0.13630992 -0.039507005 -0.03867203 -0.05048193
000260 14 89 64 bd 3e 51 54 bd b9 e2 94 3d 66 d2 45 bd
       -0.05579479 -0.05183529 0.072698064 -0.048296355
000270 c1 c1 e3 bd 80 0e a6 bb c1 c7 9d bd 04 c5 17 3d
       -0.1112094 -0.0050676465 -0.07704116 0.037053123
000280 b7 93 2e bd 01 c9 5b 3d 08 b5 2e 3c 06 41 15 bd
       -0.04262134 0.05365849 0.010663278 -0.036438964
000290 c3 7c d1 3c 74 c4 f9 bd 8a 38 93 bc 43 5b 57 3d
       0.025572186 -0.121956736 -0.017971296 0.05257727
0002a0 75 ac 95 bd 35 27 71 3d a0 52 1f bd 33 0a 92 bc
       -0.07308284 0.05887528 -0.038897157 -0.017827129
0002b0 08 83 fa bc fd e9 0f 3d 1c 47 c1 bc e8 3a f7 bd
       -0.030580059 0.035135258 -0.023593478 -0.12071782
0002c0 ef fa 61 bd c8 37 b5 bc a7 82 ae bd 85 90 7d bd
       -0.05517095 -0.022121325 -0.08521014 -0.061905403
0002d0 f6 6a 00 bd 76 e7 83 3d 66 4e 69 bd 0a 19 f0 bd
       -0.031352006 0.06440632 -0.056959532 -0.11723526
0002e0 c2 d6 48 bc f5 45 5d bc 34 b6 f6 3c ec 3b 0b bc
       -0.0122582335 -0.013505449 0.030116178 -0.008498173
0002f0 b2 7d 69 3d 65 51 a3 bd c1 9f 06 3c 0e e2 78 bd
       0.057004638 -0.07974509 0.008216799 -0.060762458
000300 e0 c5 6f 3c a2 45 a5 3a 34 5b 96 ba 3b d7 c7 bd
       0.014634579 0.0012609253 -0.0011471272 -0.09757849
000310 7e 42 95 bd 1f 8b 5d bd 8c 24 cb bd d5 71 db bd
       -0.07288073 -0.054087754 -0.0991908 -0.10715071
000320 97 d0 74 bd cb 38 bd bc 9a 8d 8e bd b0 8c 20 3c
       -0.05976924 -0.02309837 -0.06960602 0.0097991675
000330 08 7b d2 bd 44 28 e4 bc d0 a0 0e 3d 40 92 d2 bd
       -0.102773726 -0.027851231 0.03482133 -0.10281801
000340 1c d6 83 bc 38 05 52 bd 43 01 e1 3c 91 eb 6a 3c
       -0.016093306 -0.05127451 0.027466422 0.01433839
000350 f9 7a b8 bd 85 9d 8a bb 81 69 c7 bd c8 ed 17 3b
       -0.0900783 -0.0042302036 -0.0973692 0.00231825
000360 97 f9 dd bd f3 9d 8f bd c3 d2 14 bd c0 8b 61 bb
       -0.10838621 -0.07012548 -0.03633381 -0.0034415573
000370 6c b5 0b 3b 00 6a 3f bc e1 a6 8f bd ec 45 7f 3c
       0.0021317853 -0.011682987 -0.070142515 0.0155806355
000380 49 76 98 bd dc 0f 8c bd d2 79 5d 3c b6 e0 25 bd
       -0.07444436 -0.068389624 0.013517814 -0.040497504
000390 11 2e 50 bd dc 72 09 bd f2 81 af 3b 8a 09 7c bc
       -0.050825182 -0.033556804 0.005356067 -0.015383134
0003a0 92 7b b1 bd ca e3 79 bd 2c 00 f3 3c f6 fa 92 bc
       -0.08666147 -0.061008252 0.029663168 -0.017941933
0003b0 08 86 67 bd a2 43 5d bd 1d 4d 24 bd 5e ad 75 bd
       -0.056524307 -0.054019578 -0.040112603 -0.05997979
0003c0 06 7b 3e bd aa b0 96 bd 89 7e 82 bd f4 71 5c 3d
       -0.046504043 -0.07357915 -0.06371791 0.05381961
0003d0 88 0b f1 bd 96 f1 09 bd aa a8 0c bc 4a 0e 45 3d
       -0.117697775 -0.03367766 -0.0085851345 0.04810933
0003e0 08 12 5f 3d ea 91 2e bd 7f 14 e2 3d c4 95 ab bd
       0.054460555 -0.042619623 0.110390656 -0.08378175
0003f0 dc 12 f3 3c 46 5d 73 3d 4f 5e 9f bd e0 06 73 bd
       0.029672079 0.059415124 -0.0778166 -0.05933273

net.4.weight f4 [2, 256]
000000 c5 c1 2b 3c c2 8d c6 3b ae 03 15 bd 80 cb 38 bd
       0.01048321 0.0060593793 -0.036380462 -0.045115948
000010 d8 5f 8a 3c d9 4c 1b 3d c2 f1 37 3d 6a 40 34 3a
       0.016891405 0.037915085 0.044908293 0.00068760535
000020 d2 64 1d bd f1 35 ff bc 60 a0 31 bd 73 62 1d 3d
       -0.038426228 -0.031153651 -0.043365836 0.038423967
000030 c6 50 dc bc 10 c6 c1 bc 7c 8b b1 bd d8 1f ab bc
       -0.026893985 -0.023654014 -0.08669183 -0.020889208
000040 42 df c2 3b d4 18 84 bc ae e2 58 3d 7e 26 73 3b
       0.0059470246 -0.01612512 0.052950554 0.00371018
000050 94 d2 7a bc 96 ec bf 3c 9a 89 37 3c c9 e1 3c 3d
       -0.015308995 0.023428243 0.01120224 0.046113763
000060 f9 42 99 3c 42 5d 08 3d 0b 74 81 3c 10 96 89 3c
       0.018708693 0.033292063 0.015802404 0.016795188
000070 41 29 20 bd 8a 94 5d 3b 0c cd 9e bc d0 21 fb 3c
       -0.039101843 0.003381046 -0.019384883 0.030655771
000080 c9 fc 56 bd e9 2d b7 3b fb c0 4f bc 32 fe 9f 3c
       -0.05248717 0.0055901897 -0.0126802875 0.01953039
000090 7b 04 86 bd e4 9f 53 3d 33 fc 8c 3d 78 db 9d bd
       -0.06543823 0.051666155 0.06884041 -0.07707876
0000a0 c9 36 2a 3d 90 7e e6 3b 9a 67 b7 bc fc a0 c8 bd
       0.041556153 0.0070341304 -0.022388268 -0.0979633
0000b0 69 ec c8 bd ef 51 55 bd 5c 87 84 3c 71 56 f0 bc
       -0.09810717 -0.05208009 0.016177826 -0.029338093
0000c0 b2 78 6d 3c 55 35 74 3d 80 7e df bc 11 79 10 bd
       0.014494108 0.059621174 -0.027282 -0.035271708
0000d0 a0 4d 5d bc 3c c4 d2 bc 4b 9a ce 3d 68 ef 4a bc
       -0.013507277 -0.025728337 0.10088023 -0.01238618
0000e0 6e 92 51 3d 8f 3b 69 bd 14 8f 92 3d d6 4f a1 3c
       0.051165037 -0.056941565 0.07156196 0.019691389
0000f0 dd 01 d0 3d 43 d2 b6 bc 26 d7 8c bd 1c b3 f6 3c
       0.101566054 -0.022317057 -0.06876974 0.030114703
000100 2d f4 9e 3d 80 25 81 ba e4 9f 92 bd 1a c9 55 3d
       0.077614166 -0.0009853095 -0.07159403 0.05219374
000110 b0 6c 47 bb 90 1a 28 bd d9 b2 25 bd 20 1d 9f 3c
       -0.0030429773 -0.041040957 -0.040453766 0.019423068
000120 2c 90 11 3d 31 83 60 bd 1d b7 e8 b9 4a 80 95 ba
       0.035537884 -0.054812614 -0.00044386918 -0.0011406031
000130 70 2f 87 3d 8e d0 fa bc 88 26 27 bc 44 1b 79 bd
       0.06600845 -0.030617025 -0.010202058 -0.06081702
000140 5b cc bd 3c 0e 29 90 bd c3 a7 85 3c 60 30 e1 bb
       0.023168733 -0.070390806 0.016315347 -0.006872222
000150 a8 37 a6 bc 18 77 12 bd ec 42 2f bc 04 1c 84 bc
       -0.02029021 -0.035758108 -0.010697108 -0.01612664
000160 dd 04 6a 3c 08 32 4e bd 54 2d e9 bb 27 bc 15 3d
       0.014283386 -0.050340682 -0.0071159992 0.03655639
000170 e2 e5 39 3d 3e b4 74 bd 70 ad ae 3d 5c 28 e9 3c
       0.04538525 -0.059742205 0.08529174 0.028461628
000180 ab 59 83 3d a2 b0 8e 3d 77 74 18 bd eb 67 18 bb
       0.06413587 0.06967284 -0.037220445 -0.00232553
000190 31 9f 1d bd b1 75 f3 bc e5 f8 29 bd 71 52 80 3d
       -0.038481895 -0.029719206 -0.04149713 0.062657245
0001a0 85 ff b9 3c 8c a1 d8 bc 6c b1 21 bd ec c5 18 bd
       0.022704849 -0.026444219 -0.039475843 -0.037298128
0001b0 c7 7e e1 3c bf bc c9 3c d8 a7 e6 3d 5e 5f a1 bc
       0.027526272 0.024626134 0.112624824 -0.019698795
0001c0 70 9c b5 3c 85 fe 51 3d 1f 6f 31 3c 04 45 c6 3c
       0.022169322 0.05126812 0.010829716 0.024202831
0001d0 43 9d 35 3d ab 2e eb ba 8e 77 34 3d 6f 8a b7 3c
       0.04433943 -0.0017942985 0.04405933 0.022404877
0001e0 ea b3 2a bd d6 98 54 bd 1c 2d 8c 3c 2c f1 72 bd
       -0.041675486 -0.05190357 0.017111354 -0.05931203
0001f0 ec be 94 bd 9c 51 24 3d 42 27 bf bb 08 cb 1f 3e
       -0.07262978 0.04011689 -0.0058335373 0.15604794
000200 28 37 46 bc e2 f1 5a 3d e2 4f 84 3d 88 eb 83 3c
       -0.012098111 0.053453334 0.06460549 0.016103521
000210 ec 1b d3 bc ad 0a 3d bd de 72 4a bd 7f 11 36 3d
       -0.02577015 -0.04615276 -0.049425952 0.04445028
000220 73 45 dd 3c 6e ef be bd 95 94 4d 3c 6c db 90 3c
       0.027010655 -0.09323011 0.012547632 0.017682754
000230 6e 2d 13 bd 4b 30 19 3d 7c a1 93 bd bb ef 86 3a
       -0.035931997 0.03739957 -0.07208535 0.0010294834
000240 69 f0 38 bc f3 5d b2 3d fd 72 03 3b a8 05 a9 bd
       -0.011287787 0.08709326 0.0020057552 -0.08253032
000250 a7 29 b7 bc b5 cf 0c 3d 7e 76 7b 3d 94 60 ca bc
       -0.022358729 0.034377772 0.0613923 -0.024704255
000260 0c 3f f7 bc d6 88 7c bd 99 81 ed 3b c0 4b e3 bb
       -0.03018143 -0.061653934 0.0072481153 -0.0069365203
000270 de d1 14 ba d2 78 09 bd 2a 79 6f 3d 37 e8 cd bb
       -0.00056770246 -0.03356249 0.05846516 -0.0062837857
000280 9b 93 e9 3c 04 2c 32 bd 60 6b 31 bd 68 91 07 bd
       0.028512767 -0.043499008 -0.04331529 -0.033097655
000290 56 5a 52 bb 05 20 a0 3c d6 f9 97 bc 2a bf 5a 3d
       -0.0032097301 0.019546518 -0.018551748 0.053404965
0002a0 e2 22 b3 bc ed 3b 0e 3a fb 73 2e bd 34 6e 9e 3b
       -0.02186722 0.00054258 -0.042591076 0.0048349146
0002b0 28 e7 df bc 57 a0 83 bb 2c 5a 50 bd 03 3a 67 3d
       -0.027331904 -0.0040169167 -0.050867245 0.05645181
0002c0 13 26 e5 bc e7 65 81 3c 7b 50 87 bc c2 2c 9b 3d
       -0.027972257 0.015795661 -0.016517868 0.07576896
0002d0 27 29 97 3d fd 8d 03 3d 58 f7 b7 bc c2 1a 18 3c
       0.07380896 0.032117832 -0.02245681 0.009283723
0002e0 7a b3 44 bd cf 0a 1e 3c 1c 33 68 bd 3d 41 49 bc
       -0.048022725 0.009646132 -0.056689367 -0.01228362
0002f0 ed 62 fc 3a 1a f4 b2 3d d1 f1 8b 3c c5 f2 57 bd
       0.0019255556 0.08737965 0.01708308 -0.052721757
000300 02 c6 19 bd fb 85 13 bc 5d 13 56 ba 64 cc dd 3c
       -0.03754235 -0.009004111 -0.00081663375 0.027075
000310 f5 c7 15 bc 0f ea 82 bc 08 37 71 3c 3c da 28 3d
       -0.009141912 -0.015980748 0.014722593 0.04122375
000320 74 64 5a 3c c7 4f 46 3a f6 ae aa 3b a8 a5 44 bd
       0.013329614 0.00075649883 0.0052088453 -0.048009545
000330 3b 2f 1b bb f2 32 1b 3d 65 ff a3 bb 9f fe a1 3c
       -0.0023679275 0.037890382 -0.0050048106 0.019774733
000340 e8 8d 65 3d 70 81 29 3d a2 40 77 bb 64 f6 a1 bd
       0.056043535 0.041383207 -0.0037727733 -0.079083234
000350 45 0e 34 be 68 98 1c b9 9a 1b 2e 3d f7 fc 3b bd
       -0.17583568 -0.00014934095 0.04250679 -0.045895543
000360 87 11 a2 3c 99 3a 85 bd 18 c5 44 3d b0 e7 0b bc
       0.019783748 -0.06505317 0.048039526 -0.008539125
000370 b7 72 4e 3c 54 31 fe bc b4 9a 62 bc 7c 1f 26 bc
       0.012600592 -0.03102938 -0.013830829 -0.010139342
000380 72 56 c4 3c b5 9c 65 3c ec ff 19 3c ef 79 3e 3e
       0.023967002 0.014014413 0.009399395 0.18601201
000390 14 d9 aa bc b6 a0 7f 3c 0e 6f 96 bc 48 a5 ad bb
       -0.020855464 0.015602281 -0.018363502 -0.005299244
0003a0 7c 86 39 bc eb 20 b5 bc 72 4d 1d bd 1b e1 99 3d
       -0.0113235675 -0.022110423 -0.038403936 0.075136386
0003b0 a0 62 8e 3c 0e 14 48 bd 4b ff 25 bb 61 f0 2f 3a
       0.017381012 -0.04884725 -0.0025329168 0.00067115395
0003c0 3e bd 42 3c e7 33 5f 3d 0d 5c 10 bd bf 6f 2a 3d
       0.011885939 0.054492857 -0.035244036 0.041610476
0003d0 8d 73 07 3d 64 75 8f bc 4a 6c bd 3c 94 8e 79 bd
       0.033069182 -0.01751203 0.023122925 -0.06092699
0003e0 a8 86 7a bd db 7a 2f bc 6c cd 04 3e ab 16 77 3d
       -0.061163574 -0.010710443 0.12968987 0.060324352
0003f0 e4 c4 75 3d c8 a6 61 bc 41 c9 bc 3d 31 98 32 3b
       0.060002223 -0.013772674 0.09218074 0.0027251358

net.4.bias f4 [2]
000000 8b 07 9f 3d 71 1d 06 bd
       0.077651106 -0.03274292
