models/cross_entropy/batchsize=100-hiddensize=256-lr=0.01-gamma=.9-PART=90.pt (torch_old, 272411 bytes, 6 tensors)

net.0.weight f4 [256, 5]
00000000: b2a7 5fbe 5c02 6c3e 3095 ccbc 06bc 09be
00000010: c05f 47be 4436 b73e 4d32 363e 039f 723e
00000020: 5744 27be e472 a1be 0225 3ebe 58e0 b0be
00000030: 9754 e43d 0b60 8cbd 2939 7abe c85e c3be
00000040: cc63 0b3e e597 b03e 1d50 94be df43 f83c
00000050: 9889 4fbd b8b7 ed3d 44ce d3bd b0ab e43c
00000060: a079 1ebe a391 0cbd 65e6 87be f944 823e
00000070: f772 adbe ce5a a33e 5e1a f7bd 3789 91bc
00000080: 0ab0 58be fb3a 03bf 2e0f 3c3e 81f1 453e
00000090: 9dd9 d0be 6583 cf3d ddce fa3b e5c5 983e
000000a0: 52e1 743e f77b d8be 8e6f 933e d041 42be
000000b0: c904 d63d 5de1 52be 7bfc 823e c58a edbe
000000c0: 6ee8 bc3c 686d b43e 93f1 f1bd 4b10 dd3e
000000d0: 954b 733e 0cab 29be 320b 233e e53c d73d
000000e0: e026 f73c 0e46 8f3e a0a8 48be 27b3 313e
000000f0: 9b7f e93e 4819 aa3e 1e13 afbe 59e1 8fbc
00000100: 3a53 3dbe afe0 d3be b431 913e a8e1 23bd
00000110: 6b54 71be 6895 6c3e bc74 a43e 1428 0b3e
00000120: aa82 debe ef6c 8cbd 4d6b 973e a995 203d
00000130: c1cf a33d 641b e3be fd26 bb3c c7e4 4f3e
00000140: 4a03 11bd 36c4 1d3f 9baa 463e 497b 9abd
00000150: 20c9 8fbd 7d01 a5be 46ff d43e 603b 8ebe
00000160: 955f d1be 01b4 0f3e 322b f9be 35a9 aabe
00000170: e5df 80be c753 72be db51 fdbd e203 43be
00000180: c9ae f13c 387d b13e 9105 913e 5644 35bc
00000190: 8842 8ebe 41d3 6abd 7c8c dcbe d314 b73d
000001a0: 552a 533e d6ad bebe cad5 483e f1dd 2f3e
000001b0: 3024 9dbd 0fcf a73e d0e8 b5be 767e 6d3e
000001c0: c7b4 b3be efb7 acbb 2cc2 8c3e f044 4c3e
000001d0: 66b7 453e f78a 65be 2430 b0be d870 413e
000001e0: ce71 47be b4b8 783e a6e1 e1be 004d 11bd
000001f0: 6f51 ddbe e717 c1be 8059 d9bd 681d d63d
00000200: 9a14 a6be 7a9f e33e fa09 c43d 8483 5dbe
00000210: 1e87 bd3e cd15 0e3e a2b6 713d 435b b5be
00000220: f061 bfbc 700f e03d 1519 dfbe 05af 90be
00000230: 9ba4 8fbe b16b 0f3e c216 3cbd 0dff fe3d
00000240: d83c aabc 4ec8 103c 5d50 cabd e8d3 11be
00000250: 99fc 95bd a05f 7f3e 2cbe 4cbe ceb8 cbbe
00000260: b407 293d 92d6 993d 1b3a ea3d e654 b5be
00000270: af11 ad3e 3a41 193e e082 54be d8bc 18be
00000280: 0ec0 b73e e872 3ebe ff81 1ebe 005c b8be
00000290: f135 683e 0055 90bc 00b6 c53d e496 223e
000002a0: 5a99 96be a0f1 7a3e b029 6bbd d22c 2d3e
000002b0: b42e 3c3e fce7 88be 6601 ae3e daa6 d9be
000002c0: c045 323e 488b 29be a609 a53e 543a c0bd
000002d0: f163 87be 20e7 68bd 7cc2 d73e 7054 583e
000002e0: 0c30 b6be bd28 a6be 69cb da3d 530d 893e
000002f0: 54a2 f0be 33f1 ea3d 22ab a73d 4de4 a3be
00000300: ad6d 4dbd 0e39 85be 2a76 12bb 0be6 debe
00000310: 8406 d43e c070 ef3c e9a4 8dbe 9ef2 a2be
00000320: a1c2 f7bb 9e58 a03e b267 6a3e fdfd 3abe
00000330: bb3c 6e3e f0ef de3c 6ae2 d13e b07b e7bd
00000340: a43c 073e 3c9c 84be 1648 0fbe 3cfd 21be
00000350: b3c7 0bbf 1421 5a3e c7c4 89be c95f 763e
00000360: 5642 b3be dcf1 94be ca3d 853e 4313 9dbe
00000370: 4d39 f13d fe70 96bd 295f 15bd 56c1 9f3d
00000380: b760 3d3e aa79 423e 4804 833e 9b12 a7be
00000390: 63ff b73e 2164 93be 4f9c d3bd c688 0dbe
000003a0: 0271 96bd 2ce7 efbe 8066 993e 7fd0 40be
000003b0: 1be1 c8be 7bf0 393e 39b4 dcbd a5fa 40be
000003c0: ffb6 b0be c902 38bd d931 b93e e6ec 0dbe
000003d0: d5b7 42be 03f3 c3be 4077 86bb 045c 883e
000003e0: 7819 a43e 95f8 c3be c5fe fe3d 0335 0bbe
000003f0: d7c5 98be 1bb7 b1be 4118 edbe 988d 76be
-0.21841314 0.23047775 -0.024973482 -0.13450631 -0.1947012 0.3578359 0.17792626 0.2369347
-0.16334663 -0.31532967 -0.18568805 -0.3454616 0.11148947 -0.06854256 -0.24435867 -0.3815825
0.13612288 0.34490886 -0.28967372 0.030305801 -0.05066833 0.11607307 -0.103420764 0.027913898
-0.15476084 -0.034318577 -0.26542965 0.25443247 -0.33876774 0.31905216 -0.12065576 -0.017765624
-0.21160904 -0.5126187 0.18365166 0.19330408 -0.40791026 0.101324834 0.0076540546 0.29838482
0.23914078 -0.42282078 0.28796047 -0.18970418 0.104501314 -0.20593782 0.25583252 -0.46394935
0.02306005 0.3523972 -0.11813655 0.43176493 0.23759301 -0.16569155 0.1592224 0.105096616
0.030169904 0.27983135 -0.19595575 0.17353497 0.45605168 0.33222413 -0.34194273 -0.017563509
-0.1848878 -0.41382357 0.28358233 -0.040010124 -0.23567359 0.23103869 0.3212031 0.13589507
-0.43459064 -0.06856715 0.29574051 0.039205227 0.0799861 -0.44356835 0.02284574 0.20302115
-0.035403527 0.6162752 0.19401018 -0.07543046 -0.070207834 -0.32227698 0.41601008 -0.27779675
-0.40893236 0.1403351 -0.48665768 -0.3333222 -0.25170818 -0.23664771 -0.12369128 -0.1904445
0.02950229 0.34665847 0.2832456 -0.011063656 -0.27785134 -0.057330374 -0.4307593 0.08939519
0.20621617 -0.37242 0.19612804 0.17174508 -0.07672918 0.3277516 -0.35529184 0.23192772
-0.3509886 -0.00527095 0.2749189 0.19948173 0.19308242 -0.22416292 -0.34411728 0.18890703
-0.19477007 0.24289209 -0.4411747 -0.035473824 -0.4322619 -0.3771355 -0.10612774 0.104548275
-0.32437593 0.44457608 0.095722154 -0.216322 0.3701715 0.13875504 0.059012063 -0.3542119
-0.02336213 0.109404445 -0.43573824 -0.2825853 -0.28055272 0.14005925 -0.04592014 0.12450991
-0.020780966 0.008836819 -0.09878609 -0.14240992 -0.0732357 0.24938822 -0.1999442 -0.39789432
0.041267112 0.07511629 0.11436864 -0.35416335 0.33802554 0.14966288 -0.2075305 -0.14915788
0.35888714 -0.18598521 -0.15479277 -0.3600769 0.22676827 -0.017618656 0.09653854 0.15877873
-0.29413873 0.24506235 -0.057412803 0.16911629 0.18377191 -0.2673949 0.33985442 -0.4251011
0.1740942 -0.16557038 0.32233924 -0.09386125 -0.26443437 -0.056861043 0.42140567 0.2112596
-0.35583532 -0.32452956 0.10683329 0.26767978 -0.46998847 0.11471786 0.08186938 -0.32010117
-0.050153423 -0.26020092 -0.0022348263 -0.43534884 0.4141122 0.029228568 -0.2766488 -0.31825727
-0.0075610434 0.3131761 0.22891119 -0.18260951 0.23265354 0.02721402 0.40993053 -0.113028884
0.13206726 -0.25900447 -0.13992342 -0.15819257 -0.5460159 0.21301681 -0.26907942 0.24059977
-0.35011548 -0.29090774 0.26023704 -0.30678758 0.117785074 -0.0734577 -0.036467705 0.07800548
0.18493925 0.18991724 0.25589204 -0.32631382 0.35937032 -0.2878733 -0.10332548 -0.13821706
-0.07345773 -0.46856058 0.29961014 -0.18829535 -0.39234242 0.18158142 -0.10776562 -0.18845613
-0.34514615 -0.04492453 0.36170843 -0.13859901 -0.19015439 -0.3827134 -0.004103571 0.26632702
0.3205068 -0.3827559 0.12450937 -0.13594441 -0.2983844 -0.3471001 -0.46307567 -0.24077451

net.0.bias f4 [256]
00000000: 4ccf e4be ae71 b0be 1f47 dbbd 4113 853d
00000010: 9498 debd 6105 7e3e d4d5 383e 4c39 8c3e
00000020: c214 64be 7760 543e 5263 a2be 47c8 5e3e
00000030: afd2 30bd 3572 d5be b816 74bd dab1 28bc
00000040: 9b65 6e3d e4f1 cf3e 59bb 743e 227c 15be
00000050: 37eb e0bd 49f2 3cbe 2d6b 3abd 57ae c73e
00000060: 84b8 d1be 35e5 d0be 2c43 7cbe b4d1 3c3e
00000070: 6e06 503d 6566 6bbe c683 873e cad4 eb3d
00000080: 137f 2bbb e4e6 96be 0939 f2bd 9809 43bd
00000090: d0cc 8fbe 9094 493d cc95 a53d 108f 7bbe
000000a0: b10a 67be ce28 bcbe bf3a a83e 66e5 eb3e
000000b0: 8290 d5be 4cde 913e 511e 2f3e 25eb 053e
000000c0: b151 6bbe ba39 81be 1d5c b43e 61d2 f0bc
000000d0: 46f3 58bd 4d58 153f 62d3 7f3e b6e2 d4bd
000000e0: 0ab1 e9be 8298 3dbe 1a4e 933e 4296 01bb
000000f0: dcc3 893e 482d a3bd 055b fd3d 6d47 16be
00000100: 3ec9 49be fd58 dbbc aeeb 64be 5461 bdbd
00000110: 902e f2bc f04f 45be 784d 90bd 73d7 f43d
00000120: 573d 89be 506b 26bd 96ff 02be 86d4 2abe
00000130: a001 db3d 0c04 d13c ba1b e1be eed7 4cbe
00000140: 44cf 45be 5648 973e f140 3fbe 70f8 a73d
00000150: 1583 4b3e 7dcc 74be bbcf 993e d2ac fabe
00000160: 6e39 5cbe aba5 83be b7a2 3f3e 2840 a5bd
00000170: 47c6 80be 4b0a a8be bdd4 693e 6caa 56be
00000180: 3114 5cbe 3ef9 29be ba3c 8e3e f2d3 5ebe
00000190: 0024 54bb c0ef ea3d 0084 0bbe a855 3b3e
000001a0: 5de1 dcbe 661a 8abe 484c d1be ba69 acbe
000001b0: 858f 383e 108a aebe 3604 9abe 5734 b73e
000001c0: 03e1 35be a06b 1abd fb93 5b3e ba39 8a3e
000001d0: edea 783d 3128 7abe 9c9e 143e 72bd b53e
000001e0: 0be4 6abe d434 2fbe 42f4 9d3e 8fbd 8abe
000001f0: ad63 a93e 723c 4ebe 0bdf 70be f5df 08bd
00000200: ec16 6fbe db0a 7a3e a2dd 77be 620c 49be
00000210: b49a 97bd 3860 85be 858a 573e fb59 9d3e
00000220: a2ee dabe 1bf1 463e af8e cc3d 207d 78be
00000230: 78ba 943e 8648 64be ad20 0d3e 807b 62bd
00000240: 4438 403e 735e 60be 6a27 babe bd6c 05be
00000250: 6ec1 44be 40b7 673c b594 863e f046 a4be
00000260: 609d 093e af35 563e 6c21 d53e 356b 603d
00000270: 784d 2e3e 6060 c63e 44b5 a6be 8885 843e
00000280: 2469 163e 4420 9cbe 6663 dcbe 380a bbbc
00000290: 547f 21be 7643 39be e05d 7d3c c4d6 bd3e
000002a0: 9e16 d3be 7df1 bf3e ce7e 7a3e ae5f a6bd
000002b0: 8da3 d3be e0a1 633d 8ee9 193e 1bd0 92be
000002c0: 36a5 26be cd09 503a ae54 463e 6311 9cbe
000002d0: 468e 0cbe 7823 c9be a4f3 86bd 0f1a 9a3d
000002e0: e08e 2e3d 48ab 72bd 6a1d 383d dae7 eebe
000002f0: 1b54 b1be 8e68 27be fb98 24be fc4a ba3d
00000300: 9fea 95be 442b 9d3e 64bf d7be 021b 25be
00000310: ac7d 8abe ddcd bb3e 0067 dd3c b413 8d3d
00000320: d0b5 1ebe 12cf e9bc 1670 9bbe aa85 dd3d
00000330: fbfd fc3d bbbc 24bd 080d c2be ded5 dabe
00000340: 60a9 1f3b 9af6 59be f427 c1be 8889 b73a
00000350: d3d6 823e fe1b 993e 48b6 7fbe 4ffc 4cbe
00000360: e061 67bd f7be b43e 566f 13be cab8 2ebe
00000370: 0fd9 e33e 3203 0d3d deb0 8abe 8b67 553e
00000380: 14f3 aebd 99c6 49be ea3a 1bbe 4ff1 0e3e
00000390: 30cc 26bd 23c4 913e 048d aabe 82a7 9c3e
000003a0: 3971 ed3e dc01 4d3e 5799 8b3e 7f63 493e
000003b0: 534c 083e 78a5 ce3d ae3e 7fbe 3efc 8abd
000003c0: db1e afbe b501 573e bc44 b5be c3db 15be
000003d0: 1f0a 893e a9aa babe 0a25 273e 779a 5bbe
000003e0: 2271 013f 4c34 a83e 953e a53e 9631 a8be
000003f0: 7e9a c0be c91e 293e 9eac ca3d 536c 1d3d
-0.44689405 -0.3446173 -0.10706925 0.06497813 -0.10868946 0.2480674 0.18050319 0.27387464
-0.22273543 0.20739923 -0.317164 0.21756087 -0.043169674 -0.41688696 -0.05959198 -0.010296309
0.058202367 0.40614235 0.23899592 -0.14598134 -0.10982364 -0.184518 -0.045512367 0.39000198
-0.40961087 -0.4079987 -0.24634999 0.1843937 0.05078738 -0.22988279 0.26467723 0.11515196
-0.0026168271 -0.2947303 -0.11827285 -0.04761657 -0.28085947 0.049213946 0.08085212 -0.24566293
-0.22562672 -0.36749882 0.3285732 0.46073455 -0.41711813 0.28489912 0.17101409 0.13077982
-0.22980382 -0.25239354 0.35226527 -0.029397191 -0.05296638 0.5833786 0.2498298 -0.10394804
-0.45642883 -0.18515208 0.28770524 -0.0019773399 0.2690724 -0.07967621 0.12370876 -0.14675684
-0.19705674 -0.026775831 -0.2235553 -0.092470795 -0.029563218 -0.19268775 -0.07046026 0.11955156
-0.2680461 -0.040629685 -0.12792811 -0.16682634 0.10693669 0.025514625 -0.43966466 -0.20004246
-0.19317347 0.29547375 -0.18677117 0.082016826 0.19874223 -0.23906131 0.30041298 -0.48959976
-0.21506283 -0.25712332 0.18714415 -0.080688775 -0.25151274 -0.32820353 0.2283506 -0.20963448
-0.21492077 -0.16598985 0.27780706 -0.21760538 -0.003237009 0.1147151 -0.13624573 0.18294394
-0.4314069 -0.26973265 -0.4087851 -0.33674413 0.18023498 -0.34089708 -0.30081338 0.3578212
-0.17761616 -0.037700295 0.21443169 0.26997167 0.060770918 -0.24429394 0.1451363 0.35496098
-0.22938554 -0.17109996 0.30850416 -0.27097747 0.3308386 -0.20140246 -0.23522584 -0.033416707
-0.23348588 0.24418204 -0.2420564 -0.1963363 -0.07402554 -0.26049972 0.21048935 0.30732712
-0.42760187 0.19427912 0.09988152 -0.24266481 0.29048514 -0.2229329 0.13781996 -0.05529356
0.18771464 -0.2191103 -0.36358196 -0.13029762 -0.19214413 0.014142811 0.2628533 -0.3208537
0.1343894 0.20918916 0.4162706 0.05478974 0.1702174 0.38745403 -0.3256017 0.25883126
0.14688545 -0.30493367 -0.43044585 -0.022832021 -0.15771228 -0.1809214 0.015464276 0.37077916
-0.41228193 0.37488928 0.24462435 -0.08123718 -0.41335717 0.055574298 0.150305 -0.28674397
-0.1627396 0.0007936031 0.1936824 -0.30482015 -0.13726148 -0.39284873 -0.065894395 0.075245015
0.042616725 -0.059245378 0.044949926 -0.46661264 -0.3463448 -0.16348478 -0.16073982 0.090963334
-0.29280564 0.30697072 -0.42138207 -0.16123584 -0.27049005 0.366805 0.027026653 0.06888524
-0.15499043 -0.028541122 -0.30358952 0.1081651 0.123531304 -0.04021905 -0.37900567 -0.42741293
0.002436243 -0.21285477 -0.37725794 0.001400278 0.25554523 0.2990417 -0.24971879 -0.20018123
-0.056489825 0.35301945 -0.1439794 -0.17062679 0.4450154 0.034426875 -0.27088064 0.2084028
-0.08542457 -0.19704665 -0.15159193 0.1395924 -0.040722072 0.28469953 -0.3331071 0.30596548
0.46375445 0.2002024 0.27265427 0.19666861 0.13310365 0.100901544 -0.24926254 -0.06786393
-0.34203228 0.20996745 -0.35404003 -0.14634614 0.26765534 -0.36458328 0.16322723 -0.21445642
0.5056325 0.328524 0.3227431 -0.3285033 -0.37617868 0.1651565 0.09896205 0.038433384

net.2.weight f4 [256, 256]
00000000: 5a5f 75bd 6427 85bd 56a1 19bd 3f93 aebd
00000010: 00be 003d 99d9 3dbd ae91 f0bd b460 ffbd
00000020: 11d1 e9bc 2e9f 84bd 2963 813c 5294 563a
00000030: 1a25 823c c0da d53b 8059 9fbd 7e20 4ebd
00000040: 7ada c8bc cdcc 86bc 04a8 adbd d824 0bbc
00000050: 2999 efbd 918e 7bba fa67 25bd b3d0 87bd
00000060: f2e7 553d 983b eabc 5973 7cbd 8a8b 14bd
00000070: 36fe 43bc bd20 e8bd 86a3 7ebc ecae 253d
00000080: 7539 60bc 88e1 62bc 4252 fd3c b038 4d3d
00000090: 64d0 35bd 1e6c 39bd f7aa b0bd 24fc 58bd
000000a0: 9d8c fb3c fc69 ff3c cb2e cebc 4c65 e4bc
000000b0: 0339 88bd 7557 5dbd 1651 acbc 283e 59bd
000000c0: 5208 6ebd b25d 1bbd 02da 2cbc 98da 6dbd
000000d0: ff7d 3abd f149 f3bd eb28 1cbd c0cb a0bd
000000e0: 9744 5bbd 9f56 9cbd ed56 02bd f295 d0bd
000000f0: 14cc 2f3d c977 6c3c e391 aa3d 7d56 43bd
00000100: 9cbd 0ebc a099 91bd e502 b2bc 8ac8 c8bd
00000110: bc7a 413d 87d7 12bc 7225 05be 237c d4bc
00000120: dda9 2cbd 50b7 d8bc 607b 1fbd 2eed 9e3c
00000130: c483 66bd 74c3 c3bc 58d6 10bc 1096 ef3b
00000140: c1e7 0cbe c3ae 5dbc 4e71 f8bb a01b 66bb
00000150: ea31 bebb 8870 493d 344f 30bd e0ba 2a3c
00000160: 5fbb 02bd 1db1 fabd 20d9 05be d5f7 af3c
00000170: caf8 debc 72ef a33c 2d8d 96bd 4467 b7bd
00000180: c30c bfbd 3812 2bbc 40bd dabc 6b47 21bb
00000190: a25b 2fbd f061 983b eb6c 2cbd dae3 6cbd
000001a0: 56bf 1cbd 30c9 5dbc 40e1 02bb 21b4 79bd
000001b0: b872 1ebd 86ca 24bd b0b9 6fbd 01b0 03be
000001c0: 1295 95bc 00ed 86b9 6bf6 693c b0aa e2bc
000001d0: b8f2 8bbd 2e63 093d ec11 933c f566 e0bd
000001e0: d90f 7cbc 7034 5abd 0937 a7bd e693 a8bc
000001f0: 45ea 2fbd 68f6 4fbd eccc 47bd 27bf abbd
00000200: 7426 743d c9f8 30bd 3efe ccbd 429b 5bbd
00000210: e069 753c c86a 1abc 621d 19bd c99b fdbd
00000220: 7f17 49bd a66e 94bc 34d4 cf3c 28ec 623c
00000230: 12cb b0bd a626 b3bb 41e1 57bd d2c9 15bd
00000240: b21c aebd 7368 adbd a8a0 f83c 0680 e0bd
00000250: e0b5 edbc 7016 ef3c db6f 873c 54ee 21bd
00000260: 2462 a2bc 87e8 25bd d5a0 993c 530c 15bd
00000270: 431f 02be 7ebb 04be ba7e 4b3d 9983 30bc
00000280: d586 dbbd 9a2d 23bd 3d32 bebc 49e9 adbd
00000290: 88e1 113c 5251 383d 8e6f 773d 60f4 bcbd
000002a0: e8ee 613c 7b07 38ba f37c 0fbd a816 debc
000002b0: 102f 56bd 1663 59bd a3f2 3fbc f4de 0e3d
000002c0: e3d1 a5bd 32d2 a33b e0a3 99bd 1c4e d93c
000002d0: 700e 14bd c000 0fbb fc6a 2b3d 2c83 0abd
000002e0: 7475 3b3d 609a 21bc 8d8d 8bbd 7d26 82bd
000002f0: ce48 5a3d 1377 42bc 7999 8dbd 6c75 11bd
00000300: d0c3 df3c 52c1 6ebd aaad c0bd 073a 9fbd
00000310: 4f60 0abc 4950 77bc 1c78 abbd 12b0 20bc
00000320: 5078 ebbb 9e97 103d bebb 18bd c408 c33c
00000330: dc7e b1bc 2145 e9bd d836 e63c de4d 4dbd
00000340: d7f0 a2bd 183d 203d 461a 6cbd 230f 6dbd
00000350: 9953 4fbd 631a c7bc b821 35bd c065 92bb
00000360: 700e f73b a984 eebd 21ae a8bc 082f b23d
00000370: e025 babd a94f 6abb 7b20 b4bd ab15 12bd
00000380: d0ad ec3b 0a6f 53bd 9fd6 43bd 5f18 86bc
00000390: 888c 473c d2a1 4ebd 701d 7ebd dedc 5ebd
000003a0: d469 0bbe e6c1 4d3d 9ab7 f0bd e05b 75bb
000003b0: 39e4 9dbd 4bfe a3bd fa80 ecbd 57e5 18bd
000003c0: 043a 953c d162 6abd fb44 f7ba 54c4 363d
000003d0: 6658 5ebb 12b5 8cbd f6b3 c2bd 8f9c e939
000003e0: 59dd c7bd 321a f5bd d7c4 6dbd de73 9cbd
000003f0: e22a 59bd f3fb e0bd f6fd 983c a2b4 0fbe
-0.059905387 -0.06501654 -0.037507378 -0.08524179 0.031431198 -0.046350095 -0.11746536 -0.124696165
-0.028542073 -0.064756736 0.015794354 0.00081855536 0.015886832 0.006526321 -0.07780743 -0.050323956
-0.02451824 -0.016455078 -0.08479312 -0.008492671 -0.11699135 -0.0009596134 -0.040382363 -0.06631603
0.052223153 -0.02859287 -0.06163344 -0.036265887 -0.011962464 -0.11334369 -0.015541917 0.04045002
-0.013685574 -0.013847716 0.030923013 0.05010289 -0.04438819 -0.045269124 -0.08626359 -0.052974835
0.030706698 0.031178467 -0.025168797 -0.027880333 -0.06651499 -0.054038484 -0.021034759 -0.053037792
-0.058113404 -0.03793115 -0.010550024 -0.058069795 -0.045530315 -0.118793376 -0.03812496 -0.07851362
-0.05353221 -0.07633709 -0.03182118 -0.1018485 0.042919233 0.014432856 0.08328607 -0.047689904
-0.008712199 -0.0710938 -0.021729896 -0.09803875 0.04723619 -0.008962519 -0.13002566 -0.0259381
-0.04215418 -0.026454598 -0.03893602 0.019400205 -0.056278005 -0.02389691 -0.008840166 0.00731159
-0.13760282 -0.013530436 -0.0075818663 -0.003511168 -0.00580429 0.049179584 -0.043044284 0.010420531
-0.031916972 -0.12240813 -0.13071108 0.02148048 -0.027218241 0.020011637 -0.07351146 -0.08955243
-0.09328606 -0.010441355 -0.02670157 -0.0024609219 -0.042811997 0.004650347 -0.04209606 -0.057834484
-0.03826841 -0.013536736 -0.0019970685 -0.0609628 -0.038683623 -0.040232204 -0.058526695 -0.12860109
-0.018259559 -0.0002573505 0.014279942 -0.02766928 -0.06833404 0.03354185 0.017952882 -0.109571375
-0.015384638 -0.053272665 -0.08164794 -0.020578336 -0.042948026 -0.0507721 -0.048779413 -0.08386069
0.059606984 -0.04320601 -0.1000943 -0.053614862 0.014978856 -0.009424873 -0.037381537 -0.12383229
-0.049094673 -0.018119168 0.025369741 0.013850249 -0.086324826 -0.0054672537 -0.052705053 -0.036569424
-0.08501567 -0.08467188 0.030350044 -0.109619185 -0.029017389 0.029185504 0.016532829 -0.039533928
-0.019822188 -0.04050496 0.018753449 -0.036388706 -0.12707238 -0.12962148 0.049681403 -0.010773563
-0.107190765 -0.03983841 -0.023217315 -0.08491761 0.0089038685 0.044999428 0.06040912 -0.09226298
0.01378987 -0.00070201576 -0.03503127 -0.027110413 -0.052290976 -0.05307301 -0.011715564 0.034880593
-0.08096673 0.0049994225 -0.0750196 0.026526503 -0.03614658 -0.0021820515 0.041850075 -0.0338165
0.04576631 -0.009863466 -0.06814108 -0.06354997 0.05329209 -0.01186921 -0.06914038 -0.035512373
0.02731505 -0.058289833 -0.09408124 -0.0777474 -0.008445813 -0.015094825 -0.083725184 -0.009807603
-0.007185973 0.035300843 -0.03728842 0.02380789 -0.021666937 -0.113901384 0.028102323 -0.050123088
-0.07956093 0.039120764 -0.057642244 -0.057875764 -0.050616834 -0.024304574 -0.04422161 -0.004467696
0.007539563 -0.11646397 -0.020590844 0.08700377 -0.09089255 -0.0035753048 -0.08795258 -0.035665195
0.0072228685 -0.051619567 -0.0478121 -0.016369043 0.012179501 -0.050447293 -0.062039793 -0.054409854
-0.13614589 0.050233744 -0.11753769 -0.0037438795 -0.07709546 -0.08007487 -0.11548038 -0.03732809
0.01821614 -0.057223145 -0.0018865162 0.044620827 -0.0033927201 -0.06870474 -0.09506981 0.00044557868
-0.097590156 -0.11967887 -0.05804905 -0.076392874 -0.05301941 -0.109855555 0.018675786 -0.1403375

net.2.bias f4 [256]
00000000: a900 f8bd e874 a33c 6660 0b3d 009d cb3b
00000010: d402 77bd fb91 91bb 5859 0b3c bfae 16bd
00000020: 8c48 38bd 82df 22bd acd6 123d 10e1 dc3c
00000030: 3cff cebc 2c75 863c 24d5 0cbe be4e e73c
00000040: d287 74bd e195 493b 98ad d4bc 1adb 01bc
00000050: 26fc 36bd 9715 fabc a068 2bbd e122 f7bd
00000060: 2dce d8bd c534 5b3d 52a5 e5bc 779a 95bc
00000070: ba95 c9bd a93e 8cbd 05e9 683d f09d 11bc
00000080: c97c 24bc 202f a2bd 0084 e63b 7468 edbb
00000090: 1902 3cbc 98c9 76bd 005a 63bc d70d 90bc
000000a0: d654 8ebd 28c7 d4bc 818e c63b 03c7 b0bd
000000b0: 5c51 a03a 80d8 b5bc 48fb 29bd d1a7 14bd
000000c0: bf74 d9bc 70dc 97bd c0f4 c53c 31da f33b
000000d0: 74be 56bd 588b 10bc 423d 96bc b8af 2bbc
000000e0: 2416 1ebd 6861 6f3c 295c 72bd 0793 4abd
000000f0: b8c1 26bd cd2f debd aec6 673c 20f8 193c
00000100: f572 dbbc c089 3f3d 524a 853b 50a5 25bd
00000110: ab65 8dbd 416d 263b db5e bebd 2911 40bc
00000120: 7e21 563d 37a4 c33c 09fc 903c 65fb d3bd
00000130: 5b49 efbc 4cbf 8ebd 2486 053a 60b0 683b
00000140: be34 78bd c480 ca3c b0b1 e1bd 543e 0a3d
00000150: ce29 7dbd c2ae b0bd af29 aabd 4c07 b1bc
00000160: fc14 0ebe 3dd5 a5bc d05d b1bc 78f2 7ebd
00000170: fe3d 22bd 2420 203d 7857 8bbd 085a 04bc
00000180: 0686 4cbd a2d7 b2ba f0bd 71bd 5133 9c3c
00000190: f2e0 72bd a543 07bd 3a02 2cbd 562d 2dbb
000001a0: d9de 8cbc 8434 09bd b5f9 0fbc 3f3a e2bc
000001b0: 1e5a 28bd a7e1 d5bd 88ac 7f3e 12ee c8bd
000001c0: 4c6e 703d ac95 7cbd 8966 edbc 7e62 57bd
000001d0: 7afd 733c 9d9d 74bb eea6 e9bd 3f13 dbbd
000001e0: 925b 173d 73f8 413c a011 563b 2cea f33c
000001f0: 4652 36bd 60b2 60bc 1084 5dbd 3c97 b93d
00000200: d04f 52bc 72bd 8d3a 96f8 d1bd c8ce 71bc
00000210: e7fa 0cbb 4f3c 873b 7287 29bd be11 09bd
00000220: 52af 56bb a16d 20bc a43c 47bd 8d0b 06bd
00000230: af05 253d 208d d4bd d147 41bd 68d1 1c3b
00000240: 5cb9 c0bd 2523 5c3c 7433 f4bd b021 a1bd
00000250: 082d 60bd 85cc 21bd a760 1ebd 24c6 4ebd
00000260: 1489 64bd 3e51 54bd 335e 933d 66d2 45bd
00000270: dabc e3bd 800e a6bb 3cc4 9dbd 22c8 173d
00000280: 158c 2ebd e8df 5a3d 08b5 2e3c 2e27 15bd
00000290: c5b8 cf3c 569f 53bd 0233 93bc f822 71bc
000002a0: 77a8 95bd 8c31 713d 37ba 1ebd fbf5 91bc
000002b0: 0883 fabc 2558 0d3d 1c47 c1bc 6337 f7bd
000002c0: 58f6 61bd f427 b5bc d37d aebd 9588 7dbd
000002d0: 2562 00bd f8fe 813d 664e 69bd 8615 f0bd
000002e0: 67b9 48bc cc29 5dbc 34b6 f63c 49f5 0abc
000002f0: a16b 693d 314d a3bd 68b6 063c 25d7 78bd
00000300: e0c5 6f3c 1bc2 893a 5f16 96ba b6d3 c7bd
00000310: e126 95bd 7382 5dbd 4f09 cbbd 606e dbbd
00000320: a7c7 74bd 488e a1bc 8d85 8ebd b08c 203c
00000330: 8e77 d2bd 7e14 e4bc 7640 093d 5f8d d2bd
00000340: 1cd6 83bc 3805 52bd 7e4d e43c f525 6b3c
00000350: 78ac b1bd a97f 8abb fc65 c7bd 8c38 183b
00000360: aef4 ddbd 2e9a 8fbd aac9 14bd c08b 61bb
00000370: be45 0c3b 006a 3fbc c8a1 8fbd f71b 703c
00000380: 9871 98bd 570c 8cbd 3e92 5d3c d002 f5bc
00000390: c4b7 4fbd 8f6f 09bd 41b9 af3b 84fe 7bbc
000003a0: ac76 b1bd f2db 79bd 2c00 f33c 73cf 92bc
000003b0: 057f 67bd 4c3d 5dbd 0844 24bd 0ba5 75bd
000003c0: fe73 3ebd fbab 96bd 067b 82bd 76ec 5a3d
000003d0: 0708 f1bd b4e7 09bd 2a57 11bc 4a0e 453d
000003e0: 0812 5f3d eb8a 2ebd 1228 d73d 4492 abbd
000003f0: dc12 f33c 465d 733d cf5a 9fbd 93fe 72bd
-0.12109501 0.019953206 0.03402748 0.006213784 -0.06030543 -0.004442451 0.008505188 -0.036787745
-0.04499106 -0.039763935 0.03584926 0.026962787 -0.02526819 0.016413294 -0.13753182 0.02823579
-0.05969984 0.00307595 -0.025961682 -0.007925773 -0.04467406 -0.030527873 -0.041847825 -0.120671995
-0.105862 0.05351712 -0.028032932 -0.018262131 -0.09843011 -0.06847889 0.05686285 -0.008887753
-0.010039517 -0.07919145 0.0070347786 -0.007245118 -0.0114751095 -0.06025085 -0.013876438 -0.017584724
-0.06949775 -0.025973871 0.0060594683 -0.086317085 0.0012231278 -0.022197962 -0.041499406 -0.036292855
-0.026544927 -0.07415092 0.024164557 0.007441782 -0.052427724 -0.008822285 -0.018339757 -0.010478906
-0.038595334 0.014610626 -0.059169922 -0.049456622 -0.04071209 -0.10848961 0.01414649 0.0093975365
-0.026788214 0.046762228 0.0040676976 -0.040440857 -0.06904157 0.002539471 -0.09295436 -0.011722841
0.052278034 0.023882015 0.017698305 -0.10350684 -0.029209783 -0.06970081 0.0005093536 0.0035505518
-0.060597174 0.024719603 -0.11020219 0.033750847 -0.061807446 -0.086270824 -0.08308732 -0.021609925
-0.13875192 -0.020243281 -0.021651179 -0.062242955 -0.0396099 0.03909315 -0.06803793 -0.008078106
-0.049932502 -0.0013644586 -0.05901903 0.019067438 -0.059296556 -0.033023495 -0.04199431 -0.0026424727
-0.017196106 -0.03349735 -0.008787562 -0.027615665 -0.041101567 -0.104434304 0.24968159 -0.09811033
0.058698937 -0.061666176 -0.028979557 -0.052584164 0.0148919765 -0.003732539 -0.114087924 -0.1069703
0.036952563 0.01183902 0.0032664314 0.029774748 -0.044512056 -0.013714403 -0.054081023 0.09062049
-0.012836412 0.0010813905 -0.10252492 -0.014758773 -0.0021511854 0.0041270624 -0.041388936 -0.033464186
-0.0032758308 -0.009791763 -0.048641816 -0.03272586 0.040288623 -0.1037848 -0.04718763 0.0023928527
-0.094103545 0.0134361135 -0.119238764 -0.078677535 -0.054730445 -0.039501686 -0.038666394 -0.05048193
-0.05579479 -0.05183529 0.071957015 -0.048296355 -0.11120005 -0.0050676465 -0.07703444 0.037056096
-0.04261406 0.05343619 0.010663278 -0.036414318 0.02535666 -0.051665626 -0.017968658 -0.01471781
-0.07307523 0.058885142 -0.038751807 -0.017817488 -0.030580059 0.03450789 -0.023593478 -0.12071111
-0.055166572 -0.022113778 -0.08520093 -0.061897833 -0.031343598 0.063474596 -0.056959532 -0.11722855
-0.012251235 -0.013498735 0.030116178 -0.008481332 0.05698741 -0.079737075 0.0082222 -0.060752053
0.014634579 0.0010510118 -0.0011450759 -0.097571775 -0.07282806 -0.054079484 -0.09913885 -0.10714412
-0.059760716 -0.019721165 -0.069590665 0.0097991675 -0.102767095 -0.027841803 0.03350874 -0.10280871
-0.016093306 -0.05127451 0.027868982 0.014352311 -0.08675474 -0.004226644 -0.09736249 0.0023227064
-0.108376846 -0.07011829 -0.036325134 -0.0034415573 0.0021403874 -0.011682987 -0.07013279 0.014655105
-0.07443541 -0.06838291 0.013523636 -0.029908568 -0.050712362 -0.033553656 0.00536266 -0.0153805055
-0.08665213 -0.06100077 0.029663168 -0.017921185 -0.05651762 -0.054013535 -0.040103942 -0.05997185
-0.046497338 -0.073570214 -0.06371121 0.053448163 -0.11769109 -0.033668235 -0.008870879 0.04810933
0.054460555 -0.04261295 0.1050569 -0.08377507 0.029672079 0.059415124 -0.07780992 -0.059324812

net.4.weight f4 [2, 256]
00000000: 569f 2b3c 8a3d ae3b ae03 15bd 80cb 38bd
00000010: d85f 8a3c 9c42 1b3d c2f1 373d 30f0 353a
00000020: d264 1dbd 9e72 06bd 60a0 31bd dd43 193d
00000030: cd43 dcbc 10c6 c1bc a487 b1bd b139 abbc
00000040: 9554 c33b 7d58 70bc aee2 583d 235e 133b
00000050: d3d2 7abc 83de bf3c 8fa6 373c bcd8 3c3d
00000060: e434 993c 46d8 053d cd5d 7e3c 9b82 893c
00000070: 9621 20bd e123 5d3b d3fd 8fbc d021 fb3c
00000080: 65f4 56bd e8f5 b63b e3a7 4fbc ca45 993c
00000090: da00 86bd e49f 533d 30f8 8c3d fed7 9dbd
000000a0: c02f 2a3d 907e e63b 2559 b7bc 1e9d c8bd
000000b0: e4e8 c8bd 514a 55bd 5c87 843c 5c46 f0bc
000000c0: c623 913c 682e 743d 807e dfbc da4e 15bd
000000d0: a04d 5dbc 3cc4 d2bc ca96 ce3d 68ef 4abc
000000e0: 6e92 513d d01d d63c 5d8b 923d c141 a13c
000000f0: 61fe cf3d 2ec4 b6bc 32d3 8cbd 1cb3 f63c
00000100: a9f0 9e3d 8025 81ba 5d9c 92bd 18c2 553d
00000110: bdd7 47bb c412 28bd d3ab 25bd b253 933c
00000120: 2c90 113d 8c7b 60bd 9309 e5b9 8261 96ba
00000130: f62b 873d 76c1 fabc a904 27bc 441b 79bd
00000140: 65b7 bd3c 4426 90bd 99b4 853c 6030 e1bb
00000150: a837 a6bc a86f 12bd f926 2fbc 041c 84bc
00000160: 66ff 693c 6812 4ebd f96e e9bb eab2 153d
00000170: e2e5 393d 3eb4 74bd 6ba9 ae3d 5c28 e93c
00000180: 3e55 833d beac 8e3d 2273 18bd 0905 18bb
00000190: 2b98 1dbd 6953 fcbc 2df9 29bd fa4c 803d
000001a0: 79f0 b93c 8097 d8bc 37ab 21bd 90be 18bd
000001b0: b270 e13c e2a7 c93c e064 f23d 0968 a1bc
000001c0: 709c b53c 03f5 513d 1947 313c 0445 c63c
000001d0: af6b 2b3d 1859 ecba a870 343d 5c7c b73c
000001e0: eab3 2abd 2cfa 56bd 1c2d 8c3c 2cf1 72bd
000001f0: ddbb 94bd 9c51 243d 167e bebb 0547 243e
00000200: 2837 46bc d9ea 5a3d 5d4c 843d 88eb 833c
00000210: d50a d3bc 7f03 3dbd 206b 4abd 8b72 283d
00000220: 8234 dd3c c2eb bebd 7e6b 4d3c ffe8 903c
00000230: fe29 13bd 6229 193d bc9d 93bd be3b afba
00000240: 0f18 39bc a758 b23d 34df 023b ca01 a9bd
00000250: 7651 0e3d edc7 0c3d 286f 7b3d 9460 cabc
00000260: 0c3f f7bc d688 7cbd 8f53 e53b c04b e3bb
00000270: a108 17ba d278 09bd 2272 6f3d 19bb cdbb
00000280: e185 e93c 449a 3bbd 606b 31bd 7b9a 07bd
00000290: d3bd 92bb a6db 64bd f8eb 97bc 30c3 4f3d
000002a0: 0816 b3bc bb0c 0d3a f9af 2dbd 5e20 9e3b
000002b0: 28e7 dfbc fb3b bcbb 2c5a 50bd fb32 673d
000002c0: 4d18 e5bc 3a4f 813c 6e63 87bc c128 9b3d
000002d0: bd24 973d 8931 f93c 58f7 b7bc cefe 173c
000002e0: c3ab 44bd a9ee 1d3c 1c33 68bd 4df9 48bc
000002f0: 622d b53a c3ef b23d f8ff 8b3c 34f1 57bd
00000300: 02c6 19bd f196 18bc e0f3 54ba 4fbe dd3c
00000310: e6fb 15bc 23fb 82bc f85d 713c 60d3 283d
00000320: e141 5a3c 1010 a4b8 a015 ab3b a8a5 44bd
00000330: 739d 1bbb 5b29 1b3d 75e5 acbb 1ced a13c
00000340: e88d 653d 7081 293d 6ef6 99bb 12ef a1bd
00000350: ac5d 32be c448 15b9 9314 2e3d a5f5 3bbd
00000360: fcfd a13c b236 85bd f5bb 443d b0e7 0bbc
00000370: 1b49 4e3c 5431 febc 9ec1 62bc daff 5bbc
00000380: a544 c43c 8880 653c 2ddf 193c ac80 fc3d
00000390: e97f b4bc 10bc 7f3c a95f 96bc 6b6d adbb
000003a0: bba9 39bc f430 b5bc 724d 1dbd 67d7 993d
000003b0: 1d55 8e3c 880c 48bd 6f81 26bb c4cf 313a
000003c0: 11a1 423c 8b2a 5f3d 0755 10bd 4f62 2a3d
000003d0: 086d 073d 2688 8fbc dc35 af3c 948e 79bd
000003e0: a886 7abd c95e 2fbc 5575 033e a30f 773d
000003f0: e4c4 753d c8a6 61bc bfc5 bc3d fefc 323b
0.010475 0.0053173946 -0.036380462 -0.045115948 0.016891405 0.03790532 0.044908293 0.0006940393
-0.038426228 -0.03282415 -0.043365836 0.037418235 -0.026887799 -0.023654014 -0.086684495 -0.020901533
0.0059610107 -0.014669535 0.052950554 0.002248653 -0.0153090535 0.023421532 0.011209144 0.04610513
0.018701978 0.032676958 0.015525294 0.01678591 -0.03909453 0.003374331 -0.017577088 0.030655771
-0.052479167 0.0055835135 -0.012674305 0.018710036 -0.06543131 0.051666155 0.068832755 -0.07707213
0.041549444 0.0070341304 -0.022381375 -0.09795593 -0.09810045 -0.052072827 0.016177826 -0.029330425
0.017717253 0.05961457 -0.027282 -0.03645215 -0.013507277 -0.025728337 0.100873545 -0.01238618
0.051165037 0.026137263 0.07155488 0.019684674 0.10155941 -0.022310343 -0.0687622 0.030114703
0.07760746 -0.0009853095 -0.0715873 0.052187055 -0.003049358 -0.04103352 -0.040447067 0.017984245
0.035537884 -0.054805323 -0.00043685417 -0.0011473151 0.06600182 -0.030609827 -0.010193982 -0.06081702
0.023158738 -0.070385486 0.016321467 -0.006872222 -0.02029021 -0.035751015 -0.010690444 -0.01612664
0.014282083 -0.050310522 -0.0071238247 0.03654758 0.04538525 -0.059742205 0.08528408 0.028461628
0.06412743 0.06966542 -0.037219174 -0.002319636 -0.038475197 -0.030801492 -0.0414974 0.06264682
0.022697674 -0.026439428 -0.039469924 -0.03729111 0.027519558 0.024616186 0.11835647 -0.019702928
0.022169322 0.051259052 0.010820174 0.024202831 0.041850742 -0.0018031923 0.04405275 0.022398166
-0.041675486 -0.052484676 0.017111354 -0.05931203 -0.072623946 0.04011689 -0.0058133705 0.16042717
-0.012098111 0.053446624 0.06459878 0.016103521 -0.025762001 -0.046145912 -0.04941857 0.04112486
0.027002577 -0.09322311 0.012537835 0.017689226 -0.03592872 0.03739298 -0.0720782 -0.0013369245
-0.01129724 0.08708315 0.0019969465 -0.08252294 0.034745656 0.03437035 0.061385304 -0.024704255
-0.03018143 -0.061653934 0.0069984864 -0.0069365203 -0.00057614787 -0.03356249 0.058458455 -0.0062784073
0.028506221 -0.045801416 -0.04331529 -0.03310631 -0.004478195 -0.055873536 -0.018545136 0.050723255
-0.021861091 0.000538062 -0.04240415 0.004825636 -0.027331904 -0.005744455 -0.050867245 0.056445103
-0.02796569 0.015784848 -0.016526904 0.075761326 0.07380054 0.030419128 -0.02245681 0.009277059
-0.048015367 0.009639421 -0.056689367 -0.012266469 0.0013822729 0.08737137 0.017089829 -0.052720264
-0.03754235 -0.009313331 -0.00081234984 0.027068285 -0.009154296 -0.015988892 0.014731877 0.041217208
0.013321371 -7.823121e-05 0.0052210838 -0.048009545 -0.002374497 0.037881237 -0.005276377 0.019766383
0.056043535 0.041383207 -0.004698566 -0.07906927 -0.17418545 -0.00014236855 0.04250009 -0.04588856
0.01977443 -0.06504573 0.048030812 -0.008539125 0.012590672 -0.03102938 -0.013840107 -0.013427699
0.023958514 0.014007695 0.009391588 0.1232923 -0.022033649 0.015608802 -0.018356161 -0.0052925847
-0.011331971 -0.02211807 -0.038403936 0.07511788 0.01737457 -0.048840076 -0.0025406738 0.00067829737
0.011879222 0.05448393 -0.03523734 0.04159766 0.033062965 -0.017520975 0.021387987 -0.06092699
-0.061163574 -0.010703751 0.12837727 0.060317647 0.060002223 -0.013772674 0.092174046 0.002731144

net.4.bias f4 [2]
00000000: 8dfc 9e3d 7607 06bd
0.07763014 -0.03272196
