models/cross_entropy/batchsize=100-hiddensize=256-lr=0.01-gamma=.99-PART=150.pt (torch_old, 272411 bytes, 6 tensors)

net.0.weight f4 [256, 5]
-0.18086474 -0.2775225 -0.43653736 -0.1310739 -0.019042619 0.2603387 0.20364664 -0.08471445
0.04712786 -0.11443384 -0.30384693 0.29799908 -0.09958652 -0.15152448 -0.25533465 -0.034635067
-0.4375005 -0.0915339 -0.43818894 0.41212326 -0.30253848 0.17166828 0.07625795 -0.18903965
-0.38470683 -0.08435956 0.14180279 -0.02646416 0.25118232 -0.17141573 -0.2552879 0.047118396
0.37407225 0.27431422 -0.43065232 0.23263213 0.058484048 -0.22537751 -0.03634315 -0.21797253
0.09762911 -0.08102325 -0.053739566 -0.4384336 0.06284882 -0.15595806 -0.0025769947 -0.074018516
-0.4357793 0.3872216 0.2637552 -0.29592007 -0.3850274 -0.16409737 -0.4363274 0.217566
0.33329597 0.36458465 -0.22173066 -0.22601077 0.29325694 -0.42985097 0.08748255 0.22134367
0.25201082 0.23573335 0.19496326 0.34802648 0.38117322 -0.41011104 0.016587136 -0.2858308
0.08468161 0.3146702 -0.39643908 0.028537037 -0.32009813 -0.36150682 -0.35969797 0.19370045
-0.09937097 -0.27273315 -0.06435408 -0.2356284 -0.24403158 0.033105373 -0.26549715 -0.20519635
0.18185025 0.14935464 -0.019313604 0.42019588 -0.053444594 0.078942895 -0.2241261 0.035053704
0.42181173 -0.406708 0.09671763 0.05553152 -0.3225039 0.41865283 -0.43109226 0.10018611
-0.3100289 0.13972212 0.06765455 -0.30296603 -0.14674889 -0.245971 -0.008608791 0.24456841
0.2701256 0.083985835 -0.19021425 0.053529978 -0.2598235 -0.116963774 -0.39448354 0.28645456
-0.19938698 0.0074543953 0.09610939 0.19854492 0.0426583 0.23019862 0.35061666 0.35814872
-0.09067483 0.31493855 0.34751818 0.25386843 0.3162735 -0.033702318 -0.11418991 -0.2585137
0.34432346 -0.06753497 0.036559798 -0.19214514 0.34351817 -0.17129731 -0.092385195 -0.081055425
0.15640968 -0.24090573 0.34088376 0.4274845 -0.13521436 0.3506969 0.22812219 -0.31186765
-0.35434136 -0.21114588 -0.089041434 0.11096728 0.3317507 0.3079301 0.4760177 -0.26276523
-0.5085996 0.34635672 -0.48836878 0.14733446 -0.491298 0.30425155 0.36205614 -0.09390275
0.17094736 -0.41441733 -0.11420944 0.040394157 0.15750395 -0.21029513 -0.21785003 0.09731642
0.15359624 -0.36143136 -0.28334415 -0.14871185 0.23378606 0.04670965 -0.21264234 0.23432875
0.30228794 -0.4390141 -0.9156023 -0.08783911 -0.42490295 -0.22880855 0.03755361 0.42577535
-0.38219836 -0.026699722 -0.36573088 -0.03771222 0.026893789 0.2971247 -0.47143942 -0.3729973
0.23688681 -0.2666598 -0.13273199 0.35024938 -0.44680747 -0.39360964 -0.15675372 -0.18041897
0.32601374 0.09925133 0.103068806 -0.26819178 0.044320732 0.094824925 -0.3215955 -0.07419303
-0.14708477 -0.4706111 -0.4657907 0.1476672 0.17323518 -0.35834628 -0.1652972 0.18267159
-0.39152932 0.3125509 0.1503552 -0.30397326 0.24121392 -0.06575779 -0.4537896 -0.108968616
-0.08713004 -0.06825963 0.29475987 -0.2540396 0.0013763017 0.2852954 0.00204907 -0.13780741
0.3411838 -0.22693269 0.26797435 0.34467113 -0.40093458 -0.4156344 0.11314077 -0.38011387
0.38456383 -0.05260702 -0.38132814 0.06618372 -0.2549729 -0.27773207 -0.15037008 0.3358494
00000000: 9b34 39be 6e17 8ebe d381 dfbe 3d38 06be
00000010: 44ff 9bbc 1d4b 853e bf88 503e c57e adbd
00000020: 2509 413d 4a5c eabd d391 9bbe 5693 983e
00000030: 04f4 cbbd 3c29 1bbe 39bb 82be 80dd 0dbd
00000040: 1100 e0be 2076 bbbd 4d5a e0be d201 d33e
00000050: 53e6 9abe cfc9 2f3e 212d 9c3d 9c93 41be
00000060: 4bf8 c4be b4c4 acbd c034 113e 5ecb d8bc
00000070: f89a 803e 9b87 2fbe 18b5 82be 38ff 403d
00000080: 6686 bf3e ea72 8c3e 767e dcbe 1e37 6e3e
00000090: f88c 6f3d 5dc9 66be 8edc 14bd 3134 5fbe
000000a0: c5f1 c73d 85ef a5bd 051e 5cbd 5e7a e0be
000000b0: e2b6 803d 78b3 1fbe cce2 28bb 0597 97bd
000000c0: 771e dfbe e941 c63e ec0a 873e d682 97be
000000d0: 5022 c5be 2409 28be 4e66 dfbe 9fc9 5e3e
000000e0: c5a5 aa3e d7aa ba3e 5d0d 63be 5e6f 67be
000000f0: c625 963e 6d15 dcbe 0d2a b33d eaa7 623e
00000100: 9007 813e 1564 713e 73a4 473e 8730 b23e
00000110: 2329 c33e 13fa d1be bfe1 873c 6a58 92be
00000120: 8d6d ad3d 741c a13e 10fa cabe 81c6 e93c
00000130: e7e3 a3be 6c17 b9be 552a b8be 6959 463e
00000140: 0283 cbbd aea3 8bbe 12cc 83bd 9248 71be
00000150: 6ae3 79be 8099 073d 3eef 87be fe1e 52be
00000160: f436 3a3e 6cf0 183e 9037 9ebc ea23 d73e
00000170: b8e8 5abd d0ac a13d 5081 65be 7994 0f3d
00000180: b5f7 d73e 083c d0be e513 c63d 0575 633d
00000190: 3b1f a5be aa59 d63e 20b8 dcbe 602e cd3d
000001a0: 1cbc 9ebe 5113 0f3e 788e 8a3d 5d1e 9bbe
000001b0: 5745 16be d2df 7bbe e30b 0dbc 2470 7a3e
000001c0: e74d 8a3e c400 ac3d 86c7 42be 4042 5b3d
000001d0: 9607 85be b48a efbd bff9 c9be 2caa 923e
000001e0: 1a2c 4cbe 0044 f43b 00d5 c43d 5c4f 4b3e
000001f0: 78ba 2e3d 30b9 6b3e 0784 b33e 455f b73e
00000200: bab3 b9bd a03f a13e e7ed b13e 0bfb 813e
00000210: 9aee a13e 710b 0abd 66dc e9bd e85b 84be
00000220: 2a4b b03e c64f 8abd babf 153d b2c1 44be
00000230: 9de1 af3e 9068 2fbe 7334 bdbd 6300 a6bd
00000240: dc29 203e feaf 76be 5188 ae3e 40df da3e
00000250: a275 0abe 8b8e b33e dd98 693e 1ead 9fbe
00000260: 3b6c b5be a036 58be 5b5b b6bd d042 e33d
00000270: 3adb a93e 04a9 9d3e 98b8 f33e 2a89 86be
00000280: 9533 02bf ab55 b13e 790b fabe d8de 163e
00000290: 698b fbbe dcc6 9b3e 6c5f b93e 1650 c0bd
000002a0: d30c 2f3e 822e d4be a4e6 e9bd 5874 253d
000002b0: b748 213e 9b57 57be 1414 5fbe d54d c73d
000002c0: 5548 1d3e 880d b9be 7c12 91be eb47 18be
000002d0: 9d65 6f3e 9e52 3f3d eabe 59be e0f3 6f3e
000002e0: 7cc5 9a3e 75c6 e0be ea64 6abf fee4 b3bd
000002f0: e18c d9be ca4c 6abe d0d1 193d 3aff d93e
00000300: 81af c3be 60b9 dabc 1441 bbbe 2178 1abd
00000310: 5d50 dc3c bb20 983e 8260 f1be 81f9 bebe
00000320: 7592 723e a287 88be e5ea 07be e353 b33e
00000330: f3c3 e4be 3487 c9be 0c84 20be c0bf 38be
00000340: 46eb a63e 4844 cb3d bd15 d33d 6f50 89be
00000350: a889 353d 9233 c23d 2aa8 a4be 84f2 97bd
00000360: 649d 16be f0f3 f0be 1e7c eebe 1236 173e
00000370: 9064 313e 2a79 b7be ab43 29be 430e 3b3e
00000380: 8876 c8be ac06 a03e b7f6 193e 62a2 9bbe
00000390: c800 773e 05ac 86bd 1c57 e8be f02a dfbd
000003a0: 3c71 b2bd b4cb 8bbd c4ea 963e 7a11 82be
000003b0: 0665 b43a 3d12 923e b149 063b 631d 0dbe
000003c0: a5af ae3e 0b61 68be ef33 893e bc78 b03e
000003d0: 4c47 cdbe 08ce d4be 59b6 e73d 499e c2be
000003e0: 8de5 c43e 757a 57bd 713d c3be 558b 873d
000003f0: cf8b 82be e632 8ebe 9dfa 19be 74f4 ab3e

net.0.bias f4 [256]
0.2748393 0.0016432084 -0.33041197 -0.30486548 0.1801364 0.09138145 -0.3941334 0.08743589
-0.007341662 -0.09467867 -0.24462959 0.28585476 0.16135415 0.3726449 0.2179079 0.40954617
0.23816073 -0.33477658 -0.42948484 -0.0030164784 0.01166749 0.37106913 -0.41627863 -0.3120497
-0.27833286 0.2208963 -0.38225773 -0.019961659 -0.24994244 -0.29715547 0.31092054 -0.12231433
0.25823864 0.068646684 -0.019080674 0.19255947 0.27870503 0.3356584 -0.17879859 0.22897348
0.11629176 0.4400638 0.3366942 0.22433628 0.11290206 -0.41576734 -0.021792984 0.13779931
0.0015139815 -0.07589065 0.2953132 -0.40252036 0.13747674 -0.19394875 -0.3074268 -0.13206993
0.19242927 -0.40243626 -0.26784354 -0.07469499 0.111170135 0.3921827 0.27809057 0.17223676
-0.27772665 0.106903024 0.10780728 0.19597535 -0.21484125 -0.36763763 -0.0017289519 -0.22686459
0.12677543 -0.067270726 0.00931681 -0.32493564 -0.45737222 -0.43524605 0.0051354836 -0.4408197
-0.19234884 0.23678596 0.03802646 -0.4164272 -0.1481196 -0.013334082 -0.34598914 -0.45471138
-0.24009307 -0.16875765 -0.30709785 0.04830075 -0.2540325 -0.45156467 -0.50175846 0.31083578
-0.068331264 -0.391911 -0.13860655 0.33007747 0.28306398 -0.44384497 -0.2617945 -0.44564542
-0.39784336 -0.28344584 -0.19283973 0.2129876 0.2596554 0.056605715 -0.088348866 -0.32327345
-0.19085717 0.22875576 -0.11632776 -0.2749508 0.4676957 -0.32985422 0.34233356 0.0019395406
0.32133856 -0.1421392 -0.35534924 0.3152145 -0.18465786 -0.37096494 -0.0030242126 -0.48644552
-0.29585657 -0.0115859 -0.0753711 -0.43206012 -0.2822582 0.37610748 -0.28022897 -0.1322289
-0.07805514 0.0738279 0.38525888 -0.012188095 -0.39001006 -0.033994343 0.17629936 -0.40488124
0.043183673 0.08660927 0.0095126415 0.0785908 -0.34061092 0.14689866 0.2040344 -0.28985888
0.04519427 0.21825522 0.068731956 -0.512497 -0.16105841 -0.39768612 -0.32905248 0.2737245
-0.38621232 -0.3964111 -0.20357247 0.19670418 0.17302185 0.44061264 -0.26575926 0.3194574
-0.3459641 0.077749714 0.06677735 -0.4595349 0.4048686 -0.23032741 -0.22226243 -0.17117393
0.19270669 0.10097557 0.030102007 0.27423534 -0.2484343 0.103048354 0.18633132 -0.36554113
0.263249 -0.16827646 -0.037505347 -0.39810276 0.50757194 0.12992883 0.2764105 0.1355239
0.1322572 0.2599403 0.027313434 -0.100572586 -0.48545524 -0.14971355 -0.33179468 -0.16837187
-0.24296854 -0.4270244 -0.07514319 0.24428242 -0.19499083 -0.09930701 -0.44409522 -0.018035097
-0.059377372 -0.41123304 0.17199205 -0.047835585 -0.35039034 -0.27070504 0.24113752 -0.179509
0.03005807 -0.41060218 0.08330894 -0.4810816 0.25522724 -0.13190016 -0.32812446 0.12113478
-0.11887482 -0.23756073 0.090111285 0.36454517 -0.062772736 0.11231274 -0.11372338 -0.3777876
-0.41000932 -0.0070271688 0.20757051 0.054366425 0.2083728 0.05135845 -0.122191526 0.34301066
0.283955 0.22915398 0.19019923 -0.33718133 0.10763748 -0.3032465 -0.26918522 0.16420764
0.40593618 0.3534428 -0.14500394 -0.038361587 0.22938967 -0.17571306 0.2211345 0.2869891
00000000: bdb7 8c3e ed60 d73a c22b a9be 5417 9cbe
00000010: ad75 383e 3326 bb3d dacb c9be 9711 b33d
00000020: 5392 f0bb e4e6 c1bd 2e80 7abe 8e5b 923e
00000030: 063a 253e 50cb be3e 4023 5f3e 09b0 d13e
00000040: 68e0 733e d667 abbe 70e5 dbbe 1cb0 45bb
00000050: 0029 3f3c c6fc bd3e 7922 d5be fac4 9fbe
00000060: a581 8ebe a432 623e 49b7 c3be a286 a3bc
00000070: e9f0 7fbe c324 98be fa30 9f3e ef7f fabd
00000080: db37 843e a296 8c3d 134f 9cbc 4f2e 453e
00000090: 6db2 8e3e 6bdb ab3e fa16 37be 0678 6a3e
000000a0: 602a ee3d 0b50 e13e 2f63 ac3e 69b8 653e
000000b0: 3239 e73d 75df d4be 3387 b2bc 431b 0d3e
000000c0: ca70 c63a 8f6c 9bbd 4b33 973e 2617 cebe
000000d0: b4c6 0c3e 809a 46be 0c67 9dbe 573d 07be
000000e0: 2e0c 453e 200c cebe ca22 89be b0f9 98bd
000000f0: 2bad e33d 2ccc c83e e361 8e3e d55e 303e
00000100: 3032 8ebe f9ef da3d 10ca dc3d c3ad 483e
00000110: 58ff 5bbe 003b bcbe 009e e2ba 314f 68be
00000120: 6bd1 013e 3cc5 89bd 89a5 183c f75d a6be
00000130: b12c eabe 92d8 debe 8f47 a83b 1fb3 e1be
00000140: 18f7 44be 0578 723e a2c1 1b3d f235 d5be
00000150: aaac 17be 3277 5abc 7d25 b1be eecf e8be
00000160: f5da 75be cece 2cbe ee3b 9dbe 02d7 453d
00000170: 8c10 82be 7c33 e7be 3e73 00bf de25 9f3e
00000180: 43f1 8bbd 8fa8 c8be e0ee 0dbe eaff a83e
00000190: c3ed 903e a63f e3be ee09 86be a32b e4be
000001a0: 20b2 cbbe d01f 91be c777 45be 6c19 5a3e
000001b0: 8df1 843e 65db 673d 40f0 b4bd 1984 a5be
000001c0: 1070 43be f33e 6a3e 403d eebd 5ac6 8cbe
000001d0: d075 ef3e a7e2 a8be 5846 af3e 2f38 fe3a
000001e0: 7d86 a43e f08c 11be 56f0 b5be cc63 a13e
000001f0: f316 3dbe 1eef bdbe de31 46bb 630f f9be
00000200: 837a 97be c9d2 3dbc 2a5c 9abd fc36 ddbe
00000210: 2684 90be 2991 c03e 2c7a 8fbe 0367 07be
00000220: 60db 9fbd 1533 973d a740 c53e 93b0 47bc
00000230: 66af c7be a73d 0bbd d287 343e 984c cfbe
00000240: 5de1 303d 3360 b13d e9da 1b3c 37f4 a03d
00000250: 8e64 aebe 9a6c 163e 65ee 503e 6268 94be
00000260: a01d 393d 4c7e 5f3e 57c3 8c3d 0133 03bf
00000270: 7fec 24be 849d cbbe 9179 a8be 9e25 8c3e
00000280: 9fbd c5be 65f6 cabe 4d75 50be d26c 493e
00000290: a42c 313e fb97 e13e 9911 88be ec8f a33e
000002a0: 3522 b1be 3e3b 9f3d 90c2 883d 2948 ebbe
000002b0: f04a cf3e f3da 6bbe c398 63be 3848 2fbe
000002c0: e754 453e 48cc ce3d 7c98 f63c 9368 8c3e
000002d0: 9065 7ebe 040b d33d a3cd 3e3e 3528 bbbe
000002e0: 93c8 863e aa50 2cbe 359f 19bd 20d4 cbbe
000002f0: 3cf0 013f 100c 053e ad85 8d3e c7c6 0a3e
00000300: 6e6e 073e e516 853e 6cc0 df3c 00f9 cdbd
00000310: 978d f8be 824e 19be fee0 a9be ad69 2cbe
00000320: bfcc 78be f1a2 dabe ace4 99bd 2c25 7a3e
00000330: adab 47be 7961 cbbd 7360 e3be 57be 93bc
00000340: b035 73bd 238d d2be af1e 303e 3fef 43bd
00000350: 5d66 b3be da99 8abe c1ec 763e 35d1 37be
00000360: 573c f63c 733a d2be e19d aa3d 5450 f6be
00000370: 25ad 823e d610 07be eeff a7be 8315 f83d
00000380: a474 f3bd 1f43 73be 448c b83d aaa5 ba3e
00000390: fe8e 80bd 3904 e63d cee7 e8bd 606d c1be
000003a0: beec d1be 2a44 e6bb 5d8d 543e 54af 5e3d
000003b0: ae5f 553e 3d5d 523d 8d3f fabd 189f af3e
000003c0: 8d62 913e 57a7 6a3e 96c3 423e 08a3 acbe
000003d0: 0a71 dc3d 2043 9bbe a5d2 89be 0c26 283e
000003e0: ded6 cf3e 74f6 b43e ea7b 14be 0a21 1dbd
000003f0: 20e5 6a3e 20ee 33be 1571 623e 3cf0 923e

net.2.weight f4 [256, 256]
-0.0753011 -0.1008199 0.020356894 -0.004603438 -0.12122553 -0.018093064 0.013628118 -0.07998046
-0.07116702 -0.04194353 0.009416111 -0.069463044 -0.019717798 -0.111415386 -0.08967169 -0.09121706
-0.022977442 -0.017725572 0.013573177 -0.030067794 0.020185508 -0.019411113 -0.08966543 0.023606747
0.018496856 -0.03586182 -0.034582198 0.014017649 -0.114014655 -0.06896786 -0.12182669 0.007842838
0.021462 -0.073704965 -0.06541178 -0.058095302 -0.002926009 -0.09553453 -0.047175594 -0.11324051
-0.02716008 -0.102102704 -0.09679323 -0.01381856 -0.02519687 -0.07968903 -0.110345006 -0.071480684
-0.07416729 -0.019107537 0.03779164 0.025430933 -0.09525632 -0.02314578 -0.041654557 -0.055569656
-0.0009057501 -0.040870324 0.011181004 -0.043095373 -0.023160167 -0.07044957 -0.058969345 0.023777235
-0.055667385 -0.052220806 -0.0524579 -0.061547585 -0.05109685 -0.027862892 0.05074907 -0.021002391
-0.10537596 -0.024769286 0.055386566 -0.016245708 -0.039313033 -0.060305566 -0.014456045 0.006843604
-0.051897004 -0.04930888 0.024841983 -0.017998591 -0.03080115 -0.052095078 -0.0028603673 0.0012163804
0.087772086 0.017897196 0.046441987 -0.1013736 -0.058124244 -0.06279044 -0.051480096 -0.06949129
-0.09692743 -0.0461063 -0.12034711 -0.045314837 -0.06750824 0.0015633217 -0.020845443 0.032674126
0.011916615 -0.038365856 -0.041703667 -0.10169405 -0.10286684 -0.004062797 -0.01704851 0.011832833
-0.0067954957 -0.122226365 0.061473668 -0.061854456 -0.064319484 0.016383398 -0.10516119 -0.040198676
-0.11361628 -0.03348342 -0.021717586 -0.10345982 -0.05516042 -0.009340748 -0.083980665 -0.034092784
0.053455688 -0.037802733 -0.04454275 -0.04016918 -0.0043521896 -0.10813436 0.029852852 -0.03811794
0.044601277 0.045333102 -0.10419 -0.06915818 -0.105214775 -0.056074485 -0.010711774 0.05415954
-0.045839354 -0.041780684 -0.030466937 -0.12081596 -0.056088723 -0.0059844833 -0.06836551 0.05475589
-0.1012764 -0.10814886 0.010957412 -0.026548604 -0.0075737936 -0.04134075 0.028463036 -0.1025057
-0.11141668 -0.043455616 -0.04834064 -0.07298455 -0.02424847 -0.046504565 -0.048834324 -0.06643166
-0.007909425 -0.004442297 0.00880044 -0.09354299 -0.029707162 -0.10104911 0.027473226 -0.021689165
-0.00083722174 -0.06329491 -0.018985465 -0.043627385 -0.013535835 -0.005934749 -0.023701694 -0.10522108
0.00017451604 -0.11263041 -0.01823869 -0.05263997 0.0395244 -0.019514602 -0.037343606 -0.09266901
-0.06890228 -0.039840635 -0.11747162 0.003434755 -0.08904111 -0.052574325 -0.11053425 -0.07575478
-0.04936031 -0.0041431235 0.014325626 0.04015345 -0.09097476 -0.037201934 0.013227478 -0.11769941
0.060485207 0.03550846 -0.026549032 0.034648374 -0.024308689 0.046499826 -0.010257033 -0.011679588
-0.0899735 -0.054959457 0.0019826975 -0.07720809 -0.068871886 -0.0024514794 -0.05264189 -0.07232732
-0.046384774 0.022641905 -0.11697972 -0.042426728 -0.01715678 -0.067611955 -0.099189505 0.054122582
-0.009008525 -0.08806527 0.0015904685 -0.053596422 -0.102389246 -0.10332402 -0.06644265 -0.081085004
-0.006593662 -0.060137816 -0.022595096 0.035894834 -0.09054798 -0.111588776 -0.11377318 -0.08349451
-0.10030772 -0.058668073 -0.0039924756 -0.0076726405 -0.0011133108 -0.012408979 -0.05031217 -0.102077864
00000000: 7737 9abd aa7a cebd 80c3 a63c 70d8 96bb
00000010: 1745 f8bd e837 94bc 7848 5f3c cccc a3bd
00000020: 04c0 91bd fbcc 2bbd 0846 1a3c a442 8ebd
00000030: 3887 a1bc c02d e4bd caa5 b7bd 03d0 babd
00000040: 303b bcbc 3835 91bc 0862 5e3c bc50 f6bc
00000050: 145c a53c 0e04 9fbc 82a2 b7bd f062 c13c
00000060: b886 973c d8e3 12bd 10a6 0dbd 48aa 653c
00000070: 8480 e9bd 053f 8dbd 4680 f9bd 3f7f 003c
00000080: 14d1 af3c a1f2 96bd 9cf6 85bd 57f5 6dbd
00000090: 49c2 3fbb 9ca7 c3bd 323b 41bd a4ea e7bd
000000a0: d17e debc 391b d1bd 873b c6bd 3e67 62bc
000000b0: ab69 cebc 0134 a3bd 90fc e1bd 7764 92bd
000000c0: 05e5 97bd 6987 9cbc 68cb 1a3d 8854 d03c
000000d0: bf15 c3bd 389c bdbc f89d 2abd 029d 63bd
000000e0: dc6f 6dba a467 27bd 8830 373c c684 30bd
000000f0: 64ba bdbc dd47 90bd d789 71bd 7ac8 c23c
00000100: 7c03 64bd 7ce5 55bd 18de 56bd 5219 7cbd
00000110: ee4a 51bd b840 e4bc 42de 4f3d 350d acbc
00000120: 5acf d7bd f5e8 cabc 06dd 623d b815 85bc
00000130: b406 21bd f802 77bd 0cd9 6cbc 5040 e03b
00000140: f491 54bd 1cf8 49bd 6a81 cb3c c871 93bc
00000150: b152 fcbc a661 55bd 0075 3bbb f46e 9f3a
00000160: dac1 b33d 249d 923c f439 3e3d f69c cfbd
00000170: b013 6ebd 4698 80bd cbdc 52bd 7351 8ebd
00000180: e381 c6bd f6d9 3cbd 8c78 f6bd 0d9c 39bd
00000190: c341 8abd 5fe8 cc3a 10c4 aabc 4ed5 053d
000001a0: e83d 433c 8425 1dbd 77d1 2abd f844 d0bd
000001b0: daab d2bd 3621 85bb 51a9 8bbc 80de 413c
000001c0: c0ac debb d151 fabd d0cb 7b3d 195b 7dbd
000001d0: efb9 83bd 7a36 863c c05e d7bd 5ea7 24bd
000001e0: a7af e8bd e925 09bd 14e9 b1bc bee2 d3bd
000001f0: e4ef 61bd f009 19bc 0efe abbd e0a4 0bbd
00000200: 5af4 5a3d 0ad7 1abd 7572 36bd 7088 24bd
00000210: d09c 8ebb 8c75 ddbd f88d f43c 8f21 1cbd
00000220: d4af 363d 34af 393d 9161 d5bd cea2 8dbd
00000230: d87a d7bd 5cae 65bd 7080 2fbc 65d6 5d3d
00000240: 0cc2 3bbd 3922 2bbd cc95 f9bc 5c6e f7bd
00000250: 4abd 65bd 7c19 c4bb 3703 8cbd b647 603d
00000260: 006a cfbd 267d ddbd b886 333c 757c d9bc
00000270: 962d f8bb eb54 29bd 502b e93c 82ee d1bd
00000280: 6e2e e4bd 84fe 31bd d600 46bd ec78 95bd
00000290: baa4 c6bc 927b 3ebd 8006 48bd 520d 88bd
000002a0: 8896 01bc b090 91bb b82f 103c 7893 bfbd
000002b0: 6f5c f3bc d6f2 cebd 880f e13c 7aad b1bc
000002c0: 0079 5bba c3a0 81bd 6887 9bbc a1b2 32bd
000002d0: 68c5 5dbc 4878 c2bb 0e2a c2bc 267e d7bd
000002e0: 4bfe 3639 c6aa e6bd 4e69 95bc 029d 57bd
000002f0: 56e4 213d 16dd 9fbc 9cf5 18bd 40c9 bdbd
00000300: a31c 8dbd ef2f 23bd f694 f0bd a019 613b
00000310: 2f5b b6bd 2d58 57bd c85f e2bd 5225 9bbd
00000320: 092e 4abd 0ac3 87bb 08b6 6a3c f277 243d
00000330: fa50 babd 0e61 18bd 10b8 583c 630c f1bd
00000340: 56bf 773d 5271 113d 5b7d d9bc 74eb 0d3d
00000350: 0423 c7bc 9a76 3e3d 1d0d 28bc be5b 3fbc
00000360: 0744 b8bd 2b1d 61bd 25f0 013b 461f 9ebd
00000370: b40c 8dbd 00a9 20bb 069f 57bd 5920 94bd
00000380: f6fd 3dbd 847b b93c 1093 efbd a6c7 2dbd
00000390: 608c 8cbc 2378 8abd de23 cbbd a4af 5d3d
000003a0: 7e98 13bc 905b b4bd 4477 d03a ec87 5bbd
000003b0: 74b1 d1bd 8b9b d3bd 1613 88bd e50f a6bd
000003c0: a50f d8bb 1253 76bd 5a19 b9bc 7606 133d
000003d0: 3871 b9bd a888 e4bd ea01 e9bd 2bff aabd
000003e0: 226e cdbd ef4d 70bd 50d3 82bb c66a fbbb
000003f0: 83ec 91ba 084f 4bbc 2214 4ebd 330e d1bd

net.2.bias f4 [256]
-0.025697103 0.0428439 0.16586398 0.0076564364 -0.06493427 -0.10628857 -0.038361378 -0.010393536
-0.018115982 -0.11859745 -0.058840323 -0.010516381 -0.08402978 -0.038996175 -0.034095112 -0.07603569
-0.057009675 0.017276488 -0.037139244 -0.10447022 -0.044972077 -0.07845469 -0.06343607 -0.03448052
-0.086426556 -0.055185378 -0.042106114 -0.021118535 -0.011322906 -0.047230594 -0.06338509 0.051808976
-0.07288818 0.022208529 0.01747936 -0.10520749 -0.031511553 0.07556428 -0.018079996 -0.001574792
0.0012549981 -0.08201727 0.008204841 -0.032632306 -0.0027789413 -0.0023764954 -0.06822216 -0.023095429
-0.0060682204 -0.102568515 -0.089286074 -0.009997606 -0.068855144 -0.026302792 -0.01462904 -0.02835379
-0.008178743 -0.03728748 -0.08345633 0.13900828 -0.10155312 -0.06301848 -0.06451762 -0.005815966
-0.068270884 -0.01197873 -0.021709165 -0.00022958188 0.0061061457 -0.10215989 -0.065979704 -0.013249172
-0.08243117 0.004709309 0.0047914055 -0.06387482 0.027065888 -0.006295597 -0.012218296 -0.044221833
-0.03511893 -0.0042372667 0.023432635 -0.018425455 -0.14232726 -0.009199009 -0.025496226 -0.0043444443
-0.082778275 -0.05618981 -0.044633657 -0.11235532 -0.104118794 -0.0645078 -0.1197905 -0.07868113
-0.1009429 -0.036109284 -0.020950913 -0.0013856912 0.012757788 -0.0026640473 -0.028486125 -0.09238087
-0.03762079 -0.117053844 -0.03738337 -0.044058606 -0.08352066 -0.008235105 -0.061440237 -0.10597071
-0.08519574 -0.056521345 -0.06399907 -0.08889769 -0.043833192 -0.030472698 -0.10148458 -0.09553515
-0.013915115 0.033046164 0.14919391 -0.01421506 -0.032680623 -0.032190654 0.0022045367 -0.07072774
-0.08761731 -0.015466861 -0.09451459 -0.101314254 -0.01509201 -0.0274367 -0.053901073 -0.03652902
-0.026868708 -0.062182788 0.12780517 -0.031119391 -0.03365916 -0.01976925 -0.042338412 -0.023049906
-0.04393176 -0.01966279 0.01228636 -0.076025866 -0.11585575 -0.09648536 -0.004891594 -0.021863226
-0.018018067 -0.014981575 -0.0057216906 -0.021021685 -0.04950405 -0.030995453 -0.054991692 -0.062446017
-0.11516392 -0.093823664 -0.012479239 -0.037687972 -0.097431615 -0.10800341 -0.060947143 -0.0633792
-0.040950708 0.007684872 -0.097412966 -0.03452473 -0.02494742 -0.053192288 -0.048953004 -0.06597706
-0.109687425 0.009100834 -0.039426763 -0.090863846 -0.03267639 -0.06211443 0.000107301355 -0.008201842
-0.051931232 0.041621894 -0.0823792 -0.019577725 -0.11900974 0.061648227 0.013046481 -0.030552592
-0.0123355435 -0.094171815 -0.01273789 -0.046707254 -0.0013138156 -0.011111603 -0.089488834 -0.0581256
-0.095609404 -0.0962338 -0.0644272 -0.0014756263 -0.0566407 -0.08790605 -0.02569155 -0.021220593
-0.04660011 -0.03128057 -0.088335924 -0.08297151 -0.009017043 -0.05772851 -0.033295635 0.04654721
0.01037766 -0.040889975 -0.043859128 -0.10470909 -0.017020462 -0.05781228 -0.114251755 -0.12002409
-0.09465681 -0.04366168 -0.10163858 -0.059831627 -0.09680418 -0.030841598 -0.051042628 -0.008825237
-0.08450392 -0.10264535 -0.044875942 -0.085109666 -0.09347618 -0.034329034 -0.02921984 -0.07716294
-0.09097878 -0.029381689 -0.012217918 -0.008141039 -0.022597853 -0.015860407 -0.043800633 -0.059556916
-0.04122434 -0.07037928 -0.01675205 0.05167442 -0.04410198 -0.005566676 0.013424374 -0.10641675
00000000: bb82 d2bc 167d 2f3d 3fd8 293e d8e2 fa3b
00000010: 42fc 84bd d2ad d9bd d220 1dbd a649 2abc
00000020: f867 94bc 38e3 f2bd 8d02 71bd e64c 2cbc
00000030: ce17 acbd 74ba 1fbd 51a7 0bbd 9ab8 9bbd
00000040: fa82 69bd 6c87 8d3c 521f 18bd 7cf4 d5bd
00000050: a434 38bd daac a0bd c5ea 81bd 723b 0dbd
00000060: 6800 b1bd 100a 62bd 7677 2cbd c700 adbc
00000070: b683 39bc de74 41bd 0bd0 81bd a635 543d
00000080: 6646 95bd a9ee b53c e030 8f3c 0677 d7bd
00000090: 4212 01bd 72c1 9a3d 801c 94bc 4069 ceba
000000a0: c07e a43a acf8 a7bd 996d 063c 74a9 05bd
000000b0: e61e 36bb fabe 1bbb 0fb8 8bbd a032 bdbc
000000c0: ecd7 c6bb 710f d2bd 9edb b6bd 00cd 23bc
000000d0: ed03 8dbd f478 d7bc a4ae 6fbc 3546 e8bc
000000e0: 2200 06bc c2ba 18bd 27eb aabd 3058 0e3e
000000f0: 15fb cfbd d50f 81bd d021 84bd dc93 bebb
00000100: 9bd1 8bbd 6f42 44bc 6bd7 b1bc ebbb 70b9
00000110: 1016 c83b 3439 d1bd 5e20 87bd 0e13 59bc
00000120: acd1 a8bd 8c50 9a3b 3901 9d3b cdd0 82bd
00000130: 48b9 dd3c 4c4b cebb 3f2f 48bc f421 35bd
00000140: ded8 0fbd c5d8 8abb ccf5 bf3c fbf0 96bc
00000150: 3dbe 11be 71b7 16bc 76dd d0bc d75b 8ebb
00000160: a887 a9bd 4927 66bd c8d1 36bd 8c1a e6bd
00000170: 3c3c d5bd aa1c 84bd b954 f5bd 9323 a1bd
00000180: 27bb cebd 54e7 13bd 40a1 abbc 15a0 b5ba
00000190: 0b06 513c 4c97 2ebb bc5b e9bc 2e32 bdbd
000001a0: 4218 1abd edb9 efbd 4e1f 19bd cc76 34bd
000001b0: e10c abbd 89ec 06bc c2a8 7bbd 2c07 d9bd
000001c0: 1b7b aebd ed82 67bd f211 83bd fe0f b6bd
000001d0: 6f8a 33bd e1a1 f9bc 26d7 cfbd efa7 c3bd
000001e0: 39fc 63bc 6a5b 073d 4ac6 183e 48e6 68bc
000001f0: 1edc 05bd 59da 03bd fd79 103b b5d9 90bd
00000200: b470 b3bd b868 7dbc de90 c1bd d97d cfbd
00000210: 7a44 77bc eec2 e0bc 5fc7 5cbd 749f 15bd
00000220: c41b dcbc 61b3 7ebd 5cdf 023e 18ee febc
00000230: 30de 09bd 1ff3 a1bc 0b6b 2dbd 28d3 bcbc
00000240: caf1 33bd dc13 a1bc bb4c 493c 73b3 9bbd
00000250: c845 edbd 1e9a c5bd aa49 a0bb 821a b3bc
00000260: a09a 93bc 4875 75bc 057d bbbb ab35 acbc
00000270: c2c4 4abd 2dea fdbc f83e 61bd 65c7 7fbd
00000280: 10db ebbd 9f26 c0bd b975 4cbc b45e 1abd
00000290: 3a8a c7bd e430 ddbd b6a3 79bd f4cc 81bd
000002a0: eebb 27bd 61d1 fb3b 7380 c7bd ce69 0dbd
000002b0: 885e ccbc 28e0 59bd f282 48bd fb1e 87bd
000002c0: cda3 e0bd aa1b 153c f57d 21bd d316 babd
000002d0: aed7 05bd b36b 7ebd fa06 e138 0561 06bc
000002e0: d8b5 54bd b87b 2a3d 6db6 a8bd 7761 a0bc
000002f0: 61bb f3bd da82 7c3d e8c0 553c 6e49 fabc
00000300: 051b 4abc 27dd c0bd 95b2 50bc 1b50 3fbd
00000310: 5634 acba 710d 36bc ec45 b7bd 1c15 6ebd
00000320: ddce c3bd 3a16 c5bd 68f2 83bd cd69 c1ba
00000330: 1400 68bd 1608 b4bd 1677 d2bc cfd6 adbc
00000340: c2df 3ebd 0e20 00bd 77e9 b4bd f8ec a9bd
00000350: 38bc 13bc bb74 6cbd 0161 08bd 4aa8 3e3d
00000360: 1007 2a3c 3f7c 27bd a1a5 33bd b871 d6bd
00000370: 7f6e 8bbc 92cc 6cbd d3fc e9bd 31cf f5bd
00000380: 6edb c1bd 97d6 32bd e327 d0bd 0212 75bd
00000390: 4541 c6bd 85a7 fcbc 1312 51bd ba97 10bc
000003a0: 6410 adbd ba37 d2bd d6cf 37bd fa4d aebd
000003b0: 7170 bfbd 9a9c 0cbd 725e efbc 9a07 9ebd
000003c0: 1553 babd deb1 f0bc aa2d 48bc fe61 05bc
000003d0: 221f b9bc afed 81bc 4b68 33bd f4f1 73bd
000003e0: dbda 28bd 0323 90bd 983b 89bc 8ea8 533d
000003f0: 47a4 34bd aa68 b6bb e8f1 5b3c 06f1 d9bd

net.4.weight f4 [2, 256]
0.105341814 0.0015851483 0.16190988 -0.047821235 -0.0010358811 -0.033250313 0.055766217 0.08369024
-0.014717578 0.08433869 -0.0022539715 0.057544786 -0.0012382645 0.065120496 -0.003120359 -0.08282265
-0.058151975 0.042909943 -0.02783446 0.056253884 0.08468239 -0.059676815 -0.020747844 0.012412651
-0.023422195 -0.038079076 0.06297228 -0.05406411 -0.011132794 0.075480774 -0.044848647 -0.03204166
-0.008588696 -0.051189516 0.031789437 0.022448787 -0.115690306 0.09442492 -0.0023666422 0.033685736
-0.046358503 -0.026907926 -0.038571436 -0.076561004 0.023974689 -0.010532474 0.08226893 -8.3334744e-05
-0.039651886 -0.037749622 0.054314654 0.028085135 0.04318823 0.052811828 0.027712777 0.029006785
0.01397456 -0.04142823 0.073869295 0.6789089 0.03692904 0.024027633 0.03348903 0.0035434763
0.016289463 -0.0323288 0.011619997 0.02152648 0.0048884116 0.041469943 -0.03174552 -0.0017192339
-0.032474507 0.005894803 0.047855623 0.05813391 0.04638786 0.35641688 -0.010537634 0.004023172
-0.057639368 -0.0062004463 -0.050935596 0.07226498 -0.02221247 0.034063403 0.029457718 -0.028839286
0.01768233 -0.033094376 0.0016605332 -0.009271982 -0.03467878 0.06458643 -0.0022963986 0.0025526325
0.00942496 -0.011112708 0.016578535 0.02205937 -0.24461886 -0.00054451224 -0.0092246 0.03730367
0.030921366 0.028341668 0.006294132 0.07368717 -0.013358156 0.053909153 0.027091771 0.04343334
-0.032568257 -0.015669554 -0.077176124 -0.032935586 0.0061105443 0.05476275 0.07580248 -0.012119086
-0.05187202 -0.0571993 0.14847182 -0.013906481 0.032570295 -0.04809811 -0.0013400082 0.016853267
0.004624202 0.023555368 -0.0055140946 0.00038081832 0.10492002 0.012470834 0.06960545 0.04558166
0.011219174 -0.041816745 0.03047653 0.039837733 0.054183435 -0.051077865 -0.004212301 0.037340432
-0.0324981 -0.0054521933 -0.072869755 -0.04017041 -0.06042626 0.04212045 -0.001261739 0.008035388
-0.038316526 0.0711114 0.014326208 -0.024219252 0.0047500245 0.073826894 0.006190586 0.021315977
0.00052182813 0.06829042 0.002202061 -0.0024443194 -0.034629043 0.05145791 -0.012378134 0.029637268
0.0019059114 -0.046152804 0.0504312 0.029222928 -0.032232672 0.0023883358 -0.0055632964 -0.060790118
-0.021011904 -0.012933697 0.015498741 0.010183642 -0.0016795977 0.0029185156 -0.0015829515 -0.017938985
0.0105174985 -0.025793605 0.049958017 0.07227141 0.054145947 -0.0038749203 -0.00888253 0.037130088
0.055017143 0.085816815 -0.00015490432 0.019384848 -0.06690685 0.01813713 -0.008571951 0.007615648
0.048232395 0.012588741 -0.06684552 0.05483699 0.10289101 0.044513732 -0.0008903269 -0.020286102
-0.031471334 -0.030300036 -0.015760772 0.052266918 -0.06052033 -0.020519888 -0.019236222 0.041077174
0.061157525 0.012929044 -0.03180844 -0.01429765 -0.038864702 0.010081542 0.089398146 0.012231084
0.055280115 -0.096490346 0.042731423 0.04743385 0.03716875 -0.017661829 -0.056529086 0.079803884
-0.0009634696 -0.019370388 0.024292044 0.069661304 -0.009030618 0.03742979 0.053540517 0.075817734
0.0358942 -0.013503535 0.008785535 -0.014938225 0.080557324 -0.05219886 0.112518616 0.02065973
-0.0728929 0.0034555737 -0.008659154 0.04536286 -0.06810819 0.022824617 -0.04918343 -0.06384949
00000000: 73bd d73d c0c4 cf3a b4cb 253e 33e0 43bd
00000010: 67c6 87ba 7b31 08bd 1e6b 643d ca65 ab3d
00000020: ff21 71bc c3b9 ac3d 5eb7 13bb 15b4 6b3d
00000030: 434d a2ba e55d 853d f07e 4cbb ec9e a9bd
00000040: c430 6ebd 56c2 2f3d 1805 e4bc 796a 663d
00000050: f66d ad3d ad6f 74bd 62f7 a9bc 6f5e 4b3c
00000060: e7df bfbc cef8 1bbd 9cf7 803d 5472 5dbd
00000070: 5366 36bc aa95 9a3d 37b3 37bd 1e3e 03bd
00000080: 9ab7 0cbc 19ac 51bd a435 023d 85e6 b73c
00000090: 0aef ecbd da61 c13d ab19 1bbb 0efa 093d
000000a0: 6ae2 3dbd 036e dcbc 15fd 1dbd 04cc 9cbd
000000b0: 9166 c43c 6690 2cbc 9d7c a83d 00c4 aeb8
000000c0: 046a 22bd 599f 1abd 0b79 5e3d cc12 e63c
000000d0: 24e6 303d 3751 583d e805 e33c a39f ed3c
000000e0: 8ef5 643c a6b0 29bd c948 973d f9cc 2d3f
000000f0: e842 173d 99d5 c43c cb2b 093d ab39 683b
00000100: 7b71 853c 346b 04bd cd61 3e3c 4d58 b03c
00000110: f82e a03b 63dc 293d 9707 02bd eb57 e1ba
00000120: fd03 05bd 3129 c13b 4204 443d d31d 6e3d
00000130: 3201 3e3d 467c b63e 0aa6 2cbc d0d4 833b
00000140: 4217 6cbd 1d2d cbbb d8a1 50bd a9ff 933d
00000150: edf6 b5bc 1186 0b3d 5051 f13c 5e40 ecbc
00000160: 89da 903c f88d 07bd 40a6 d93a 83e9 17bc
00000170: 560b 0ebd e445 843d 2d7f 16bb 114a 273b
00000180: 266b 1a3c 1312 36bc b5cf 873c dab5 b43c
00000190: 5e7d 7abe 99bd 0eba c722 17bc bccb 183d
000001a0: ce4e fd3c c92c e83c 023f ce3b 4de9 963d
000001b0: 2bdc 5abc d8cf 5c3d 90ef dd3c 28e7 313d
000001c0: 4b66 05bd 705d 80bc 840e 9ebd 77e7 06bd
000001d0: f63a c83b e84e 603d 553e 9b3d 228f 46bc
000001e0: c177 54bd d049 6abd ff08 183e 02d8 63bc
000001f0: 6e68 053d 8602 45bd 37a3 afba dd0f 8a3c
00000200: 9e86 973b 30f7 c03c 94af b4bb 92a8 c739
00000210: 4fe0 d63d 7852 4c3c 4d8d 8e3d d6b3 3a3d
00000220: a0d0 373c 0948 2bbd eaa9 f93c e42c 233d
00000230: 73ef 5d3d 0637 51bd 5807 8abb 48f2 183d
00000240: ba1c 05bd 50a8 b2bb bd3c 95bd ba89 24bd
00000250: 8781 77bd 7e86 2c3d ef60 a5ba dca6 033c
00000260: caf1 1cbd dba2 913d 79b8 6a3c 7467 c6bc
00000270: 18a6 9b3b 8e32 973d 66da ca3b d89e ae3c
00000280: 4bcb 083a d9db 8b3d 7450 103b e030 20bb
00000290: 2fd7 0dbd 88c5 523d a8cd 4abc dbc9 f23c
000002a0: c6cf f93a b90a 3dbd f290 4e3d ec64 ef3c
000002b0: 6806 04bd a085 1c3b 504c b6bb 0fff 78bd
000002c0: 2821 acbc dbe7 53bc 6eee 7d3c 4ad9 263c
000002d0: f225 dcba 9144 3f3b 0a7b cfba c7f4 92bc
000002e0: 9651 2c3c 1c4d d3bc c7a0 4c3d 0803 943d
000002f0: 24c8 5d3d 60f2 7dbb 0888 11bc b815 183d
00000300: a859 613d bac0 af3d d06d 22b9 f9cc 9e3c
00000310: 7506 89bd 5294 943c 5e71 0cbc b08c f93b
00000320: 558f 453d 0241 4e3c 4ee6 88bd c09c 603d
00000330: 86b8 d23d 0854 363d d464 69ba 0a2f a6bc
00000340: 16e8 00bd c837 f8bc bc1c 81bc d615 563d
00000350: 2ae4 77bd 5319 a8bc 4895 9dbc 8a40 283d
00000360: 5080 7a3d 57d4 533c 9149 02bd b140 6abc
00000370: 9830 1fbd 0d2d 253c 6016 b73d e264 483c
00000380: 676d 623d bb9c c5bd 2507 2f3d ff49 423d
00000390: 423e 183d 8aaf 90bc 0b8b 67bd 3870 a33d
000003a0: 5a91 7cba a6ae 9ebc 1c00 c73c 96aa 8e3d
000003b0: 28f5 13bc fb4f 193d 4d4d 5b3d 5446 9b3d
000003c0: cc05 133d ee3d 5dbc 34f1 0f3c 75bf 74bc
000003d0: 3dfb a43d 79ce 55bd 2970 e63d 983e a93c
000003e0: df48 95bd e876 623b 20df 0dbc 68ce 393d
000003f0: 4f7c 8bbd b1fa ba3c 9074 49bd 85c3 82bd

net.4.bias f4 [2]
-0.034210276 0.06927786
00000000: 1320 0cbd 8de1 8d3d
