models/cross_entropy/batchsize=100-hiddensize=256-lr=0.01-gamma=.99-PART=90.pt (torch_old, 272411 bytes, 6 tensors)

net.0.weight f4 [256, 5]
0	0xbe3934cf	-0.18086551
1	0xbe8e1461	-0.27749923
2	0xbedf81fe	-0.43653864
3	0xbe063709	-0.13106932
4	0xbc9bfa49	-0.019040244
5	0x3e80f67a	0.25188047
6	0x3e4d589c	0.20053333
7	0xbdb1ab10	-0.08675206
8	0x3d373fe3	0.04473866
9	0xbded219a	-0.115786746
10	0xbe9b91d3	-0.30384693
11	0x3e989356	0.29799908
12	0xbdcbf404	-0.09958652
13	0xbe1b293c	-0.15152448
14	0xbe82bb39	-0.25533465
15	0xbd0ddd80	-0.034635067
16	0xbee00011	-0.4375005
17	0xbdbb7620	-0.0915339
18	0xbee05a4d	-0.43818894
19	0x3ed301d2	0.41212326
20	0xbe9ae520	-0.30252934
21	0x3e2fcc43	0.17167763
22	0x3d9c3203	0.076267265
23	0xbe41914f	-0.18903087
24	0xbec4f71e	-0.38469785
25	0xbd9c5a36	-0.07634394
26	0x3e1797cc	0.14804
27	0xbcd63460	-0.026148021
28	0x3e83fcd4	0.2577883
29	0xbe2ed0f9	-0.17071904
30	0xbe82b518	-0.2552879
31	0x3d40ff38	0.047118396
32	0x3ebf8666	0.37407225
33	0x3e8c72ea	0.27431422
34	0xbedc7e76	-0.43065232
35	0x3e5a38d6	0.21310744
36	0x3d3f1b5b	0.046656948
37	0xbe6eeee1	-0.23333313
38	0xbd07b083	-0.03312732
39	0xbe5be9a1	-0.21475841
40	0x3db91317	0.09036844
41	0xbd7523e5	-0.059848685
42	0xbd357873	-0.044304322
43	0xbede2e11	-0.4339452
44	0x3d902d87	0.07039934
45	0xbe1fb17b	-0.15595047
46	0xbb286246	-0.002569334
47	0xbd979302	-0.074010864
48	0xbedf1d7d	-0.43577185
49	0x3ec642e3	0.38722906
50	0x3e870aec	0.2637552
51	0xbe9782d6	-0.29592007
52	0xbec52250	-0.3850274
53	0xbe280924	-0.16409737
54	0xbedf664e	-0.4363274
55	0x3e6256cd	0.22103424
56	0x3eacbb5c	0.33736694
57	0x3ebbbb43	0.36666307
58	0xbe6006aa	-0.21877542
59	0xbe64238b	-0.22279184
60	0x3e96996a	0.2941392
61	0xbede7a3f	-0.4345264
62	0x3db413f2	0.08792867
63	0x3e65ffc2	0.22460845
64	0x3e8278c3	0.2548276
65	0x3e73de1f	0.23815201
66	0x3e498aa8	0.196818
67	0x3eb2e469	0.34939888
68	0x3ec4839b	0.38381657
69	0xbed05fb8	-0.40698028
70	0x3cd82636	0.026385408
71	0xbe9900c7	-0.29883406
72	0x3d946642	0.07246067
73	0x3ea1e04b	0.31616434
74	0xbec9b52c	-0.39396036
75	0x3d36caed	0.04462712
76	0xbe974190	-0.29542208
77	0xbead42a5	-0.33839908
78	0xbeafd0ce	-0.34338993
79	0x3e528aa7	0.20560704
80	0xbdc76d40	-0.09737635
81	0xbe8b2811	-0.27179006
82	0xbd824bdc	-0.06362125
83	0xbe6fccb7	-0.23417936
84	0xbe77a969	-0.24185719
85	0x3d079980	0.033105373
86	0xbe87ef3e	-0.26549715
87	0xbe521efe	-0.20519635
88	0x3e3a36f4	0.18185025
89	0x3e18f06c	0.14935464
90	0xbc9e3790	-0.019313604
91	0x3ed723ea	0.42019588
92	0xbd5ae8b8	-0.053444594
93	0x3da1acd0	0.078942895
94	0xbe658150	-0.2241261
95	0x3da007b1	0.07813967
96	0x3e9c2611	0.30497792
97	0xbeaef500	-0.34171295
98	0x3df511f2	0.119663134
99	0x3d8dfaba	0.06932588
100	0xbea51f3b	-0.3225039
101	0x3ed659aa	0.41865283
102	0xbedcb820	-0.43109226
103	0x3dcd2e60	0.10018611
104	0xbe9ebc1c	-0.3100289
105	0x3e1c45c3	0.15260987
106	0x3d5d3d03	0.054013263
107	0xbe8a3384	-0.26992428
108	0xbe19f79f	-0.15035866
109	0xbe806125	-0.25074115
110	0xbc0ce888	-0.008600362
111	0x3e7a7247	0.24457656
112	0x3e8a4f06	0.27013415
113	0x3dac052d	0.08399425
114	0xbe42c553	-0.19020586
115	0x3d5b4240	0.053529978
116	0xbe850796	-0.2598235
117	0xbdef8ab4	-0.116963774
118	0xbec9f9bf	-0.39448354
119	0x3e92aa2c	0.28645456
120	0xbe4c2c1a	-0.19938698
121	0x3bf44400	0.0074543953
122	0x3dc4d500	0.09610939
123	0x3e4b4f5c	0.19854492
124	0x3d2eba78	0.0426583
125	0x3e6d94c7	0.23201285
126	0x3eb3dbf6	0.35128754
127	0x3eb987e0	0.36236477
128	0xbdb2468e	-0.087048635
129	0x3ea2e32a	0.31813937
130	0x3ea05588	0.31315255
131	0x3e83d08f	0.25745055
132	0x3ea50e30	0.32237387
133	0xbd270ec3	-0.040785562
134	0xbde7245c	-0.11286232
135	0xbe845772	-0.25847965
136	0x3eb04f2b	0.344354
137	0xbd8a3e97	-0.06750219
138	0x3d15e4a7	0.036595013
139	0xbe44b8b4	-0.19211084
140	0x3e6c32db	0.23066275
141	0xbe1b5550	-0.15169263
142	0xbd94addf	-0.07259726
143	0xbc5f3ed7	-0.013625822
144	0x3e4de86e	0.20108196
145	0xbe58c14a	-0.21167484
146	0x3eb29dae	0.34885925
147	0x3ec88bc3	0.3916913
148	0xbe0416f4	-0.12899381
149	0x3eb4caf5	0.35311094
150	0x3e7e3159	0.24823512
151	0xbe8857c6	-0.26629466
152	0xbeada7b1	-0.33917
153	0xbe678fd5	-0.22613461
154	0xbdd479dd	-0.10374806
155	0x3dcfac44	0.10140279
156	0x3ea662ed	0.3249735
157	0x3e9da865	0.30792537
158	0x3ef46195	0.477307
159	0xbe84db08	-0.25948358
160	0xbf0232d8	-0.5085883
161	0x3eb15727	0.34636804
162	0xbefa0a0c	-0.4883579
163	0x3e16e1d3	0.14734583
164	0xbefb89e0	-0.49128628
165	0x3e95e0f8	0.292732
166	0x3ebbf260	0.36708355
167	0xbdc35e67	-0.0953949
168	0x3e2eb969	0.17062916
169	0xbed350d7	-0.41272613
170	0xbde88fc9	-0.1135555
171	0x3d29b867	0.041435625
172	0x3e22185c	0.15829605
173	0xbe56daa8	-0.20981848
174	0xbe5e728e	-0.21723387
175	0x3ddc1bba	0.10747476
176	0x3db24a2c	0.087055534
177	0xbeb8ffea	-0.36132747
178	0xbe87d06a	-0.26526195
179	0xbe127922	-0.14304021
180	0x3e75258f	0.23940109
181	0x3d52be75	0.051451165
182	0xbe546e7b	-0.2074527
183	0x3e73dd58	0.23814905
184	0x3e9c1263	0.30482778
185	0xbecf4169	-0.4047959
186	0xbf2f79ff	-0.68545526
187	0xbda75dc8	-0.08172184
188	0xbef856ae	-0.4850363
189	0xbe852fa8	-0.2601292
190	0x3d19d1d0	0.03755361
191	0x3ed9ff3a	0.42577535
192	0xbec3af81	-0.38219836
193	0xbcdab960	-0.026699722
194	0xbebb4114	-0.36573088
195	0xbd2a975d	-0.041648258
196	0x3d61883a	0.055061556
197	0x3e8a26ed	0.26982823
198	0xbef5e3dc	-0.48025405
199	0xbec27f94	-0.3798796
200	0x3e45a80b	0.19302385
201	0xbe960d37	-0.29306957
202	0xbdc56f7f	-0.09640407
203	0x3eabd105	0.33557907
204	0xbee4e0b2	-0.4470268
205	0xbec57e34	-0.38572848
206	0xbe1b242b	-0.15150516
207	0xbe328e94	-0.17437202
208	0x3ea6e39c	0.32595527
209	0x3dc5cf50	0.09658682
210	0x3dde4cd9	0.10854501
211	0xbe865738	-0.26238418
212	0x3d53c24f	0.05169898
213	0x3dc5cc96	0.09658162
214	0xbea4949d	-0.32144633
215	0xbd91dc8c	-0.07122144
216	0xbe126bb2	-0.14298895
217	0xbef0464e	-0.46928638
218	0xbeeded7d	-0.46470252
219	0x3e18e6de	0.14931819
220	0x3e2cfda1	0.16893627
221	0xbeb17679	-0.346607
222	0xbe35cb7f	-0.17753409
223	0x3e327282	0.17426494
224	0xbecd77f0	-0.40130568
225	0x3ea2b65c	0.31779754
226	0x3e1f79a7	0.1557375
227	0xbe9b13bd	-0.30288497
228	0x3e7d88ac	0.24759167
229	0xbd75323b	-0.059862357
230	0xbee1504f	-0.44006583
231	0xbddb0f80	-0.10696316
232	0xbd8d3cf8	-0.068963945
233	0xbd34fbf7	-0.044185605
234	0x3ea25e31	0.31712487
235	0xbe71e341	-0.23621847
236	0xbe15b14c	-0.14618415
237	0x3e82a236	0.25514382
238	0xbce35bb0	-0.027753681
239	0xbe2df0d9	-0.16986407
240	0x3eac1f24	0.33617508
241	0xbe72ec25	-0.23722894
242	0x3e85f7aa	0.26165515
243	0x3eb317ff	0.34979245
244	0xbec9deba	-0.3942774
245	0xbed4cd1b	-0.41562733
246	0x3de7ba27	0.113148026
247	0xbec29d63	-0.38010702
248	0x3ec4e67b	0.38457093
249	0xbd5772c9	-0.052599702
250	0xbec33d18	-0.38132548
251	0x3d878c11	0.066185124
252	0xbe828c09	-0.25497463
253	0xbe8e326a	-0.27772838
254	0xbe19fa3d	-0.15036865
255	0x3eabf474	0.3358494

net.0.bias f4 [256]
0	0x3e8cb77d	0.2748374
1	0x3b062387	0.0020467953
2	0xbea92bc2	-0.33041197
3	0xbe9c1754	-0.30486548
4	0x3e387819	0.18014564
5	0x3da80e7d	0.082058884
6	0xbec9cbda	-0.3941334
7	0x3db981bf	0.0905795
8	0x3baf3d13	0.005347857
9	0xbdc1e2e1	-0.09467102
10	0xbe7a802e	-0.24462959
11	0x3e943e33	0.28953704
12	0x3e274e06	0.16338357
13	0x3ec0d5c8	0.37663102
14	0x3e63615f	0.22205113
15	0x3ed4319f	0.41444108
16	0x3e77344e	0.24141046
17	0xbeab67d6	-0.33477658
18	0xbedbe570	-0.42948484
19	0xbbae4d54	-0.005319277
20	0x3c3f2900	0.01166749
21	0x3ebaa98c	0.3645748
22	0xbed5215f	-0.41627023
23	0xbe9fc4fa	-0.3120497
24	0xbe8e81a5	-0.27833286
25	0x3e64b5e8	0.22335017
26	0xbebc9e36	-0.36839455
27	0xbca34242	-0.019929055
28	0xbe7d58dc	-0.24740928
29	0xbe9a3ea1	-0.30125907
30	0x3e97f349	0.296778
31	0xbded6bdc	-0.11592838
32	0x3e843970	0.2582507
33	0x3d9715d7	0.073772125
34	0xbc95ff97	-0.018310351
35	0x3e385026	0.17999324
36	0x3e8edb14	0.27901518
37	0x3eab9bcc	0.335173
38	0xbe3716fa	-0.17879859
39	0x3e66cf76	0.22540078
40	0x3e0f0956	0.13968405
41	0x3eddd13c	0.43323696
42	0x3eab1213	0.33412227
43	0x3e68562a	0.22689119
44	0x3dcea0ea	0.10089286
45	0xbed2568b	-0.41081652
46	0xbb40a2b7	-0.002939386
47	0x3dd0911e	0.10183929
48	0x3c2d7b12	0.010588424
49	0xbd9b68b6	-0.075883314
50	0x3e973304	0.2953111
51	0xbece1726	-0.40252036
52	0x3e0cc8a9	0.13748421
53	0xbe469a80	-0.19394875
54	0xbe9d670c	-0.3074268
55	0xbe02fc3d	-0.12791534
56	0x3e3fc036	0.18725666
57	0xbece00e6	-0.4023506
58	0xbe8921cb	-0.26783594
59	0xbd98f9b0	-0.07469499
60	0x3de5a6af	0.11213433
61	0x3ec9b425	0.39395252
62	0x3e8fa9b3	0.28059158
63	0x3e306144	0.17224604
64	0xbe8e3230	-0.27772665
65	0x3dd969f6	0.106159136
66	0x3ddcca10	0.10780728
67	0x3e42fab2	0.19040945
68	0xbe57ce7b	-0.2107486
69	0xbebc3b00	-0.36763763
70	0xbae29e00	-0.0017289519
71	0xbe7bd621	-0.24593402
72	0x3df7cefa	0.121000245
73	0xbd7b2446	-0.06131389
74	0x3c18fd83	0.009337786
75	0xbea64a31	-0.3247848
76	0xbeea2b3b	-0.45736107
77	0xbeded892	-0.43524605
78	0xbb1fe2b0	-0.002439659
79	0xbee1b31f	-0.4408197
80	0xbe44f718	-0.19234884
81	0x3e634a73	0.22196369
82	0x3d1bc98e	0.038034014
83	0xbed535f2	-0.4164272
84	0xbe14dfde	-0.14538524
85	0xbc50d995	-0.012747188
86	0xbeb12155	-0.34595743
87	0xbee6b956	-0.45063275
88	0xbe701260	-0.2344451
89	0xbe2ccece	-0.16875765
90	0xbe9d3bee	-0.30709785
91	0x3d45e139	0.048310492
92	0xbe82108c	-0.2540325
93	0xbee73160	-0.45154858
94	0xbf0072a8	-0.5017495
95	0x3e9e4e3d	0.30919066
96	0xbd5e5906	-0.054284118
97	0xbec8a71e	-0.3919
98	0xbe112661	-0.14174797
99	0x3eaa295e	0.33234686
100	0x3e921abf	0.2853603
101	0xbedc2378	-0.4299581
102	0xbe859b7e	-0.26095194
103	0xbee42ba3	-0.44564542
104	0xbecbb220	-0.39784336
105	0xbe911ed6	-0.28343838
106	0xbe37a672	-0.17934588
107	0x3e429173	0.19000797
108	0x3e7427fb	0.23843376
109	0x3d5ad503	0.0534258
110	0xbdb4ea96	-0.08833806
111	0xbea58419	-0.32327345
112	0xbe437010	-0.19085717
113	0x3e63183a	0.2217721
114	0xbdee3d40	-0.11632776
115	0xbe8a746d	-0.2704195
116	0x3eed0b49	0.46297672
117	0xbea8e1ce	-0.32984775
118	0x3eaf472f	0.34233996
119	0x3aff5b62	0.001948219
120	0x3e9ef5a9	0.310468
121	0xbe11cc40	-0.14238071
122	0xbeb5f056	-0.35534924
123	0x3e9dd9f2	0.30830342
124	0xbe3f82f6	-0.18702301
125	0xbebdef1e	-0.37096494
126	0xbbba53ef	-0.005686275
127	0xbef7c82e	-0.48394912
128	0xbe977a83	-0.29585657
129	0xbc3db1b3	-0.011578011
130	0xbd9f919b	-0.07791444
131	0xbedd36fc	-0.43206012
132	0xbe908426	-0.2822582
133	0x3ebb338d	0.36562768
134	0xbe8f7a2c	-0.28022897
135	0xbe0764dc	-0.13222069
136	0xbd9fdb60	-0.07805514
137	0x3de647d3	0.11244168
138	0x3ec46c72	0.38363987
139	0xbb8a2a35	-0.0042164573
140	0xbec12839	-0.37726
141	0x3d4a675f	0.04941499
142	0x3e347d05	0.17625816
143	0xbecc7ca7	-0.39938852
144	0x3d1495f4	0.03627582
145	0x3da1ffb4	0.079100996
146	0x3ca5a552	0.020220432
147	0x3da375b0	0.079814315
148	0xbeae648e	-0.34061092
149	0x3e166e31	0.14690472
150	0x3e54c434	0.2077797
151	0xbe94647f	-0.28982922
152	0x3d751cce	0.059841923
153	0x3e5ca082	0.21545604
154	0x3d8cc820	0.06874108
155	0xbf03327b	-0.512489
156	0xbe24ea05	-0.16104896
157	0xbec56de3	-0.385604
158	0xbea87991	-0.32905248
159	0x3e88c7a6	0.2671482
160	0xbec360be	-0.38159746
161	0xbecaf665	-0.3964111
162	0xbe50754d	-0.20357247
163	0x3e494380	0.19654655
164	0x3e33c195	0.17554314
165	0x3ede8878	0.43463492
166	0xbe718282	-0.23584941
167	0x3e99ad68	0.3001511
168	0xbeb12235	-0.3459641
169	0x3d9f40c0	0.07776022
170	0x3d88c290	0.06677735
171	0xbeeb470d	-0.45952645
172	0x3ecf9b44	0.40548146
173	0xbe64c079	-0.22339047
174	0xbe6398c3	-0.22226243
175	0xbe2f4178	-0.17114818
176	0x3e4561af	0.19275545
177	0x3dbf2e36	0.09334986
178	0x3d0a2b0c	0.03373246
179	0x3e8e2988	0.2776606
180	0xbe7e6590	-0.2484343
181	0x3dde3b93	0.10851207
182	0x3e41b36b	0.18916099
183	0xbebb2712	-0.36553246
184	0x3e8529dc	0.260085
185	0xbe276a42	-0.16349128
186	0xbd3bd11f	-0.04585373
187	0xbecbd420	-0.39810276
188	0x3f014650	0.50497913
189	0x3e06b1a1	0.13153698
190	0x3e8e08dc	0.27741134
191	0x3df2a26a	0.11847384
192	0x3e10a9fe	0.14127347
193	0x3e80acc2	0.25131804
194	0x3db855b7	0.09000724
195	0xbdcdf900	-0.100572586
196	0xbef748a3	-0.48297605
197	0xbe156a6b	-0.14591376
198	0xbea999af	-0.33125064
199	0xbe08d810	-0.13363671
200	0xbe78caa3	-0.2429605
201	0xbedaf94f	-0.42768332
202	0xbd99e4ac	-0.07514319
203	0x3e7a252c	0.24428242
204	0xbe47a9b0	-0.19498324
205	0xbdcb5cd8	-0.09929818
206	0xbee36073	-0.44409522
207	0xbc73d48f	-0.014882221
208	0xbd7335b0	-0.059377372
209	0xbed28d23	-0.41123304
210	0x3e2c3fe6	0.1682125
211	0xbd43e719	-0.047827814
212	0xbeb3665d	-0.35039034
213	0xbe8a99da	-0.27070504
214	0x3e7bc0b3	0.24585228
215	0xbe51013e	-0.2041063
216	0x3d233e26	0.03985419
217	0xbed1511c	-0.40882194
218	0x3d72b264	0.059252158
219	0xbef594ea	-0.47965175
220	0x3e82d83b	0.25555596
221	0xbe0710d6	-0.13190016
222	0xbea7ffee	-0.32812446
223	0x3df121c2	0.11774017
224	0xbdf374a4	-0.11887482
225	0xbe73431f	-0.23756073
226	0x3db8916a	0.090121105
227	0x3eb6a8c1	0.35675624
228	0xbd808669	-0.06275637
229	0x3df84edd	0.12124417
230	0xbde8e512	-0.11371817
231	0xbec16d60	-0.3777876
232	0xbed1ebbb	-0.4100016
233	0x3c8901c4	0.016724475
234	0x3e540e48	0.20708573
235	0x3d4211c6	0.04738023
236	0x3e5361f0	0.20642829
237	0x3d8b64ac	0.06806311
238	0xbded5105	-0.11587719
239	0x3ea526a3	0.3225604
240	0x3e8d8347	0.2763922
241	0x3e6c41d8	0.23071992
242	0x3e2b083e	0.16702363
243	0xbeaca308	-0.33718133
244	0x3de32415	0.110908665
245	0xbe97a517	-0.2961814
246	0xbe89d151	-0.26917508
247	0x3e19b9fa	0.1501235
248	0x3ecb5757	0.39715073
249	0x3eb68821	0.35650733
250	0xbe147bea	-0.14500394
251	0xbda0ebff	-0.07857513
252	0x3e6c85f8	0.2309798
253	0xbe31cbee	-0.17362949
254	0x3e63d9de	0.22251078
255	0x3e9497f2	0.29022175

net.2.weight f4 [256, 256]
0	0xbd9a340b	-0.07529458
1	0xbdce76fb	-0.100812875
2	0x3ca6c380	0.020356894
3	0xbb96d870	-0.004603438
4	0xbdf84176	-0.12121861
5	0xbc942924	-0.018086024
6	0x3c5f4878	0.013628118
7	0xbda3c921	-0.07997347
8	0xbd91bc56	-0.07116
9	0xbd2bc630	-0.041937053
10	0x3c1a4608	0.009416111
11	0xbd8e3ef5	-0.06945602
12	0xbca17872	-0.019710753
13	0xbde42a11	-0.11140836
14	0xbdb7a21b	-0.08966466
15	0xbdbacc54	-0.09121004
16	0xbcbc2c8d	-0.022970462
17	0xbc913538	-0.017725572
18	0x3c5e6208	0.013573177
19	0xbcf641fe	-0.030060764
20	0x3ca55c14	0.020185508
21	0xbc9ef551	-0.019404085
22	0xbdb79f5c	-0.08965942
23	0x3cc162f0	0.023606747
24	0x3c9786b8	0.018496856
25	0xbd12dc77	-0.035854783
26	0xbd0d9ed1	-0.034575287
27	0x3c65b124	0.014019284
28	0xbde97cd6	-0.11400764
29	0xbd8d3b56	-0.06896083
30	0xbdf97c98	-0.121819675
31	0x3c0065ab	0.0078367395
32	0x3cafcc30	0.021459669
33	0xbd96eef3	-0.07369795
34	0xbd85f2f8	-0.06540483
35	0xbd6dee16	-0.058088385
36	0xbb3f4c2c	-0.002918969
37	0xbdc3a3f6	-0.095527574
38	0xbd413b32	-0.047175594
39	0xbde7e6f5	-0.113233484
40	0xbcde700b	-0.027153036
41	0xbdd1178a	-0.10209568
42	0xbdc637d8	-0.0967862
43	0xbc624fcf	-0.013812973
44	0xbcce5b2d	-0.02518996
45	0xbda33062	-0.07968213
46	0xbde1f8e6	-0.11033802
47	0xbd9260c9	-0.071473666
48	0xbd97e156	-0.07416026
49	0xbc9c8856	-0.019107979
50	0x3d1acb68	0.03779164
51	0x3cd05488	0.025430933
52	0xbdc312d6	-0.09525077
53	0xbcbd9c38	-0.02314578
54	0xbd2a9df8	-0.041654557
55	0xbd6395a3	-0.055562627
56	0xba6b979e	-0.00089871313
57	0xbd2767a4	-0.040870324
58	0x3c373088	0.011181004
59	0xbd3084c6	-0.043095373
60	0xbcbdabe7	-0.023153258
61	0xbd90442e	-0.07044254
62	0xbd718276	-0.058962308
63	0x3cc2c518	0.023775622
64	0xbd64037c	-0.055667385
65	0xbd55de1c	-0.052213773
66	0xbd56de18	-0.0524579
67	0xbd7c11f3	-0.061540555
68	0xbd51438f	-0.05108982
69	0xbce440b8	-0.027862892
70	0x3d4fde42	0.05074907
71	0xbcabfe76	-0.02099536
72	0xbdd7cbad	-0.10536895
73	0xbccada35	-0.024762252
74	0x3d62dbbe	0.055385344
75	0xbc8506f4	-0.016238667
76	0xbd210127	-0.03930774
77	0xbd7702f8	-0.060305566
78	0xbc6cbba2	-0.014449032
79	0x3be04050	0.006843604
80	0xbd5491f4	-0.051897004
81	0xbd49f0bc	-0.049301848
82	0x3ccb8a6d	0.02484628
83	0xbc9371c8	-0.017998591
84	0xbcfc43f0	-0.030794114
85	0xbd555a46	-0.052088045
86	0xbb3b7500	-0.0028603673
87	0x3aa05a35	0.0012233915
88	0x3db3bf53	0.087767266
89	0x3c929d24	0.017897196
90	0x3d3e39f4	0.046441987
91	0xbdcf9953	-0.10136666
92	0xbd6e13b0	-0.058124244
93	0xbd809498	-0.06278342
94	0xbd52d56c	-0.051473066
95	0xbd8e4dc4	-0.06948426
96	0xbdc67e34	-0.0969204
97	0xbd3cd297	-0.04609927
98	0xbdf674e1	-0.12034012
99	0xbd3994ac	-0.0453078
100	0xbd8a3e14	-0.06750122
101	0x3acdd434	0.00157035
102	0xbcaab563	-0.020838445
103	0x3d05d54e	0.032674126
104	0x3c433de8	0.011916615
105	0xbd1d1edf	-0.03835952
106	0xbd2aca17	-0.041696634
107	0xbdd04162	-0.10168721
108	0xbdd2a830	-0.102859855
109	0xbb84e629	-0.0040557575
110	0xbc8b9aa6	-0.017041516
111	0x3c41de80	0.011832833
112	0xbbdeacc0	-0.0067954957
113	0xbdfa4e22	-0.12221934
114	0x3d7bcbd0	0.061473668
115	0xbd7d53cd	-0.061847497
116	0xbd83b8df	-0.06431746
117	0x3c863a9c	0.016385369
118	0xbdd75b17	-0.10515421
119	0xbd24a006	-0.040191673
120	0xbde8abf8	-0.113609254
121	0xbd091f19	-0.033476923
122	0xbcb1e914	-0.021717586
123	0xbdd3df0f	-0.103452794
124	0xbd61e885	-0.05515339
125	0xbc1909f0	-0.009340748
126	0xbdabfa5f	-0.08397364
127	0xbd0b9d81	-0.034085754
128	0x3d5af45a	0.053455688
129	0xbd1acfbb	-0.037795763
130	0xbd366b15	-0.044535715
131	0xbd248870	-0.04016918
132	0xbb8e9cd0	-0.0043521896
133	0xbddd71dd	-0.10812733
134	0x3cf48df8	0.029852852
135	0xbd1c1a37	-0.038110938
136	0x3d36afd4	0.044601277
137	0x3d39af34	0.045333102
138	0xbdd55de2	-0.10418297
139	0xbd8d9f1f	-0.069151156
140	0xbdd77734	-0.10520783
141	0xbd65ae5c	-0.056074485
142	0xbc2f8070	-0.010711774
143	0x3d5dd599	0.05415878
144	0xbd3bbabe	-0.045832388
145	0xbd2b1ad9	-0.04177365
146	0xbcf98709	-0.030459898
147	0xbdf76aae	-0.120808944
148	0xbd65bd4a	-0.056088723
149	0xbbc3e150	-0.005977787
150	0xbd8bff88	-0.06835848
151	0x3d6047b6	0.05475589
152	0xbdcf6656	-0.10126941
153	0xbddd7977	-0.10814183
154	0x3c3386b8	0.010957412
155	0xbcd96e60	-0.026541889
156	0xbbf7f627	-0.0075671854
157	0xbd294d96	-0.041333757
158	0x3ce92b50	0.028463036
159	0xbdd1ead5	-0.10249869
160	0xbde42abf	-0.11140966
161	0xbd31fe84	-0.043455616
162	0xbd4600d6	-0.04834064
163	0xbd957542	-0.07297756
164	0xbcc695f4	-0.024241425
165	0xbd3e7433	-0.046497535
166	0xbd47ff24	-0.048827305
167	0xbd8809a4	-0.06642464
168	0xbc019688	-0.007909425
169	0xbb91599f	-0.0044357325
170	0x3c102fb8	0.00880044
171	0xbdbf8fd4	-0.09353605
172	0xbcf34daa	-0.029700119
173	0xbdceef29	-0.1010421
174	0x3ce10f88	0.027473226
175	0xbcb1b4bf	-0.021692632
176	0xba5b7900	-0.00083722174
177	0xbd819d15	-0.06328789
178	0xbc9b78c6	-0.018978488
179	0xbd32ab42	-0.043620355
180	0xbc5dc568	-0.013535835
181	0xbbc23d3e	-0.005927711
182	0xbcc21b48	-0.02369465
183	0xbdd77a85	-0.105214156
184	0x393e6028	0.00018155633
185	0xbde6a717	-0.112623386
186	0xbc955a8f	-0.018231658
187	0xbd579d02	-0.05263997
188	0x3d21e456	0.0395244
189	0xbc9fce50	-0.019507557
190	0xbd18ee54	-0.037336662
191	0xbdbdc591	-0.092661984
192	0xbd8d18f4	-0.06889525
193	0xbd232890	-0.039833605
194	0xbdf09154	-0.11746469
195	0x3b6119a0	0.003434755
196	0xbdb6578c	-0.08903417
197	0xbd5750cc	-0.05256729
198	0xbde25c1b	-0.11052724
199	0xbd9b21ae	-0.07574783
200	0xbd4a2780	-0.049354076
201	0xbb878f27	-0.004136938
202	0x3c6ab608	0.014325626
203	0x3d2477f2	0.04015345
204	0xbdba4dcc	-0.0909687
205	0xbd18610e	-0.037201934
206	0x3c58b810	0.013227478
207	0xbdf108bf	-0.11769246
208	0x3d77bf56	0.060485207
209	0x3d117152	0.03550846
210	0xbcd96e97	-0.026541991
211	0x3d0deb74	0.034648374
212	0xbcc72304	-0.024308689
213	0x3d3e769a	0.046499826
214	0xbc27ef93	-0.01024999
215	0xbc3f3e4c	-0.011672568
216	0xbdb84077	-0.08996671
217	0xbd6115cf	-0.05495244
218	0x3b01974f	0.0019774025
219	0xbd9e1b9c	-0.0772011
220	0xbd8d090a	-0.0688649
221	0xbb20a900	-0.0024514794
222	0xbd579f06	-0.05264189
223	0xbd941cac	-0.07232031
224	0xbd3dfdf6	-0.046384774
225	0x3cb97b84	0.022641905
226	0xbdef8f6c	-0.116972774
227	0xbd2dc046	-0.042419694
228	0xbc8c7e85	-0.017150173
229	0xbd8a7474	-0.06760493
230	0xbdcb218f	-0.0991851
231	0x3d5dafa4	0.054122582
232	0xbc1389a9	-0.009004989
233	0xbdb457e3	-0.088058256
234	0x3ad1635c	0.0015975046
235	0xbd5b808d	-0.053589392
236	0xbdd1adc5	-0.10238222
237	0xbdd397dd	-0.103317
238	0xbd880f67	-0.06643563
239	0xbda60c37	-0.081077985
240	0xbbd7d498	-0.0065866224
241	0xbd764bb1	-0.06013078
242	0xbcb90a96	-0.022588056
243	0x3d130676	0.035894834
244	0xbdb96d8a	-0.09054096
245	0xbde4853b	-0.11158224
246	0xbde8fe3f	-0.113766186
247	0xbdaafb7c	-0.08348748
248	0xbdcd6a74	-0.1003007
249	0xbd70468e	-0.058661036
250	0xbb82d350	-0.0039924756
251	0xbbfb2fd6	-0.0076656146
252	0xba910040	-0.0011062697
253	0xbc4b3186	-0.012401944
254	0xbd4e0cc1	-0.05030513
255	0xbdd10a84	-0.10207084

net.2.bias f4 [256]
0	0xbcd273f5	-0.025690058
1	0x3d2f7d16	0.0428439
2	0x3e28c7d1	0.16482474
3	0x3bfb2d55	0.007665316
4	0xbd84f781	-0.0649252
5	0xbdd9a943	-0.10627987
6	0xbd1d20d2	-0.038361378
7	0xbc2a2c22	-0.010386499
8	0xbc94559b	-0.018107226
9	0xbdf2df89	-0.11859042
10	0xbd70fb2c	-0.058833286
11	0xbc2b2853	-0.010446626
12	0xbdac1358	-0.08402127
13	0xbd1fb315	-0.038989145
14	0xbd0b97f5	-0.034080464
15	0xbd9bb41f	-0.07602715
16	0xbd6982fa	-0.057009675
17	0x3c8d876c	0.017276488
18	0xbd181f52	-0.037139244
19	0xbdd5f0cd	-0.1044632
20	0xbd382d42	-0.044965036
21	0xbda0a885	-0.078446425
22	0xbd81e620	-0.06342721
23	0xbd0d3410	-0.03447348
24	0xbdb0fbe7	-0.086417966
25	0xbd620a10	-0.055185378
26	0xbd2c7014	-0.042099074
27	0xbcacf21f	-0.021111546
28	0xbc396313	-0.011315125
29	0xbd416d81	-0.04722357
30	0xbd81cbcd	-0.063377
31	0x3d5435a6	0.051808976
32	0xbd954183	-0.07287886
33	0x3cb60d5b	0.022223165
34	0x3c8f30e0	0.01747936
35	0xbdd76f15	-0.10519234
36	0xbd010b86	-0.03150513
37	0x3d983191	0.07431329
38	0xbc940966	-0.018070888
39	0xbace6940	-0.001574792
40	0x3aa47ec0	0.0012549981
41	0xbda7f4c0	-0.08200979
42	0x3c068940	0.008211434
43	0xbd05a0e0	-0.032624125
44	0xbb35a8c0	-0.002771899
45	0xbb1b3eaa	-0.0023688474
46	0xbd8bb460	-0.06821513
47	0xbcbd32a0	-0.023095429
48	0xbbc68c4c	-0.006059205
49	0xbdd20a91	-0.10255922
50	0xbdb6d7ef	-0.08927905
51	0xbc23cd00	-0.009997606
52	0xbd8d003e	-0.06884812
53	0xbcd76a2f	-0.02629575
54	0xbc6f9119	-0.014621996
55	0xbce835ad	-0.028345907
56	0xbc05e294	-0.008171696
57	0xbd18b105	-0.037278194
58	0xbdaae778	-0.083449304
59	0x3df98fb4	0.12185612
60	0xbdcff766	-0.101546094
61	0xbd810c26	-0.06301145
62	0xbd841e21	-0.06451059
63	0xbbbe58c9	-0.005808924
64	0xbd8bcdee	-0.06826387
65	0xbc441e30	-0.011970088
66	0xbcb1c8a3	-0.021702116
67	0xb969594d	-0.00022253879
68	0x3bc8630d	0.0061153234
69	0xbdd13585	-0.10215286
70	0xbd871bad	-0.065970756
71	0xbc58cc95	-0.01323237
72	0xbda8cda6	-0.08242349
73	0x3b9a9611	0.0047175963
74	0x3b81a4c8	0.003956411
75	0xbd82cd1e	-0.06386779
76	0x3cddb948	0.027065888
77	0xbcba1c08	-0.022718444
78	0xbc481212	-0.01221134
79	0xbd3521f4	-0.044221833
80	0xbd0fcf99	-0.03511009
81	0xbb8a9867	-0.0042295936
82	0x3cbff5cc	0.023432635
83	0xbc96e233	-0.018418407
84	0xbd4399e6	-0.04775419
85	0xbc1699fe	-0.009191988
86	0xbcd0ceb0	-0.025489181
87	0xbb8e12dc	-0.0043357443
88	0xbda983f9	-0.08277125
89	0xbd661e77	-0.056181397
90	0xbd36d1c8	-0.044633657
91	0xbde61602	-0.112346664
92	0xbdd53896	-0.104111835
93	0xbd8418fb	-0.06450077
94	0xbdf5510a	-0.119783476
95	0xbda11f33	-0.07867279
96	0xbdceb778	-0.10093588
97	0xbd13dea3	-0.036100995
98	0xbcab712e	-0.020927992
99	0xbab4b409	-0.0013786565
100	0x3bfb7279	0.0076735583
101	0xbb2e2126	-0.002657005
102	0xbce94c1a	-0.02847867
103	0xbdbd2e80	-0.09237385
104	0xbd1a0ef0	-0.0376119
105	0xbdefb63f	-0.117046826
106	0xbd16fcb0	-0.036862075
107	0xbd346f6c	-0.044051573
108	0xbdab07ef	-0.083511226
109	0xbc06cefb	-0.008228059
110	0xbd7ba8c2	-0.061440237
111	0xbdd9037d	-0.105963685
112	0xbdae766c	-0.08518681
113	0xbd6778f2	-0.056511827
114	0xbd830d83	-0.063990615
115	0xbdb60b68	-0.08888894
116	0xbd33830d	-0.04382615
117	0xbcf99319	-0.03046565
118	0xbdcfd377	-0.101477556
119	0xbdc39b78	-0.09551138
120	0xbc63d757	-0.0139063215
121	0x3d075b6a	0.033046164
122	0x3e155587	0.14583407
123	0xbc68c18d	-0.014206302
124	0xbd05dc1e	-0.032680623
125	0xbd03d78a	-0.032187976
126	0x3b110e8c	0.0022133915
127	0xbd90d606	-0.07072072
128	0xbdb36bc6	-0.087607905
129	0xbc7d68b8	-0.015466861
130	0xbdc18c4a	-0.09450586
131	0xbdcf7867	-0.10130387
132	0xbc77268c	-0.015084874
133	0xbce0b33a	-0.027429212
134	0xbd5cbffe	-0.053894036
135	0xbd159f74	-0.03652902
136	0xbcdc0863	-0.026859468
137	0xbd7eab80	-0.062175274
138	0x3e00ec1c	0.12590069
139	0xbcfeee18	-0.031119391
140	0xbd09d6cf	-0.033652123
141	0xbca1e640	-0.019763112
142	0xbd2d61f2	-0.042329736
143	0xbcbcd328	-0.023049906
144	0xbd33e48c	-0.04391913
145	0xbca113dc	-0.01966279
146	0x3c341e28	0.010993518
147	0xbd9baebc	-0.07601687
148	0xbded40d8	-0.115846336
149	0xbdc5966f	-0.096478336
150	0xbba002cc	-0.004883146
151	0xbcb30e09	-0.021857278
152	0xbc939aa0	-0.018018067
153	0xbc7557ba	-0.014974529
154	0xbbbb4201	-0.0057146554
155	0xbcac2716	-0.021014731
156	0xbd4abc95	-0.049496252
157	0xbcfddb65	-0.030988405
158	0xbd613796	-0.05498465
159	0xbd7fc003	-0.062438976
160	0xbdebd7d2	-0.11515774
161	0xbdc02254	-0.093815476
162	0xbc4c5a4e	-0.012472702
163	0xbd1a5eb4	-0.037687972
164	0xbdc785b9	-0.097423024
165	0xbddd2d35	-0.10799638
166	0xbd799d26	-0.060940884
167	0xbd81c945	-0.06337217
168	0xbd27b48e	-0.040943675
169	0x3bfc1c49	0.0076938015
170	0xbdc77cc4	-0.09740594
171	0xbd0d69ce	-0.03452473
172	0xbccc5e88	-0.02494742
173	0xbd59e028	-0.053192288
174	0xbd4882f2	-0.048953004
175	0xbd8719de	-0.06596731
176	0xbde0a07d	-0.10968111
177	0x3c153fc8	0.009109445
178	0xbd217693	-0.03941972
179	0xbdba133d	-0.09085701
180	0xbd05d04c	-0.03266935
181	0xbd7e6451	-0.062107388
182	0x38efcbd5	0.00011434375
183	0xbc063c82	-0.008193137
184	0xbd54ae54	-0.051924065
185	0x3d2a7bb8	0.041621894
186	0xbda8b2be	-0.08237217
187	0xbca052b0	-0.019570678
188	0xbdf3b7b2	-0.119002715
189	0x3d7c82da	0.061648227
190	0x3c55c0e8	0.013046481
191	0xbcfa3aa7	-0.030545546
192	0xbc49fd77	-0.012328497
193	0xbdc0d978	-0.09416479
194	0xbc509507	-0.012730843
195	0xbd3f48db	-0.04670034
196	0xbaab2ec5	-0.0013060203
197	0xbc35efe3	-0.011104557
198	0xbdb7153e	-0.089395985
199	0xbd6e151c	-0.0581256
200	0xbdc3cb2e	-0.09560238
201	0xbdc5128b	-0.096226774
202	0xbd83ede4	-0.064418584
203	0xbac07e5c	-0.0014686096
204	0xbd67f8b8	-0.05663368
205	0xbdb40469	-0.08789904
206	0xbcd26840	-0.025684476
207	0xbcadc437	-0.021211727
208	0xbd3edfc2	-0.04660011
209	0xbd00200e	-0.03128057
210	0xbd552644	-0.052038446
211	0xbda9e57c	-0.08295724
212	0xbc13bc38	-0.009017043
213	0xbd6c6ba0	-0.057719827
214	0xbd085062	-0.033279784
215	0x3d3ea84a	0.04654721
216	0x3c2a0710	0.01037766
217	0xbd277374	-0.04088159
218	0xbd339ce3	-0.04385079
219	0xbdd66d13	-0.10470023
220	0xbc8b6251	-0.017014654
221	0xbd6cc48a	-0.05780462
222	0xbde9f92d	-0.1142448
223	0xbdf5cb82	-0.12001707
224	0xbdc1d7bf	-0.094649784
225	0x3d56673c	0.052344546
226	0xbdcfa41b	-0.101387225
227	0xbd750aa1	-0.05982459
228	0xbdc63d98	-0.09679717
229	0xbcfc9502	-0.030832771
230	0xbd510864	-0.051033393
231	0xbc107a2f	-0.008818193
232	0xbdad0cb5	-0.08449689
233	0xbdd232e3	-0.10263612
234	0xbd37cfd6	-0.044875942
235	0xbdae4a4b	-0.08510264
236	0xbdbf6be2	-0.09346749
237	0xbd0c9283	-0.034319412
238	0xbcef4faa	-0.029212791
239	0xbd9e0425	-0.07715634
240	0xbdba4f66	-0.09097175
241	0xbcf09e88	-0.029372469
242	0xbc480d5a	-0.0122102145
243	0xbc05411e	-0.008133201
244	0xbcb9105c	-0.022590809
245	0xbc81dc79	-0.0158522
246	0xbd3360ec	-0.043793604
247	0xbd73f1f4	-0.059556916
248	0xbd28d2b4	-0.041216567
249	0xbd901e63	-0.07037046
250	0xbc892b32	-0.01674423
251	0x3d53a88e	0.05167442
252	0xbd349b09	-0.044093166
253	0xbbb62d97	-0.005559634
254	0x3c5bf1e8	0.013424374
255	0xbdd9da18	-0.10637301

net.4.weight f4 [2, 256]
0	0x3dd7b9c4	0.10533479
1	0x3acfc4c0	0.0015851483
2	0x3e28ea92	0.16495731
3	0xbd43d77f	-0.047812935
4	0xba86a602	-0.0010272863
5	0xbd082899	-0.033241842
6	0x3d646b1e	0.055766217
7	0x3dab621b	0.083683215
8	0xbc70fddf	-0.014708965
9	0x3dacb614	0.08433166
10	0xbb142d85	-0.002261014
11	0x3d6b6a81	0.057474617
12	0xbaa12eea	-0.0012297307
13	0x3d855a36	0.06511347
14	0xbb4d7511	-0.0031350295
15	0xbda99a6a	-0.08281405
16	0xbd6e30c4	-0.058151975
17	0x3d2fc256	0.042909943
18	0xbce40518	-0.02783446
19	0x3d666317	0.056246843
20	0x3dad6a47	0.084675364
21	0xbd7466cb	-0.059668344
22	0xbca9e545	-0.020739207
23	0x3c4b40e1	0.012405605
24	0xbcbfcde6	-0.02341361
25	0xbd1bf8ce	-0.038079076
26	0x3d80f3ed	0.06296525
27	0xbd5d6a0e	-0.05405622
28	0xbc364649	-0.011125156
29	0x3d9a9200	0.075473785
30	0xbd37aa96	-0.044840418
31	0xbd033e1e	-0.03204166
32	0xbc0c9555	-0.008580525
33	0xbd4f486f	-0.050606187
34	0x3d0235a4	0.031789437
35	0x3cb7c3df	0.022432266
36	0xbdeceba9	-0.11568386
37	0x3dc4551a	0.09586544
38	0xbb1a8aab	-0.0023581188
39	0x3d09fa0e	0.033685736
40	0xbd3de26a	-0.046358503
41	0xbcdc5c26	-0.026899409
42	0xbd1df496	-0.038563333
43	0xbd9cc77d	-0.07655237
44	0x3cc457c9	0.02396764
45	0xbc2c6bfd	-0.010523793
46	0x3da878ee	0.082261905
47	0xb8aec400	-8.3334744e-05
48	0xbd226122	-0.039643414
49	0xbd1a96bf	-0.03774142
50	0x3d5e71a9	0.054307614
51	0x3ce612cc	0.028085135
52	0x3d30dec2	0.04318119
53	0x3d5849d8	0.052804798
54	0x3ce2f722	0.027705733
55	0x3ced90e4	0.028999753
56	0x3c64d801	0.013967515
57	0xbd29a7f0	-0.041419923
58	0x3d97451a	0.07386227
59	0x3ed6d1de	0.4195699
60	0x3d173b86	0.036922
61	0x3cc4c6d1	0.024020584
62	0x3d092469	0.03348199
63	0x3b67c38a	0.0035364353
64	0x3c8562b4	0.016282417
65	0xbd04625a	-0.032320358
66	0x3c3e443f	0.011612951
67	0x3cb04985	0.021519432
68	0x3ba07450	0.004896678
69	0x3d29d507	0.041462924
70	0xbd01fea9	-0.031737003
71	0xbae01dea	-0.0017098759
72	0xbd04fb3c	-0.03246616
73	0x3bc17198	0.005903434
74	0x3d4addb0	0.049527824
75	0x3d6e1671	0.05812687
76	0x3d3e0132	0.04638786
77	0x3e280e7b	0.16411774
78	0xbc2c83af	-0.010529443
79	0x3b83d4d0	0.004023172
80	0xbd6c0e60	-0.057630897
81	0xbbcae68e	-0.006192035
82	0xbd50a1d8	-0.050935596
83	0x3d93fbfa	0.07225795
84	0x3c7974f8	0.015225641
85	0x3d0b7eb5	0.034056384
86	0x3cf14288	0.02945067
87	0xbcec2e41	-0.02883065
88	0x3c90cbc1	0.017675282
89	0xbd0784f4	-0.03308578
90	0x3ad9a640	0.0016605332
91	0xbc17c63c	-0.009263571
92	0xbd0e0467	-0.034672167
93	0x3d844235	0.064579405
94	0xbb16f2fc	-0.0023033014
95	0x3b27da5b	0.0025612328
96	0x3c1a4d98	0.009417914
97	0xbc35f0d2	-0.011104779
98	0x3c87caf9	0.016576277
99	0x3cb4a714	0.022052325
100	0xbe616aee	-0.22013447
101	0xba109640	-0.0005515553
102	0xbc16ff4e	-0.009216143
103	0x3d18c45d	0.03729664
104	0x3cfd468c	0.030917428
105	0x3ce81e03	0.028334623
106	0x3bc9c8bf	0.006157964
107	0x3d96e5a9	0.07368023
108	0xbc5ab87e	-0.01334965
109	0x3d5cc876	0.053902112
110	0x3cddef90	0.027091771
111	0x3d31dfc6	0.043426298
112	0xbd055d8d	-0.03255992
113	0xbc804c3f	-0.015661357
114	0xbd9e09f9	-0.07716746
115	0xbd06de6e	-0.03292697
116	0x3bc7ffe3	0.006103502
117	0x3d604786	0.05475571
118	0x3d9b3aa6	0.07579546
119	0xbc462b1c	-0.012095239
120	0xbd546eaa	-0.05186335
121	0xbd6a49d0	-0.0571993
122	0x3e1247de	0.14285228
123	0xbc63b45a	-0.01389798
124	0x3d05686e	0.032570295
125	0xbd4506d1	-0.048102204
126	0xbaae83aa	-0.0013314385
127	0x3c8a0115	0.01684622
128	0x3b97cc33	0.0046324967
129	0x3cc0f730	0.023555368
130	0xbbb46737	-0.005505468
131	0x39c39a44	0.00037308235
132	0x3dd6dca0	0.104913
133	0x3c4c74f2	0.012479054
134	0x3d8e899e	0.06959842
135	0x3d3ab3d6	0.04558166
136	0x3c37f468	0.011227705
137	0xbd2b3f0b	-0.04180817
138	0x3cffdf47	0.031234397
139	0x3d232ce4	0.039837733
140	0x3d5de819	0.054176424
141	0xbd512fc6	-0.05107095
142	0xbb89bffe	-0.0042037955
143	0x3d18f248	0.037340432
144	0xbd05210f	-0.03250223
145	0xbbb2a850	-0.0054521933
146	0xbd8a292b	-0.067461334
147	0xbd2480c7	-0.040161874
148	0xbd7778a6	-0.060417794
149	0x3d2c7f1c	0.04211341
150	0xbaa43fcc	-0.001253122
151	0x3c03ca01	0.008043767
152	0xbd1cf1ca	-0.038316526
153	0x3d919f2c	0.07110438
154	0x3c6a9be7	0.014319397
155	0xbcc65677	-0.024211152
156	0x3b9bec85	0.00475842
157	0x3d972edf	0.07381987
158	0x3bca9f53	0.0061835437
159	0x3cae9010	0.021308929
160	0x3a06f991	0.00051488826
161	0x3d8bd914	0.06828514
162	0x3b0fda6f	0.0021950265
163	0xbb2030e0	-0.0024443194
164	0xbd0dce26	-0.034620427
165	0x3d52be26	0.05145087
166	0xbc4abb9f	-0.012373834
167	0x3cf2bb13	0.02963022
168	0x3af8e51a	0.0018989176
169	0xbd3d01ee	-0.04614442
170	0x3d4e8992	0.050424166
171	0x3cef64ec	0.029222928
172	0xbd040668	-0.032232672
173	0x3b1c85a0	0.0023883358
174	0xbbb64c50	-0.0055632964
175	0xbd78fa4a	-0.06078557
176	0xbcac1356	-0.021005314
177	0xbc53c412	-0.012925165
178	0x3c7dd0df	0.015491693
179	0x3c26fc31	0.010191963
180	0xbadd1248	-0.001686641
181	0x3b3ece6a	0.0029114732
182	0xbad0672c	-0.0015899888
183	0xbc92e2b8	-0.017930374
184	0x3c2c7538	0.010525994
185	0xbcd34d1c	-0.025793605
186	0x3d4c9965	0.049950976
187	0x3d93ff59	0.07226438
188	0x3d5dc0c2	0.054138906
189	0xbb7df260	-0.0038749203
190	0xbc118808	-0.00888253
191	0x3d180e56	0.037123047
192	0x3d615246	0.055010103
193	0x3dafbd0b	0.08580979
194	0xb929d07a	-0.0001619476
195	0x3c9ebe3b	0.019377818
196	0xbd89026a	-0.066899136
197	0x3c94858c	0.018130086
198	0xbc0ade24	-0.008475814
199	0x3bf98cb0	0.007615648
200	0x3d4587f3	0.048225354
201	0x3c4e2373	0.012581694
202	0xbd88e1d3	-0.066836976
203	0x3d609560	0.054829955
204	0x3dd2b4d7	0.10288399
205	0x3d364ca6	0.04450669
206	0xba672d56	-0.0008818706
207	0xbca61d1f	-0.020277558
208	0xbd00e816	-0.031471334
209	0xbcf837c8	-0.030300036
210	0xbc89a734	-0.016803361
211	0x3d560531	0.052251045
212	0xbd77e42a	-0.06052033
213	0xbca80722	-0.020511214
214	0xbc9d9660	-0.019236743
215	0x3d28408a	0.041077174
216	0x3d7a8050	0.061157525
217	0x3c53f7f9	0.012937539
218	0xbd02406c	-0.03179972
219	0xbc6a1cca	-0.01428909
220	0xbd1f282f	-0.03885668
221	0x3c2551d9	0.010090315
222	0x3db712b2	0.08939113
223	0x3c484754	0.012224037
224	0x3d626606	0.05527308
225	0xbbcf0720	-0.006317988
226	0x3d2f133f	0.042742964
227	0x3d4242a0	0.04742682
228	0x3d1836f1	0.03716177
229	0xbc909d81	-0.017653229
230	0xbd678255	-0.05652078
231	0x3da36c89	0.07979686
232	0xba7e6866	-0.00097048876
233	0xbc9e9d37	-0.019362075
234	0x3cc7001c	0.024292044
235	0x3d8ea6e7	0.06965428
236	0xbc13d1d1	-0.009022192
237	0x3d1945e1	0.037420157
238	0x3d5b45eb	0.053533476
239	0x3d9b42d0	0.07581103
240	0x3d12fe6a	0.03588716
241	0xbc5d1a95	-0.013495107
242	0x3c10152d	0.008794111
243	0xbc749ea4	-0.014930401
244	0x3da4f78e	0.0805503
245	0xbd55c636	-0.05219098
246	0x3de66c7a	0.11251159
247	0x3ca93e98	0.02065973
248	0xbd954492	-0.072884694
249	0x3b630776	0.0034641898
250	0xbc0dbe62	-0.008651348
251	0x3d39ce68	0.04536286
252	0xbd8b77de	-0.06809972
253	0x3cbaebe9	0.022817569
254	0xbd497490	-0.04918343
255	0xbd82b3be	-0.06381939

net.4.bias f4 [2]
0	0xbd065a88	-0.03280118
1	0x3d8afecc	0.0678688
