models/cross_entropy/batchsize=100-hiddensize=256-lr=0.01-gamma=.99-PART=30.pt (torch_old, 272411 bytes, 6 tensors)

net.0.weight f4 [256, 5]
0	0xbe371aaf	-0.17881273
1	0xbe8c2972	-0.2737537
2	0xbede565b	-0.4342526
3	0xbe03949d	-0.1284966
4	0xbc8860f9	-0.016647803
5	0x3e825829	0.25457886
6	0x3e597bd6	0.21238646
7	0xbda0be32	-0.07848777
8	0x3d43288f	0.0476461
9	0xbdd9567b	-0.10612198
10	0xbe9b91d3	-0.30384693
11	0x3e989356	0.29799908
12	0xbdcbf404	-0.09958652
13	0xbe1b293c	-0.15152448
14	0xbe82bb39	-0.25533465
15	0xbd0ddd80	-0.034635067
16	0xbee00011	-0.4375005
17	0xbdbb7620	-0.0915339
18	0xbee05a4d	-0.43818894
19	0x3ed301d2	0.41212326
20	0xbe99361b	-0.29924092
21	0x3e33352f	0.17500757
22	0x3da2edd3	0.079555176
23	0xbe3e5ee9	-0.18590893
24	0xbec354fb	-0.38150772
25	0xbd85b106	-0.06527905
26	0x3e12a705	0.14321525
27	0xbc94c145	-0.018158564
28	0x3e895f6b	0.2683061
29	0xbe261890	-0.16220307
30	0xbe82b518	-0.2552879
31	0x3d40ff38	0.047118396
32	0x3ebf8666	0.37407225
33	0x3e8c72ea	0.27431422
34	0xbedc7e76	-0.43065232
35	0x3e580d79	0.2109889
36	0x3d485551	0.04890949
37	0xbe6e38b6	-0.23263821
38	0xbcfd4fc4	-0.030921824
39	0xbe58230d	-0.21107121
40	0x3dd2e692	0.10297884
41	0xbd4e6eda	-0.050398685
42	0xbcff4bc1	-0.031164052
43	0xbed98631	-0.42485192
44	0x3da7ec3c	0.08199355
45	0xbe1cec72	-0.15324572
46	0x39113256	0.00013847029
47	0xbd920c3a	-0.07131238
48	0xbeddbd6a	-0.43308574
49	0x3ec7a36d	0.3899187
50	0x3e870aec	0.2637552
51	0xbe9782d6	-0.29592007
52	0xbec52250	-0.3850274
53	0xbe280924	-0.16409737
54	0xbedf664e	-0.4363274
55	0x3e67e8ea	0.22647443
56	0x3eb172a5	0.3465778
57	0x3ebe5261	0.37172225
58	0xbe5a7d40	-0.21336842
59	0xbe5cb8f2	-0.21554926
60	0x3e9b7654	0.30363715
61	0xbed8fc96	-0.42380208
62	0x3dc7a8cc	0.09748992
63	0x3e6df739	0.23238839
64	0x3e856047	0.26050016
65	0x3e796344	0.24354273
66	0x3e5490de	0.20758387
67	0x3eb529e7	0.3538353
68	0x3ec74676	0.38920945
69	0xbeccf39d	-0.40029612
70	0x3d4a211f	0.049347993
71	0xbe93e57c	-0.2888602
72	0x3dbbc74a	0.09168871
73	0x3eaaebd3	0.33383045
74	0xbec60efb	-0.38683304
75	0x3d116f43	0.035506498
76	0xbec2e417	-0.38064644
77	0xbeb55354	-0.35415137
78	0xbeb9982c	-0.3624891
79	0x3e308277	0.17237268
80	0xbdcd33f8	-0.10019678
81	0xbe85ce80	-0.2613411
82	0xbd31a293	-0.043367933
83	0xbe648dd6	-0.22319731
84	0xbe6beb1d	-0.23038907
85	0x3d079980	0.033105373
86	0xbe87ef3e	-0.26549715
87	0xbe521efe	-0.20519635
88	0x3e3a36f4	0.18185025
89	0x3e18f06c	0.14935464
90	0xbc9e3790	-0.019313604
91	0x3ed723ea	0.42019588
92	0xbd5ae8b8	-0.053444594
93	0x3da1acd0	0.078942895
94	0xbe658150	-0.2241261
95	0x3d8301d0	0.0639683
96	0x3e73664c	0.23769492
97	0xbeb8937e	-0.36050028
98	0x3dd26d09	0.10274703
99	0x3d4d669f	0.050146695
100	0xbea51f3b	-0.3225039
101	0x3ed659aa	0.41865283
102	0xbedcb820	-0.43109226
103	0x3dcd2e60	0.10018611
104	0xbe9ebc1c	-0.3100289
105	0x3df911b3	0.12161579
106	0x3b180500	0.002319634
107	0xbe96e7a9	-0.29473618
108	0xbe3d0c9b	-0.1846184
109	0xbe93ea07	-0.28889486
110	0xbbb82ca7	-0.0056205573
111	0x3e7d688d	0.24746914
112	0x3e8bde56	0.27318066
113	0x3db21b03	0.08696558
114	0xbe3fb579	-0.1872157
115	0x3d5b4240	0.053529978
116	0xbe850796	-0.2598235
117	0xbdef8ab4	-0.116963774
118	0xbec9f9bf	-0.39448354
119	0x3e92aa2c	0.28645456
120	0xbe4c2c1a	-0.19938698
121	0x3bf44400	0.0074543953
122	0x3dc4d500	0.09610939
123	0x3e4b4f5c	0.19854492
124	0x3d2eba78	0.0426583
125	0x3e7407ae	0.23831055
126	0x3eb95d69	0.3620408
127	0x3ebd803b	0.37011895
128	0xbda6ccbd	-0.081445195
129	0x3ea620be	0.32446855
130	0x3e7823ba	0.24232379
131	0x3e380e28	0.1797415
132	0x3e954120	0.2915125
133	0xbd9ba033	-0.07598915
134	0xbe1b15e3	-0.15145068
135	0xbe7c394b	-0.2463123
136	0x3eb5ee09	0.3553317
137	0xbd64c421	-0.055851106
138	0x3d4920b3	0.04910345
139	0xbe383de1	-0.17992355
140	0x3e53b083	0.20672803
141	0xbe1d3c22	-0.1535497
142	0xbd916bb8	-0.07100624
143	0xbca67f35	-0.020324329
144	0x3e47a23d	0.19495483
145	0xbe850245	-0.25978294
146	0x3eae83ef	0.34085032
147	0x3eb5839a	0.35451967
148	0xbe2a6397	-0.16639553
149	0x3ea5637d	0.32302466
150	0x3e71f37c	0.23628038
151	0xbe982e2e	-0.29722732
152	0xbeae7419	-0.3407295
153	0xbe7bce34	-0.24590379
154	0xbe03d027	-0.12872373
155	0xbc056ef8	-0.008144133
156	0x3ebdf7c8	0.37103105
157	0x3e4e387e	0.20138738
158	0x3eca1f1e	0.39476866
159	0xbe96f470	-0.29483366
160	0xbf01289d	-0.50452596
161	0x3eb36ada	0.3504246
162	0xbef810b7	-0.48450252
163	0x3e1b06c7	0.15139304
164	0xbef96894	-0.487126
165	0x3e8a48fc	0.27008808
166	0x3eb8dce3	0.36106023
167	0xbdca6b86	-0.0988379
168	0x3e0bbf7b	0.13647263
169	0xbeda4587	-0.4263117
170	0xbdb4c131	-0.08825911
171	0x3dc56d83	0.09640028
172	0x3e3c647e	0.1839771
173	0xbe429f60	-0.19006109
174	0xbe45db44	-0.19321924
175	0x3de08722	0.109632745
176	0x3d8207ff	0.063491814
177	0xbeb8bf6f	-0.36083552
178	0xbe86e1f2	-0.26344258
179	0xbe1260ba	-0.14294711
180	0x3e82443e	0.2544269
181	0x3d77283f	0.060341116
182	0xbe48154b	-0.19539373
183	0x3e7e6810	0.24844384
184	0x3e9fd46b	0.3121675
185	0xbebad026	-0.3648693
186	0xbede3042	-0.43396193
187	0xbca752c6	-0.020425212
188	0xbee603c9	-0.44924763
189	0xbe5ffae9	-0.21873058
190	0x3d19d1d0	0.03755361
191	0x3ed9ff3a	0.42577535
192	0xbec3af81	-0.38219836
193	0xbcdab960	-0.026699722
194	0xbebb4114	-0.36573088
195	0xbcc1e1b0	-0.023667186
196	0x3db3858c	0.087657064
197	0x3e97c137	0.296396
198	0xbeec4932	-0.46149594
199	0xbeb6fc23	-0.3573924
200	0x3e666180	0.22498131
201	0xbe7a8248	-0.24463761
202	0xbd83cb0d	-0.06435213
203	0x3eb68d96	0.35654896
204	0xbedb8858	-0.4287746
205	0xbec9e582	-0.39432913
206	0xbe426f77	-0.18987833
207	0xbe3392e7	-0.17536508
208	0x3eaa2fb9	0.33239534
209	0x3daf7a51	0.08568252
210	0x3e01282a	0.12612978
211	0xbe860662	-0.26176745
212	0x3d8eb0c1	0.06967307
213	0x3ddcb4ea	0.10776694
214	0xbea16e45	-0.3152944
215	0xbd971551	-0.07377113
216	0xbe0eb0b2	-0.13934591
217	0xbef0ddd5	-0.47044244
218	0xbeeda61a	-0.46415788
219	0x3e187209	0.14887251
220	0x3e2d2f6a	0.16912618
221	0xbea00299	-0.31251982
222	0xbe39a50b	-0.18129365
223	0x3e3131a8	0.17304099
224	0xbece79a7	-0.40327188
225	0x3ea499e4	0.3214866
226	0x3e247e06	0.16063699
227	0xbe98f046	-0.29870814
228	0x3e812f1c	0.25231254
229	0xbd632b5c	-0.055461273
230	0xbee02bd3	-0.43783435
231	0xbde5d076	-0.112214014
232	0xbd86cd98	-0.06582183
233	0xbd36acd4	-0.044598415
234	0x3ea238c1	0.31683925
235	0xbe75a8fb	-0.23990242
236	0xbd90aae6	-0.07063846
237	0x3e7745b0	0.24147677
238	0xbcefca0b	-0.029271146
239	0xbe374bf8	-0.17900074
240	0x3ea646c3	0.32475862
241	0xbe62d3dd	-0.22151132
242	0x3e8252be	0.25453752
243	0x3eb152d4	0.34633505
244	0xbec777a1	-0.38958457
245	0xbed38231	-0.41310266
246	0x3ded0171	0.115725406
247	0xbec158a9	-0.37762955
248	0x3ec6334d	0.38711014
249	0xbd4cd677	-0.050009217
250	0xbec2bdec	-0.38035524
251	0x3d8895a0	0.06669164
252	0xbe82df74	-0.25561106
253	0xbe8d8189	-0.2763789
254	0xbe1971c6	-0.14984807
255	0x3eabf474	0.3358494

net.0.bias f4 [256]
0	0x3e8dc328	0.27687955
1	0x3cc0b5e9	0.023524242
2	0xbea92bc2	-0.33041197
3	0xbe9c1754	-0.30486548
4	0x3e3bcf71	0.18340851
5	0x3db26c7e	0.087120995
6	0xbec9cbda	-0.3941334
7	0x3dc65a6f	0.096852176
8	0x3caea871	0.021320553
9	0xbdbc5d52	-0.09197487
10	0xbe7a802e	-0.24462959
11	0x3e999a7b	0.30000672
12	0x3e2951ca	0.16535106
13	0x3ec56bc1	0.38558772
14	0x3e5801b9	0.21094407
15	0x3eb6dc67	0.3571503
16	0x3e81d615	0.25358644
17	0xbeab67d6	-0.33477658
18	0xbedbe570	-0.42948484
19	0xbcea8fb5	-0.028632978
20	0x3c3f2900	0.01166749
21	0x3ea3f1e5	0.32020488
22	0xbed39558	-0.41324878
23	0xbe9fc4fa	-0.3120497
24	0xbe8e81a5	-0.27833286
25	0x3e6c7f41	0.23095419
26	0xbed3513b	-0.4127291
27	0xbc0800bd	-0.008300957
28	0xbe814d49	-0.25254276
29	0xbea30246	-0.31837672
30	0x3e869dfd	0.2629241
31	0xbd98f49f	-0.07468533
32	0x3e866a34	0.26252902
33	0x3dc4841c	0.0959551
34	0x3c2a59d4	0.010397393
35	0x3e359ccb	0.17735593
36	0x3e8ff3ee	0.2811579
37	0x3ec3e284	0.38258755
38	0xbe3716fa	-0.17879859
39	0x3e82378f	0.25433013
40	0x3e1cb994	0.15305167
41	0x3ec8fa59	0.392535
42	0x3ea9b1ab	0.33143362
43	0x3e664017	0.22485386
44	0x3dc81359	0.09769315
45	0xbed06799	-0.4070404
46	0xbb4245cd	-0.0029643655
47	0x3da3f27f	0.08005237
48	0x3cefb4f8	0.029261097
49	0xbd9611ec	-0.07327637
50	0x3e96cc00	0.29452515
51	0xbece1726	-0.40252036
52	0x3e0f7dd3	0.14012842
53	0xbe469a80	-0.19394875
54	0xbe9d670c	-0.3074268
55	0xbe1bf4a1	-0.15230037
56	0x3e339640	0.17537785
57	0xbebe538a	-0.3717311
58	0xbe87bb62	-0.2651015
59	0xbd98f9b0	-0.07469499
60	0x3df1e9ab	0.11812147
61	0x3ec92589	0.3928645
62	0x3e94c920	0.29059696
63	0x3e33bd5e	0.17552707
64	0xbe8e3230	-0.27772665
65	0x3dea131f	0.11429428
66	0x3ddcca10	0.10780728
67	0x3e4420a2	0.19153073
68	0xbe50e5a9	-0.20400108
69	0xbebc3b00	-0.36763763
70	0xbae29e00	-0.0017289519
71	0xbe7da917	-0.24771534
72	0x3dd8051d	0.1054785
73	0xbd91b539	-0.071146436
74	0x3c893e2a	0.016753275
75	0xbea2433d	-0.31691924
76	0xbee824c3	-0.45340547
77	0xbeded892	-0.43524605
78	0x3c265bba	0.010153705
79	0xbee1b31f	-0.4408197
80	0xbe44f718	-0.19234884
81	0x3e493670	0.19649673
82	0x3d26b871	0.04070324
83	0xbed535f2	-0.4164272
84	0xbe0543ae	-0.13014099
85	0xbc818043	-0.01580823
86	0xbeab62e7	-0.33473894
87	0xbede6d27	-0.43442652
88	0xbe52fe64	-0.20604855
89	0xbe2ccece	-0.16875765
90	0xbe9d3bee	-0.30709785
91	0x3d540022	0.05175794
92	0xbe82108c	-0.2540325
93	0xbee44532	-0.44584042
94	0xbeff37a7	-0.49847147
95	0x3e9b1766	0.3029129
96	0xbd45a5bb	-0.048253756
97	0xbec6a700	-0.38799286
98	0xbe108d2d	-0.14116354
99	0x3eaf23a2	0.34206873
100	0x3e95ba18	0.2924354
101	0xbee030b8	-0.4378717
102	0xbe997d44	-0.29978383
103	0xbee42ba3	-0.44564542
104	0xbecbb220	-0.39784336
105	0xbe8fc2d0	-0.28078318
106	0xbe221608	-0.15828717
107	0x3e3ba7dd	0.18325754
108	0x3e3c83af	0.18409608
109	0x3d8df397	0.06931227
110	0xbdad173d	-0.08451698
111	0xbea58419	-0.32327345
112	0xbe437010	-0.19085717
113	0x3e3a407d	0.18188663
114	0xbdee3d40	-0.11632776
115	0xbe87670b	-0.26445803
116	0x3eaae0d5	0.33374658
117	0xbea7b2c9	-0.3275359
118	0x3eb073eb	0.34463438
119	0x3ba45b9b	0.005015803
120	0x3e9d6261	0.3073912
121	0xbe0f5fa1	-0.14001323
122	0xbeb5f056	-0.35534924
123	0x3e969232	0.29408413
124	0xbe29edd5	-0.16594632
125	0xbebdef1e	-0.37096494
126	0xbc532549	-0.012887307
127	0xbef56b5f	-0.4793348
128	0xbe977a83	-0.29585657
129	0xbc100735	-0.008790781
130	0xbd913a99	-0.07091255
131	0xbedd36fc	-0.43206012
132	0xbe908426	-0.2822582
133	0x3ebcbb48	0.36861634
134	0xbe8f7a2c	-0.28022897
135	0xbe04690c	-0.12930697
136	0xbd9fdb60	-0.07805514
137	0x3d92ff00	0.07177544
138	0x3ec6df19	0.38842085
139	0x3c4b66a2	0.012414606
140	0xbec11d39	-0.37717608
141	0x3d2448fc	0.040108666
142	0x3e2d8b84	0.16947752
143	0xbeb47079	-0.3524206
144	0x3d289e33	0.041166496
145	0x3d5c02ec	0.053713724
146	0x3d21d702	0.039511688
147	0x3d85fe2e	0.065426216
148	0xbeae648e	-0.34061092
149	0x3e18a280	0.14905739
150	0x3e56a10e	0.20959875
151	0xbe8f0779	-0.2793539
152	0x3d8626ca	0.06550367
153	0x3e54586a	0.20736852
154	0x3d93640d	0.071968175
155	0xbf027646	-0.5096172
156	0xbe217709	-0.15768065
157	0xbec5df71	-0.38647035
158	0xbea87991	-0.32905248
159	0x3e759c05	0.23985298
160	0xbebaf00e	-0.36511272
161	0xbecaf665	-0.3964111
162	0xbe50754d	-0.20357247
163	0x3e3b8706	0.18313226
164	0x3e3bf66c	0.18355721
165	0x3eace976	0.33771867
166	0xbe7540f3	-0.23950557
167	0x3e9b2b41	0.30306438
168	0xbeb12235	-0.3459641
169	0x3da6d988	0.081469595
170	0x3d88c290	0.06677735
171	0xbee9b994	-0.45649397
172	0x3ec20b99	0.37899473
173	0xbe564cb0	-0.20927691
174	0xbe6398c3	-0.22226243
175	0xbe25ebce	-0.16203234
176	0x3e5718bd	0.2100553
177	0x3da375ca	0.07981451
178	0x3d1298fb	0.035790425
179	0x3e77596d	0.24155207
180	0xbe7e6590	-0.2484343
181	0x3dda2f13	0.1065351
182	0x3e2f7645	0.1713496
183	0xbeb992eb	-0.36244902
184	0x3e8505c9	0.25980976
185	0xbe1b93fe	-0.15193173
186	0xbdb1653a	-0.086618856
187	0xbecbd420	-0.39810276
188	0x3ea2e929	0.31818512
189	0x3e08d00b	0.13360612
190	0x3e8f32bc	0.27968395
191	0x3ddac951	0.10682929
192	0x3e0faa0a	0.14029709
193	0x3e82e999	0.25568846
194	0x3dbd5648	0.092449725
195	0xbdcdf900	-0.100572586
196	0xbef3e64c	-0.4763664
197	0xbe0b281a	-0.13589516
198	0xbea6e25e	-0.3259458
199	0xbe02ad23	-0.12761359
200	0xbe75df72	-0.24011019
201	0xbed9647d	-0.4245948
202	0xbd99e4ac	-0.07514319
203	0x3e7a252c	0.24428242
204	0xbe44e600	-0.19228363
205	0xbdc4f611	-0.09617246
206	0xbee36073	-0.44409522
207	0xbc76261c	-0.015023734
208	0xbd7335b0	-0.059377372
209	0xbed28d23	-0.41123304
210	0x3e2e2bcb	0.17008893
211	0xbd38a734	-0.045081332
212	0xbeb3665d	-0.35039034
213	0xbe8a99da	-0.27070504
214	0x3e80e185	0.25172058
215	0xbe3d6d5d	-0.1849875
216	0x3d1c3dfc	0.03814505
217	0xbebf98dc	-0.3742131
218	0x3e153b8d	0.14573498
219	0xbef1f197	-0.4725463
220	0x3e84a1fc	0.25904834
221	0xbe0710d6	-0.13190016
222	0xbea7ffee	-0.32812446
223	0x3df55a69	0.11980135
224	0xbdf374a4	-0.11887482
225	0xbe73431f	-0.23756073
226	0x3dbfafa4	0.09359673
227	0x3ead6081	0.3386269
228	0xbd695afa	-0.056971528
229	0x3e02629c	0.12732929
230	0xbde515c1	-0.1118579
231	0xbec16d60	-0.3777876
232	0xbed0822b	-0.4072431
233	0x3becd1ea	0.007227172
234	0x3e5f8575	0.21828254
235	0x3d8b5982	0.06804182
236	0x3e52f82c	0.20602483
237	0x3d9b8f8c	0.07595739
238	0xbdde5a9c	-0.10857126
239	0x3e89148a	0.26773483
240	0x3e87db3d	0.26534453
241	0x3e717475	0.23579581
242	0x3e31d9d1	0.17368247
243	0xbeaca308	-0.33718133
244	0x3dd7dd3e	0.105402455
245	0xbea32b44	-0.31868947
246	0xbe87f8d5	-0.2655703
247	0x3e144d4a	0.14482608
248	0x3ec24313	0.379418
249	0x3eb76e3a	0.35826284
250	0xbe147bea	-0.14500394
251	0xbdd2be96	-0.10290258
252	0x3e7096df	0.23495053
253	0xbe355d16	-0.1771129
254	0x3e683761	0.22677375
255	0x3e988774	0.29790843

net.2.weight f4 [256, 256]
0	0xbd957564	-0.07297781
1	0xbdc95ed8	-0.09832543
2	0x3ca6c380	0.020356894
3	0xbb96d870	-0.004603438
4	0xbdf34050	-0.11877501
5	0xbc7f9380	-0.015599132
6	0x3c5f4878	0.013628118
7	0xbd9eb513	-0.07749381
8	0xbd8ca4e7	-0.0686739
9	0xbd225cc0	-0.039639235
10	0x3c1a4608	0.009416111
11	0xbd892627	-0.0669673
12	0xbc8d14a8	-0.017221764
13	0xbddf112a	-0.10891946
14	0xbdb2899d	-0.08717654
15	0xbdb5b4c7	-0.08872371
16	0xbca7f41c	-0.020502143
17	0xbc913538	-0.017725572
18	0x3c5e6208	0.013573177
19	0xbce1ec72	-0.027578566
20	0x3ca55c14	0.020185508
21	0xbc8aa0b5	-0.016922334
22	0xbdb33e28	-0.0875209
23	0x3cc162f0	0.023606747
24	0x3c9786b8	0.018496856
25	0xbd08aa84	-0.03336574
26	0xbd039eab	-0.03213374
27	0x3c6f62d7	0.014610968
28	0xbde4661d	-0.11152289
29	0xbd8823d2	-0.06647457
30	0xbdf4655c	-0.11933395
31	0x3bb9db1e	0.0056718728
32	0x3ca8ebd1	0.020620259
33	0xbd91d81d	-0.071212985
34	0xbd80e528	-0.06293708
35	0xbd63ea5b	-0.05564342
36	0xb9e177e8	-0.0004300468
37	0xbdbe9507	-0.093057685
38	0xbd413b32	-0.047175594
39	0xbde2cee2	-0.11074616
40	0xbcca0f41	-0.024665477
41	0xbdcbff21	-0.09960771
42	0xbdc11f6b	-0.094298206
43	0xbc41bfdc	-0.011825528
44	0xbcba5576	-0.02274583
45	0xbd9e325e	-0.077244505
46	0xbddce717	-0.107862644
47	0xbd8d496f	-0.06898772
48	0xbd92c8b8	-0.0716719
49	0xbc9ddd83	-0.019270664
50	0x3d1acb68	0.03779164
51	0x3cd05488	0.025430933
52	0xbdbf058d	-0.093272306
53	0xbcbd9c38	-0.02314578
54	0xbd2a9df8	-0.041654557
55	0xbd596760	-0.0530771
56	0x3ad03ebb	0.0015887836
57	0xbd2767a4	-0.040870324
58	0x3c373088	0.011181004
59	0xbd3084c6	-0.043095373
60	0xbca9a899	-0.020710276
61	0xbd8b2ba7	-0.067954354
62	0xbd675108	-0.05647376
63	0x3cbdf812	0.023189578
64	0xbd64037c	-0.055667385
65	0xbd4badbc	-0.049726233
66	0xbd56de18	-0.0524579
67	0xbd71e539	-0.059056494
68	0xbd471619	-0.04860506
69	0xbce440b8	-0.027862892
70	0x3d4fde42	0.05074907
71	0xbc97a646	-0.018511903
72	0xbdd2b536	-0.102884695
73	0xbcb67d75	-0.02227662
74	0x3d610875	0.054939706
75	0xbc614f5a	-0.013751829
76	0xbd1944fa	-0.037419297
77	0xbd7702f8	-0.060305566
78	0xbc441da9	-0.011969962
79	0x3be04050	0.006843604
80	0xbd5491f4	-0.051897004
81	0xbd3fc0aa	-0.0468146
82	0x3cd81d5f	0.026381193
83	0xbc9371c8	-0.017998591
84	0xbce7e5dd	-0.02830785
85	0xbd4b2999	-0.049600217
86	0xbb3b7500	-0.0028603673
87	0x3b729d30	0.003701996
88	0x3db03945	0.08604673
89	0x3c929d24	0.017897196
90	0x3d3e39f4	0.046441987
91	0xbdca967d	-0.098919846
92	0xbd6e13b0	-0.058124244
93	0xbd76fbef	-0.060298856
94	0xbd48a7f8	-0.048988312
95	0xbd893552	-0.06699623
96	0xbdc1657b	-0.09443184
97	0xbd32a64e	-0.04361563
98	0xbdf15f5f	-0.11785769
99	0xbd2f62ee	-0.042818956
100	0xbd852551	-0.06501258
101	0x3b84df1f	0.0040549184
102	0xbc967095	-0.01836423
103	0x3d05d54e	0.032674126
104	0x3c433de8	0.011916615
105	0xbd13f1e2	-0.03611935
106	0xbd209974	-0.039208844
107	0xbdcb4da1	-0.09926916
108	0xbdcd9629	-0.100384064
109	0xbacd7025	-0.001567368
110	0xbc6eb1ef	-0.01456879
111	0x3c41de80	0.011832833
112	0xbbdeacc0	-0.0067954957
113	0xbdf53688	-0.11973292
114	0x3d7bcbd0	0.061473668
115	0xbd7344fb	-0.059391957
116	0xbd8237c5	-0.063582934
117	0x3c8c12b6	0.017098766
118	0xbdd249b5	-0.10267965
119	0xbd1a826d	-0.03772204
120	0xbde393b7	-0.11112159
121	0xbcff5c88	-0.031172052
122	0xbcb1e914	-0.021717586
123	0xbdcec69d	-0.10096476
124	0xbd57bd3d	-0.052670706
125	0xbc1909f0	-0.009340748
126	0xbda6e24d	-0.08148632
127	0xbd017145	-0.031602163
128	0x3d5af45a	0.053455688
129	0xbd10bcd2	-0.035336323
130	0xbd2c3ac1	-0.04204822
131	0xbd248870	-0.04016918
132	0xbb8e9cd0	-0.0043521896
133	0xbdd859ae	-0.1056398
134	0x3cf48df8	0.029852852
135	0xbd11fd40	-0.03564191
136	0x3d36afd4	0.044601277
137	0x3d39af34	0.045333102
138	0xbdd0452f	-0.10169446
139	0xbd8886d2	-0.0666634
140	0xbdd27070	-0.10275352
141	0xbd65ae5c	-0.056074485
142	0xbc2f8070	-0.010711774
143	0x3d5cac78	0.053875417
144	0xbd31a928	-0.04337421
145	0xbd20ea50	-0.039285958
146	0xbce52888	-0.027973428
147	0xbdf25362	-0.1183231
148	0xbd65bd4a	-0.056088723
149	0xbb6c6b79	-0.00360748
150	0xbd86e6ad	-0.06586967
151	0x3d6047b6	0.05475589
152	0xbdca52c2	-0.09879066
153	0xbdd860eb	-0.10565361
154	0x3c3386b8	0.010957412
155	0xbcc5f53e	-0.024164792
156	0xbbab452a	-0.005226751
157	0xbd1f3304	-0.03886701
158	0x3ce92b50	0.028463036
159	0xbdccd4aa	-0.100015
160	0xbddf12ef	-0.10892283
161	0xbd31fe84	-0.043455616
162	0xbd4600d6	-0.04834064
163	0xbd906374	-0.07050219
164	0xbcb23359	-0.021753
165	0xbd3447d9	-0.04401383
166	0xbd3dd640	-0.046346903
167	0xbd82f2c2	-0.06393959
168	0xbc019688	-0.007909425
169	0xbb0a5424	-0.002110728
170	0x3c102fb8	0.00880044
171	0xbdba820f	-0.09106838
172	0xbcdeed5a	-0.027212787
173	0xbdc9d93c	-0.09855887
174	0x3ce10f88	0.027473226
175	0xbcbbe1eb	-0.022934875
176	0xba5b7900	-0.00083722174
177	0xbd790cb8	-0.060803145
178	0xbc87442a	-0.016511995
179	0xbd287f40	-0.04113698
180	0xbc5dc568	-0.013535835
181	0xbb616c18	-0.0034396704
182	0xbcadba1e	-0.021206912
183	0xbdd27a5b	-0.10277244
184	0x3b2efec2	0.002670214
185	0xbde18e8d	-0.110135175
186	0xbc810295	-0.015748302
187	0xbd579d02	-0.05263997
188	0x3d21e456	0.0395244
189	0xbc8b6ac9	-0.017018693
190	0xbd0ee3c4	-0.034885183
191	0xbdb8ad86	-0.09017472
192	0xbd88010b	-0.06640824
193	0xbd18fb4a	-0.037349023
194	0xbdeb8fd5	-0.11502043
195	0x3b6119a0	0.003434755
196	0xbdb1541e	-0.08658622
197	0xbd4d1f14	-0.050078467
198	0xbddd463b	-0.10804411
199	0xbd96187c	-0.07328889
200	0xbd411ca6	-0.047146462
201	0xbafe916f	-0.0019422005
202	0x3c6ab608	0.014325626
203	0x3d2477f2	0.04015345
204	0xbdb5e671	-0.08881844
205	0xbd18610e	-0.037201934
206	0x3c58b810	0.013227478
207	0xbdec02ab	-0.115239464
208	0x3d77bf56	0.060485207
209	0x3d117152	0.03550846
210	0xbcc50f35	-0.024055103
211	0x3d0deb74	0.034648374
212	0xbcc72304	-0.024308689
213	0x3d3e769a	0.046499826
214	0xbbfe5344	-0.007761391
215	0xbc169524	-0.009190831
216	0xbdb3521a	-0.08755894
217	0xbd56ef17	-0.052474108
218	0x38c10924	9.20466e-05
219	0xbd990807	-0.07472234
220	0xbd87f5a6	-0.066386506
221	0xbb20a900	-0.0024514794
222	0xbd579f06	-0.05264189
223	0xbd8f0676	-0.06983654
224	0xbd3dfdf6	-0.046384774
225	0x3cb97b84	0.022641905
226	0xbdea85e1	-0.114513166
227	0xbd238fd5	-0.03993209
228	0xbc72a3fe	-0.014809607
229	0xbd855bb0	-0.06511629
230	0xbdc7e440	-0.09760332
231	0x3d5dafa4	0.054122582
232	0xbbfd87f4	-0.007737154
233	0xbdaf41c8	-0.08557469
234	0x3b85da24	0.0040848423
235	0xbd515426	-0.05110564
236	0xbdcc952c	-0.0998939
237	0xbdce8074	-0.10083094
238	0xbd82f6e6	-0.063947484
239	0xbda0f4d4	-0.07859197
240	0xbb864ad4	-0.0040982757
241	0xbd6c1a31	-0.057642166
242	0xbca4ab1a	-0.020101119
243	0x3d130676	0.035894834
244	0xbdb4560b	-0.08805474
245	0xbddfc57b	-0.10926338
246	0xbde3e8eb	-0.1112841
247	0xbda5e2f5	-0.08099929
248	0xbdc85389	-0.09781558
249	0xbd661541	-0.056172613
250	0xbb82d350	-0.0039924756
251	0xbba9ceb8	-0.0051821135
252	0x3ab53a65	0.0013826607
253	0xbc22743a	-0.009915406
254	0xbd43daef	-0.047816213
255	0xbdcbf1b9	-0.09958214

net.2.bias f4 [256]
0	0xbcbe1013	-0.023201024
1	0x3d2f7d16	0.0428439
2	0x3d5947c0	0.05304694
3	0x3c31029b	0.010803844
4	0xbd7ccbd9	-0.06171784
5	0xbdd359be	-0.10319851
6	0xbd1d20d2	-0.038361378
7	0xbc016b41	-0.0078991065
8	0xbc75f68e	-0.0150123965
9	0xbdedc693	-0.11610141
10	0xbd66c92b	-0.056344192
11	0x3c68dd5b	0.0142129315
12	0xbda5e5a3	-0.0810044
13	0xbd158571	-0.036504213
14	0xbcecbf81	-0.02889991
15	0xbd9580a9	-0.072999306
16	0xbd6982fa	-0.057009675
17	0x3c8d876c	0.017276488
18	0xbd181f52	-0.037139244
19	0xbdd0d8a4	-0.10197571
20	0xbd2dfb13	-0.04247577
21	0xbd9ab11a	-0.07553311
22	0xbd76f385	-0.060290832
23	0xbd0301b0	-0.03198403
24	0xbdaac2c7	-0.08337932
25	0xbd620a10	-0.055185378
26	0xbd223dc3	-0.03960968
27	0xbc98b5de	-0.018641409
28	0xbc0c51a3	-0.008564386
29	0xbd3742a7	-0.0447413
30	0xbd77df3e	-0.060515635
31	0x3d5435a6	0.051808976
32	0xbd8e8437	-0.06958812
33	0x3c26da80	0.01018393
34	0x3c8f30e0	0.01747936
35	0xbdcc7a11	-0.0998422
36	0xbcef7761	-0.029231729
37	0x3d513750	0.05107814
38	0xbc7350ac	-0.014850777
39	0xbace6940	-0.001574792
40	0x3aa47ec0	0.0012549981
41	0xbda28a23	-0.07936504
42	0x3c2cb9ca	0.010542342
43	0xbcf3924e	-0.02973285
44	0xb993f958	-0.000282238
45	0x39af4818	0.00033432315
46	0xbd869bc5	-0.065726794
47	0xbcbd32a0	-0.023095429
48	0xbb3c49e9	-0.0028730577
49	0xbdcb50f6	-0.099275514
50	0xbdb1bf0e	-0.08679019
51	0xbc23cd00	-0.009997606
52	0xbd87e7bb	-0.06635996
53	0xbcc309eb	-0.02380844
54	0xbc46c953	-0.01213296
55	0xbcd16233	-0.02555952
56	0xbbba3109	-0.005682115
57	0xbd0b4095	-0.033997137
58	0xbda5cec9	-0.08096082
59	0x3c3a9f90	0.011390582
60	0xbdcade29	-0.09905655
61	0xbd77e5d8	-0.06052193
62	0xbd7e09f3	-0.062021207
63	0xbb598b5e	-0.0033194642
64	0xbd86b7b5	-0.06578008
65	0xbc1212bc	-0.008915599
66	0xbc9d63b6	-0.019212585
67	0x3b1492f6	0.0022670603
68	0x3c195879	0.009359472
69	0xbdcc1cef	-0.09966456
70	0xbd809e4a	-0.06280191
71	0xbbee9cb1	-0.0072818627
72	0xbda3413c	-0.07971427
73	0x3bfa97a5	0.007647472
74	0xbd4aa45c	-0.04947315
75	0xbd7b67c0	-0.06137824
76	0x3cddb948	0.027065888
77	0xbc8a618d	-0.016892219
78	0xbc1fcc46	-0.009753292
79	0xbd3521f4	-0.044221833
80	0xbd03032b	-0.031985443
81	0xbac6e808	-0.0015175352
82	0x3cbff5cc	0.023432635
83	0xbc827d5d	-0.015928918
84	0xbd4399e6	-0.04775419
85	0xbbdbdd04	-0.0067096967
86	0xbcbc6c71	-0.023000928
87	0xbaa537ad	-0.0012605094
88	0xbda46aac	-0.080281585
89	0xbd59f403	-0.053211223
90	0xbd36d1c8	-0.044633657
91	0xbddfcbe5	-0.10927562
92	0xbdd027ee	-0.10163866
93	0xbd7dff75	-0.0620112
94	0xbdf038ec	-0.11729607
95	0xbd9b1657	-0.0757262
96	0xbdc99e27	-0.09844618
97	0xbd07e0d4	-0.033173397
98	0xbc51d2e6	-0.01280663
99	0x3a913b2a	0.0011080254
100	0x3d152ca2	0.03641952
101	0xb92f74ec	-0.00016732857
102	0xbcd3b160	-0.025841415
103	0xbdb817d7	-0.08988922
104	0xbd0cf9b8	-0.034417838
105	0xbdea9f96	-0.1145622
106	0x3cc3d1ac	0.02390369
107	0xbd2a3eaa	-0.041563667
108	0xbda431c8	-0.080173075
109	0xbbbc0c69	-0.005738784
110	0xbd7ba8c2	-0.061440237
111	0xbdd3ea46	-0.103474185
112	0xbda7ff67	-0.08203011
113	0xbd59b0e0	-0.053147197
114	0xbd79e1d6	-0.06100639
115	0xbdafb4b6	-0.0857939
116	0xbd2950bf	-0.04133677
117	0xbce52e08	-0.027976051
118	0xbdcaba5f	-0.09898829
119	0xbdb26109	-0.08709914
120	0xbc30e8e3	-0.010797712
121	0x3d075b6a	0.033046164
122	0x3cea5ffb	0.02861022
123	0xbc360cb7	-0.01111143
124	0xbd05dc1e	-0.032680623
125	0xbcffb47f	-0.031213997
126	0x3baf1856	0.0053434772
127	0xbd8bbcf0	-0.06823146
128	0xbdac9989	-0.08427722
129	0xbc7d68b8	-0.015466861
130	0xbdbb3961	-0.091418035
131	0xbdc7eec3	-0.09762337
132	0xbc4dd504	-0.012562994
133	0xbccaffc1	-0.024780156
134	0xbd528e30	-0.05140513
135	0xbd159f74	-0.03652902
136	0xbcc14b29	-0.02359541
137	0xbd73cc80	-0.0595212
138	0x3de3ed6d	0.1112927
139	0xbcfeee18	-0.031119391
140	0xbcff4a2e	-0.031163301
141	0xbc900a5a	-0.017583061
142	0xbd20d36b	-0.039264124
143	0xbcbcd328	-0.023049906
144	0xbd21962f	-0.039449867
145	0xbca113dc	-0.01966279
146	0x3c2204a3	0.009888801
147	0xbd9529ef	-0.07283389
148	0xbde66b89	-0.112509795
149	0xbdc07d2b	-0.09398874
150	0xbaf88b06	-0.0018962331
151	0xbca1d05c	-0.019752674
152	0xbc939aa0	-0.018018067
153	0xbc4c8ecb	-0.012485216
154	0xbb5385f2	-0.0032275883
155	0xbc98028d	-0.018555904
156	0xbd3f74e1	-0.046742324
157	0xbce976b4	-0.028498985
158	0xbd570505	-0.05249502
159	0xbd758d72	-0.059949346
160	0xbde75dd4	-0.11297193
161	0xbdba3685	-0.0909243
162	0xbc266a4a	-0.010157177
163	0xbd1a5eb4	-0.037687972
164	0xbdc14a4e	-0.094380006
165	0xbdd813f9	-0.105506845
166	0xbd7087fb	-0.05872343
167	0xbd795fef	-0.060882505
168	0xbd1d847d	-0.03845643
169	0x3c31c520	0.010850221
170	0xbdc26510	-0.094919324
171	0xbd0d69ce	-0.03452473
172	0xbccc5e88	-0.02494742
173	0xbd59e028	-0.053192288
174	0xbd4882f2	-0.048953004
175	0xbd80098c	-0.06251821
176	0xbddc06be	-0.107434735
177	0x3c471dc3	0.012153092
178	0xbd1743fb	-0.036930066
179	0xbdb51de3	-0.08843591
180	0xbcf73b48	-0.030179635
181	0xbd7431db	-0.05961786
182	0x3b2aa303	0.0026037104
183	0xbba7a3c2	-0.005115957
184	0xbd4a4a13	-0.04938705
185	0x3d2a7bb8	0.041621894
186	0xbda399b3	-0.079883
187	0xbc8bee62	-0.017081443
188	0xbdee9e70	-0.11651313
189	0x3d7c82da	0.061648227
190	0x3c55c0e8	0.013046481
191	0xbce5d63b	-0.028056255
192	0xbc213389	-0.009838947
193	0xbdbbc12c	-0.09167704
194	0xbc27caa6	-0.010241186
195	0xbd354686	-0.04425671
196	0x3abe06dd	0.0014497895
197	0xbc0d26c9	-0.008615204
198	0xbd67bba4	-0.056575432
199	0xbd6e151c	-0.0581256
200	0xbdbeb1ee	-0.09311281
201	0xbdbff954	-0.093737274
202	0xbd7b5bb8	-0.061366767
203	0x3a84a374	0.0010119514
204	0xbd5dceaa	-0.05415217
205	0xbdaeee84	-0.08541587
206	0xbcbded6d	-0.023184502
207	0xbc941298	-0.018075272
208	0xbd3edfc2	-0.04660011
209	0xbd00200e	-0.03128057
210	0xbd552644	-0.052038446
211	0xbd9f8ce5	-0.077905454
212	0xbc13bc38	-0.009017043
213	0xbd5fd9eb	-0.054651182
214	0xbce29124	-0.027657099
215	0x3d3ea84a	0.04654721
216	0x3c2a0710	0.01037766
217	0xbd1b51ca	-0.037919797
218	0xbd278ea3	-0.040907513
219	0xbdd000f7	-0.10156434
220	0xbc75264d	-0.014962745
221	0xbd61b1b7	-0.055101123
222	0xbde4e9f0	-0.111774325
223	0xbdf0b236	-0.11752741
224	0xbdbcbe8f	-0.09216034
225	0x3d56673c	0.052344546
226	0xbd504d6a	-0.050855078
227	0xbd6ad918	-0.057335943
228	0xbdc1278a	-0.094313696
229	0xbce30675	-0.02771304
230	0xbd43ab11	-0.047770564
231	0xbbcf6597	-0.006329249
232	0xbda7f4cf	-0.082009904
233	0xbdcb8669	-0.09937746
234	0xbd37cfd6	-0.044875942
235	0xbda93147	-0.08261352
236	0xbdb91c6a	-0.09038623
237	0xbcfd43d6	-0.030916136
238	0xbcdaeabb	-0.026723256
239	0xbd993890	-0.074814916
240	0xbdb53628	-0.0884822
241	0xbcd5eb0b	-0.026113054
242	0xbc1b6ce5	-0.009486412
243	0xbbafbd9e	-0.0053631803
244	0xbca4acc1	-0.020101907
245	0xbc542a79	-0.012949579
246	0xbd29347d	-0.041309822
247	0xbd73f1f4	-0.059556916
248	0xbd1d9177	-0.038468804
249	0xbd89bb54	-0.06725183
250	0xbc650f21	-0.013980658
251	0x3d53a88e	0.05167442
252	0xbd27d569	-0.04097501
253	0xbb4934e2	-0.0030701687
254	0x3c5bf1e8	0.013424374
255	0xbdba3029	-0.09091217

net.4.weight f4 [2, 256]
0	0x3dd2a06f	0.102845065
1	0x3acfc4c0	0.0015851483
2	0x3d793603	0.060842525
3	0xbd37d775	-0.04488321
4	0x3b03c6ee	0.0020107585
5	0xbcf7ce3e	-0.030249711
6	0x3d646b1e	0.055766217
7	0x3da6490d	0.08119402
8	0xbc3f1d88	-0.011664756
9	0x3da79cbf	0.08184194
10	0xbb9babf0	-0.004750721
11	0x3d05ca5b	0.032663684
12	0x3aea366c	0.0017869002
13	0x3d8040e8	0.0626238
14	0xbc085410	-0.008320823
15	0xbda35d5b	-0.079767905
16	0xbd6e30c4	-0.058151975
17	0x3d2fc256	0.042909943
18	0xbce40518	-0.02783446
19	0x3d5c30e5	0.053757567
20	0x3da85116	0.08218591
21	0xbd682542	-0.056676157
22	0xbc90e86a	-0.017688949
23	0x3c227677	0.0099159395
24	0xbca6f4d8	-0.020380422
25	0xbd1bf8ce	-0.038079076
26	0x3d77b5a2	0.060475953
27	0xbd51fb04	-0.051264778
28	0xbc0a0090	-0.008422986
29	0x3d957f44	0.072996646
30	0xbd2bc30a	-0.04193405
31	0xbd033e1e	-0.03204166
32	0xbbba83b6	-0.0056919707
33	0x3cf52a40	0.029927373
34	0x3d0235a4	0.031789437
35	0x3c87e8de	0.016590532
36	0xbde83b85	-0.113394774
37	0x3d9e9f24	0.077451974
38	0x3a2b92c6	0.0006545003
39	0x3d09fa0e	0.033685736
40	0xbd3de26a	-0.046358503
41	0xbcc3b1b1	-0.02388844
42	0xbd1238d6	-0.035698734
43	0xbd968255	-0.073490776
44	0x3caff2a1	0.021478
45	0xbbf44b84	-0.007455291
46	0x3da35fac	0.07977232
47	0xb8aec400	-8.3334744e-05
48	0xbd1620c5	-0.036652345
49	0xbd0eb6ac	-0.03484218
50	0x3d543f0b	0.051817935
51	0x3ce612cc	0.028085135
52	0x3d26ac84	0.040691867
53	0x3d4e1b44	0.05031897
54	0x3cce93b6	0.025216918
55	0x3cd9369e	0.026515301
56	0x3c3c0f93	0.011478323
57	0xbd1da347	-0.03848579
58	0x3d922d18	0.07137507
59	0x3cd87600	0.026423454
60	0x3d0d08de	0.034432285
61	0x3cb0616c	0.02153083
62	0x3cfde37c	0.030992262
63	0x3a893f5c	0.0010471153
64	0x3c61fca0	0.013793141
65	0xbcf052f7	-0.029336436
66	0x3c1579a9	0.009123244
67	0x3c9be447	0.01902975
68	0x3c001b31	0.007818983
69	0x3d1facc2	0.038983114
70	0xbceb616e	-0.028732982
71	0x3ad7af42	0.0016455429
72	0xbcf1d1ee	-0.029519048
73	0x3c12b535	0.008954336
74	0x3cf3d20e	0.029763248
75	0x3d63e423	0.05563749
76	0x3d3e0132	0.04638786
77	0x3d6f8678	0.05847785
78	0xbbfa2777	-0.007634099
79	0x3b83d4d0	0.004023172
80	0xbd5fccea	-0.05463878
81	0xbb52f628	-0.0032190178
82	0xbd50a1d8	-0.050935596
83	0x3d8ee2ac	0.06976828
84	0x3c7974f8	0.015225641
85	0x3d01545f	0.031574603
86	0x3cdcdd8a	0.026961107
87	0xbcd32c87	-0.025778068
88	0x3c78ccd7	0.015185556
89	0xbcf62441	-0.030046584
90	0x3ad9a640	0.0016605332
91	0xbbce0e29	-0.006288309
92	0xbd046b54	-0.03232892
93	0x3d7e51c3	0.062089693
94	0xbb9b794b	-0.004744684
95	0x3bb78983	0.0056011095
96	0x3be30654	0.0069282446
97	0xbc080ae8	-0.0083033815
98	0x3c81130f	0.015756158
99	0x3ca0437a	0.019563425
100	0xbd4cc34a	-0.04999093
101	0xbb474da8	-0.0030411277
102	0xbbcc0194	-0.006225774
103	0x3d0e9666	0.0348114
104	0x3cf19cfc	0.029493801
105	0x3cd3bb5e	0.02584618
106	0xbc340378	-0.010987155
107	0x3d91db0b	0.07121857
108	0xbc297859	-0.0103436345
109	0x3d5295c9	0.051412378
110	0x3cddef90	0.027091771
111	0x3d27ad11	0.040936533
112	0xbcf29ddf	-0.029616294
113	0xbc5121c1	-0.012764395
114	0xbd97be42	-0.07409336
115	0xbcf4c60e	-0.029879596
116	0x3b6cd67c	0.0036138585
117	0x3d561548	0.05226639
118	0x3d96217a	0.07330604
119	0xbb705107	-0.003666939
120	0xbd47e381	-0.04880095
121	0xbd6a49d0	-0.0571993
122	0x3cd4a76b	0.025958737
123	0xbc3277cc	-0.01089282
124	0x3d05686e	0.032570295
125	0xbd4b15ec	-0.049581453
126	0x3ade8b18	0.0016978709
127	0x3c6b375b	0.0143564595
128	0x3bf7e2a4	0.0075648595
129	0x3cc0f730	0.023555368
130	0xbb20f2b4	-0.0024558725
131	0xbb1c3c04	-0.0023839483
132	0x3dd1c437	0.10242503
133	0x3c7c1070	0.015384778
134	0x3d897062	0.067108884
135	0x3d3ab3d6	0.04558166
136	0x3c695efd	0.014243838
137	0xbd1ed818	-0.0387803
138	0x3cb965bc	0.022631519
139	0x3d232ce4	0.039837733
140	0x3d53c4eb	0.051701467
141	0xbd472cb4	-0.048626617
142	0xba9cede9	-0.0011972758
143	0x3d18f248	0.037340432
144	0xbd0b3ceb	-0.033993643
145	0xbbb2a850	-0.0054521933
146	0xbd348b33	-0.044078063
147	0xbd182c83	-0.037151825
148	0xbd6b3a3a	-0.057428576
149	0x3d224c96	0.03962382
150	0x3aeb0005	0.0017929083
151	0x3c345066	0.011005497
152	0xbd1cf1ca	-0.038316526
153	0x3d8c85e4	0.06861475
154	0x3c4319bd	0.011907992
155	0xbcaeddec	-0.021346055
156	0x3bfd24c0	0.007725328
157	0x3d921588	0.07133013
158	0x3b721474	0.003693846
159	0x3c9a2b3d	0.018819446
160	0xbafe0eb2	-0.0019383042
161	0x3d87f808	0.06639105
162	0xb99912c6	-0.0002919642
163	0xbb2030e0	-0.0024443194
164	0xbd0155fd	-0.031576145
165	0x3d488b71	0.048961107
166	0xbc318f47	-0.010837383
167	0x3cde55e9	0.027140575
168	0xba16693a	-0.0005737726
169	0xbd30e0de	-0.0431832
170	0x3d445956	0.04793676
171	0x3cef64ec	0.029222928
172	0xbd040668	-0.032232672
173	0x3b1c85a0	0.0023883358
174	0xbbb64c50	-0.0055632964
175	0xbd72464c	-0.05914907
176	0xbc98f317	-0.018670602
177	0xbc225807	-0.009908683
178	0x3c550608	0.013001926
179	0x3c572fed	0.013133985
180	0xbb88d9ae	-0.00417634
181	0x39dd18d2	0.00042170897
182	0xbb859dd2	-0.0040776515
183	0xbc73ed4e	-0.014888121
184	0x3c5da91f	0.013529091
185	0xbcd34d1c	-0.025793605
186	0x3d4266d8	0.04746136
187	0x3d8ee649	0.06977517
188	0x3d538e24	0.051649228
189	0xbb7df260	-0.0038749203
190	0xbc118808	-0.00888253
191	0x3d0ddbaa	0.034633316
192	0x3d571fa5	0.052520413
193	0x3daaa57d	0.08332346
194	0xbb2dc6be	-0.0026516165
195	0x3c8a6921	0.016895832
196	0xbd83689c	-0.06416437
197	0x3c802212	0.015641246
198	0x3cd0f526	0.02550752
199	0x3bf98cb0	0.007615648
200	0x3d3b5547	0.045735624
201	0x3c2558a3	0.010091933
202	0xbd82af9d	-0.06381152
203	0x3d56655e	0.052342765
204	0x3dcd9b80	0.10039425
205	0x3d2c1a06	0.042017005
206	0x3b0a1b8c	0.0021073548
207	0xbc8d5b50	-0.017255455
208	0xbd00e816	-0.031471334
209	0xbcf837c8	-0.030300036
210	0xbc89a734	-0.016803361
211	0x3d3f0b19	0.046641443
212	0xbd77e42a	-0.06052033
213	0xbc8ee81c	-0.017444663
214	0xbc9f2d6a	-0.019430835
215	0x3d28408a	0.041077174
216	0x3d7a8050	0.061157525
217	0x3c8295d8	0.015940592
218	0xbceb3c48	-0.028715268
219	0xbc388763	-0.011262747
220	0xbd138cf3	-0.03602309
221	0x3c581e79	0.013190859
222	0x3db1fb82	0.086905494
223	0x3c1f7cb5	0.009734322
224	0x3d58343a	0.052784182
225	0xbbcf0720	-0.006317988
226	0x3d38bfea	0.0451049
227	0x3d38144a	0.044941224
228	0x3d0e222b	0.034700554
229	0xbc6f7274	-0.01461469
230	0xbd5b7f73	-0.053588342
231	0x3d9e5332	0.07730712
232	0xbb623925	-0.0034518924
233	0xbc86888c	-0.016422532
234	0x3cc7001c	0.024292044
235	0x3d898da2	0.067164674
236	0xbbc60f90	-0.0060443357
237	0x3d0b4f7e	0.034011357
238	0x3d51135a	0.051043846
239	0x3d966a18	0.073444545
240	0x3d08cbc3	0.033397447
241	0xbc2c4b83	-0.01051605
242	0x3c41be19	0.011825108
243	0xbc474d5b	-0.012164439
244	0x3d9fde37	0.07806056
245	0xbd4a5dc3	-0.049405824
246	0x3de153cb	0.1100231
247	0x3ca93e98	0.02065973
248	0xbd8f534c	-0.069983095
249	0x3bd55377	0.006510194
250	0xbbc11175	-0.0058919736
251	0x3d39ce68	0.04536286
252	0xbd855812	-0.06510939
253	0x3ca68697	0.02032785
254	0xbd497490	-0.04918343
255	0xbd59d393	-0.05318029

net.4.bias f4 [2]
0	0xbcf1910d	-0.02948811
1	0x3d8435cf	0.06455576
