models/cross_entropy/flappy-bird-cross-entropy-advanced-64x64.pt (torch_old, 36863 bytes, 8 tensors)

net.0.weight f4 [64, 6]
00000000: 96d2 c3be bf46 97bd e319 adbe 0c6b 803d
00000010: a53c 253e 4b60 c53e e941 a23e 9895 0e3e
00000020: ddc5 59bd cd4f d3be 90c6 b73e 782e b33e
00000030: bd6c 46be 5e5d a13d ae10 09bc 4e00 bfbc
00000040: 954d f6bd edeb 9ebd 543c 58bc c6e4 1bbd
00000050: 9245 a3be 6c1f 31bd c4db 86be 8797 a03e
00000060: b7c6 58be 661c e3be aa5a 12be 88f5 d83d
00000070: f026 b7be 42c0 4d3e e8ac 253e cb52 dabe
00000080: 6bd8 58bd 31b0 9fbe 1d6b d53d 994f 923d
00000090: 86a0 b9be 6825 afbd ecc2 1c3e 97d0 8dbe
000000a0: 0842 c9bd 9298 c8be fe0f 173d b75c c83d
000000b0: 6ca5 e2bd f63d 043e fadc 3f3e 897b b53e
000000c0: ad5c 92bd 885c 16be 8afa 893e 9d75 3ebe
000000d0: 1a1a 92be d003 99be adcb 4c3e ff2d 073e
000000e0: ab82 1abf 9f50 08bf 1d6f c53e df5a 273e
000000f0: e87a c0be 2c51 ddbe 4a85 7ebe 5afd d1bc
00000100: 906f 2bbe bf80 cb3e 22f8 703e a0d9 583e
00000110: 1b3e f33e b705 143e df7d a83e ec32 ac3e
00000120: fee6 733e 282a a23e 5bc5 253d cdcd 25be
00000130: b088 e73d f8f0 14be 5b31 d83e 8132 313d
00000140: 10e3 94bd 918e ba3d fa04 a0be 0cbb a53e
00000150: 3feb d73d 564b b63e 3365 b13e af2f d43e
00000160: 9f69 a23d 732a 473e 5645 1ebf ef98 6fbe
00000170: ce80 95be 7b4f 6c3d b419 af3e 5e47 90be
00000180: 62e4 86be 3fbd 41be 8983 a63e e420 8b3e
00000190: f265 c6be 46e4 1cbe bca2 29be acea 023e
000001a0: 4212 bcbe 56e1 58be f337 283e dbf9 bc3d
000001b0: d0b5 17bf 9d5c a5be db1f a0be 4356 11be
000001c0: c476 fa3e 0051 acbe 5855 863e 36c3 a03e
000001d0: d4bf 173e 039c 903e dd8d 74be 05d1 97be
000001e0: 28d3 72bd b89b 65be 422c bdbe 782c 45bd
000001f0: 64e3 95bd 00df a3bc 5bd7 76bb 28bc 043f
00000200: 204e 063f b295 c43e 2cda 26be 07bb b7be
00000210: d54a acbe 9a26 193e dc18 97be d1a5 743d
00000220: 1e77 ad3e 3902 7d3c f814 2f3d e403 bd3e
00000230: 00a5 e73c 004b f63c 4c18 063e d083 85be
00000240: 7578 963d 08fa 00bf f315 793d dc3b 89be
00000250: e7ee 31bd df10 013e be87 67be 9e21 8c3e
00000260: 1dd5 82bd 2083 293e fb21 28be 2550 dcbe
00000270: 7ca1 9dbe 9572 983d 005a 18be dcc0 733e
00000280: 168a 79be dc04 a33e 8ad3 f6bd 9c3e 0bbe
00000290: 9b84 93be 6cb1 5c3e 434e dd3d 0c24 75be
000002a0: 261f bc3e b2ba 843e 6a9a b03e f722 473d
000002b0: 7b83 cf3e aa5b 043c bb5e 10be 8797 7abe
000002c0: 26f4 5a3c 34fc d4be c407 efbd 42b7 e43d
000002d0: e44c c8bd 1ec5 bc3e 54c8 97bc 6735 edbd
000002e0: d2b8 983d 6907 adbb 006f ac3c 1426 13be
000002f0: 18dd afbe d817 3f3e 60aa 763e 9c6f cabe
00000300: 90dd 593d b8d4 993e a26b b1be 4257 8bbe
00000310: 00d7 0d3e e6df a6be 6828 963e ddc5 cc3d
00000320: c0fd ad3e 58f6 fabe e25f 8b3c 985b c4be
00000330: b946 c33e e8b0 a3be c4b7 a63d 519c 82be
00000340: f218 603d 7761 d73d 40ec 553e 6194 c9be
00000350: 1096 d7bc d0c0 b23d 0083 09bc a1bd 77be
00000360: 1af6 063e ba8b 86be b376 be3e 0440 d7be
00000370: 4add 5d3e 7a6b b6be d8cc 163c 7080 ce3e
00000380: 3cd8 5c3d 628d 113e 1c1d 8bbe d24e b0be
00000390: 27da da3e 8cd2 513e 937a 6b3e 4012 233e
000003a0: dce9 ed3b ffeb 4e3d c853 d53d 1a6d 8ebd
000003b0: 5899 66be 0252 79be 08d1 e93d 57af a23e
000003c0: ae91 37be f848 a8bd 2719 46be d261 c6be
000003d0: 184b 6cbe 2e26 a5be efad c93e 4657 793e
000003e0: d066 98be 31b7 51bd 0f7c d2bd 48ee 86bd
000003f0: a2cf 9f3e 1db8 ddbe 8cf7 e0be 4c8e 7fbe
-0.38246602 -0.073865406 -0.33808812 0.062704176 0.16136415 0.38550028 0.3169091 0.13924253
-0.053167213 -0.4127182 0.3589368 0.3499639 -0.19377418 0.078791365 -0.008365793 -0.023315575
-0.12026516 -0.07759843 -0.013197977 -0.038059972 -0.31889015 -0.043242857 -0.26339543 0.31365606
-0.21169554 -0.44357604 -0.14292398 0.10593706 -0.35771894 0.20092872 0.1617924 -0.4264129
-0.052940767 -0.3118911 0.10420821 0.07144088 -0.36255282 -0.085520566 0.15308732 -0.27698204
-0.098270476 -0.39178902 0.036880486 0.09783309 -0.11066708 0.12914261 0.1873664 0.35445812
-0.07146583 -0.14683735 0.2694896 -0.18599553 -0.2853554 -0.2988572 0.19999571 0.1320114
-0.60355633 -0.5324802 0.38561335 0.16343258 -0.3759377 -0.43225992 -0.24855533 -0.025633503
-0.16741776 0.39746663 0.23532155 0.21176767 0.4750832 0.14455305 0.32908532 0.336326
0.23818585 0.31672788 0.040471416 -0.16191788 0.11305368 -0.14545047 0.42225155 0.043261055
-0.07269871 0.09109224 -0.31253797 0.32369268 0.105429165 0.35604352 0.3464752 0.4144263
0.07930302 0.19449787 -0.6182455 -0.23398183 -0.29199833 0.057692986 0.34199297 -0.2817945
-0.26346117 -0.18919848 0.32522228 0.2717353 -0.38749653 -0.15321454 -0.16565984 0.12784833
-0.3673268 -0.21179709 0.16427593 0.09227344 -0.592618 -0.3229722 -0.31274304 -0.14193062
0.48918736 -0.33655548 0.26236987 0.31398934 0.1481927 0.28244027 -0.23882242 -0.29651657
-0.059283406 -0.22422683 -0.3694783 -0.04813811 -0.07318762 -0.020003796 -0.0037664983 0.51849604
0.5246296 0.38395458 -0.16294163 -0.35884878 -0.33650842 0.14956132 -0.29511154 0.059728447
0.33879942 0.015442424 0.042744607 0.3691703 0.02827692 0.03006506 0.13095206 -0.26077127
0.07347194 -0.5038152 0.060811948 -0.26803482 -0.043440726 0.12604092 -0.22610375 0.27369398
-0.063883044 0.16553926 -0.16419213 -0.43029895 -0.30787265 0.0744373 -0.14878082 0.23804039
-0.24369082 0.31839645 -0.120520666 -0.13598102 -0.28812107 0.21552056 0.10805943 -0.23939532
0.36742514 0.25923687 0.3449281 0.04861733 0.4053 0.008078495 -0.14098637 -0.24471866
0.013363874 -0.41598666 -0.11671403 0.11167766 -0.09780291 0.36869138 -0.018528141 -0.11582451
0.07457127 -0.0052804244 0.021049023 -0.14369994 -0.3434837 0.1866144 0.2408843 -0.39538276
0.053189814 0.30045104 -0.3465243 -0.2721501 0.13851547 -0.32592696 0.29327703 0.09998677
0.33982658 -0.4901607 0.017013494 -0.3835113 0.38139895 -0.31970906 0.08140519 -0.25509885
0.05471129 0.10516637 0.20890903 -0.39371017 -0.026316673 0.08728182 -0.008393049 -0.24193431
0.13179818 -0.26278478 0.37199935 -0.42041028 0.21666446 -0.35628873 0.009204112 0.40332365
0.053917155 0.1421409 -0.27170646 -0.34435135 0.42744562 0.20490474 0.22995977 0.1592493
0.007260544 0.050518032 0.10416371 -0.06954403 -0.22519433 -0.2434769 0.11416823 0.317744
-0.17926666 -0.08217043 -0.19345532 -0.38746506 -0.23075521 -0.3225569 0.39390513 0.24349698
-0.2976594 -0.051200096 -0.102775685 -0.06588417 0.312131 -0.4330453 -0.43938863 -0.24956626

net.0.bias f4 [64]
00000000: 21ca 923e 475e 99be 3bfd 8e3e 7556 283e
00000010: d9a6 84bc b8da 613e 7032 a0bd 7cba 34be
00000020: c9f0 703e ea17 9b3e 1af8 5dbd 0ba5 a53d
00000030: 5a43 4d3d f1c4 88be a83a a5bc b51f 073e
00000040: 7c45 dcbc dea6 e83d 8e08 793e 528f 73be
00000050: 6b78 57be bc0e c33e 49ea 1abe 0016 c2be
00000060: b24b d5bb 74eb 2a3e d643 063e 4c23 48bc
00000070: 4005 2e3d 5f6f 783e e025 4d3e 931b 79be
00000080: 2864 013d c087 ad3e c47b ccbc a8f6 2abe
00000090: aca4 b2bb 7857 e63e 9fa2 4f3e d7ec efbd
000000a0: e5b6 40be 7a54 c83d 7887 febd 5382 b53e
000000b0: 810b 4abe 117e 46be 0174 373e 7b66 c23e
000000c0: 4d22 1fbe 460e ae3e b560 35be 5dbd 3a3d
000000d0: 7d00 593e 22e4 48be 6e20 9ebe f3c2 813e
000000e0: ac37 c0be bfa7 8f3e efc2 923e 86a5 c83e
000000f0: 305c 00be 5a80 58be d3d5 99be 72c3 b23e
0.28669837 -0.2995474 0.27927575 0.1643923 -0.01619284 0.22056091 -0.0782212 -0.17649263
0.23529352 0.30291682 -0.054191686 0.0808812 0.05011306 -0.26712754 -0.020169571 0.13195689
-0.026888601 0.113599524 0.2431967 -0.23785141 -0.2104203 0.3809718 -0.15128435 -0.3790741
-0.0065092677 0.1669138 0.13111815 -0.012215447 0.042485476 0.24261235 0.2003398 -0.24326925
0.031589657 0.33892632 -0.02496136 -0.16695654 -0.0054517593 0.44988608 0.20276879 -0.117150955
-0.18819769 0.097817376 -0.12428182 0.35450992 -0.19730951 -0.19384028 0.17915346 0.3796881
-0.15540428 0.33995265 -0.17712672 0.045590747 0.21191593 -0.19618276 -0.30884117 0.25344047
-0.37542474 0.28057668 0.28664348 0.39188784 -0.12535167 -0.21142712 -0.30045947 0.34914738

net.2.weight f4 [64, 64]
00000000: 6eb9 fe3d 2a80 2dbd e34a eb3d dcff 57bc
00000010: 75dc 843b aef6 883c 8efb e7bd 60ec 39bd
00000020: 0e8f f03d 4c6f 563d 8221 dd3d a7b2 36bd
00000030: 9651 67be b123 e5bd 9de5 95bd 7989 b5bc
00000040: 71d4 c53d bb64 c33d 52d7 94be f5cf ba3d
00000050: a44f 90bd 0ccf 96bd 0164 0e3c 5c71 1f3d
00000060: daa7 0bbc 5e0e 10be 9b42 d63d 5c05 5c3d
00000070: e207 c7bd 77e0 183e 42cc c43d 2031 2fbc
00000080: a2c6 e3bd afc4 a7bc 554d 4dbc 9891 80bd
00000090: 7809 59bd dc5d 2cbd 8778 cbbc 3ef2 18bc
000000a0: 68f7 08bd 52ef 12be e2b2 cd3d 7c2a 17bd
000000b0: 803f c6bd bc55 2f3d 38ab 0abd 0aba 7c3d
000000c0: 430b 08bb ed56 0cbe 283a 43bd 3051 f9bd
000000d0: d04f c5bc cc77 1ebd 4605 de3d 9edc e4bd
000000e0: e02c 103d 3e25 353d a336 b2bb 4770 bbbb
000000f0: 507f acbd 03da ba3d 2568 81bd 3e8d 46be
00000100: bffa d43d b969 0b3e 2c0b 55bd 6bd9 8b3c
00000110: 6f85 a33c 5cca 7a3d f2bf 85bd 3e99 29bd
00000120: 15b3 cf3d ebf2 b53d d2f6 b3bc de9d 54bc
00000130: 78f9 ae3b 6b76 24bd 0ed1 53bd f2f3 cbbd
00000140: 0d1e b2bd 3c02 a3bd 5b13 96be 2fea cf3c
00000150: 60a4 963d abc2 13be ff2c 4cbb c054 9c3c
00000160: 417b 483e a9ae 183d 2e30 a03c 7668 053e
00000170: ce82 933d 5591 76bd 11a4 8c3b d454 513d
00000180: 6e5f 983d 8a6c 59be 025c 183e 00dd 66bb
00000190: 3a41 213d fb41 8cbd a16d cebd aa3d 003e
000001a0: e073 c0bd adbc ab3d 1ded 2a3d 37f9 b43d
000001b0: 0080 fcba 9a1c bf3d 2ae2 7abd cfc5 aebc
000001c0: 3ab7 4f3d 1487 1cbe c81c b0bc a065 313e
000001d0: efa7 f23c 76b0 583d 08da d63c c81f 753c
000001e0: 005c 1fbb 03d2 4b3e c7d1 a03d 7c0d ef3d
000001f0: a870 9e3c 60bd 893e 5c7c ff3c 8a16 8abe
00000200: 8746 27be d441 30bb 9e98 303d 563b ae3c
00000210: c9f8 edbd d971 b5bd fa12 acbd 6508 a43c
00000220: 1cb2 fbbd c105 48bd 771f cfbd 3664 98bc
00000230: a287 c43d e9b8 62bc 2db1 b1bd 703e 9f3c
00000240: 9387 cbbd abdd 1ebe 5b24 d7bd 3400 7ebc
00000250: 30d8 cdbc 38c2 9ebd ab83 3f3d b0b2 673c
00000260: 9b86 10be 6826 e5bd e92c d9bd 5d11 243e
00000270: 3808 013d 7f9c c6bd 1d2f 03be 001c 70b9
00000280: e838 b6bd 84a7 433d 0060 c63d d0fe 78bc
00000290: 3422 2e3d 7b41 1e3d 584c 983d 4731 edbd
000002a0: 8865 edbc cc67 25bb e5a2 2a3c 61a7 97bd
000002b0: d076 ee3c 8081 84bd ec92 0bbe 3466 f9bd
000002c0: 2e3d 4bbd d3ca b7bc 60c8 6fbd 848b 59bc
000002d0: efd6 b0bd 9638 d83d 6836 e93c 61e0 05be
000002e0: e883 b5bd 25bc 04bd 3bb2 9e3d 3f6c af3c
000002f0: 20d7 b13d 29e7 01be a301 26bd 40a9 40bc
00000300: e987 b4bd 0a03 353d 2766 283d 87ac 943d
00000310: 7886 e8bc ed85 1c3e 7025 42bc f5c9 3ebd
00000320: 542b 2f3d 3302 093e d68f 663d 9524 b03d
00000330: ca1a ffbc ad68 cebd 7eae c1bd fa40 e1bd
00000340: 2dc1 923b 0631 1c3e 9295 77be fcc3 7bbd
00000350: c4ed fd3d c796 49be cc5b 0bbe 1ccf 503d
00000360: b610 043d 0838 4b3d 7d29 d0bb d90c 343c
00000370: 15f3 213d 044b e63d 1d00 a9bd 6a58 eebd
00000380: 96dd 913d 2754 23be e081 8f3d c2b4 e83d
00000390: 69b2 ab3d 1d8f a6be ae63 abbd 7def b33d
000003a0: 840e bfbd 9efa 8e3d 0319 f53d 60e8 d23d
000003b0: ea9f a2bd 526c f8bd 9ac2 a7bc c6a4 08bd
000003c0: 6103 0dbe a366 40be ae63 8b3d 2b21 df3d
000003d0: 4383 03be f449 63bd 6cb7 1bbd f63b d1bd
000003e0: 1abd 923d b7ad 4b3e fd21 eb3d 596d cd3d
000003f0: 30a4 4ebc e361 843e 18e1 4abe ca4d 44be
0.12437712 -0.042358555 0.11488893 -0.01318356 0.004054601 0.016719189 -0.11327277 -0.04539144
0.117460355 0.052352235 0.10797407 -0.04460397 -0.22589716 -0.11188448 -0.07319186 -0.022160279
0.096596606 0.09540697 -0.29070526 0.09121696 -0.0704644 -0.0736371 0.008690835 0.038926467
-0.008523906 -0.1406798 0.10461923 0.05371605 -0.097183004 0.14929377 0.096092716 -0.010692865
-0.111218706 -0.020479528 -0.012530644 -0.0627777 -0.052987546 -0.0420817 -0.024837745 -0.009335099
-0.03343907 -0.14349106 0.10043885 -0.03690575 -0.096800804 0.042806372 -0.033854693 0.06170086
-0.0020758666 -0.13705035 -0.047662884 -0.121736884 -0.02408591 -0.038688466 0.108408496 -0.11174892
0.035199046 0.04422497 -0.005438642 -0.0057201716 -0.084227204 0.09123614 -0.06318692 -0.19389817
0.103993885 0.13614549 -0.052012607 0.017071446 0.019961087 0.06122814 -0.06530751 -0.04140591
0.10141579 0.088842236 -0.021968279 -0.012977092 0.0053397976 -0.040151995 -0.051713042 -0.09958638
-0.08697138 -0.079594105 -0.29311642 0.025380222 0.07355571 -0.14429729 -0.003115475 0.01908338
0.19578268 0.037275944 0.019554224 0.1302813 0.072026834 -0.060197193 0.004292019 0.05110629
0.07440077 -0.2123281 0.14878848 -0.003522694 0.039368846 -0.06848522 -0.10079504 0.12523523
-0.093971014 0.083855964 0.041730035 0.088365965 -0.0019264221 0.09331627 -0.061250843 -0.021334557
0.050711848 -0.15285903 -0.021498099 0.17323923 0.029621093 0.05290266 0.026227012 0.0149611905
-0.002431631 0.19904332 0.07852512 0.11672494 0.019340828 0.26902294 0.031187229 -0.2697032
-0.16335498 -0.0026894705 0.043114297 0.021268528 -0.11619718 -0.08859605 -0.08402057 0.020023534
-0.12289831 -0.048833612 -0.10113423 -0.018602472 0.095961824 -0.013838031 -0.08676372 0.019438952
-0.09937968 -0.15514247 -0.10504981 -0.015502978 -0.0251275 -0.07751888 0.046756428 0.0141417235
-0.14113848 -0.11188966 -0.10604269 0.16022249 0.03150198 -0.09697818 -0.12810941 -0.00022898614
-0.08897573 0.047767177 0.09686279 -0.015197471 0.042513087 0.038636666 0.074364364 -0.115816645
-0.028979078 -0.002523887 0.010414814 -0.07404972 0.029109389 -0.06470013 -0.13630265 -0.12177697
-0.049618892 -0.022435581 -0.058540702 -0.013277892 -0.08634745 0.10557668 0.028468326 -0.13073875
-0.0886305 -0.03240599 0.077488385 0.02141392 0.0868361 -0.12685837 -0.040528905 -0.011759102
-0.08814985 0.04419235 0.041113045 0.072594695 -0.028384432 0.15285464 -0.011849746 -0.04657932
0.04276593 0.13379745 0.056289516 0.086007275 -0.031140704 -0.10078559 -0.0945711 -0.109987214
0.0044785948 0.15253076 -0.2417815 -0.061466202 0.12398866 -0.19686423 -0.13609236 0.050978765
0.0322425 0.049613982 -0.006352602 0.010989391 0.03953846 0.11244777 -0.08251975 -0.116379574
0.07122342 -0.1595007 0.070071936 0.11362602 0.083836384 -0.32531062 -0.08368622 0.08785913
-0.093289405 0.06981395 0.11967661 0.10298228 -0.079406574 -0.121300355 -0.020478535 -0.033360265
-0.1377082 -0.18789153 0.06806122 0.10894998 -0.12843041 -0.05549045 -0.03801672 -0.10216515
0.071649745 0.19890486 0.11481092 0.10030622 -0.012612388 0.25855932 -0.19812429 -0.19170299

net.2.bias f4 [64]
00000000: 258c 88bc f0b9 eb3d 6850 793d 97b2 33bd
00000010: 70ef de3d 61ab 86bd ba24 33bd 834a d03c
00000020: 6eaa fb3d fd96 523d 5c6d 203c 684b 52bd
00000030: 2e9f a93d 9af5 d83d ff09 1bbe b86c 023d
00000040: 63fc 45bd 526b 31bb c019 08be d2bc ccbc
00000050: 7550 50bd eadc 513d fe9f a93d aa5a dfbd
00000060: a0a1 573d 147a 44bd 6708 90bd ed8f 62bc
00000070: e09a c43c 3e1a 06bb 707e 333c a47a 0d3d
00000080: 2665 813d f43e 5a3c 6d79 883d 1f2b e73c
00000090: cf36 cd3c 5980 24bc 6dbd 553c 3e83 b13d
000000a0: 5b04 e93d 763f f8bd 4c8e a53d f845 b8bd
000000b0: 637a 01be 0a64 e4bd 6cc9 bbbc aabd f7bd
000000c0: c8cd 9abd 92ff 983a 5471 04bd b9f8 053e
000000d0: 4253 debd 9dbc 06be 3c1f 883d fc3e 06bd
000000e0: 10fe 23be f0c1 30bd 23ed aa3d 72f5 d53d
000000f0: f45d 1bbd d1be c2bd 4b37 eebd 4ad6 c5bd
-0.016668389 0.11510074 0.060867697 -0.04387149 0.10885513 -0.06575657 -0.043736197 0.025426155
0.12288366 0.051413525 0.009791698 -0.051341444 0.08282314 0.1059372 -0.15140532 0.031841964
-0.048336398 -0.0027072025 -0.13291073 -0.02499238 -0.05085798 0.05123607 0.08282469 -0.10905965
0.052644372 -0.047967985 -0.070328526 -0.01382826 0.023999631 -0.002046242 0.010955438 0.034540787
0.06318121 0.013320673 0.06663785 0.028218804 0.025050549 -0.010040366 0.013045651 0.086676106
0.11377784 -0.12121479 0.080837816 -0.089977205 -0.12644343 -0.111518934 -0.022923194 -0.120967224
-0.07558781 0.0011672846 -0.03233464 0.13083161 -0.10855724 -0.13157888 0.066465825 -0.03277491
-0.16014886 -0.043153703 0.083460115 0.104472056 -0.037931398 -0.095090516 -0.1163164 -0.09660013

net.4.weight f4 [64, 64]
00000000: c02d fabc ccc0 a8bd 00ae 293a b0f0 e53c
00000010: da9b 84bd fce7 003d 28b1 a5bd e84a dc3d
00000020: 5e52 fabd 9e04 f73d 8069 6c3b d0f1 22bc
00000030: ceff a6bd a6b9 f0bd dcca 6d3d c013 c93d
00000040: d887 f03c 847e 753d 008e 56bc e087 fb3c
00000050: 84c2 683d 7c70 6f3d e084 b63b 3409 eabd
00000060: 3080 303c 86c0 cd3d 2a34 f6bd 5c96 16bd
00000070: 00ff 8bbc ac09 32bd e8fa bc3c 109a 36bc
00000080: 1032 75bc 98bf 48bd e0f1 d0bc 6841 e13c
00000090: 78e1 a9bc d0f7 67bd 8011 afbc 504f 99bc
000000a0: 18b0 c4bd 0011 cd3b 50bd 503c 8ec3 a5bd
000000b0: 1459 74bd b8ef 49bd f44c 793d 902c 22bd
000000c0: d01d 44bd c244 a63d 140f 573d 0032 ebbb
000000d0: 0071 1eba 0050 2b3a 5a58 b93d e28d 98bd
000000e0: 746c 6c3d ee0a e93d a4fd 61bd deb5 ea3d
000000f0: 320e e53d a80a bcbd c04b 103d 0079 cd3b
00000100: 1cb1 0e39 44c7 bebd cbd6 c0bd 5407 bcbd
00000110: be08 0fbd 3aa4 bebd 0f12 d53d 661f 733d
00000120: 225c 303d ee0b 1dbd ac6a dd3d b6b6 963d
00000130: 9a02 f5bc f849 953c 53c1 5dbd c0e0 62bc
00000140: fdb1 43bd 24a1 c83d c4c2 683d c7de cd3d
00000150: 19d8 4cbe a44f ce3d 8c45 cebd 93b9 3e3d
00000160: 2057 cd3b 30be 13bd 15d9 28bd 76d3 383e
00000170: 74df d0bc af59 23be 1646 d53d f6b6 043e
00000180: 2015 7e3c 3fe6 9bbd 04ae 093d b7c6 af3d
00000190: b6bd 60bd cce5 673d de50 743c 87dc 0b3e
000001a0: cda3 1cbd 7c1f e9bd 5800 e7bd 845f 3b3d
000001b0: 3026 0abd d46f c6bd 3483 143d f0f0 7abc
000001c0: 65c0 8e3d d6f9 a63d 386b a3bc 65ac abbd
000001d0: 3ec4 e43d dd50 433e 4c18 843d 003c 30b9
000001e0: 7915 103e 407d 7bbd 2295 2b3d 972a 81bd
000001f0: 10c7 8e3d 967a d13d bb4e 063e 705f 3b3c
00000200: 99d8 c63d da38 1e3e 7b1b f03c 67a4 123e
00000210: 1a9f 173e f034 f6bc 68d2 08be 309c cf3c
00000220: 60da 123e a367 c83b 1976 7f3d cccb 033d
00000230: 899b a13c a1d8 4d3c ad81 273c 00d3 8e3b
00000240: a63c 2dbe f044 b23c 6a2a bb3d 3bb4 a7bc
00000250: ae1b 143e a860 94bd fb61 883d 89cf b13d
00000260: 0802 18bd 98f4 76bd 33bc 1abe 9cb3 75bc
00000270: 3e5e fa3d 0456 493e e026 8f3d 4059 f53b
00000280: 5822 4e3d 4e57 47bd 3e64 1a3d 1ad9 d5bd
00000290: cec9 b2bd 884c 85be 28e1 c4bd ef34 29be
000002a0: f2f7 7f3d 4cb7 9e3d 138d 903d d81e e4bc
000002b0: 2b42 b5bd ea3b 02bd dd66 d1bd 4cd2 123d
000002c0: b88b 003d 33cc 883d 78b2 b93d e9c9 2c3e
000002d0: d054 41bc a8ce 93bd d089 de3d 1c17 06bd
000002e0: 113f 233d f07b 3bbc 20d5 fcbd ba4f d23d
000002f0: d47b 6f3d 9cbf 1abd 1639 0dbe d2a0 94bd
00000300: 39a7 0d3e bcc7 f93c 31e9 06be 288e 7a3e
00000310: 56b0 563e b8b1 083d 3d21 fdbd 1346 aa3d
00000320: 6988 d23d ea60 413e bdf7 493d ec2e edbd
00000330: 4725 3bbc c93b 233d e9e3 afbd 8006 01bb
00000340: ff78 0abe 5a7c 58bc 743a cbbd 8ad0 6f3d
00000350: b0b0 89bc 4206 22be af52 edbd e918 09bc
00000360: 34ee c0bd 908e d4bc b2df 88bd e9f8 7e3c
00000370: b7b0 173e 335e 313e d278 efbd 5299 aebc
00000380: 9c5c a83d 697d b33d 3fd0 a6bb eea9 da3d
00000390: ea98 91bd 4068 77be 9cd7 cd3d 869e 0abe
000003a0: 7d2a 773d 60f4 f1bd 91ae 303d 1e8d f5bd
000003b0: 51e5 48bc d67c cfbd cb21 48bd d0a7 323c
000003c0: a276 abbd 6d9f 923d b299 79bd ac07 a13d
000003d0: 3403 6dbd 6724 d5bd 242f e03d b0da 55bc
000003e0: 6b51 65bd 60e9 e0bc 51a8 a4bd ba23 34bd
000003f0: 84c4 f93d e962 82bc c64e f8ba 960a eb3d
-0.030539393 -0.08239898 0.00064727664 0.02806887 -0.06475039 0.031471238 -0.080904305 0.10756475
-0.122227415 0.120614275 0.0036073625 -0.009945348 -0.081542596 -0.1175416 0.05805479 0.0981822
0.02936165 0.059935108 -0.013095379 0.030704439 0.05682613 0.058456883 0.005570039 -0.114275366
0.01077275 0.100464866 -0.12021668 -0.036764488 -0.017089367 -0.043466255 0.02306886 -0.01114513
-0.014965549 -0.049010843 -0.02550596 0.027497008 -0.020737395 -0.056632817 -0.02137065 -0.018714577
-0.096039 0.00625813 0.012740448 -0.0809394 -0.059655264 -0.04930088 0.060864404 -0.03959328
-0.047879994 0.08118583 0.052504614 -0.0071775913 -0.000604406 0.0006535053 0.09050055 -0.07448937
0.057720616 0.11379038 -0.05517353 0.1146047 0.11184348 -0.0918172 0.03522849 0.006270528
0.00013608154 -0.09315351 -0.094159685 -0.09181085 -0.034920447 -0.093086675 0.10403835 0.059356116
0.043056615 -0.038341455 0.10811362 0.07359068 -0.029908467 0.018223748 -0.054139446 -0.01384753
-0.047777165 0.0979636 0.056826368 0.10052257 -0.2000431 0.10073784 -0.10071859 0.046563696
0.0062664896 -0.03607005 -0.04122265 0.18049416 -0.025497176 -0.1595218 0.104137585 0.12960419
0.015507966 -0.07612275 0.03361322 0.08582824 -0.054868422 0.056615636 0.014911858 0.13658343
-0.03824215 -0.11382958 -0.112793624 0.045745388 -0.033727825 -0.09689298 0.036257938 -0.015316233
0.0697029 0.08153121 -0.019948587 -0.08382491 0.11170243 0.19073816 0.06449947 -0.0001680702
0.14070691 -0.061398745 0.04189027 -0.063069515 0.06971562 0.102284595 0.13115971 0.011436328
0.097092815 0.15451375 0.029309979 0.14320527 0.14806786 -0.03005454 -0.13361514 0.02534303
0.14341116 0.00611587 0.062368486 0.032176778 0.019727485 0.012563855 0.010223788 0.0043586493
-0.16917667 0.021761388 0.09138949 -0.020471683 0.14463684 -0.07244998 0.06659313 0.08682162
-0.037111312 -0.060291857 -0.15110855 -0.0149964355 0.122250065 0.19661719 0.06989837 0.007487446
0.05032572 -0.048667245 0.037693255 -0.104417995 -0.087298974 -0.2603495 -0.09613258 -0.16524099
0.06249232 0.07749805 0.07058158 -0.027846739 -0.08850511 -0.03179542 -0.10224698 0.035845086
0.031383246 0.06679573 0.09067243 0.16873898 -0.011800006 -0.07217151 0.108661294 -0.032736883
0.039855067 -0.011443123 -0.12345338 0.10269113 0.0584677 -0.03778039 -0.13791308 -0.072572365
0.13833322 0.030490749 -0.13174893 0.24468291 0.20965704 0.03337261 -0.12359855 0.08314147
0.102799244 0.18884626 0.049308527 -0.11581215 -0.011422462 0.039851937 -0.08588392 -0.0019687712
-0.13522719 -0.0132132415 -0.099232584 0.058548488 -0.016807884 -0.158227 -0.11588036 -0.008367755
-0.09420434 -0.025946885 -0.066832915 0.0155622745 0.14813505 0.1732109 -0.116929665 -0.021313343
0.08220789 0.087641545 -0.005090743 0.10676943 -0.07109244 -0.24160862 0.1005089 -0.13537034
0.060343254 -0.11814189 0.04313523 -0.119898066 -0.012261705 -0.101312324 -0.048860352 0.010904267
-0.08372237 0.07159314 -0.06093759 0.078627914 -0.057864383 -0.10407334 0.10946491 -0.013052627
-0.05598585 -0.027455032 -0.08039916 -0.043979384 0.121956855 -0.015916305 -0.0018944375 0.114766285

net.4.bias f4 [64]
00000000: ec0d eebd 963a bf3d 8e9b 793d 8579 893d
00000010: 0932 acbd d519 bd3d a010 a1bc b15e bf3d
00000020: d9bf ee3d 00f3 b1bd 6de3 cf3d 2999 a0bc
00000030: 9142 c4bb 56e9 55bd bbc8 8abd fcf1 933c
00000040: 192d 5e3b acee c83d bb0b f93c df5c 0bbd
00000050: c554 ddbc 0f59 9bbd 3cf3 3fbd 242a 9cbd
00000060: b628 a8bd 66a6 d53d 27d3 5f3d 9205 003e
00000070: 46cf c5bd 5195 91bd 2489 dcbd 1ad7 2d3d
00000080: 313e e33d 4d13 a1bd eec5 67bb 78a9 d9bc
00000090: 64c4 673c 469d 193d 7ca8 b8bd 9ee7 f63d
000000a0: af8c e83d 03d7 a03d 0a37 8b3d 452b d9bc
000000b0: fbb5 e03d 06ba ab3c 1d99 16bd 8ad5 60bd
000000c0: 8c03 57bd 4871 f8bd eb09 ea3d 2575 cabc
000000d0: 82e0 233d 83e4 f6bd ee06 dd3d a439 cebd
000000e0: d68c e1bd 37a6 f43d 7739 bb3d bb22 cc3c
000000f0: 6665 33bd 3bf5 f7bc 4b18 b13d 5533 743d
-0.11623749 0.09337346 0.060939364 0.06712631 -0.08407981 0.09233443 -0.019661248 0.09344233
0.11657686 -0.08688927 0.101508 -0.019604282 -0.0059893806 -0.05222448 -0.067765675 0.018059723
0.0033901392 0.09811148 0.030401101 -0.034024116 -0.02701796 -0.07585346 -0.046862826 -0.07625225
-0.0821089 0.104321286 0.05464473 0.12502125 -0.09658675 -0.07108558 -0.10768345 0.042441465
0.110958464 -0.078650095 -0.0035365778 -0.026570067 0.014145944 0.037503503 -0.09016511 0.12055896
0.11354958 0.0785351 0.06797607 -0.02650989 0.1097221 0.020962726 -0.036767114 -0.054891147
-0.052493617 -0.12130982 0.11427673 -0.024714062 0.04000903 -0.12055304 0.10792337 -0.10069588
-0.110131904 0.119457655 0.0914182 0.024918905 -0.043797873 -0.030268302 0.08647212 0.059619267

net.6.weight f4 [2, 64]
00000000: 3cf2 0dbd 43ef e0bd ef86 063e c883 d43d
00000010: ab2d 173d 2c8e 3239 4a16 003e 1eba 4cbe
00000020: f44f b9bd 4cd5 13bd dd20 363d 645c dfbd
00000030: 19e9 64bd 2671 543d 7832 c4bd eefe 4abd
00000040: 1ee6 90bd 0be9 4e3d 36fd 0c3e cb64 b3bd
00000050: 59aa 053e 293c 6d3d 846e a83d 9006 8a3c
00000060: aca3 9abd b3c7 4c3d 71a2 323d 2c11 213d
00000070: 960a b33d 6f3e 593d 8b57 4bbd e8dc 7e3c
00000080: e04f c4bd ce30 7f3d 7bfb 8c3c 1694 9fbc
00000090: 780f 083e 8705 94bd a403 9e3d 0b5f 06be
000000a0: 5dbc 323e e6ae 163e edae b43b 836a d33d
000000b0: 372d 13bd f80c 9d3c 3942 c5ba f38c 9c3d
000000c0: 4c86 ecbd c47a 0b3d fb3e 903d d090 81ba
000000d0: 79c4 edbb 6ed1 6dbd f839 b73d 2803 ecbd
000000e0: 6ffa b1bd 1ead f6bc 08fc d03d e3ec 8d3e
000000f0: 23bb 433c e2a6 3b3e b262 423c db13 17be
00000100: 12fc d2bd a1b2 7b3c 8648 2fbe e719 02be
00000110: 1efd bcbd 52c5 603d 81ca acbd 6d89 303c
00000120: 5a82 473c 3e42 6fbc 5cb0 d5bd 4f18 7f3d
00000130: 44e0 ac3c 8d5b 16bd 83ad bbbc 5e13 afbc
00000140: b9ac 8abd 595a 97bd 6c9d cdbd ec7b 003d
00000150: 3427 d1bd 8399 36be 1426 4fbd 30b8 c83d
00000160: 70c1 ef3c b55a 15be 285b 2ebe ca6c 26be
00000170: 8c60 9dbd 6a01 8abd 8f77 b73d 36c3 e9bd
00000180: 0241 993d 6462 393d 3aa3 6b3d 0bd8 6e3d
00000190: 920b 90bd 09ad f33d 7a80 52bd 07aa 6b3d
000001a0: 314f f5bd 8cc4 24be a210 073e a962 be3d
000001b0: fae7 a63d ff9f 24be c5fb 233e dfd2 3ebe
000001c0: ee77 82bd 8875 153d 0f56 123e 096e 77be
000001d0: 6152 28be 0b6b 623d ee45 39be f4aa 653d
000001e0: 6fc1 e93d 2a73 0cbe a3d1 0dbe 573c 81be
000001f0: 283e 163c d964 3dbe 8467 e2bd 6c3d 9d3d
-0.03465484 -0.109831356 0.1313741 0.10376698 0.036908787 0.00017028366 0.12508503 -0.19992873
-0.09048453 -0.036092088 0.044464935 -0.10906294 -0.05588636 0.05186572 -0.09579939 -0.049559526
-0.07075141 0.050515216 0.13768467 -0.08759459 0.13053264 0.0579187 0.08224204 0.016848832
-0.07550749 0.049995136 0.043611947 0.039323017 0.087422535 0.053038057 -0.049644034 0.015555598
-0.095855474 0.062302403 0.017209759 -0.019479793 0.13287151 -0.07227617 0.07715538 -0.13122194
0.17454667 0.14715156 0.005514017 0.1032305 -0.035931792 0.019171223 -0.0015049643 0.076440714
-0.115490526 0.034052625 0.070432626 -0.0009885076 -0.0072560874 -0.058061056 0.089466035 -0.115240395
-0.086903445 -0.030111846 0.10204321 0.27719793 0.011946472 0.1832538 0.011864351 -0.14753668
-0.10301985 0.015362413 -0.17117509 -0.12705193 -0.09227966 0.05487568 -0.08437062 0.010774952
0.012177074 -0.014603196 -0.104340285 0.06227904 0.021103032 -0.036708403 -0.022909885 -0.02137154
-0.067712255 -0.07390279 -0.100397915 0.03136818 -0.102125555 -0.17831998 -0.050573424 0.09800756
0.029267043 -0.14585383 -0.17026961 -0.16252437 -0.076844305 -0.06738551 0.08958351 -0.11414187
0.074831024 0.04525985 0.05752871 0.058311503 -0.07033457 0.11898238 -0.051392056 0.057535198
-0.11977995 -0.16090602 0.13189939 0.09296162 0.08149715 -0.16076659 0.16014011 -0.18635128
-0.06370531 0.03648904 0.14290641 -0.24163069 -0.16437675 0.055277865 -0.18093082 0.056071237
0.11413848 -0.13715807 -0.13849501 -0.25241348 0.009170093 -0.18495502 -0.110549 0.07677731

net.6.bias f4 [2]
00000000: ff09 fc3c 418f 383d
0.030766485 0.045058493
