models/cross_entropy/flappy-bird-cross-entropy-advanced.pt (torch_old, 4894 bytes, 4 tensors)

net.0.weight f4 [128, 5]
0.1265471 -0.24899621 -0.15615073 0.20185998 -0.37985635 0.31039262 -1.8306915 -0.18157645
-0.0154569205 0.24314892 0.01672296 0.9477218 0.15406856 0.69642687 0.030248446 0.20684665
-0.26085845 -0.16347618 0.39644793 0.14096756 -0.13009748 1.4649119 0.046353564 -0.26706347
0.18818852 0.33586267 -0.5581161 0.31940055 0.0013576444 0.40166876 0.17064646 -0.7927163
0.0025735537 -0.4551399 0.63405657 0.39287055 -1.9778336 -0.40023804 0.4998115 -0.20964141
0.09683335 -0.10090244 -0.14218587 -0.17668936 -0.14077064 -0.32664558 -0.91932786 0.46869093
-1.1446666 -0.78747505 0.267315 -0.59883446 0.35744947 0.45143965 -0.119014986 0.4508205
0.7763084 0.21329708 -0.46615487 0.039157365 0.42305782 1.4839138 -0.100439765 0.07680236
-0.76359504 -0.1162295 0.08145561 0.026635673 -0.5210429 0.5516052 0.55579007 0.27134207
-0.12725985 0.35094738 -0.14836164 0.29185683 0.07753563 0.11790085 -0.13188815 -0.33614963
0.016649274 -0.8247228 0.0630299 0.06968354 0.37057534 0.3040926 0.3445942 -0.22840557
0.14954494 0.06682249 0.36218596 -0.21479668 0.20666873 0.17911465 -0.16310965 -0.11203764
-0.9538323 -0.015076686 0.006865921 0.004498207 -0.21807948 -0.24030827 -0.16218261 0.1278313
0.5553128 -0.048682936 0.6845703 -0.77266026 -0.3192185 0.017715061 0.13108501 0.806639
0.28337514 0.06973301 -0.2445506 0.35470295 -0.069042474 -0.16526715 0.12424309 0.15551826
0.2731134 -0.7640085 -1.8110018 -0.19786353 -0.04597635 -0.45914596 0.42931247 -0.19659121
0.21986388 0.01515557 0.18454973 0.35544488 0.19511816 -0.13450626 -0.131678 0.17641585
0.6975962 0.0484895 -0.21111822 -0.24493176 -0.06557572 -1.1343282 0.07296684 -0.022688631
0.4266162 0.0037001232 -0.16463174 -0.23527442 0.3402095 -0.06074246 -0.25684318 -1.3378193
0.48764393 0.42298225 -0.40903392 0.11597145 0.704014 0.5809907 -0.043795586 -0.33702826
-0.3034755 -1.0465604 -0.22015579 -0.21403213 -0.07544124 0.26498696 0.4668028 0.18600255
-0.4925652 0.34608003 0.2749947 -0.71436375 -0.19860297 0.20564334 0.102315366 0.19405502
0.023870291 0.07241782 0.022443876 0.39270422 -0.31115845 3.316999 0.30844057 -0.30859992
-0.2133618 -0.39249814 0.17759433 0.22173756 -0.14099608 0.034797963 0.44269842 0.9267478
0.3662994 -0.2765122 -0.19115466 -0.15888686 -1.0011451 0.6227701 -0.5119789 0.58553904
0.39490712 0.24118273 0.23300812 -0.19548081 0.47818145 -0.45545682 -0.92181015 -1.3040932
0.36588246 0.04490229 0.08041948 0.042073935 -0.164172 -0.33209413 0.01163733 0.21550356
1.5273514 -1.4712934 -0.7084305 -0.19665897 0.44179016 0.607049 -0.4214535 -0.40726867
-0.43268776 0.5107241 -0.16269538 0.2272386 0.18374823 -0.1782459 0.07439645 0.405365
0.112711534 -0.17673445 0.035355255 -0.14329536 1.2409742 0.45181125 -0.09987775 0.3966497
0.10296315 -0.38634378 0.3125614 0.598561 0.20217665 0.13705276 -0.07039189 0.027151555
-0.1489217 -0.14478251 0.0025263429 -0.23131624 -0.12871695 -0.3866426 -0.33799547 0.4069906
00000000: 9095 013e ddf8 7ebe fae5 1fbe 62b4 4e3e
00000010: 887c c2be c8eb 9e3e 1954 eabf 2def 39be
00000020: 063f 7dbc 08fc 783e 97fe 883c e59d 723f
00000030: 26c4 1d3e 0849 323f 97cb f73c 9ccf 533e
00000040: 3d8f 85be 4d66 27be 39fb ca3e cd59 103e
00000050: 4638 05be 3c82 bb3f 3cdd 3d3d 8bbc 88be
00000060: 7eb4 403e 31f6 ab3e b2e0 0ebf 7888 a33e
00000070: fdf2 b13a 87a7 cd3e f2bd 2e3e 75ef 4abf
00000080: 11a9 283b 1908 e9be 8851 223f 5426 c93e
00000090: a729 fdbf 00ec ccbe 4be7 ff3e 3dac 56be
000000a0: 9050 c63d f0a5 cebd 2c99 11be 0eee 34be
000000b0: 2e26 10be 173e a7be 1259 6bbf 42f8 ef3e
000000c0: 6f84 92bf f797 49bf 83dd 883e 374d 19bf
000000d0: 9e03 b73e 1923 e73e 21be f3bd f2d1 e63e
000000e0: 26bc 463f 8d6a 5a3e daab eebe 7963 203d
000000f0: 099b d83e e3f0 bd3f 5db3 cdbd 8e4a 9d3d
00000100: f77a 43bf bb09 eebd 33d2 a63d 0e33 da3c
00000110: 1163 05bf 0036 0d3f 4248 0e3f 59ed 8a3e
00000120: 6850 02be 60af b33e 1dec 17be 426e 953e
00000130: 00cb 9e3d 0076 f13d b00d 07be ce1b acbe
00000140: 0f64 883c 0921 53bf d215 813d 3eb6 8e3d
00000150: 0dbc bd3e 06b2 9b3e a76e b03e 26e3 69be
00000160: 4f22 193e 3bda 883d 7070 b93e a9f3 5bbe
00000170: f8a0 533e d569 373e 3706 27be fd73 e5bd
00000180: 5b2e 74bf 3404 77bc 85fb e03b b265 933b
00000190: 3a50 5fbe 5f13 76be 3313 26be 35e6 023e
000001a0: fb28 0e3f c267 47bd 0040 2f3f 10cd 45bf
000001b0: 9b70 a3be 2d1f 913c 263b 063e e57f 4e3f
000001c0: 8c16 913e 2ed0 8e3d 796b 7abe a09b b53e
000001d0: 2466 8dbd cb3b 29be 2973 fe3d 2e40 1f3e
000001e0: 85d5 8b3e 1096 43bf e8ce e7bf bd9c 4abe
000001f0: b251 3cbd 2e15 ebbe d8ce db3e 354f 49be
00000200: ff23 613e 114f 783c 9bfa 3c3e dffc b53e
00000210: 0ecd 473e 02bc 09be 99d6 06be 5ba6 343e
00000220: aa95 323f ed9c 463d 602f 58be 64cf 7abe
00000230: 904c 86bd ab31 91bf a36f 953d 82dd b9bc
00000240: 706d da3e c47d 723b 3995 28be c7eb 70be
00000250: f12f ae3e 16cd 78bd f380 83be aa3d abbf
00000260: 77ac f93e 2191 d83e e56c d1be 7182 ed3d
00000270: 433a 343f cebb 143f 0063 33bd f88e acbe
00000280: 2461 9bbe b1f5 85bf 8570 61be 3d2b 5bbe
00000290: f080 9abd 5fac 873e c700 ef3e 7477 3e3e
000002a0: 8231 fcbe 6731 b13e 1bcc 8c3e 8be0 36bf
000002b0: 945e 4bbe 2b94 523e b88a d13d 5cb6 463e
000002c0: a18b c33c cb4f 943d 38dc b73c 8710 c93e
000002d0: 2950 9fbe b649 5440 eceb 9d3e cf00 9ebe
000002e0: 847b 5abe 84f5 c8be 4adb 353e 2c0f 633e
000002f0: 4761 10be 4f88 0e3d 5ea9 e23e 583f 6d3f
00000300: 988b bb3e 0293 8dbe 0cbe 43be 3db3 22be
00000310: 8625 80bf dc6d 1f3f 0d11 03bf e3e5 153f
00000320: 4431 ca3e 9bf8 763e ae99 6e3e 1f2c 48be
00000330: 33d4 f43e a331 e9be c0fb 6bbf 87ec a6bf
00000340: f254 bb3e 77eb 373d f8b2 a43d b855 2c3d
00000350: b41c 28be 3e08 aabe 80aa 3e3c f7ac 5c3e
00000360: 4080 c33f 5853 bcbf b45b 35bf f860 49be
00000370: 5232 e23e 9067 1b3f c1c8 d7be 8585 d0be
00000380: 4089 ddbe d1be 023f 9e99 26be 3cb1 683e
00000390: 7f28 3c3e 1886 36be 2a5d 983d 008c cf3e
000003a0: 4ed5 e63d e0f9 34be acd0 103d 05bc 12be
000003b0: 3ed8 9e3f ce53 e73e b58c ccbd ab15 cb3e
000003c0: 58de d23d dace c5be 0c08 a03e 4b3b 193f
000003d0: 6507 4f3e 8f57 0c3e a029 90bd f06c de3c
000003e0: ee7e 18be de41 14be 0091 253b 2ade 6cbe
000003f0: 60ce 03be 05f6 c5be be0d adbe 1261 d03e

net.0.bias f4 [128]
-0.32942376 -0.10398418 -0.15399146 0.17940666 0.27272347 0.23797598 -0.13425004 -0.29065916
-0.39314678 -0.18694538 0.2874729 0.3608472 -0.00036267962 0.014924418 0.053682175 -0.4230164
0.40294027 0.04431291 0.16331053 0.2037011 -0.11867761 0.4317838 0.22167255 -0.07725067
0.010860559 -0.22814718 0.15897457 0.2269242 0.13733417 0.33359447 -0.035354543 -0.13736776
0.43241 -0.5175159 0.278281 0.054198965 0.36461607 -0.26024392 0.40209064 -0.24310048
-0.36338332 0.18395278 -0.38370773 0.045722164 0.16565873 -0.24339153 0.17346424 0.018771535
-0.4278499 0.39657816 -0.2356872 0.20964979 0.5598679 0.22215307 0.42735276 -0.0880204
0.17117222 -0.3110086 -0.6763824 0.1643945 0.0007012967 -0.39277974 0.34226024 0.23594776
0.08217588 0.41550705 0.30183217 -0.1517808 0.27298388 0.516967 0.07363307 -0.0035676917
0.31293923 -0.08333049 0.083787024 -0.44540513 -0.19994608 -0.23980412 -0.033040974 0.35486725
-0.14416352 -0.23770714 0.2891666 0.3961607 0.039349776 -0.23258576 -0.17103194 -0.11406063
-0.18225473 0.014646548 -0.26583236 0.0010208611 0.19955409 -0.36983407 -0.22767523 -0.5228409
0.0584787 -0.11941075 -0.10836235 0.1376353 0.07593754 -0.4112291 -0.08291542 0.16768622
0.20479041 -0.039134357 0.40813068 -0.020165103 -0.34038892 0.43607026 0.16283749 -0.10385579
-0.22244535 -0.39009562 -0.49854144 -0.4764503 -0.24808499 -0.42655924 0.41793364 -0.35582048
0.070000805 0.14738314 0.19054712 0.26399747 -0.23482914 -0.27284837 0.29234928 -0.050377693
00000000: 3baa a8be a8f5 d4bd f0af 1dbe 61b6 373e
00000010: 69a2 8b3e faaf 733e d878 09be 47d1 94be
00000020: 894a c9be 9c6e 3fbe a62f 933e f7c0 b83e
00000030: 0926 beb9 8c85 743c d7e1 5b3d 9b95 d8be
00000040: 304e ce3e 7481 353d e03a 273e 0597 503e
00000050: 3f0d f3bd c412 dd3e 21fe 623e 9935 9ebd
00000060: 7cf0 313c 6a9f 69be 3bca 223e d15e 683e
00000070: 54a1 0c3e e5cc aa3e edcf 10bd 22aa 0cbe
00000080: d864 dd3e ec7b 04bf d97a 8e3e bcff 5d3d
00000090: f5ae ba3e b13e 85be d3de cd3e 55ef 78be
000000a0: 610d babe 1e5e 3c3e 5775 c4be 2a47 3b3d
000000b0: 71a2 293e a13b 79be 9ca0 313e c3c6 993c
000000c0: 240f dbbe 4b0c cb3e fc57 71be 6fae 563e
000000d0: 8153 0f3f 187c 633e fbcd da3e 0a44 b4bd
000000e0: c547 2f3e 853c 9fbe 6627 2dbf 0857 283e
000000f0: 3ad7 373a 6d1a c9be bc3c af3e 4a9c 713e
00000100: d44b a83d 57bd d43e bf89 9a3e 6d6c 1bbe
00000110: 8bc4 8b3e f357 043f efcc 963d efcf 69bb
00000120: 9239 a03e 2da9 aabd 8898 ab3d 240c e4be
00000130: aabe 4cbe 368f 75be f955 07bd 29b1 b53e
00000140: 9a9f 13be 8069 73be a50d 943e 93d5 ca3e
00000150: 3b2d 213d f62a 6ebe ff22 2fbe 9f98 e9bd
00000160: fca0 3abe 13f8 6f3c 2e1b 88be 6ace 853a
00000170: e857 4c3e e45a bdbe b223 69be e7d8 05bf
00000180: 5d87 6f3d a08d f4bd 14ed ddbd 45f0 0c3e
00000190: 2485 9b3d 9f8c d2be 8fcf a9bd f0b5 2b3e
000001a0: 94b4 513e 594b 20bd 81f6 d03e 4931 a5bc
000001b0: 7547 aebe 9a44 df3e dfbe 263e 58b2 d4bd
000001c0: b7c8 63be 9dba c7be d340 ffbe 4bf1 f3be
000001d0: fe09 7ebe f965 dabe 66fb d53e 1a2e b6be
000001e0: 955c 8f3d 9beb 163e c91e 433e ad2a 873e
000001f0: 0d77 70be c8b2 8bbe ceae 953e d758 4ebd

net.2.weight f4 [2, 128]
0.01998615 0.13747428 0.27002725 0.02830463 -0.033760954 0.07124624 0.3679309 0.28129965
0.009646356 1.1347638 0.103539206 -0.047496438 0.7152786 0.22255248 0.047922596 0.043271534
0.09138196 0.16969232 0.047032844 0.072204284 0.38704753 0.4877372 0.085561514 0.16077201
-1.2687378 -0.2945657 -0.052766304 -0.10227558 0.09986259 0.1148737 -0.2335657 -0.52242404
0.7427132 0.68597645 -0.021592574 0.07811144 -0.26678875 -0.023839042 0.061074357 -0.6166372
-0.2575669 1.5438219 0.06412751 1.552733 -0.4640455 0.15030976 -0.07504727 -0.09336355
0.19399957 -0.014956188 -0.043361384 -0.5255922 -0.47860393 0.06473351 0.05079707 -0.020629914
0.08434039 0.8462616 1.0036175 -0.16920318 -0.06264409 -0.037871376 0.05672536 0.09895056
0.16925058 -0.4407512 0.25563425 0.49024862 0.35829356 0.03128207 0.20636186 -0.2391008
0.0075695137 0.045410547 -0.041793473 0.08699817 -0.43601987 -0.56529653 0.0342351 0.08814275
0.06062787 -0.32070017 0.21381882 0.03901265 0.2507262 -0.05415973 -0.14385189 0.2023399
0.17301843 -0.30802947 -0.06810278 -0.10688152 0.04275046 0.04735645 -0.22278489 -0.6587198
-0.090979755 0.11951957 -0.2809533 0.09780284 0.15116438 0.07024377 0.018201616 -0.11931774
0.07197967 0.6440244 -0.4666174 -0.04929074 -0.33260897 0.5741941 0.26006413 -0.083812304
-0.5891555 0.106309235 -1.0228872 0.9094149 0.7528249 0.04805658 0.101538144 -0.03254022
-0.10524424 -0.32929718 -0.08050703 -0.20913614 -0.5412643 -0.043967888 0.14712836 0.47001496
-0.01007952 -0.15556094 -0.14549221 0.022497486 0.05728097 -0.09183861 -0.42634675 -0.27247182
-0.0061069205 -1.0679803 0.04481909 0.0042110244 -0.58718795 -0.31955943 -0.1697273 -0.034613762
-0.09113941 -0.070157886 0.0056379526 -0.10503594 -0.2968512 -0.3679093 0.048057526 -0.091522224
1.2634153 0.28852075 -0.059879858 0.10826279 -0.04654312 -0.09800682 0.37786242 0.5285678
-0.66503 -0.6923287 -0.03908548 0.047053684 0.24444379 0.013410524 0.024341932 0.5355537
0.19485088 -1.5512314 -0.0071423873 -1.599819 0.50235873 -0.17588146 0.14115094 0.051427506
-0.26088655 -0.08824746 0.03889907 0.6894003 0.37579924 -0.06539777 -0.0040377844 0.01204776
-0.0057996307 -0.85447544 -1.0726904 0.15671548 -0.03118737 -0.029450428 -0.0042715115 0.05335822
-0.0821489 0.44050202 -0.116526544 -0.52479815 -0.45678094 -0.10529699 -0.2402697 0.27731216
-0.09996327 -0.11324512 0.0015214492 0.041902475 0.5273847 0.5156548 0.03697163 0.0053067226
0.0786133 0.34750667 -0.15917313 -0.036960337 -0.16514982 0.06658446 0.13804656 -0.19837615
-0.10530613 0.23193717 -0.06837512 0.22463417 -0.12506174 0.003743954 0.25094864 0.63151276
-0.043981787 -0.05017464 0.31682894 0.020176508 -0.22963525 0.010863401 0.11752415 0.108940795
-0.039618835 -0.59103817 0.3433481 0.054802008 0.25618172 -0.4941069 -0.21336457 0.14021485
0.72412103 -0.23427331 1.134269 -0.9465609 -0.6834208 -0.040052224 0.06421423 0.021512195
0.03227442 0.2878652 0.089338146 0.24787289 0.5667041 0.07619011 -0.1304923 -0.4732003
00000000: ffb9 a33c 0fc6 0c3e 0341 8a3e 1ddf e73c
00000010: ed48 0abd 8ce9 913d 7061 bc3e 8206 903e
00000020: c00b 1e3c f13f 913f 5d0c d43d a08b 42bd
00000030: 801c 373f cce4 633e 7c4a 443d 7e3d 313d
00000040: 7726 bb3d d3c3 2d3e 83a5 403d d7df 933d
00000050: 182b c63e b1b8 f93e e03a af3d 6ba1 243e
00000060: 0066 a2bf 51d1 96be 7b21 58bd dc75 d1bd
00000070: c284 cc3d e742 eb3d d92b 6fbe 95bd 05bf
00000080: 7422 3e3f 279c 2f3f e9e2 b0bc e4f8 9f3d
00000090: 8998 88be 184a c3bc 1b29 7a3d efdb 1dbf
000000a0: cfdf 83be f59b c53f 4955 833d f4bf c63f
000000b0: 5f97 edbe cdea 193e 62b2 99bd 6435 bfbd
000000c0: d3a7 463e cd0a 75bc b59b 31bd 368d 06bf
000000d0: 930b f5be 0193 843d 9710 503d 1100 a9bc
000000e0: a8ba ac3d 9aa4 583f 8a76 803f 9943 2dbe
000000f0: 8b4b 80bd 041f 1bbd da58 683d 97a6 ca3d
00000100: 0650 2d3e 24aa e1be 7ee2 823e de01 fb3e
00000110: 4172 b73e a121 003d 8650 533e d7d6 74be
00000120: af09 f83b 6900 3a3d a22f 2bbd 192c b23d
00000130: ff3d dfbe 46b7 10bf 1b3a 0c3d 3084 b43d
00000140: ee54 783d d032 a4be 52f3 5a3e bacb 1f3d
00000150: 2f5f 803e 98d6 5dbd e94d 13be 3132 4f3e
00000160: be2b 313e 0ab6 9dbe 7879 8bbd b3e4 dabd
00000170: 1b1b 2f3d d6f8 413d b921 64be dca1 28bf
00000180: 9853 babd adc6 f43d 1cd9 8fbe db4c c83d
00000190: d6ca 1a3e f7db 8f3d 8e1b 953c dc5c f4bd
000001a0: 146a 933d c8de 243f 7ae8 eebe 16e5 49bd
000001b0: b94b aabe 62fe 123f 2027 853e c9a5 abbd
000001c0: e5d2 16bf a8b8 d93d f8ed 82bf 6acf 683f
000001d0: 22b9 403f fad6 443d 3bf3 cf3d e548 05bd
000001e0: 4b8a d7bd a499 a8be dfe0 a4bd c927 56be
000001f0: 4c90 0abf ac17 34bd d1a8 163e cda5 f03e
00000200: 9224 25bc 5e4b 1fbe e9fb 14be a64c b83c
00000210: 739f 6a3d e215 bcbd 1f4a dabe 6d81 8bbe
00000220: 901c c8bb 94b3 88bf 3994 373d a2fc 893b
00000230: f351 16bf 4b9d a3be fecc 2dbe 29c7 0dbd
00000240: 4da7 babd f0ae 8fbd 93be b83b 151d d7bd
00000250: e1fc 97be 9c5e bcbe f8d7 443d 0170 bbbd
00000260: 98b7 a13f feb8 933e 9544 75bd e2b8 dd3d
00000270: 00a4 3ebd cdb7 c8bd 2f77 c13e 3850 073f
00000280: 683f 2abf 743c 31bf 1918 20bd 5dbb 403d
00000290: 794f 7a3e d1b7 5b3c bb68 c73c 0c1a 093f
000002a0: fd86 473e c08e c6bf b00a eabb dec6 ccbf
000002b0: 959a 003f 451a 34be df89 103e a6a5 523d
000002c0: ec92 85be 16bb b4bd a254 1f3d 8a7c 303f
000002d0: c268 c03e 44ef 85bd 644f 84bb f863 453c
000002e0: d40a bebb e7be 5abf eb4d 89bf 067a 203e
000002f0: a87c ffbc 0642 f1bc 09f8 8bbb 268e 5a3d
00000300: af3d a8bd 7b89 e13e 78a5 eebd 2c59 06bf
00000310: 31df e9be f3a5 d7bd 4309 76be dcfb 8d3e
00000320: 8bb9 ccbd 0fed e7bd 5d6b c73a eea1 2b3d
00000330: af02 073f f401 043f 906f 173d 04e4 ad3b
00000340: 0300 a13d 65ec b13e 48fe 22be b963 17bd
00000350: 091d 29be 6f5d 883d 145c 0d3e 1e23 4bbe
00000360: beaa d7bd f080 6d3e 4108 8cbd 8006 663e
00000370: 2f10 00be 205d 753b 577c 803e d2aa 213f
00000380: 3f26 34bd ec83 4dbd 6737 a23e 3449 a53c
00000390: 8125 6bbe 68fc 313c 80b0 f03d 5a1c df3d
000003a0: 5c47 22bd 474e 17bf 52cb af3e 1278 603d
000003b0: 402a 833e 94fb fcbe 3e7c 5abe 7b94 0f3e
000003c0: ff5f 393f 58e5 6fbe ba2f 913f d151 72bf
000003d0: aaf4 2ebf cd0d 24bd c082 833d 583a b03c
000003e0: 2f32 043d 1163 933e ebf6 b63d 64d2 7d3e
000003f0: 8513 113f 8f09 9c3d c69f 05be 4f47 f2be

net.2.bias f4 [2]
0.11780781 -0.06121425
00000000: 3945 f13d cbbb 7abd
