models/cross_entropy/flappy-bird-cross-entropy-advanced-128x64-ulti.pt (torch_old, 55039 bytes, 8 tensors)

net.0.weight f4 [128, 6]
-0.2866218 -0.21289341 -0.08170341 0.2437715 -0.21570651 -0.43402445 0.2901761 0.12422402
0.56213343 0.20894183 -0.44839698 0.0053815036 0.31587422 -0.33449742 0.3595126 0.4319207
0.018083936 0.27535832 0.23519658 0.0014501102 0.46411416 -0.16336797 -0.47203508 0.17634396
0.15574525 -0.1294456 0.70042825 0.19588846 -0.37758324 -0.118991114 -0.048952222 -0.260395
0.17977816 -0.39708844 -0.33802098 -0.32515287 0.16304767 -0.10317082 0.4674891 0.1439111
-0.20611978 -0.2122373 0.09697962 0.0072729886 -0.30114803 0.12639004 -0.05557531 -0.26394224
0.19972663 -0.37404135 1.4394051 0.09384579 -0.2599348 0.30895922 -0.58428735 -0.31240654
-0.0014318877 0.37078005 -0.062637925 0.2587466 0.09012231 0.10994524 0.13414478 -0.3873811
0.04582143 0.08844161 -0.4249098 -0.04212022 -0.47925556 0.70410424 0.6114147 -0.2526543
0.3358915 -0.29816917 -0.09607369 -0.43400887 -0.021940498 0.2660862 0.14226763 -0.03978917
0.45486054 0.054486264 -0.14848584 -0.30904683 0.250416 -0.0027980118 0.41563764 0.61508703
-0.08777588 0.3276484 -0.38474292 0.4117156 0.97955847 -0.043624703 -0.48072076 0.01316997
-0.11780128 -0.29775912 0.23203659 -0.37625283 0.03498423 -0.118008256 -0.33402067 0.041513562
0.24187517 0.12313801 -0.29416373 0.13798445 -0.5576897 -0.23054394 0.2697186 0.53869706
-0.05322249 0.30235893 0.31573957 -0.599626 -0.19382584 0.18436436 0.4176812 -0.02455252
-0.15857725 0.011393428 -0.1367099 0.15737504 -0.23539883 -0.2513345 -0.42610076 0.042345125
0.29049197 0.5270758 0.26073024 0.12277789 0.28389558 -0.17278631 0.18720724 0.3848163
0.18594073 0.37896827 -0.33614805 0.25513515 -0.76054496 -0.25917304 0.46609113 0.3082241
0.52928907 1.7507714 -0.56062466 0.02759917 0.4182491 -0.4022711 -0.397695 0.18920559
0.16099024 -0.08117065 -0.38273683 0.0076577067 -0.13317707 -0.37256247 -0.19451539 0.122363575
-0.056423612 -0.23034723 -0.35873014 -0.18565814 0.22258824 -0.08723733 -0.016637921 -0.14916494
0.16797788 -0.35052443 0.2973708 0.3368941 -0.4102476 -0.15523887 -0.21787532 -0.38107607
-0.15295807 -0.29497802 0.42147747 0.2691165 -0.02902748 -0.19883011 -0.6810646 -0.4367804
0.02814214 0.29565817 0.07642249 0.22611852 0.6946317 0.5339955 -0.15294191 0.28954223
-0.2530575 0.7677654 0.50546044 0.2443304 0.54741704 0.2528754 -0.122630455 -0.45110196
-1.9223367 -0.28475213 0.48855355 -0.20089698 -0.27217877 0.5539822 0.029584922 0.52524966
0.28244418 -0.16842058 0.3528553 0.10686559 0.018384906 -0.09538971 -0.40123683 -0.062788196
-0.47389328 -0.03331651 -0.048810802 -0.77923024 -0.41794482 0.14655216 -0.038378894 -0.23823766
-0.37519345 -0.32133543 0.0058862315 -0.21280842 -0.36154827 -0.16230266 0.12876719 0.49262303
0.016199011 -0.2749453 0.08725187 -0.11260155 -0.3458737 0.011604458 0.03535506 -0.06927079
0.11798346 -0.3773325 0.20533234 -0.059505075 0.08295128 -0.36226594 -0.2626065 -0.36719054
0.19246775 -0.31492853 -0.25342897 -0.37495258 -0.020695299 0.083794296 0.018802494 -0.16239445
00000000: 18c0 92be bb00 5abe 1e54 a7bd 3c9f 793e
00000010: 2be2 5cbe 7438 debe f691 943e 2a69 fe3d
00000020: fae7 0f3f d9f4 553e 4a94 e5be 5357 b03b
00000030: 44ba a13e 3f43 abbe 0912 b83e b624 dd3e
00000040: c324 943c c4fb 8c3e 5fd7 703e a011 be3a
00000050: 5fa0 ed3e ef49 27be 95ae f1be 8393 343e
00000060: af7b 1f3e 638d 04be 444f 333f fc96 483e
00000070: 9752 c1be 9db1 f3bd 2082 48bd 7e52 85be
00000080: c417 383e 2d4f cbbe 1611 adbe 707a a6be
00000090: f8f5 263e 394b d3bd bb5a ef3e 6e5d 133e
000000a0: 1011 53be bc54 59be 409d c63d 4052 ee3b
000000b0: 1330 9abe 646c 013e f0a2 63bd 7023 87be
000000c0: 2385 4c3e 5982 bfbe 6d3e b83f 3932 c03d
000000d0: 2d16 85be e72f 9e3e db93 15bf c0f3 9fbe
000000e0: 2eae bbba e2d6 bd3e 5048 80bd 6f7a 843e
000000f0: 0c92 b83d f82a e13d 405d 093e d156 c6be
00000100: 40af 3b3d e020 b53d c78d d9be 4086 2cbd
00000110: fc60 f5be 2d40 343f ac85 1c3f e85b 81be
00000120: f8f9 ab3e a1a9 98be 48c2 c4bd 6936 debe
00000130: 8fbc b3bc 733c 883e 9bae 113e f8f9 22bd
00000140: 7be3 e83e fd2c 5f3d ac0c 18be 633b 9ebe
00000150: 8736 803e d95e 37bb 75ce d43e 5876 1d3f
00000160: d7c3 b3bd 88c1 a73e 06fd c4be 63cc d23e
00000170: 58c4 7a3f d1af 32bd 0821 f6be dcc6 573c
00000180: cc41 f1bd e273 98be 009b 6d3e 36a4 c0be
00000190: a04b 0f3d 50ae f1bd c204 abbe 200a 2a3d
000001a0: 20ae 773e c82f fc3d a19c 96be cc4b 0d3e
000001b0: c1c4 0ebf b613 6cbe 8e18 8a3e 0de8 093f
000001c0: d3ff 59bd cace 9a3e 9ea8 a13e 1781 19bf
000001d0: 487a 46be 03ca 3c3e 4fda d53e 5e22 c9bc
000001e0: 1362 22be 80ab 3a3c aefd 0bbe ec26 213e
000001f0: 640c 71be eaae 80be e129 dabe 1572 2d3d
00000200: 5dbb 943e 71ee 063f 6f7e 853e f972 fb3d
00000210: c35a 913e e5ee 30be 41b3 3f3e a406 c53e
00000220: 3f67 3e3e 2108 c23e 991b acbe 13a1 823e
00000230: 13b3 42bf 54b2 84be 7fa3 ee3e 8dcf 9d3e
00000240: 7d7f 073f 4719 e03f 1985 0fbf a817 e23c
00000250: bf24 d63e 7af6 cdbe ae9e cbbe 1cbf 413e
00000260: a0da 243e cc3c a6bd 15f6 c3be 80ed fa3b
00000270: 925f 08be 82c0 bebe 0b2f 47be c199 fa3d
00000280: 721c 67bd 25e0 6bbe 7aab b7be 2b1d 3ebe
00000290: 2cee 633e 7ca9 b2bd 404c 88bc b2be 18be
000002a0: 6502 2c3e f077 b3be fc40 983e 627d ac3e
000002b0: f90b d2be f0f6 1ebe b51a 5fbe 671c c3be
000002c0: 0aa1 1cbe 5c07 97be e5cb d73e a3c9 893e
000002d0: 0acb edbc 1f9a 4bbe 405a 2ebf aea1 dfbe
000002e0: 588a e63c 8260 973e 6583 9c3d 9d8b 673e
000002f0: 62d3 313f eeb3 083f ce9c 1cbe e13e 943e
00000300: c190 81be 468c 443f db65 013f c031 7a3e
00000310: 8623 0c3f e278 813e ad25 fbbd d6f6 e6be
00000320: 210f f6bf 08cb 91be b123 fa3e f0b7 4dbe
00000330: 045b 8bbe c7d1 0d3f 145c f23c c376 063f
00000340: 869c 903e 7276 2cbe 73a9 b43e 59dc da3d
00000350: f19b 963c ae5b c3bd ea6e cdbe 1997 80bd
00000360: 24a2 f2be e576 08bd d6ed 47bd a27b 47bf
00000370: ddfc d5be c511 163e 3033 1dbd 93f4 73be
00000380: 5b19 c0be 1486 a4be 4ae1 c03b 73ea 59be
00000390: db1c b9be ab32 26be 8cdb 033e 1639 fc3e
000003a0: cab3 843c a1c5 8cbe 1cb1 b23d a49b e6bd
000003b0: 5c16 b1be a020 3e3c 78d0 103d d8dd 8dbd
000003c0: 50a1 f13d ba31 c1be a442 523e 98bb 73bd
000003d0: 5ce2 a93d ec7a b9be 5c74 86be 6600 bcbe
000003e0: 4416 453e 503e a1be 71c1 81be c9f9 bfbe
000003f0: 3089 a9bc 589c ab3d b007 9a3c bb4a 26be

net.0.bias f4 [128]
0.14240725 0.045115482 -0.12523168 -0.1095662 0.19581966 -0.23617409 0.29582697 -0.16740087
-0.28439325 -0.2646121 -0.3525688 -0.08852235 -0.021218343 0.31633198 -0.06232019 0.12613398
-0.15458417 -0.4007838 0.30756432 -0.14240946 -0.2362396 0.09058163 -0.0699519 -0.21241984
0.08258501 -0.27749902 0.042951018 0.023062557 0.23192793 0.25672147 -0.051626947 -0.24540694
-0.32563213 0.28444466 0.25377402 0.122057445 -0.15946117 0.13999474 0.23251906 -0.3481122
-0.37218466 0.2033205 -0.17811403 0.28505814 0.31277612 -0.2959523 -0.18717863 -0.06678177
0.019081932 0.09122714 0.05365119 -0.23300317 0.25697115 0.038127188 -0.24776588 -0.06362008
-0.030960537 0.32227325 0.088282205 0.41220966 -0.08974067 -0.014673269 -0.32704115 -0.12244767
0.055379745 -0.33346018 0.0836696 -0.074825265 -0.09777435 -0.4000042 0.24747616 -0.042521425
0.37872475 -0.3735602 -0.2681178 -0.03572312 -0.4014454 0.16418558 -0.38531062 0.1449759
-0.22937483 0.15197518 -0.40215448 0.19737995 -0.4032514 0.38643768 0.37375167 -0.1950335
0.03522126 0.27352065 0.28281778 -0.27896488 -0.052872866 -0.23410146 -0.07258853 0.21207547
-0.34431648 0.34363782 -0.27864408 -0.19206676 -0.24781781 0.3317664 0.24627677 0.13005546
0.34818396 0.010953652 0.15291534 -0.07294184 -0.3723156 -0.21037255 -0.45453045 -0.16141604
-0.17627104 -0.28868318 0.24841529 -0.09994111 -0.20179825 -0.249725 -0.14569737 -0.08592417
-0.37475368 -0.37980795 0.38550752 0.2317397 0.0050635203 -0.09160377 -0.18860094 0.32470742
00000000: 35d3 113e 03cb 383d bc3c 00be 3e64 e0bd
00000010: f384 483e 9fd7 71be a276 973e 226b 2bbe
00000020: fe9b 91be 3d7b 87be e683 b4be 354b b5bd
00000030: 17d2 adbc 44f6 a13e 7543 7fbd 4429 013e
00000040: 504b 1ebe 8933 cdbe 1279 9d3e c9d3 11be
00000050: cbe8 71be dd82 b93d f142 8fbd 9684 59be
00000060: 5422 a93d 5a14 8ebe 68ed 2f3d b0ed bc3c
00000070: 847e 6d3e ff70 833e c776 53bd f54b 7bbe
00000080: 41b9 a6be bba2 913e abee 813e 41f9 f93d
00000090: ca49 23be c85a 0f3e 7a19 6e3e c33b b2be
000000a0: fd8e bebe 4033 503e 8663 36be 24f3 913e
000000b0: 3124 a03e 0f87 97be c1ab 3fbe e1c4 88bd
000000c0: b651 9c3c 4bd5 ba3d 5ac1 5b3d 6298 6ebe
000000d0: b991 833e 412b 1c3d 57b6 7dbe 3f4b 82bd
000000e0: f4a0 fdbc 0001 a53e 4dcd b43d 250d d33e
000000f0: f5c9 b7bd 2768 70bc f071 a7be d8c5 fabd
00000100: dfd5 623d 4bbb aabe f85a ab3d fd3d 99bd
00000110: eb3d c8bd 5acd ccbe 646a 7d3e f22a 2ebd
00000120: 36e8 c13e 4843 bfbe bc46 89be 6852 12bd
00000130: 408a cdbe 4420 283e 6f47 c5be 9074 143e
00000140: 3ce1 6abe 629f 1b3e 31e7 cdbe f81d 4a3e
00000150: f876 cebe 29db c53e 615c bf3e ddb6 47be
00000160: 2b44 103d e60a 8c3e 7ecd 903e 7cd4 8ebe
00000170: 3891 58bd 4bb8 6fbe 4ca9 94bd 502a 593e
00000180: 404a b0be 4cf1 af3e 70aa 8ebe 26ad 44be
00000190: f4c3 7dbe 49dd a93e fa2f 7c3e 422d 053e
000001a0: 2b45 b23e f276 333c d795 1c3e 8862 95bd
000001b0: 26a0 bebe e76b 57be 37b8 e8be 3f4a 25be
000001c0: 6580 34be 48ce 93be 9460 7e3e edad ccbd
000001d0: 33a4 4ebe e9b7 7fbe b131 15be 03f9 afbd
000001e0: b7df bfbe 3076 c2be 3e61 c53e 2c4d 6d3e
000001f0: e3eb a53b c29a bbbd 9b20 41be 0d40 a63e

net.2.weight f4 [64, 128]
-0.05253957 -0.1333881 -0.08510812 -0.14844587 -0.14819908 0.030939735 -0.20930351 -0.057540394
-0.116465874 -0.5191574 -0.014368616 -0.20563872 -0.010694879 -0.184848 -0.021112546 0.038181886
0.055336542 0.017991707 -0.007964269 -0.33171213 0.07986537 0.0017738581 -0.10875678 0.11911026
-0.7285382 -0.0008170977 -0.049111333 -0.0035628453 -0.121346205 0.08204588 0.0846134 -0.41843277
-0.055245195 0.039532483 -0.17768152 0.0001324568 0.26893413 0.0947231 -0.3812109 -0.06919998
0.049330823 0.065387286 -0.04971427 -0.036932334 0.015701689 -0.03591506 0.042934082 -0.057937134
0.06340372 -0.012953037 -0.15304168 -0.3503547 0.006883352 -0.10508042 -0.038261857 -0.122266956
-0.018504197 -0.043956112 0.1301077 -0.15066627 0.021779094 0.036701955 0.047238387 -0.08772581
0.11464427 -0.06364464 -0.016576074 0.08790431 0.029334199 0.012737026 -0.08750822 -0.30528402
-0.055120047 -0.010372758 -0.022097163 0.04018683 -0.010180018 -0.30400172 -0.06705162 0.043076914
0.005559571 0.0014155166 -0.026928086 0.078715734 0.011152804 0.08572776 0.091457576 -0.0011730716
-0.20519586 0.106071495 0.055150066 0.06895267 0.0920713 -0.07615537 0.070660524 -0.05649116
0.07863363 0.121084444 0.07587557 -0.5818339 0.032351922 0.07368518 -0.041172575 0.056999564
-0.22181709 0.032548197 -0.07027334 -0.02962055 -0.3036026 0.30685934 0.028292274 0.045640796
0.030465981 0.010721751 -0.009478499 0.030726342 -0.002636201 -0.024858467 0.009116571 -0.3652482
0.060985483 0.00879509 0.09594354 -0.02943562 -0.1334513 -0.23571305 0.049838506 0.026977723
-0.045946024 -0.05675169 -0.032793626 -0.016827645 -0.061148793 0.07168201 -0.049140796 0.0010666698
-0.09532001 -0.19709024 0.03512615 0.44960338 0.10647586 0.055749286 -0.002032509 0.02421948
-0.082169935 -0.0038762987 -0.10174309 0.08214011 0.01423613 -0.08200495 0.020896992 -0.06598584
0.13085924 -0.06304172 -0.033585235 -0.013628237 -0.044718187 0.008210572 0.09404202 -0.20950766
-0.11815655 0.061893526 -0.08156557 -0.086823836 0.06306692 -0.03997872 -0.22188559 -0.07178126
0.026986279 -0.04822475 0.0548205 0.1525026 0.032990783 -0.08604029 0.012804527 -0.01134876
0.104714945 0.053873334 -0.17966528 -0.19723186 0.040520262 -0.06328157 -0.0059342757 0.20729305
-0.013611482 -0.10635241 -0.012592952 -0.041527603 0.07583376 -0.057565317 -0.03177984 -0.07825338
-0.022560105 -0.012724236 0.076500826 -0.026326276 0.068566576 0.019583592 -0.077525735 -0.37804228
0.07118715 0.036131762 -0.0034298673 -0.04208017 -0.06988855 -0.050592195 0.03186287 0.09254251
-0.027390677 -0.014176351 -0.003552243 -0.070650026 0.075240456 0.06804071 0.032312095 0.010513812
-0.09116401 0.10595456 -0.043638725 0.07946531 0.01009183 0.0017617568 -0.06180249 0.07392297
0.06613044 0.009755324 -0.033838175 -0.38870478 0.027085757 -0.08218075 -0.031754334 0.052065555
-0.17632046 0.1057046 -0.005628618 0.049645804 -0.063368104 0.06923135 0.007870787 -0.009837925
-0.0075630997 -0.0066975877 -0.04320463 -0.05074932 0.07543574 0.05694465 -0.065350205 -0.120439395
0.012990594 0.07280814 0.054260787 0.04416388 -0.07248459 0.17684685 0.0334215 0.11380628
00000000: bb33 57bd e496 08be 2b4d aebd 3202 18be
00000010: 80c1 17be 5475 fd3c a953 56be 7aaf 6bbd
00000020: a985 eebd 80e7 04bf 586a 6bbc f592 52be
00000030: 9339 2fbc cb48 3dbe 38f4 acbc 9c64 1c3d
00000040: 92a8 623d 5863 933c 917c 02bc 2cd6 a9be
00000050: 7590 a33d cd80 e83a e0bb debd 14f0 f33d
00000060: 7b81 3abf 8032 56ba f728 49bd a07e 69bb
00000070: 5c84 f8bd ac07 a83d ca49 ad3d d23c d6be
00000080: c948 62bd d0ec 213d 25f2 35be 1ae4 0a39
00000090: bcb1 893e 2ffe c13d 132e c3be b8b8 8dbd
000000a0: 1e0f 4a3d c5e9 853d 31a1 4bbd 5c46 17bd
000000b0: d4a0 803c ac1b 13bd a6db 2f3d 7d4f 6dbd
000000c0: cfd9 813d fa38 54bc f5b6 1cbe b161 b3be
000000d0: be8d e13b 6734 d7bd 77b8 1cbd 1967 fabd
000000e0: 1d96 97bc 530b 34bd f43a 053e 4248 1abe
000000f0: 126a b23c ca54 163d 0a7d 413d 97a9 b3bd
00000100: 9dca ea3d 1f58 82bd 8cca 87bc 2d07 b43d
00000110: 464e f03c f6ae 503c 8237 b3bd 304e 9cbe
00000120: 8fc5 61bd 80f2 29bc 1c05 b5bc f29a 243d
00000130: 17ca 26bc 1da6 9bbe 5c52 89bd 6b71 303d
00000140: 102d b63b db88 b93a 4a98 dcbc b735 a13d
00000150: 40ba 363c 0992 af3d 1c4e bb3d c0c1 99ba
00000160: dd1e 52be 033c d93d 09e5 613d 0f37 8d3d
00000170: e18f bc3d 59f7 9bbd 77b6 903d 4663 67bd
00000180: ab0a a13d 1ffb f73d a764 9b3d 11f3 14bf
00000190: 7383 043d 41e8 963d 93a4 28bd 6078 693d
000001a0: 0524 63be 4251 053d 78eb 8fbd cca6 f2bc
000001b0: cd71 9bbe ab1c 9d3e 33c5 e73c d8f1 3a3d
000001c0: cb93 f93c 48aa 2f3c b54b 1bbc cfb5 fb3c
000001d0: 1dc4 2cbb fca3 cbbc ac5d 153c d001 bbbe
000001e0: eacb 793d 4819 103c 0c7e c43d f822 f1bc
000001f0: 75a7 08be c35e 71be 7623 4c3d 6300 dd3c
00000200: e631 3cbd 7674 68bd 9c52 06bd 21da 89bc
00000210: 2877 7abd 05ce 923d dc47 49bd 80cf 8b3a
00000220: 2337 c3bd 06d2 49be 70e0 0f3d 6a32 e63e
00000230: 0410 da3d 5d59 643d d833 05bb ee67 c63c
00000240: b648 a8bd 8009 7ebb ae5e d0bd 1339 a83d
00000250: a83e 693c 36f2 a7bd 2b30 ab3c 9623 87bd
00000260: f7ff 053e 041c 81bd ac90 09bd f848 5fbc
00000270: 6b2a 37bd a385 063c 1a99 c03d 2d89 56be
00000280: 10fc f1bd 1184 7d3d d90b a7bd b2d0 b1bd
00000290: 3b29 813d bac0 23bd fa35 63be 0e02 93bd
000002a0: 5412 dd3c 5187 45bd 768b 603d a429 1c3e
000002b0: 5821 073d e435 b0bd 14ca 513c 26f0 39bc
000002c0: ca74 d63d 49aa 5c3d 2dfa 37be 26f7 49be
000002d0: 93f8 253d c599 81bd 5074 c2bb a144 543e
000002e0: b202 5fbc 4bcf d9bd ab52 4ebc d918 2abd
000002f0: bb4e 9b3d 9cc9 6bbd 942b 02bd 4f43 a0bd
00000300: f8cf b8bc 5079 50bc 77ac 9c3d 34aa d7bc
00000310: a26c 8c3d c56d a03c d0c5 9ebd c28e c1be
00000320: 92ca 913d e6fe 133d a0c7 60bb 425c 2cbd
00000330: ba21 8fbd c339 4fbd a482 023d ed86 bd3d
00000340: 6a62 e0bc ed43 68bc c0cc 68bb f6b0 90bd
00000350: ab17 9a3d ee58 8b3d b059 043d 2042 2c3c
00000360: 32b4 babd b4fe d83d 85be 32bd b5be a23d
00000370: 3458 253c c0ea e63a 9c24 7dbd ed64 973d
00000380: 656f 873d cbd4 1f3c e699 0abd 5004 c7be
00000390: f3e2 dd3c 624e a8bd d510 02bd b142 553d
000003a0: 5a8d 34be a77b d83d 4570 b8bb 6659 4b3d
000003b0: 23c7 81bd 2bc9 8d3d 79f4 003c 402f 21bc
000003c0: e1d3 f7bb 7077 dbbb 57f7 30bd 85de 4fbd
000003d0: 0e7e 9a3d cb3e 693d 54d6 85bd eea8 f6bd
000003e0: 80d6 543c 6f1c 953d 8f40 5e3d 2fe5 343d
000003f0: cd72 94bd 5717 353e fce4 083d 4413 e93d

net.2.bias f4 [64]
-0.00052668445 0.07692616 0.03893721 0.08557849 -0.0028577761 -0.001973709 -0.08180159 0.0047997534
0.028039264 -0.0015039642 -0.06933334 1.8439934e-05 0.015939882 0.101160645 -0.07210581 -0.04563791
0.024849884 -0.00028190762 0.058430105 -0.045827575 -0.04808269 -0.011963465 0.050055485 0.0025784946
0.08725224 0.057383973 -0.0006503704 -0.075076774 0.07275171 -0.018200157 -0.02354385 -0.07123116
0.035952188 -0.022952072 -0.05768543 0.03845344 -0.023984421 0.045390744 -0.046960283 -0.0068365918
-0.06692269 0.0023235031 -0.053541362 -0.0114970915 0.008565278 -0.0045807287 0.0060496675 -0.0940158
0.03731134 0.050231855 -0.066070914 0.060670365 -0.020017225 0.017666064 -0.06743252 -0.099042825
0.04694323 -0.08444031 0.051097132 -0.069457255 -0.003919333 0.030053038 0.014616364 -0.07636422
00000000: 3211 0aba 768b 9d3d a07c 1f3d c643 af3d
00000010: 8749 3bbb 5859 01bb 9887 a7bd 4047 9d3b
00000020: 99b2 e53c aa20 c5ba a3fe 8dbd 75af 9a37
00000030: 5b94 823c 502d cf3d 36ac 93bd d1ee 3abd
00000040: fc91 cb3c 00cd 93b9 6854 6f3d b2b5 3bbd
00000050: 5bf2 44bd 6902 44bc fb06 4d3d f6fb 283b
00000060: 4db1 b23d 750b 6b3d 9e7d 2aba dac1 99bd
00000070: d9fe 943d 7f18 95bc 08df c0bc a4e1 91bd
00000080: 9a42 133d fc05 bcbc 8f47 6cbd 5b81 1d3d
00000090: fa7a c4bc a5eb 393d 6d59 40bd 7d05 e0bb
000000a0: c30e 89bd ea45 183b 304e 5bbd 4c5e 3cbc
000000b0: 6155 0c3c f019 96bb 4a3c c63b 5b8b c0bd
000000c0: c7d3 183d ebbf 4d3d 3050 87bd 7d81 783d
000000d0: 2afb a3bc 6cb8 903c 101a 8abd f7d6 cabd
000000e0: 8b47 403d 0bef acbd 3a4b 513d 9b3f 8ebd
000000f0: c06d 80bb ca31 f63c 7979 6f3c d864 9cbd

net.4.weight f4 [64, 64]
-0.0703366 -0.12794796 -0.034120195 0.047802094 -0.082875796 -0.044467643 0.10393149 -0.037545934
-0.13837254 0.084989905 0.10057123 -0.036687836 -0.004457849 -0.0154530965 0.01461108 0.01370725
-0.029022038 -0.0043397397 -0.024359878 0.10952301 0.094953686 0.005278747 0.011674902 -0.06963479
-0.13104618 -0.05268173 -0.039710138 0.029163346 -0.0035519898 0.07028351 -0.07161982 -0.092755966
0.11914796 -0.13903947 -0.10242236 0.02350727 -0.026266087 0.08557019 0.0011075139 -0.06289105
0.047617838 0.016277714 -0.049998567 -0.019798428 -0.06979664 -0.06879522 0.09465887 -0.14279297
0.039239053 0.0088286465 -0.051551163 -0.09264741 0.025232226 0.100573674 -0.060560048 -0.12385513
0.117297396 0.05670409 -0.052458502 7.523596e-05 -0.14189824 0.01499469 0.04417321 -0.07303558
0.2668359 -0.015468687 -0.13336493 -0.04935403 -0.0894577 -0.058504846 -0.06433521 0.1192027
0.21589474 -0.055411316 -0.094633475 -0.032603346 -0.029843688 -0.032682307 -0.041352928 -0.10896406
0.08613959 0.11083542 -0.14141631 -0.10963102 0.1148422 0.006721833 0.0730039 -0.033516146
0.12883364 0.08914119 0.070107415 0.09035286 0.034278557 -0.009719441 -0.011328913 0.15830863
0.069042295 -0.021195311 -0.016674966 0.12255812 0.11749679 -0.04743928 0.10196218 0.073668115
-0.12239557 -0.04542721 0.03661594 -0.036726 -0.017142706 0.059047833 -0.061058838 0.0052153487
0.0096642105 -0.027660144 0.0050376584 0.14708492 -0.12825719 -0.05761242 -0.011295706 -0.115889765
0.05905869 0.09333089 0.06701783 0.022095658 0.083925776 0.047917996 0.29407012 -0.112275824
0.051424313 -0.086762294 0.107279815 -0.124438204 -0.09069126 0.103868246 -0.112221435 -0.091961175
0.0020125704 0.057781853 0.11763096 -0.038078204 0.080028705 -0.14967184 -0.093100905 0.050819352
0.061558366 0.033459574 -0.0015190035 -0.09368619 -0.09406762 -0.10781098 -0.07708649 -0.03173835
-0.13826612 -0.11578505 0.09087922 0.017956972 0.06622556 -0.012838677 -0.050840814 0.03397229
-0.03284942 -0.030825816 0.04213144 -0.09147409 -0.005745557 -0.019293018 -0.04358083 -0.037088096
-0.10957281 -0.1494565 -0.0025985986 -0.06884104 0.10692802 0.10610835 0.12291263 0.078931585
-0.12101592 -0.019002285 -0.073163405 -0.081312515 -0.08512697 -0.10030641 0.0052059144 -0.11827703
-0.05275458 -0.011159122 -0.06378108 0.08420509 0.030957015 -0.030222377 0.04938478 -0.099785596
0.3281304 -0.06790632 -0.08767489 0.025907198 0.13071814 -0.049566746 0.035758052 -0.020937935
0.11348952 -0.124627635 -0.025658756 0.048579894 0.18601795 0.032083523 0.11909765 0.10424716
0.0765941 0.112512425 0.03935059 -0.06625256 0.10519164 -0.030316202 0.17484923 -0.04326668
0.12195382 0.16014017 0.02677584 0.07505184 -0.11513986 -0.091546 0.04774332 -0.062177025
-0.074741594 0.03045311 -0.097822115 0.13306798 0.15243506 0.06852219 -0.10670942 0.18956256
-0.08405928 0.09616784 0.10598205 0.06610029 0.037977926 0.018125191 -0.11248991 -0.05752998
-0.09550957 -0.046312522 -0.06747717 0.08994723 -0.06402642 0.10045044 -0.031339377 -0.096034266
0.1153979 -0.007419482 0.0552074 -0.15059064 0.08285612 0.09168828 0.35767257 0.0012350231
00000000: a30c 90bd ca04 03be 9ec1 0bbd 21cc 433d
00000010: c9ba a9bd b423 36bd 08da d43d c4c9 19bd
00000020: 88b1 0dbe 300f ae3d 4af8 cd3d fc45 16bd
00000030: 2613 92bb fc2e 7dbc 5063 6f3c 6094 603c
00000040: a0bf edbc 6034 8ebb 5e8e c7bc 9a4d e03d
00000050: 1477 c23d 57f9 ac3b 1748 3f3c af9c 8ebd
00000060: f830 06be ccc8 57bd 19a7 22bd f8e7 ee3c
00000070: 80c8 68bb cdf0 8f3d 6aad 92bd d7f6 bdbd
00000080: d803 f43d 5d60 0ebe d0c2 d1bd 5192 c03c
00000090: fa2b d7bc 6c3f af3d 002a 913a 06cd 80bd
000000a0: ec0a 433d d758 853c 4ccb 4cbd 5030 a2bc
000000b0: 8af1 8ebd 82e4 8cbd 82dc c13d 5238 12be
000000c0: 21b9 203d 07a6 103c 5027 53bd edbd bdbd
000000d0: d0b3 ce3c 92f9 cd3d d00d 78bd c2a7 fdbd
000000e0: 9e39 f03d 8c42 683d bade 56bd 00c8 9d38
000000f0: c64d 11be 4aac 753c f8ee 343d ae93 95bd
00000100: b79e 883e 6070 7dbc d190 08be 7427 4abd
00000110: 9935 b7bd c7a2 6fbd 2ec2 83bd 8c20 f43d
00000120: 8313 5d3e faf6 62bd 32cf c1bd 168b 05bd
00000130: c07a f4bc e2dd 05bd b061 29bd 8d28 dfbd
00000140: f469 b03d aefd e23d 70cf 10be 3a86 e0bd
00000150: 6332 eb3d d242 dc3b 1283 953d 3a48 09bd
00000160: f7ec 033e a88f b63d 7a94 8f3d ec0a b93d
00000170: ac67 0c3d 4a3e 1fbc e89c 39bc a81b 223e
00000180: 0c66 8d3d caa1 adbc f099 88bc c0ff fa3d
00000190: 28a2 f03d b14f 42bd 8cd1 d03d 4fdf 963d
000001a0: 87aa fabd e211 3abd 99fa 153d 016e 16bd
000001b0: dc6e 8cbc 24dc 713d d518 7abd 84e5 aa3b
000001c0: a356 1e3c 8797 e2bc f112 a53b 6e9d 163e
000001d0: da55 03be 00fb 6bbd a011 39bc 9d57 edbd
000001e0: 86e7 713d 4424 bf3d a540 893d f401 b53c
000001f0: 47e1 ab3d a945 443d 5c90 963e def0 e5bd
00000200: 4da2 523d 6eb0 b1bd 85b5 db3d 75d9 febd
00000210: 57bc b9bd e0b8 d43d 5ad4 e5bd 2456 bcbd
00000220: 54e5 033b aaac 6c3d 80e8 f03d e4f7 1bbd
00000230: 17e6 a33d 9343 19be b0ab bebd f427 503d
00000240: a024 7c3d e80c 093d 4d19 c7ba 8cde bfbd
00000250: 86a6 c0bd 01cc dcbd 86df 9dbd 1200 02bd
00000260: a295 0dbe b620 edbd e21e ba3d 801a 933c
00000270: 44a1 873d 5059 52bc 753e 50bd 8726 0b3d
00000280: 1d8d 06bd 6c86 fcbc 0492 2c3d c556 bbbd
00000290: 3a45 bcbb 640c 9ebc d081 32bd b0e9 17bd
000002a0: b667 e0bd 200b 19be 404d 2abb 88fc 8cbd
000002b0: 14fd da3d 564f d93d 9eb9 fb3d e2a6 a13d
000002c0: 32d7 f7bd aeaa 9bbc b2d6 95bd 2d87 a6bd
000002d0: 0d57 aebd 726d cdbd 6096 aa3b 3a3b f2bd
000002e0: 3015 58bd c0d4 36bc a89f 82bd b873 ac3d
000002f0: 9199 fd3c eb94 f7bc b247 4a3d 645c ccbd
00000300: b500 a83e 7812 8bbd e58e b3bd 553b d43c
00000310: fada 053e 8006 4bbd 0977 123d 0886 abbc
00000320: 326d e83d c63c ffbd 5032 d2bc b6fb 463d
00000330: 7d7b 3e3e 036a 033d 78e9 f33d 897f d53d
00000340: 5edd 9c3d ea6c e63d 162e 213d 6caf 87bd
00000350: b76e d73d af59 f8bc ad0b 333e 6738 31bd
00000360: edc2 f93d c9fb 233e 0259 db3c c7b4 993d
00000370: 72ce ebbd 787c bbbd 808e 433d 56ad 7ebd
00000380: 1f12 99bd cd78 f93c f656 c8bd f942 083e
00000390: f017 1c3e 5d55 8c3d 788a dabd b01c 423e
000003a0: 4627 acbd a5f3 c43d 1e0d d93d 975f 873d
000003b0: be8e 1b3d 487b 943c 1c61 e6bd 8ea4 6bbd
000003c0: 859a c3bd 33b2 3dbd 7831 8abd 4136 b83d
000003d0: 4920 83bd f6b8 cd3d b85d 00bd 9dad c4bd
000003e0: bc55 ec3d 201f f3bb 2821 623d 6f34 1abe
000003f0: 78b0 a93d 11c7 bb3d dc20 b73e 80e0 a13a

net.4.bias f4 [64]
0.031585056 0.13805068 0.076123245 0.04771143 -0.07511224 0.103979684 -0.13913101 0.09797979
0.10951198 0.11080617 -0.0029536102 0.14075692 -0.039586604 -0.038989898 -0.019890588 -0.048660073
-0.13955337 -0.0532371 -0.0712275 -0.124636896 0.03879666 -0.12033642 -0.07201859 0.05630381
-0.07342823 0.1364481 0.079752974 0.14303544 0.07976264 0.050871916 0.13434963 -0.028786004
0.14215316 0.01873435 -0.0505048 0.113731965 0.09266438 0.14948273 0.089163534 -0.11433561
0.038433015 -0.08830482 -0.0077852355 0.06841097 0.14165054 0.049758263 0.028995318 0.024772875
0.032600623 -0.046278585 -0.11596404 0.06522273 -0.029449785 -0.027168319 -0.022270381 -0.10809419
0.0069220737 0.11577415 0.06419484 -0.020281624 0.0516234 -0.14349985 -0.14971755 0.120069146
00000000: 555f 013d 285d 0d3e 81e6 9b3d 0f6d 433d
00000010: 72d4 99bd 4df3 d43d 5c78 0ebe a1a9 c83d
00000020: d147 e03d 58ee e23d 5b91 41bb 9522 103e
00000030: 9025 22bd dfb3 1fbd 96f1 a2bc c94f 47bd
00000040: 14e7 0ebe 250f 5abd b9df 91bd a141 ffbd
00000050: 3fe9 1e3d f172 f6bd 7c7e 93bd d39e 663d
00000060: 8a61 96bd 0db9 0b3e 8755 a33d e277 123e
00000070: 985a a33d 125f 503d f392 093e a0d0 ebbc
00000080: 9990 113e c878 993c 1fde 4ebd 4eec e83d
00000090: d3c6 bd3d 0012 193e 5f9b b63d ca28 eabd
000000a0: f06b 1d3d 28d9 b4bd 4a1b ffbb 0d1b 8c3d
000000b0: d70c 113e 52cf 4b3d 9787 ed3c 7cf0 ca3c
000000c0: 3b88 053d 9d8e 3dbd 8e7e edbd 7f93 853d
000000d0: ad40 f1bc 1890 debc 6070 b6bc 7d60 ddbd
000000e0: 90d2 e23b ff1a ed3d 9678 833d a625 a6bc
000000f0: 0f73 533d a0f1 12be 8f4f 19be d0e6 f53d

net.6.weight f4 [2, 64]
-0.007491281 0.09358349 -0.03114837 0.14700179 0.060377702 -0.004025119 -0.09875411 0.038302936
0.06943772 0.12139745 0.0055935076 0.083008796 0.06464382 -0.06131391 -0.11138723 0.031514093
-0.062211934 0.03132262 0.07953512 0.107320346 0.12824136 -0.9397222 0.031800494 -0.07630255
0.07942675 0.07323906 0.29581448 0.13325572 -0.088275075 0.24209629 0.15505409 -0.1252637
0.11851868 -0.06503657 0.03356857 0.051587857 0.07420002 0.13426642 0.018719982 0.017782465
-0.18883064 0.47274584 0.04825011 -0.11683868 0.10938955 -0.06863077 0.12392019 -0.10478543
0.028526986 0.12029713 -0.117511064 -0.10961303 -0.05049464 0.045003574 -0.076072305 -0.005498153
-0.0031170698 0.15489982 0.09480835 0.0149251195 0.13675061 -0.03409048 -0.012990444 0.12965178
0.02193613 -0.10072159 -0.02863876 0.044934418 0.07178369 -0.11933082 -0.0024845542 -0.086305104
-0.13981514 -0.17064977 0.049438454 -0.112211965 0.12019069 -0.036915593 0.010362018 -0.01547632
-0.03677943 -0.05429111 0.013424763 -0.061106637 -0.034889296 0.9673974 -0.009397721 -0.022675818
-0.09131278 -0.13136262 -0.2227767 -0.008628262 0.0819799 -0.2410729 -0.348323 0.052180443
-0.041196723 -0.069997035 0.07315041 -0.058338374 -0.047078084 0.023830725 -0.1125057 0.07109356
0.081033215 -0.6501793 0.010517716 0.114131816 -0.041910484 0.06325888 0.0107215 0.19988436
-0.09014388 0.0366512 -0.06879975 0.12511063 -0.016425364 0.11483134 -0.07348102 0.020782506
0.05335461 0.03275369 0.010723532 0.1270179 -0.025167633 -0.09103296 -0.0560515 -0.11996336
00000000: 6b79 f5bb b3a8 bf3d de2a ffbc a387 163e
00000010: 9c4e 773d 25e5 83bb 983f cabd 8ae3 1c3d
00000020: 5d35 8e3d 3a9f f83d be49 b73b 8400 aa3d
00000030: fb63 843d 4b24 7bbd fd1e e4bd ec14 013d
00000040: f1d1 7ebd 264c 003d 4fe3 a23d c5ca db3d
00000050: b451 033e a291 70bf 3c41 023d 8344 9cbd
00000060: 7eaa a23d 5cfe 953d ff74 973e 3074 083e
00000070: 90c9 b4bd 17e8 773e 80c6 1e3e 2145 00be
00000080: ecb9 f23d e531 85bd 327f 093d ca4d 533d
00000090: 2ef6 973d 237d 093e a65a 993c 88ac 913c
000000a0: d25c 41be be0b f23e e8a1 453d 1e49 efbd
000000b0: a107 e03d 4a8e 8cbd dec9 fd3d be99 d6bd
000000c0: 6db1 e93c 575e f63d a4a9 f0bd cc7c e0bd
000000d0: 78d3 4ebd ab55 383d cccb 9bbd da29 b4bb
000000e0: c147 4cbb 0f9e 1e3e e12a c23d 7d88 743c
000000f0: 5a08 0c3e 76a2 0bbd dfd5 54bc 70c3 043e
00000100: 66b3 b33c 1f47 cebd d59b eabc 270d 383d
00000110: 5403 933d b863 f4bd e7d3 22bb bbc0 b0bd
00000120: b32b 0fbe d0be 2ebe fa7f 4a3d 63cf e5bd
00000130: 8926 f63d ce34 17bd 74c5 293c 6490 7dbc
00000140: 07a6 16bd 5b60 5ebd 8af3 5b3c f44a 7abd
00000150: 14e8 0ebd 5ba7 773f e6f8 19bc a3c2 b9bc
00000160: 3202 bbbd ec83 06be 931f 64be 8e5d 0dbc
00000170: 14e5 a73d d0db 76be 6457 b2be 29bb 553d
00000180: e5bd 28bd 9b5a 8fbd e2cf 953d 38f4 6ebd
00000190: f3d4 40bd a738 c33c 6369 e6bd 8099 913d
000001a0: bef4 a53d 2772 26bf 8052 2c3c f1bd e93d
000001b0: 54aa 2bbd df8d 813d 3ba9 2f3c 7cae 4c3e
000001c0: 5b9d b8bd 921f 163d e2e6 8cbd 001d 003e
000001d0: 7c8e 86bc b22c eb3d 387d 96bd 1340 aa3c
000001e0: 5d8a 5a3d bc28 063d c1b1 2f3c fb10 023e
000001f0: 5a2c cebc 7d6f babd 4296 65bd 5aaf f5bd

net.6.bias f4 [2]
0.054212026 -0.04961872
00000000: 6e0d 5e3d 003d 4bbd
