flappyb/models/cross_entropy/batchsize=100-hiddensize=256-lr=0.01-gamma=.99-PART=120.pt (torch_old, 272411 bytes, 6 tensors)

net.0.weight f4 [256, 5]
00000000: 4336 39be b615 8ebe cd82 dfbe db38 06be
00000010: d307 9cbc 19bd 853e 8b72 4e3e 6ca2 9dbd
00000020: 9b25 523d 9bf9 e0bd d391 9bbe 5693 983e
00000030: 04f4 cbbd 3c29 1bbe 39bb 82be 80dd 0dbd
00000040: 1100 e0be 2076 bbbd 4d5a e0be d201 d33e
00000050: 48e6 9abe eac9 2f3e 5b2d 9c3d 8293 41be
00000060: 40f8 c4be 197f a2bd cfa5 1a3e debb f8bc
00000070: 54eb 833e 1446 2dbe 18b5 82be 38ff 403d
00000080: 6686 bf3e ea72 8c3e 767e dcbe 7db0 633e
00000090: d2b4 593d bb9b 69be d630 12bd 31b7 5dbe
000000a0: 3932 cf3d 5a0a 8bbd 748d 34bd c25f debe
000000b0: 88cc 8e3d 63b3 1fbe d4dc 28bb d696 97bd
000000c0: 6e1e dfbe f241 c63e ec0a 873e d682 97be
000000d0: 5022 c5be 2409 28be 4e66 dfbe 3c6a 613e
000000e0: c311 ac3e e761 bb3e 35cd 60be ee15 65be
000000f0: 8481 963e c94d ddbe 445e b53d ef16 643e
00000100: 6cbf 813e 8300 733e 5c53 483e b6d9 b23e
00000110: 96c0 c33e c828 d1be 7edf a63c 7e30 96be
00000120: 22e1 a23d 836d 9e3e b62f ccbe d066 163d
00000130: b70b 9ebe f731 b2be 3076 b1be 1261 503e
00000140: 7338 c9bd da24 8bbe c636 85bd 7fd5 71be
00000150: 7808 7abe 8099 073d 3eef 87be fe1e 52be
00000160: f436 3a3e 6cf0 183e 9037 9ebc ea23 d73e
00000170: b8e8 5abd d0ac a13d 5081 65be aabe 473d
00000180: d46e b93e 113b cfbe d609 d43d f056 5f3d
00000190: 3b1f a5be aa59 d63e 20b8 dcbe 602e cd3d
000001a0: 1cbc 9ebe 8380 123e 497e 753d b346 96be
000001b0: e1df 1abe 19b5 80be 400a 0dbc 3c70 7a3e
000001c0: f14d 8a3e f800 ac3d 6ec7 42be 4042 5b3d
000001d0: 9607 85be b48a efbd bff9 c9be 2caa 923e
000001e0: 1a2c 4cbe 0044 f43b 00d5 c43d 5c4f 4b3e
000001f0: 78ba 2e3d 009c 6d3e 4402 b43e 1d93 b83e
00000200: 0dee b2bd c8a0 a23e 113e ab3e 7218 863e
00000210: aba8 a53e a66b 23bd a81d eabd b45b 84be
00000220: 594b b03e fa4e 8abd 72c1 153d 45c1 44be
00000230: 19ab 993e 1a45 56be 18a3 93bd 836e 48bd
00000240: 925a 383e 6936 69be 4e8e ae3e 9f96 d33e
00000250: e5bd 14be dc33 b03e 9786 713e f4a2 98be
00000260: 95a4 b1be 3ddf 5cbe 37f4 c0bd b920 de3d
00000270: 8358 a73e 6921 9f3e 7028 f43e e197 85be
00000280: 8f33 02bf ba55 b13e 6a0b fabe fade 163e
00000290: 598b fbbe f6a5 9a3e 4de2 ba3e 3431 bfbd
000002a0: 195c 353e 03a3 d1be b4d6 e9bd 15a7 253d
000002b0: 5e52 213e cc51 57be 920c 5fbe 86dc d23d
000002c0: 0e3a f93d f517 b7be 807c 8bbe a57c 14be
000002d0: 217b 723e 1be8 4e3d 8cbf 57be 5376 733e
000002e0: 48e6 9b3e 3013 d2be 0d1d 3ebf ab01 a6bd
000002f0: e433 efbe 192d 7cbe d0d1 193d 3aff d93e
00000300: 81af c3be 60b9 dabc 1441 bbbe c86a 14bd
00000310: d642 513d 30fd 8e3e 3ad6 f5be 31d7 c1be
00000320: 7d93 593e 7bb9 92be eb4e e6bd c176 b13e
00000330: 909e e3be 55e2 c7be d44d 1bbe 34ab 38be
00000340: d44c a83e 8203 cc3d 5723 d93d e0ce 86be
00000350: 9549 3d3d 5f73 c93d 36c8 a3be 29d6 91bd
00000360: 816e 12be 6145 f0be 73ed edbe eae7 183e
00000370: 4f82 213e 1e57 b9be cc1d 36be ec06 333e
00000380: fce2 cdbe 9c5e a33e c6a7 213e 3bd4 9abe
00000390: 62d8 7e3e 1249 70bd 54fd e5be 28d8 dcbd
000003a0: a149 a5bd 9dc6 74bd 99ff 9a3e aa4c 74be
000003b0: 8055 8abd 5272 8d3e 3063 95bc 9442 1dbe
000003c0: 3fe7 ad3e e163 6fbe 039b 893e a602 b03e
000003d0: f697 ccbe 00ce d4be 86b6 e73d 419e c2be
000003e0: 96e5 c43e 197a 57bd 713d c3be 5b8b 873d
000003f0: cf8b 82be e432 8ebe 9dfa 19be 74f4 ab3e
-0.18087105 -0.2775094 -0.4365448 -0.13107626 -0.0190467 0.26120833 0.20160882 -0.07696995
0.051305395 -0.109851085 -0.30384693 0.29799908 -0.09958652 -0.15152448 -0.25533465 -0.034635067
-0.4375005 -0.0915339 -0.43818894 0.41212326 -0.30253816 0.17166868 0.07625838 -0.18903926
-0.3847065 -0.07934398 0.15102313 -0.03036302 0.2576548 -0.16921264 -0.2552879 0.047118396
0.37407225 0.27431422 -0.43065232 0.22235294 0.05315096 -0.22813313 -0.035691105 -0.21651913
0.10117001 -0.06789084 -0.044080213 -0.43432432 0.06972605 -0.15595774 -0.002576639 -0.074018165
-0.43577904 0.38722187 0.2637552 -0.29592007 -0.3850274 -0.16409737 -0.4363274 0.22013181
0.336073 0.3659813 -0.2195328 -0.22371647 0.29395688 -0.43223408 0.0885587 0.22274373
0.25341356 0.23730664 0.19563049 0.34931725 0.3823287 -0.40851426 0.020370241 -0.29333872
0.07953097 0.30942926 -0.3988015 0.036719143 -0.30868313 -0.34803745 -0.34660482 0.2034953
-0.0982522 -0.27176553 -0.06504588 -0.23616599 -0.24417293 0.033105373 -0.26549715 -0.20519635
0.18185025 0.14935464 -0.019313604 0.42019588 -0.053444594 0.078942895 -0.2241261 0.048765816
0.36217368 -0.40474752 0.103534386 0.05452627 -0.3225039 0.41865283 -0.43109226 0.10018611
-0.3100289 0.14306836 0.059934888 -0.29350814 -0.15124466 -0.25138167 -0.008608401 0.24456877
0.2701259 0.08398622 -0.19021389 0.053529978 -0.2598235 -0.116963774 -0.39448354 0.28645456
-0.19938698 0.0074543953 0.09610939 0.19854492 0.0426583 0.2320404 0.3515798 0.3604974
-0.08736811 0.3176329 0.3344579 0.26190525 0.32355246 -0.039897583 -0.11431438 -0.25851214
0.34432486 -0.06753345 0.036561437 -0.19214351 0.3001335 -0.20924798 -0.07208842 -0.048933517
0.180033 -0.22774662 0.34092945 0.41325852 -0.14525564 0.34414566 0.23586498 -0.29811823
-0.3469588 -0.21569534 -0.0942158 0.10846085 0.32684717 0.31080177 0.476871 -0.26092437
-0.5085992 0.34635717 -0.48836833 0.14733496 -0.4912975 0.30204743 0.3650078 -0.093355566
0.17710914 -0.4094468 -0.114179045 0.040442545 0.15754077 -0.21027297 -0.21782139 0.10295968
0.12169276 -0.35760465 -0.27243423 -0.14500673 0.23679782 0.05051432 -0.21069163 0.23775606
0.30449128 -0.41030264 -0.7426308 -0.08105787 -0.46719277 -0.24626578 0.03755361 0.42577535
-0.38219836 -0.026699722 -0.36573088 -0.036234647 0.05108913 0.27927542 -0.48015004 -0.3785949
0.21247669 -0.28657135 -0.11245521 0.34660915 -0.4445691 -0.39039865 -0.15166408 -0.18034059
0.32871115 0.099616066 0.10602444 -0.26329708 0.04621275 0.098364584 -0.31988686 -0.07120926
-0.14299966 -0.46927932 -0.46470222 0.14932218 0.15772365 -0.36199278 -0.17784804 0.17483109
-0.40212238 0.3190812 0.15786657 -0.30240044 0.24887231 -0.058663435 -0.44919837 -0.10783416
-0.08070684 -0.059759725 0.3027313 -0.2385737 -0.06754589 0.27626282 -0.018235773 -0.15357429
0.3396549 -0.23377945 0.26876077 0.3437702 -0.39959687 -0.41563416 0.113141105 -0.38011363
0.3845641 -0.052606676 -0.38132814 0.06618377 -0.2549729 -0.277732 -0.15037008 0.3358494

net.0.bias f4 [256]
00000000: c4b6 8c3e 8ec8 e13b c22b a9be 5417 9cbe
00000010: c875 383e 9ae3 b03d dacb c9be 33bd b83d
00000020: 6e8e 883b b5e6 c1bd 2e80 7abe 799e 933e
00000030: f3aa 263e 1d02 c03e b7c6 613e 5c04 d43e
00000040: 9c55 743e d667 abbe 70e5 dbbe e233 91bc
00000050: 0029 3f3c 1287 ba3e 6f22 d5be fac4 9fbe
00000060: a581 8ebe 05db 633e cd1e bfbe 7483 a3bc
00000070: 4c96 77be 5c6d 98be e915 9c3e 7992 f3bd
00000080: ec37 843e 5eb8 923d 0104 9cbc 4d9a 3e3e
00000090: ecbb 8e3e 2d7a b03e fa16 37be 3e31 6a3e
000000a0: 7dca 023e b096 df3e 93ab ab3e bf58 683e
000000b0: 7145 c83d 55ce d1be d63e 74bc 4bd1 033e
000000c0: b133 d23b 626c 9bbd 4b33 973e 2617 cebe
000000d0: c9c6 0c3e 809a 46be 0c67 9dbe 77b1 00be
000000e0: 6dc4 423e 9c0b cebe c122 89be b0f9 98bd
000000f0: 4e2d e43d 872f c93e d63f 8f3e f05e 303e
00000100: 3032 8ebe 80b0 d93d 10ca dc3d b01b 4e3e
00000110: 92ed 58be 003b bcbe 009e e2ba 2981 62be
00000120: 565e fc3d 171b 77bd 9fa9 183c 794e a6be
00000130: a22c eabe 92d8 debe e3ad 783b 1fb3 e1be
00000140: 18f7 44be ef40 6e3e 03c2 1b3d f235 d5be
00000150: 88db 15be b515 fbbb 4d25 b1be fc03 e8be
00000160: 3bc7 72be cece 2cbe ee3b 9dbe 7ad7 453d
00000170: 8c10 82be 6433 e7be 3a73 00bf 082b 9e3e
00000180: 704a 71bd 80a8 c8be 56f2 0cbe 3eb2 a93e
00000190: 0eb0 913e cb53 e0be ae54 83be a32b e4be
000001a0: 20b2 cbbe c71f 91be 2203 3cbe fc9c 533e
000001b0: 3192 763e 6830 603d fdef b4bd 1984 a5be
000001c0: 1070 43be e19b 633e 403d eebd 20ee 8dbe
000001d0: 3dca ed3e 9fe2 a8be 6046 af3e b845 fe3a
000001e0: 6c2c a03e 3592 11be 56f0 b5be 94b0 9f3e
000001f0: e617 3bbe 1eef bdbe cf0a edbb 5a37 f8be
00000200: 837a 97be 3ed1 3dbc 029c 9bbd fc36 ddbe
00000210: 2684 90be 893a bd3e 2c7a 8fbe eb66 07be
00000220: 60db 9fbd e48f 9d3d dcbb c43e 8e4c f8bb
00000230: 64a8 c2be 209c bfbc 5087 343e 1ecd cdbe
00000240: 18a9 183d d323 af3d 0700 933c 43cd 9e3d
00000250: 8e64 aebe ab6c 163e f02e 533e 3468 94be
00000260: 04ae 423d 55d5 5d3e 90c3 8c3d fe32 03bf
00000270: 64ec 24be 1c79 c9be 9179 a8be 743c 8f3e
00000280: f195 c3be 65f6 cabe 4d75 50be b63e 493e
00000290: 00f1 323e 4b1d e03e 952d 84be af48 a33e
000002a0: 3522 b1be 7f3b 9f3d 90c2 883d 1f48 ebbe
000002b0: 1237 cf3e 8889 68be c398 63be e847 2fbe
000002c0: 7e55 453e 450f d33d 56d8 d53c b1a6 8a3e
000002d0: 9065 7ebe 22c4 ee3d 49c5 433e 2a28 bbbe
000002e0: 3cce 853e 5171 29be 0c98 d0bc 20d4 cbbe
000002f0: 029a 013f 6724 063e 0d08 8e3e d0be 013e
00000300: e119 113e 93ea 803e 79bb 5c3d 00f9 cdbd
00000310: 9e3b f8be 28e5 16be 27e1 a9be fd25 16be
00000320: a7cc 78be 3790 dabe ace4 99bd 2c25 7a3e
00000330: 98ab 47be 4361 cbbd 7360 e3be 2bb5 84bc
00000340: b035 73bd 238d d2be b813 2d3e dcee 43bd
00000350: 5d66 b3be da99 8abe 0619 7a3e fbab 42be
00000360: 8ce2 243d 28ff d2be 7339 8e3d c195 f3be
00000370: 41c7 803e d610 07be eeff a7be 7759 ed3d
00000380: a474 f3bd 1f43 73be 818c b83d 9d47 b93e
00000390: 968e 80bd fa75 f13d b0e7 e8bd 606d c1be
000003a0: b5ec d1be 49f7 413b 0724 493e faec 793d
000003b0: 5d16 543e 6439 813d 127f f2bd 7480 ac3e
000003c0: d448 8f3e cb9a 6b3e 5f3b 383e 08a3 acbe
000003d0: d9bc e23d 1794 98be 98d2 89be afdc 223e
000003e0: 5df4 d33e c705 b63e ea7b 14be bf17 6cbd
000003f0: f00e 6c3e 3b85 2dbe f45a 633e f00c 943e
0.2748319 0.006890363 -0.33041197 -0.30486548 0.1801368 0.086371616 -0.3941334 0.09020462
0.0041673696 -0.09467832 -0.24462959 0.28831843 0.1627615 0.37501612 0.2204846 0.41409576
0.23860782 -0.33477658 -0.42948484 -0.017724935 0.01166749 0.36431175 -0.41627833 -0.3120497
-0.27833286 0.22251518 -0.37328187 -0.019960143 -0.24178427 -0.29770935 0.30485466 -0.11893172
0.25823915 0.071640715 -0.019044878 0.18613549 0.27877748 0.34468213 -0.17879859 0.22870347
0.12772556 0.43669653 0.33529338 0.22690104 0.0977887 -0.4097773 -0.014907559 0.12872808
0.0064148535 -0.07589032 0.2953132 -0.40252036 0.13747706 -0.19394875 -0.3074268 -0.12567697
0.19020243 -0.40243232 -0.26784328 -0.07469499 0.11141454 0.39294073 0.2797839 0.17223716
-0.27772665 0.10629368 0.10780728 0.2012775 -0.21184376 -0.36763763 -0.0017289519 -0.22119583
0.12322681 -0.06032857 0.009317785 -0.32481745 -0.45737177 -0.43524605 0.0037945441 -0.4408197
-0.19234884 0.23266958 0.03802682 -0.4164272 -0.14634526 -0.0076625 -0.3459877 -0.4531554
-0.23708813 -0.16875765 -0.30709785 0.048301198 -0.2540325 -0.45156395 -0.5017582 0.30892205
-0.05890888 -0.39191055 -0.13764319 0.331438 0.28454632 -0.4381393 -0.25650543 -0.44564542
-0.39784336 -0.28344557 -0.1836057 0.20665354 0.24079205 0.054733664 -0.08834837 -0.32327345
-0.19085717 0.22227432 -0.11632776 -0.27720737 0.46443358 -0.32985398 0.3423338 0.001939944
0.3128389 -0.1421593 -0.35534924 0.31189406 -0.18270835 -0.37096494 -0.0072339545 -0.4847973
-0.29585657 -0.011585532 -0.075981155 -0.43206012 -0.2822582 0.3695872 -0.28022897 -0.13222854
-0.07805514 0.076934606 0.38424575 -0.0075774854 -0.38019097 -0.023389876 0.17629743 -0.40195554
0.037270635 0.08551755 0.017944349 0.07753994 -0.34061092 0.14689891 0.20623374 -0.2898575
0.047529235 0.21663411 0.06873238 -0.5124968 -0.16105801 -0.39350212 -0.32905248 0.2797581
-0.38200334 -0.3964111 -0.20357247 0.19652829 0.17474747 0.4377235 -0.25816026 0.3189139
-0.3459641 0.0777502 0.06677735 -0.45953462 0.40471703 -0.22708714 -0.22226243 -0.17117274
0.19270894 0.10305647 0.026104134 0.270803 -0.2484343 0.11658503 0.19118227 -0.3655408
0.26133907 -0.16547133 -0.025463127 -0.39810276 0.5062562 0.13099824 0.27740517 0.12670445
0.14170028 0.25178966 0.053889725 -0.100572586 -0.48482984 -0.14735854 -0.3317959 -0.14662929
-0.24296819 -0.42688152 -0.07514319 0.24428242 -0.19499052 -0.099306606 -0.44409522 -0.016199669
-0.059377372 -0.41123304 0.16902053 -0.047835216 -0.35039034 -0.27070504 0.24423608 -0.19010918
0.040255114 -0.41210294 0.06944551 -0.4757519 0.2515202 -0.13190016 -0.32812446 0.1158933
-0.11887482 -0.23756073 0.09011174 0.3618745 -0.06277196 0.1179008 -0.11372316 -0.3777876
-0.41000906 0.0029596856 0.1964265 0.061017014 0.20711656 0.063097745 -0.11840643 0.33691752
0.2798525 0.23008268 0.17991398 -0.33718133 0.11071176 -0.29800484 -0.26918483 0.15904497
0.41397372 0.35551283 -0.14500394 -0.057639834 0.23052573 -0.16945355 0.22202665 0.2891612

net.2.weight f4 [256, 256]
00000000: 5137 9abd 807a cebd 80c3 a63c 70d8 96bb
00000010: ed44 f8bd 3737 94bc 7848 5f3c a2cc a3bd
00000020: dabf 91bd abcc 2bbd 0846 1a3c 7a42 8ebd
00000030: 8786 a1bc 962d e4bd a0a5 b7bd d9cf babd
00000040: 813a bcbc 3835 91bc 0862 5e3c 0c50 f6bc
00000050: 145c a53c 5e03 9fbc 5ea2 b7bd f062 c13c
00000060: b886 973c 7fe3 12bd b8a5 0dbd 98aa 653c
00000070: 5a80 e9bd db3e 8dbd 1c80 f9bd 0f7e 003c
00000080: dad0 af3c 77f2 96bd 72f6 85bd fff4 6dbd
00000090: cebc 3fbb 72a7 c3bd 323b 41bd 7aea e7bd
000000a0: 207e debc 0f1b d1bd 5d3b c6bd 2866 62bc
000000b0: fd68 cebc d733 a3bd 66fc e1bd 4d64 92bd
000000c0: dbe4 97bd 7187 9cbc 68cb 1a3d 8854 d03c
000000d0: 9d15 c3bd 389c bdbc f89d 2abd a99c 63bd
000000e0: e859 6dba a467 27bd 8830 373c c684 30bd
000000f0: b7b9 bdbc b347 90bd 7e89 71bd 54c8 c23c
00000100: 7c03 64bd 23e5 55bd 18de 56bd f918 7cbd
00000110: 954a 51bd b840 e4bc 42de 4f3d 850c acbc
00000120: 30cf d7bd 45e8 cabc f9dc 623d 0715 85bc
00000130: 7306 21bd f802 77bd aed7 6cbc 5040 e03b
00000140: f491 54bd c3f7 49bd d681 cb3c c871 93bc
00000150: 0152 fcbc 4d61 55bd 0075 3bbb e379 9f3a
00000160: bfc1 b33d 249d 923c f439 3e3d cc9c cfbd
00000170: b013 6ebd 1c98 80bd 72dc 52bd 4951 8ebd
00000180: b981 c6bd 9dd9 3cbd 6278 f6bd b49b 39bd
00000190: 9941 8abd 53f3 cc3a 61c3 aabc 4ed5 053d
000001a0: e83d 433c 3425 1dbd 1ed1 2abd ce44 d0bd
000001b0: b0ab d2bd 781e 85bb a2a8 8bbc 80de 413c
000001c0: c0ac debb a751 fabd d0cb 7b3d c15a 7dbd
000001d0: e5b9 83bd a936 863c 965e d7bd 05a7 24bd
000001e0: 7daf e8bd 9925 09bd 14e9 b1bc 94e2 d3bd
000001f0: 8bef 61bd f009 19bc e4fd abbd 87a4 0bbd
00000200: 5af4 5a3d b2d6 1abd 1c72 36bd 7088 24bd
00000210: d09c 8ebb 6275 ddbd f88d f43c 3621 1cbd
00000220: d4af 363d 34af 393d 6761 d5bd a4a2 8dbd
00000230: ae7a d7bd 5cae 65bd 7080 2fbc 5ed6 5d3d
00000240: b4c1 3bbd e021 2bbd 1c95 f9bc 326e f7bd
00000250: 4abd 65bd e016 c4bb 0d03 8cbd b647 603d
00000260: d669 cfbd fc7c ddbd b886 333c ce7b d9bc
00000270: 032b f8bb 9354 29bd 502b e93c 58ee d1bd
00000280: 442e e4bd 84fe 31bd d600 46bd c278 95bd
00000290: 09a4 c6bc 397b 3ebd 2706 48bd 280d 88bd
000002a0: 8896 01bc 218e 91bb b82f 103c 4e93 bfbd
000002b0: be5b f3bc acf2 cebd 880f e13c d1ad b1bc
000002c0: 0079 5bba 99a0 81bd b986 9bbc 48b2 32bd
000002d0: 68c5 5dbc 8a75 c2bb 5d29 c2bc fc7d d7bd
000002e0: 1c56 3739 9caa e6bd 9e68 95bc 029d 57bd
000002f0: 56e4 213d 65dc 9fbc 44f5 18bd 16c9 bdbd
00000300: 791c 8dbd 962f 23bd cc94 f0bd a019 613b
00000310: 055b b6bd d457 57bd 9e5f e2bd 2825 9bbd
00000320: bb2d 4abd a3c0 87bb 08b6 6a3c f277 243d
00000330: d550 babd 0e61 18bd 10b8 583c 390c f1bd
00000340: 56bf 773d 5271 113d aa7c d9bc 74eb 0d3d
00000350: 0423 c7bc 9a76 3e3d bc0b 28bc 5f5a 3fbc
00000360: dd43 b8bd d21c 61bd 08ec 013b 1c1f 9ebd
00000370: 8a0c 8dbd 00a9 20bb 069f 57bd 2f20 94bd
00000380: f6fd 3dbd 847b b93c e692 efbd 4dc7 2dbd
00000390: bd8b 8cbc f977 8abd c423 cbbd a4af 5d3d
000003a0: cf97 13bc 665b b4bd 3c82 d03a 9387 5bbd
000003b0: 4ab1 d1bd 619b d3bd ec12 88bd bb0f a6bd
000003c0: e70c d8bb b952 76bd a918 b9bc 7606 133d
000003d0: 0e71 b9bd 8288 e4bd c001 e9bd 01ff aabd
000003e0: f86d cdbd 964d 70bd 50d3 82bb 0868 fbbb
000003f0: 8ae1 91ba a94d 4bbc c913 4ebd 090e d1bd
-0.07530082 -0.10081959 0.020356894 -0.004603438 -0.121225215 -0.018092735 0.013628118 -0.07998015
-0.07116671 -0.041943233 0.009416111 -0.06946273 -0.019717468 -0.11141507 -0.08967137 -0.09121675
-0.022977116 -0.017725572 0.013573177 -0.030067466 0.020185508 -0.019410785 -0.08966516 0.023606747
0.018496856 -0.03586149 -0.03458187 0.0140177235 -0.11401434 -0.06896754 -0.12182638 0.007842555
0.021461893 -0.07370465 -0.06541146 -0.058094975 -0.0029256823 -0.09553422 -0.047175594 -0.1132402
-0.02715975 -0.10210239 -0.096792914 -0.013818301 -0.025196547 -0.07968872 -0.11034469 -0.07148037
-0.074166976 -0.019107552 0.03779164 0.025430933 -0.09525607 -0.02314578 -0.041654557 -0.055569325
-0.00090542296 -0.040870324 0.011181004 -0.043095373 -0.023159845 -0.070449255 -0.058969013 0.023777165
-0.055667385 -0.052220475 -0.0524579 -0.061547253 -0.051096518 -0.027862892 0.05074907 -0.021002064
-0.10537565 -0.024768958 0.055386517 -0.016245378 -0.03931279 -0.060305566 -0.014455719 0.006843604
-0.051897004 -0.04930855 0.024842184 -0.017998591 -0.030800821 -0.052094746 -0.0028603673 0.0012167062
0.087771885 0.017897196 0.046441987 -0.101373285 -0.058124244 -0.062790126 -0.051479764 -0.06949098
-0.096927114 -0.04610597 -0.1203468 -0.045314506 -0.06750793 0.0015636481 -0.020845117 0.032674126
0.011916615 -0.038365558 -0.041703336 -0.101693735 -0.10286653 -0.00406247 -0.017048184 0.011832833
-0.0067954957 -0.12222605 0.061473668 -0.061854128 -0.06431941 0.016383486 -0.10516088 -0.040198345
-0.11361597 -0.03348312 -0.021717586 -0.10345951 -0.055160087 -0.009340748 -0.08398035 -0.034092452
0.053455688 -0.037802406 -0.044542417 -0.04016918 -0.0043521896 -0.108134046 0.029852852 -0.03811761
0.044601277 0.045333102 -0.10418969 -0.06915787 -0.10521446 -0.056074485 -0.010711774 0.054159515
-0.045839027 -0.041780353 -0.030466609 -0.12081565 -0.056088723 -0.005984172 -0.068365194 0.05475589
-0.101276085 -0.108148545 0.010957412 -0.026548292 -0.007573487 -0.041340422 0.028463036 -0.102505386
-0.11141637 -0.043455616 -0.04834064 -0.07298423 -0.02424814 -0.046504233 -0.048833992 -0.06643134
-0.007909425 -0.004441992 0.00880044 -0.09354268 -0.029706832 -0.1010488 0.027473226 -0.021689327
-0.00083722174 -0.0632946 -0.01898514 -0.043627053 -0.013535835 -0.005934422 -0.023701364 -0.105220765
0.00017484318 -0.1126301 -0.018238362 -0.05263997 0.0395244 -0.019514272 -0.03734328 -0.0926687
-0.06890196 -0.039840303 -0.11747131 0.003434755 -0.08904079 -0.052573994 -0.11053394 -0.07575446
-0.04936002 -0.004142837 0.014325626 0.04015345 -0.09097449 -0.037201934 0.013227478 -0.117699094
0.060485207 0.03550846 -0.026548702 0.034648374 -0.024308689 0.046499826 -0.010256704 -0.011679261
-0.08997319 -0.054959126 0.0019824523 -0.077207774 -0.06887157 -0.0024514794 -0.05264189 -0.07232701
-0.046384774 0.022641905 -0.116979405 -0.042426396 -0.017156476 -0.06761164 -0.09918931 0.054122582
-0.009008362 -0.08806495 0.0015907953 -0.05359609 -0.10238893 -0.103323705 -0.06644234 -0.08108469
-0.006593335 -0.060137484 -0.022594767 0.035894834 -0.090547666 -0.11158849 -0.11377287 -0.083494194
-0.100307405 -0.05866774 -0.0039924756 -0.0076723136 -0.0011129838 -0.012408652 -0.050311837 -0.10207755

net.2.bias f4 [256]
00000000: 0a82 d2bc 167d 2f3d c5b9 283e 50e6 fa3b
00000010: 09fc 84bd 9ead d9bd d220 1dbd 4648 2abc
00000020: 1e67 94bc 0ee3 f2bd 3402 71bd 4d3f 2cbc
00000030: 9a17 acbd 1bba 1fbd 9da6 0bbd 66b8 9bbd
00000040: fa82 69bd 6c87 8d3c 521f 18bd 52f4 d5bd
00000050: 4b34 38bd a7ac a0bd 8eea 81bd 193b 0dbd
00000060: 3400 b1bd 100a 62bd 1d77 2cbd 1800 adbc
00000070: 3282 39bc 8574 41bd d9cf 81bd a635 543d
00000080: 2c46 95bd 14f0 b53c e030 8f3c a576 d7bd
00000090: f211 01bd 02d4 993d 9d1b 94bc 4069 ceba
000000a0: c07e a43a 7ef8 a7bd e16e 063c 0ca9 05bd
000000b0: 6b19 36bb 03b9 1bbb e5b7 8bbd a032 bdbc
000000c0: 68d4 c6bb 370f d2bd 74db b6bd 00cd 23bc
000000d0: c303 8dbd 4378 d7bc 43ad 6fbc 7045 e8bc
000000e0: c1fe 05bc 4cba 18bd fdea aabd 3f86 053e
000000f0: ebfa cfbd ab0f 81bd a621 84bd 1e91 bebb
00000100: 71d1 8bbd bf40 44bc bad6 b1bc 1164 70b9
00000110: a319 c83b 0a39 d1bd 2620 87bd c70f 59bc
00000120: 7dd1 a8bd c653 9a3b cc3d 6d3b a3d0 82bd
00000130: 48b9 dd3c 6105 a9bc e32d 48bc f421 35bd
00000140: 71d8 0fbd c8d5 8abb ccf5 bf3c 4af0 96bc
00000150: e699 43bd 12b6 16bc c5dc d0bc 7258 8ebb
00000160: 7e87 a9bd de26 66bd c8d1 36bd 581a e6bd
00000170: 123c d5bd 801c 84bd 8f54 f5bd 5f23 a1bd
00000180: fdba cebd ebe6 13bd 069f abbc 1d95 b5ba
00000190: e02e 2a3c d191 2ebb 035b e9bc 0432 bdbd
000001a0: d517 1abd c3b9 efbd ec05 19bd 7376 34bd
000001b0: a70c abbd 28eb 06bc c2a8 7bbd 0207 d9bd
000001c0: e37a aebd 7582 67bd be11 83bd c80f b6bd
000001d0: 168a 33bd 30a1 f9bc fcd6 cfbd 5ca7 c3bd
000001e0: 81fa 63bc 6a5b 073d 2aa1 183e 91e4 68bc
000001f0: 1edc 05bd 3bda 03bd e480 103b 8bd9 90bd
00000200: 7a70 b3bd b868 7dbc a890 c1bd 987d cfbd
00000210: 1543 77bc 35c2 e0bc 06c7 5cbd 749f 15bd
00000220: de1a dcbc 02b3 7ebd 46b4 023e 18ee febc
00000230: d7dd 09bd 87f2 a1bc 9e6a 2dbd 28d3 bcbc
00000240: 2cf1 33bd dc13 a1bc d55e 3e3c 3bb3 9bbd
00000250: 8e45 edbd f499 c5bd 6046 a0bb ef19 b3bc
00000260: a09a 93bc e773 75bc 477a bbbb fc34 acbc
00000270: 5fc4 4abd 7ce9 fdbc 9f3e 61bd 0cc7 7fbd
00000280: eada ebbd 6d26 c0bd 7274 4cbc b45e 1abd
00000290: 068a c7bd ba30 ddbd 67a3 79bd cacc 81bd
000002a0: 95bb 27bd ddd4 fb3b 4980 c7bd ce69 0dbd
000002b0: 885e ccbc 28e0 59bd f282 48bd bf1e 87bd
000002c0: a7a3 e0bd 571d 153c 9c7d 21bd a916 babd
000002d0: 55d7 05bd 5a6b 7ebd abb6 e138 525f 06bc
000002e0: 7fb5 54bd b87b 2a3d 43b6 a8bd c660 a0bc
000002f0: 37bb f3bd da82 7c3d e8c0 553c bd48 fabc
00000300: a419 4abc fddc c0bd 34b1 50bc c34f 3fbd
00000310: 3028 acba 100c 36bc a943 b7bd 1c15 6ebd
00000320: b3ce c3bd 1016 c5bd 34f2 83bd dd5e c1ba
00000330: bbff 67bd ec07 b4bd 6576 d2bc f3d5 adbc
00000340: c2df 3ebd 0e20 00bd 83b9 b0bd 9fec a9bd
00000350: 38bc 13bc 4e74 6cbd 3c60 08bd 4aa8 3e3d
00000360: 1007 2a3c d47b 27bd 37a5 33bd 8171 d6bd
00000370: ed6d 8bbc 30cc 6cbd a9fc e9bd 07cf f5bd
00000380: 44db c1bd 3c67 563d cc21 d0bd a911 75bd
00000390: 1b41 c6bd aba6 fcbc 9d11 51bd 5996 10bc
000003a0: 3a10 adbd 8037 d2bd d6cf 37bd d04d aebd
000003b0: 3d70 bfbd 229c 0cbd c15d efbc 7207 9ebd
000003c0: eb52 babd f8b0 f0bc 292c 48bc 7660 05bc
000003d0: 711e b9bc e3ec 81bc f267 33bd f4f1 73bd
000003e0: 78da 28bd cd22 90bd d43a 89bc 8ea8 533d
000003f0: daa3 34bd ec65 b6bb e8f1 5b3c f6ef d9bd
-0.025696773 0.0428439 0.16477115 0.00765685 -0.064933844 -0.10628818 -0.038361378 -0.010393208
-0.018115576 -0.118597135 -0.05883999 -0.010513139 -0.08402939 -0.038995843 -0.03409444 -0.076035306
-0.057009675 0.017276488 -0.037139244 -0.10446991 -0.044971745 -0.07845431 -0.06343566 -0.034480188
-0.08642617 -0.055185378 -0.042105783 -0.021118209 -0.011322545 -0.047230262 -0.06338472 0.051808976
-0.07288775 0.022209205 0.01747936 -0.105206765 -0.031511255 0.075111404 -0.018079573 -0.001574792
0.0012549981 -0.08201693 0.0082051465 -0.03263192 -0.0027786146 -0.0023761399 -0.068221845 -0.023095429
-0.0060678013 -0.10256808 -0.08928576 -0.009997606 -0.06885483 -0.026302462 -0.014628711 -0.028353423
-0.008178414 -0.03728704 -0.08345602 0.13039492 -0.10155281 -0.063018166 -0.064517304 -0.005815639
-0.06827057 -0.011978327 -0.021708835 -0.00022925461 0.0061065718 -0.102159575 -0.06597929 -0.0132483905
-0.08243082 0.0047096936 0.0036200164 -0.063874505 0.027065888 -0.020632448 -0.0122179715 -0.044221833
-0.035118524 -0.0042369105 0.023432635 -0.018425126 -0.04775419 -0.009198682 -0.025495896 -0.0043440396
-0.08277796 -0.05618941 -0.044633657 -0.112354934 -0.10411848 -0.064507484 -0.11979019 -0.078680746
-0.10094259 -0.036108892 -0.020949852 -0.0013853643 0.010387152 -0.0026637206 -0.02848578 -0.09238055
-0.037620384 -0.11705353 -0.037359163 -0.044058274 -0.083520226 -0.008234777 -0.061440237 -0.1059704
-0.085195325 -0.056520898 -0.063998684 -0.08889729 -0.04383286 -0.030472368 -0.10148427 -0.09553406
-0.013914705 0.033046164 0.14905229 -0.014214651 -0.032680623 -0.032190543 0.002204948 -0.07072743
-0.087616876 -0.015466861 -0.09451419 -0.10131377 -0.015091677 -0.027436355 -0.05390074 -0.03652902
-0.02686828 -0.062182434 0.12764081 -0.031119391 -0.03365883 -0.019768966 -0.042338006 -0.023049906
-0.04393117 -0.01966279 0.011619289 -0.07602545 -0.11585532 -0.09648505 -0.004891202 -0.021862952
-0.018018067 -0.014981247 -0.0057213637 -0.021021359 -0.04950368 -0.030995123 -0.05499136 -0.062445685
-0.11516364 -0.09382329 -0.012478935 -0.037687972 -0.09743123 -0.108003095 -0.06094685 -0.063378885
-0.040950377 0.0076852874 -0.09741265 -0.03452473 -0.02494742 -0.053192288 -0.048953004 -0.06597661
-0.10968714 0.009101233 -0.03942643 -0.09086353 -0.03267606 -0.062114097 0.000107628606 -0.008201437
-0.0519309 0.041621894 -0.08237889 -0.019577395 -0.11900943 0.061648227 0.013046481 -0.030552262
-0.012335215 -0.0941715 -0.012737561 -0.046706926 -0.0013134535 -0.011111274 -0.08948452 -0.0581256
-0.09560909 -0.09623349 -0.06442681 -0.0014753003 -0.056640368 -0.087905735 -0.02569122 -0.021220183
-0.04660011 -0.03128057 -0.086291336 -0.08297085 -0.009017043 -0.057728104 -0.0332949 0.04654721
0.01037766 -0.040889576 -0.043858733 -0.10470868 -0.01702019 -0.057811916 -0.11425144 -0.12002378
-0.0946565 0.052344546 -0.10162696 -0.059831295 -0.09680387 -0.030841192 -0.051042188 -0.008824908
-0.084503606 -0.10264492 -0.044875942 -0.08510935 -0.0934758 -0.034328587 -0.02921951 -0.07716264
-0.090978466 -0.02938126 -0.01221756 -0.008140674 -0.022597523 -0.015860027 -0.0438003 -0.059556916
-0.041223973 -0.07037888 -0.016751684 0.05167442 -0.044101574 -0.0055663493 0.013424374 -0.10641472

net.4.weight f4 [2, 256]
00000000: 49bd d73d c0c4 cf3a b771 2c3e cadf 43bd
00000010: 01b9 87ba 0f31 08bd 1e6b 643d a065 ab3d
00000020: 5120 71bc 99b9 ac3d d9bc 13bb a9b0 6b3d
00000030: f93f a2ba bb5d 853d 618a 4cbb b89e a9bd
00000040: c430 6ebd 56c2 2f3d 1805 e4bc 206a 663d
00000050: cc6d ad3d 416f 74bd 89f6 a9bc 0e5d 4b3c
00000060: 10df bfbc cef8 1bbd 72f7 803d f171 5dbd
00000070: d764 36bc 8095 9a3d cfb2 37bd 1e3e 03bd
00000080: 04b6 0cbc ab8f 51bd a435 023d e9e4 b73c
00000090: e4ee ecbd d188 c53d 0313 1bbb 0efa 093d
000000a0: 6ae2 3dbd 2e6d dcbc affc 1dbd d0cb 9cbd
000000b0: e065 c43c b38e 2cbc 737c a83d 00c4 aeb8
000000c0: 9869 22bd f19e 1abd b278 5e3d cc12 e63c
000000d0: cbe5 303d de50 583d 3705 e33c f39e ed3c
000000e0: 2df4 643c 3db0 29bd 9f48 973d f980 123f
000000f0: 8f42 173d e8d4 c43c 722b 093d 3034 683b
00000100: ca70 853c c96a 04bd 6c60 3e3c 9c57 b03c
00000110: 2e32 a03b 0adc 293d 2b07 02bd 6c49 e1ba
00000120: 9203 05bd 8e2c c13b 04cf 4e3d 7a1d 6e3d
00000130: 3201 3e3d f73c 8c3e 72a4 2cbc d0d4 833b
00000140: d616 6cbd d629 cbbb d8a1 50bd 7fff 933d
00000150: f874 793c b885 0b3d 9f50 f13c 853f ecbc
00000160: d8d9 903c 8b8d 07bd 40a6 d93a e1e7 17bc
00000170: 030b 0ebd ba45 843d 8f84 16bb c750 273b
00000180: c569 1a3c 8510 36bc 7dcf 873c 29b5 b43c
00000190: fdc2 72be 93d3 0eba 2121 17bc 63cb 183d
000001a0: 6b4e fd3c 182c e83c 820a ce3b 23e9 963d
000001b0: 82da 5abc 7fcf 5c3d 90ef dd3c cfe6 313d
000001c0: e165 05bd a45c 80bc 500e 9ebd 0ae7 06bd
000001d0: 3838 c83b 8f4e 603d 2b3e 9b3d 7a8a 46bc
000001e0: 5477 54bd d049 6abd 6886 193e 59d6 63bc
000001f0: 6e68 053d b802 45bd da95 afba 2c0f 8a3c
00000200: d989 973b 30f7 c03c 37ac b4bb 8478 c739
00000210: 25e0 d63d 1054 4c3c 238d 8e3d d6b3 3a3d
00000220: 4ad2 373c 9c47 2bbd bb16 023d e42c 233d
00000230: 1aef 5d3d ae36 51bd 0704 8abb 48f2 183d
00000240: ec1c 05bd 50a8 b2bb b824 91bd 4e89 24bd
00000250: 1b81 77bd 2586 2c3d 8153 a5ba 7ea8 033c
00000260: caf1 1cbd b1a2 913d 26b7 6a3c ad66 c6bc
00000270: 5fa9 9b3b 6432 973d a8d7 ca3b 279e ae3c
00000280: a9b5 083a bbdb 8b3d fa4a 103b e030 20bb
00000290: c2d6 0dbd 2fc5 523d d1cc 4abc 2ac9 f23c
000002a0: e0c4 f93a 4e0a 3dbd 9990 4e3d ec64 ef3c
000002b0: 6806 04bd a085 1c3b 504c b6bb d7fe 78bd
000002c0: 8520 acbc 31e6 53bc 0ded 7d3c e9da 263c
000002d0: eb30 dcba 163f 3f3b 0286 cfba eff3 92bc
000002e0: 3e53 2c3c 1c4d d3bc 6ea0 4c3d de02 943d
000002f0: cbc7 5d3d 60f2 7dbb 0888 11bc 5f15 183d
00000300: 4f59 613d 90c0 af3d abc5 22b9 49cc 9e3c
00000310: 4606 89bd a193 943c a35e 0cbc b08c f93b
00000320: fc8e 453d a13f 4e3c 1ae6 88bd 679c 603d
00000330: 5cb8 d23d af53 363d 764a 69ba 342e a6bc
00000340: 16e8 00bd c837 f8bc 5197 81bc 1115 563d
00000350: 2ae4 77bd 7a18 a8bc 5295 9dbc 8a40 283d
00000360: 5080 7a3d ffd5 533c 2449 02bd 063f 6abc
00000370: 3330 1fbd c52e 253c 3616 b73d 8163 483c
00000380: 0e6d 623d 2007 cfbb b407 2f3d a649 423d
00000390: ea3d 183d b2ae 90bc a28a 67bd 0e70 a33d
000003a0: 3da7 7cba d8ad 9ebc 1c00 c73c 6caa 8e3d
000003b0: 85f3 13bc 834f 193d f44c 5b3d 2b46 9b3d
000003c0: 7305 133d 4b3c 5dbc dff2 0f3c eebd 74bc
000003d0: 13fb a43d 16ce 55bd ff6f e63d 983e a93c
000003e0: ac48 95bd 9e7d 623b 9add 0dbc 68ce 393d
000003f0: 1b7c 8bbd 00fa ba3c 9074 49bd c9c2 82bd
0.1053415 0.0015851483 0.16840254 -0.047820844 -0.0010354818 -0.03324991 0.055766217 0.08368993
-0.0147171775 0.084338374 -0.0022542982 0.057541523 -0.0012378684 0.06512018 -0.003121041 -0.08282226
-0.058151975 0.042909943 -0.02783446 0.056253552 0.08468208 -0.059676412 -0.02074744 0.012412323
-0.023421794 -0.038079076 0.062971964 -0.05406374 -0.0111324405 0.07548046 -0.04484826 -0.03204166
-0.008588318 -0.051162403 0.031789437 0.02244802 -0.11569002 0.09645236 -0.0023662455 0.033685736
-0.046358503 -0.02690753 -0.038571056 -0.07656062 0.023974359 -0.010532069 0.08226862 -8.3334744e-05
-0.039651483 -0.037749235 0.054314323 0.028085135 0.043187898 0.052811496 0.027712448 0.029006457
0.013974232 -0.04142784 0.07386898 0.57228047 0.03692871 0.024027303 0.0334887 0.0035431497
0.016289134 -0.0323284 0.011619668 0.02152615 0.0048887944 0.04146961 -0.031745117 -0.0017188019
-0.032474108 0.005895204 0.050490394 0.05813358 0.04638786 0.27390262 -0.010537254 0.004023172
-0.057638966 -0.0062000556 -0.050935596 0.072264664 0.015225641 0.03406307 0.029457388 -0.028838882
0.017682001 -0.03309397 0.0016605332 -0.009271593 -0.03467847 0.06458612 -0.0022967195 0.0025530325
0.0094246315 -0.011112337 0.01657843 0.02205904 -0.23707195 -0.0005448397 -0.009224207 0.03730334
0.030921182 0.028341338 0.0062878737 0.07368686 -0.01335776 0.05390882 0.027091771 0.043433007
-0.032567862 -0.015669174 -0.07717574 -0.03293518 0.0061102174 0.05476242 0.07580217 -0.012117976
-0.051871613 -0.0571993 0.14992678 -0.013906085 0.032570295 -0.048098296 -0.00133961 0.016852938
0.004624587 0.023555368 -0.0055136937 0.0003804603 0.10491971 0.012471214 0.069605134 0.04558166
0.01121957 -0.04181634 0.03175996 0.039837733 0.054183103 -0.051077537 -0.004211906 0.037340432
-0.032498285 -0.0054521933 -0.07087082 -0.040170006 -0.06042586 0.042120118 -0.0012613387 0.008035777
-0.038316526 0.07111109 0.014325893 -0.024218882 0.004750415 0.07382658 0.006190259 0.021315647
0.0005215058 0.0682902 0.0022017346 -0.0024443194 -0.034628637 0.05145758 -0.012377934 0.029636938
0.0019055866 -0.046152405 0.050430868 0.029222928 -0.032232672 0.0023883358 -0.0055632964 -0.06078991
-0.0210116 -0.0129333 0.015498412 0.010184028 -0.0016799247 0.002918189 -0.0015832784 -0.017938582
0.010517893 -0.025793605 0.049957685 0.072271094 0.054145616 -0.0038749203 -0.00888253 0.037129756
0.055016812 0.0858165 -0.00015523161 0.01938452 -0.0669065 0.018136801 -0.008567485 0.007615648
0.048232064 0.0125884125 -0.066845134 0.054836657 0.1028907 0.0445134 -0.000889934 -0.020285703
-0.031471334 -0.030300036 -0.015819224 0.052266184 -0.06052033 -0.020519484 -0.01923624 0.041077174
0.061157525 0.012929439 -0.031808034 -0.0142972525 -0.038864326 0.0100819515 0.08939783 0.012230755
0.055279784 -0.006317988 0.042731956 0.047433518 0.03716842 -0.017661426 -0.056528695 0.07980357
-0.00096379576 -0.019370005 0.024292044 0.06966099 -0.009030228 0.037429344 0.053540185 0.07581743
0.03589387 -0.0135031445 0.008785932 -0.014937861 0.08055701 -0.052198492 0.1125183 0.02065973
-0.07289252 0.0034559737 -0.008658791 0.04536286 -0.068107806 0.022824287 -0.04918343 -0.063848086

net.4.bias f4 [2]
00000000: aa0a 09bd db56 8c3d
-0.033457436 0.06852504
