flappyb/models/cross_entropy/batchsize=100-hiddensize=256-lr=0.01-gamma=.9-PART=240.pt (torch_old, 272411 bytes, 6 tensors)

net.0.weight f4 [256, 5]
00000000: b2a7 5fbe 5c02 6c3e 3095 ccbc 06bc 09be
00000010: c05f 47be bce8 cb3e 5df6 2e3e 5da8 823e
00000020: 4996 4abe bcbe abbe 4429 3ebe f8dd b0be
00000030: e447 e43d 4c64 8cbd ac3d 7abe c435 e2be
00000040: 8c8b 673e 3515 c33e 8366 75be 721a 463d
00000050: 9889 4fbd b8b7 ed3d 44ce d3bd b0ab e43c
00000060: a079 1ebe 9b6a 96bd 5032 9cbe 52b8 5e3e
00000070: fee7 b6be 6a63 9a3e 30f1 f6bd 5f18 91bc
00000080: c1a6 58be d939 03bf 5818 3c3e 1237 2d3e
00000090: 3020 e0be a14a 953d 64e3 88bb 3cbc 933e
000000a0: 348f 853e 3ccd ddbe be31 993e a492 1bbe
000000b0: a790 003e d190 59be 5e9f 973e ae64 e6be
000000c0: cabc 853d 9ab7 c93e 7d8d 0dbe 3c9f cf3e
000000d0: 9417 9c3e 45a2 22be c54e 293e a92b 873d
000000e0: 1fe5 dbbc deea 6f3e 56eb 5ebe aeaf 1b3e
000000f0: 0cbb 003f b343 953e 369b b8be 8572 93bd
00000100: 2ab1 66be afe0 d3be b431 913e a8e1 23bd
00000110: 6b54 71be 6895 6c3e bdd3 903e 9b76 d23d
00000120: e493 eebe 9050 b3bd b99f 8c3e f3db de3c
00000130: 8fe9 9e3d cc49 e8be b64f 773c aca2 473e
00000140: 122f 59bd 0ea8 163f e283 3c3e 8c6e c0bd
00000150: f00d c9bd 0a9f 95be 668f de3e d727 98be
00000160: 7122 c7be 2f0f 283e 092c f9be 5ea8 aabe
00000170: bfe0 80be 7e55 72be 4d55 fdbd 1f5a 50be
00000180: a8f0 703d 420a c03e 341c 813e ea22 28bd
00000190: 6a43 8ebe b5da 6abd 3e8d dcbe 7c11 b73d
000001a0: ab28 533e 8b00 e0be 5fff 053e 6c48 313e
000001b0: d791 5cbd 515a a93e 3dea b5be 4b7c 6d3e
000001c0: 61b6 b3be 3a1c adbb 9dc0 8c3e 712b 3b3e
000001d0: 83cc 373e 0be6 7dbe 07f3 b6be 0a5d 3b3e
000001e0: ce71 47be b4b8 783e a6e1 e1be 004d 11bd
000001f0: 6f51 ddbe e717 c1be 8059 d9bd 681d d63d
00000200: 9a14 a6be 7a9f e33e 2d64 be3d 6e88 8bbe
00000210: 8e8b c13e 1e81 053e 2ee5 2f3d 435b b5be
00000220: f061 bfbc 700f e03d 1519 dfbe 05af 90be
00000230: 8edc 8fbe e9a4 0e3e 502f 3fbd 767e fd3d
00000240: eba2 afbc 05ac 103c 3153 cabd d0d5 11be
00000250: 2700 96bd d85d 7f3e a86d 57be 8374 d1be
00000260: 4704 d63c 92dc 9b3d a3e9 fa3d 06ba d0be
00000270: eaef c83e 74c1 5a3e d38e 4abe 8384 19be
00000280: 67df b73e c408 8bbe 0ee5 3fbe bd48 b1be
00000290: 3527 693e 0055 90bc 00b6 c53d e496 223e
000002a0: 5a99 96be a0f1 7a3e 5c91 a7bd 6c35 033e
000002b0: 0dfe 263e fced 94be 86d5 9f3e daa6 d9be
000002c0: c045 323e 488b 29be a609 a53e 543a c0bd
000002d0: f163 87be 20e7 68bd 7cc2 d73e 7054 583e
000002e0: 0c30 b6be 67b6 adbe b16f 3a3e 8e2d 913e
000002f0: 98cc 0dbf 98c4 6b3d 3c4f 063d 89e9 cfbe
00000300: 754a 11bd 9f2d 96be 65e8 e4bc 0be6 debe
00000310: 8406 d43e c070 ef3c e9a4 8dbe 9ef2 a2be
00000320: 4963 d9bc 575d 973e 264e 693e fb7c 4dbe
00000330: b4fe 543e f0ef de3c 6ae2 d13e b07b e7bd
00000340: a43c 073e 3c9c 84be 112a 10be 8272 22be
00000350: 00cf 0bbf 8eaf 593e ac01 8abe 88bc 693e
00000360: 6199 b6be aebb 9ebe c721 803e 2aca 9cbe
00000370: 7735 f13d ec74 96bd ec66 15bd 78bd 9f3d
00000380: c85e 3d3e 2229 323e 0c9a 7d3e 42c7 b2be
00000390: 1e97 b33e 0fca 94be 88c2 19be 5437 5bbe
000003a0: 44da b1bd c768 fabe 544e 8d3e 4264 5cbe
000003b0: 454f 3abe b273 7f3e 7f8f 24be 42ac 58be
000003c0: f9b7 b0be 0d0a 38bd df30 b93e b0ee 0dbe
000003d0: c4b9 42be 03f3 c3be 4077 86bb 045c 883e
000003e0: 7819 a43e 95f8 c3be 665d c63d 7d32 25be
000003f0: 4602 a1be 6764 b8be fb52 f6be e60d 86be
-0.21841314 0.23047775 -0.024973482 -0.13450631 -0.1947012 0.39826 0.17086168 0.25519076
-0.19783892 -0.33543956 -0.18570429 -0.3454435 0.111465245 -0.068550676 -0.24437588 -0.44181645
0.22611827 0.38102117 -0.23964886 0.048365064 -0.05066833 0.11607307 -0.103420764 0.027913898
-0.15476084 -0.07344552 -0.30507135 0.2175 -0.3572387 0.30153972 -0.120577216 -0.017711816
-0.21157362 -0.51260144 0.18368661 0.16915539 -0.43774557 0.07289625 -0.0041774977 0.2885455
0.26085818 -0.43320644 0.29920763 -0.15192658 0.1255518 -0.2124665 0.29613775 -0.44998688
0.06530149 0.3939789 -0.13823505 0.40551174 0.3048674 -0.15882213 0.16533954 0.066001244
-0.026842652 0.23429438 -0.21769461 0.15203735 0.5028541 0.29153213 -0.36055917 -0.07199577
-0.2252852 -0.41382357 0.28358233 -0.040010124 -0.23567359 0.23103869 0.28286543 0.102765284
-0.46597207 -0.087556005 0.2746561 0.02720449 0.077593915 -0.45368803 0.015094688 0.19495648
-0.053023405 0.5885018 0.18409684 -0.09396085 -0.098171115 -0.292229 0.4346878 -0.29717895
-0.38893464 0.16412042 -0.4866641 -0.3333158 -0.25171468 -0.23665425 -0.123697855 -0.20346878
0.058823258 0.37507826 0.2521683 -0.04104892 -0.27785808 -0.05733748 -0.4307651 0.08938882
0.20620982 -0.43750414 0.13085698 0.17312783 -0.05385002 0.33076718 -0.35530272 0.23191945
-0.35100082 -0.005282906 0.27490702 0.1827829 0.17949109 -0.24794786 -0.3573229 0.1829721
-0.19477007 0.24289209 -0.4411747 -0.035473824 -0.4322619 -0.3771355 -0.10612774 0.104548275
-0.32437593 0.44457608 0.09296451 -0.27252525 0.37801784 0.13037536 0.042943172 -0.3542119
-0.02336213 0.109404445 -0.43573824 -0.2825853 -0.28097957 0.13930096 -0.04667598 0.12377636
-0.02143999 0.008830075 -0.09879149 -0.14241719 -0.07324248 0.24938142 -0.21037924 -0.40909204
0.026125086 0.0761043 0.12251594 -0.40766925 0.3924554 0.21362859 -0.19781046 -0.14991955
0.3591263 -0.27155125 -0.18739721 -0.34625807 0.22768863 -0.017618656 0.09653854 0.15877873
-0.29413873 0.24506235 -0.08182022 0.12813348 0.1630785 -0.29087818 0.31217593 -0.4251011
0.1740942 -0.16557038 0.32233924 -0.09386125 -0.26443437 -0.056861043 0.42140567 0.2112596
-0.35583532 -0.33928224 0.1820667 0.28355068 -0.5539031 0.057560533 0.032790408 -0.4060786
-0.0354714 -0.2933168 -0.027942846 -0.43534884 0.4141122 0.029228568 -0.2766488 -0.31825727
-0.0265366 0.295634 0.22783718 -0.20067208 0.20800287 0.02721402 0.40993053 -0.113028884
0.13206726 -0.25900447 -0.14078547 -0.15863994 -0.5461273 0.21258375 -0.269544 0.22825825
-0.35663894 -0.31002563 0.2502577 -0.3062299 0.11777776 -0.0734652 -0.036475107 0.0779981
0.18493187 0.17398503 0.24765795 -0.34917647 0.3507623 -0.29060408 -0.15015614 -0.21407825
-0.08684209 -0.48908064 0.27598822 -0.2152262 -0.18194301 0.24946478 -0.16070364 -0.21159461
-0.3451536 -0.04493146 0.36170098 -0.13860583 -0.19016176 -0.3827134 -0.004103571 0.26632702
0.3205068 -0.3827559 0.09685783 -0.16132541 -0.31447047 -0.360141 -0.48110184 -0.2618248

net.0.bias f4 [256]
00000000: 4ccf e4be 4964 b2be 5d57 dbbd 1edf 083d
00000010: 9498 debd 740d 6e3e 2be8 383e 7724 893e
00000020: badc 6cbe 7c7e 7d3e 07f2 9fbe ea57 493e
00000030: 1b9b 7dbd 3572 d5be 3401 adbd 7ef6 9bbc
00000040: fa29 723c 0c04 df3e a0b9 743e dd4c 32be
00000050: 8eee e0bd f868 63be d977 3abd 481b cb3e
00000060: 84b8 d1be 35e5 d0be 2ff6 8cbe b4d1 3c3e
00000070: a5d9 4d3d 3068 6bbe d615 923e 7e76 d23d
00000080: 3dc1 d6bc e4e6 96be 0cd7 1cbe 9809 43bd
00000090: d0cc 8fbe 6d54 b63c a594 8f3d 108f 7bbe
000000a0: c5be 85be ce28 bcbe e5f5 a73e 45fa f43e
000000b0: 7891 d5be 9196 953e c2e7 113e 5d1b 153e
000000c0: ae53 6bbe ba39 81be d4e4 a73e a9ad 37bd
000000d0: daf6 58bd 48b2 1c3f 8ae2 463e aa0e 18be
000000e0: d6b1 e9be 179b 3dbe 6797 8d3e bb56 56bb
000000f0: 9b5a 943e fcfb eebd d457 fd3d a5f3 dfbd
00000100: 0af5 46be 4359 65bd c8e8 80be 61a5 bfbd
00000110: 902e f2bc ccf6 61be 1ee8 97bd bbbc f33d
00000120: 1d3f 89be 506b 26bd e5ef 09be 52d6 2abe
00000130: e749 d93d 8c6b 4a3b ba1b e1be eed7 4cbe
00000140: e5ca 45be 28d7 963e 5142 3cbe 70f8 a73d
00000150: eaa4 323e 7dcc 74be 5f22 a33e e7ad fabe
00000160: c4e9 71be d2b8 a1be 97a2 f13d 2944 a5bd
00000170: 05c7 80be bc0b a8be 4a44 473e 5d21 59be
00000180: 8ae2 88be 3ef9 29be 846d 893e c881 80be
00000190: 0024 54bb 1f5c aa3d 188f 29be acb7 333e
000001a0: 5de1 dcbe 661a 8abe 484c d1be 4a09 c0be
000001b0: babe 2e3e 9d24 c2be 3604 9abe 5761 a03e
000001c0: 8a4c 54be a06b 1abd bfef 663e ba39 8a3e
000001d0: f627 493d 3128 7abe 9c9e 143e e9e5 b33e
000001e0: 9e95 6abe d434 2fbe d5f2 973e 7722 acbe
000001f0: 3562 a93e b5ae 6ebe 2be2 70be 3b61 52bd
00000200: ec16 6fbe c3d9 5b3e 59be 70be 620c 49be
00000210: b49a 97bd 3860 85be ed1a 353e 0ae0 943e
00000220: 604f dcbe b8c6 2e3e d771 403d 980c 9bbe
00000230: 7ed3 a53e 9e84 80be a89c 033e 807b 62bd
00000240: aef7 643e ed4c 7dbe 6a27 babe 9c8d a0bd
00000250: 6ec1 44be 40b7 673c 9274 743e f046 a4be
00000260: 4e28 0b3e 5f31 563e d112 dc3e eb50 403d
00000270: 05e4 173e 21c4 d43e 44b5 a6be 85bf 883e
00000280: 2a38 dc3d 4420 9cbe 2639 dfbe 346a 2dbd
00000290: 547f 21be 7643 39be e05d 7d3c bb89 bb3e
000002a0: 1222 d4be ddba bc3e 627f 813e 577d a3bd
000002b0: 8da3 d3be 9925 473d 10ca 223e 4f74 8fbe
000002c0: 1065 3ebe d32b e5bc 8d32 373e 795f 94be
000002d0: b409 1dbe 7823 c9be a4f3 86bd 1189 db3d
000002e0: e08e 2e3d 48ab 72bd dd91 b8ba 27bd 00bf
000002f0: 1b54 b1be 385e 6bbe 2d9b 24be bbcb 923d
00000300: cfdc b2be 5140 a23e 1589 dfbe 1b70 30be
00000310: c92c 98be eb0b ae3e ccf6 02bc 578e 913c
00000320: d0b5 1ebe 32e0 e9bc 1670 9bbe bb81 dd3d
00000330: b6fe de3d 956b b33c 080d c2be ded5 dabe
00000340: 9b61 80bc 9af6 59be f427 c1be 4c31 09bd
00000350: 24cd 7b3e cc71 9f3e a511 96be 4ffc 4cbe
00000360: e061 67bd 791e b23e 11e9 87be 2342 58be
00000370: 6312 ee3e 3efe 0c3d 3fc7 9bbe a830 3e3e
00000380: 14f3 aebd 22c9 49be 1ca3 4dbe 4027 e53d
00000390: 30cc 26bd f514 883e 048d aabe 3a23 743e
000003a0: ca9e ff3e dc01 4d3e 8097 8b3e a952 493e
000003b0: 6c59 ea3d a66e c43d 927a 81be c516 9bbd
000003c0: db1e afbe 76ce 5c3e cd45 b5be f48e 34be
000003d0: 0bde 8f3e 0dee bcbe 79ba 253e e821 80be
000003e0: 9156 063f db64 a13e 963c a53e 6233 a8be
000003f0: 7e9a c0be d5b5 463e fcf2 f03d 164e fa39
-0.44689405 -0.34842137 -0.107100226 0.033415906 -0.10868946 0.2324732 0.18057315 0.26785633
-0.23131076 0.24755281 -0.3123934 0.19662443 -0.0619155 -0.41688696 -0.08447495 -0.019038435
0.014780516 0.43557775 0.23898935 -0.17412134 -0.10983001 -0.22208011 -0.045524452 0.3966925
-0.40961087 -0.4079987 -0.27531573 0.1843937 0.05025639 -0.22988963 0.28532284 0.10276507
-0.02621519 -0.2947303 -0.15316409 -0.04761657 -0.28085947 0.022257054 0.070107736 -0.24566293
-0.26122108 -0.36749882 0.3280479 0.4784719 -0.41712546 0.29216436 0.14248565 0.1456122
-0.2298114 -0.25239354 0.3279177 -0.04484335 -0.05296979 0.61209536 0.19422355 -0.14849344
-0.4564349 -0.18516193 0.27654573 -0.0032705504 0.28975376 -0.11669156 0.123702675 -0.109351434
-0.19429412 -0.05599333 -0.25177598 -0.093577154 -0.029563218 -0.22066802 -0.0741732 0.11901232
-0.26805964 -0.040629685 -0.13470419 -0.16683319 0.10609799 0.0030886857 -0.43966466 -0.20004246
-0.1931568 0.29461026 -0.18384673 0.082016826 0.17445722 -0.23906131 0.3186216 -0.48960802
-0.23624331 -0.3158632 0.1179859 -0.08069641 -0.2515184 -0.32821453 0.19459644 -0.21204133
-0.26735336 -0.16598985 0.26841366 -0.25099015 -0.003237009 0.08318352 -0.16558492 0.17550534
-0.4314069 -0.26973265 -0.4087851 -0.37507087 0.17064944 -0.3791856 -0.30081338 0.31324264
-0.20732322 -0.037700295 0.22552393 0.26997167 0.049110375 -0.24429394 0.1451363 0.35136345
-0.22908637 -0.17109996 0.29677454 -0.33620045 0.3308274 -0.23308833 -0.23523776 -0.051362257
-0.23348588 0.21469788 -0.23510112 -0.1963363 -0.07402554 -0.26049972 0.17686053 0.29077178
-0.43029308 0.17067993 0.046983566 -0.30283046 0.32387918 -0.2510118 0.12852728 -0.05529356
0.22360107 -0.24736376 -0.36358196 -0.0783951 -0.19214413 0.014142811 0.23872593 -0.3208537
0.13589594 0.20917271 0.42983106 0.04695217 0.14833076 0.41555884 -0.3256017 0.26708618
0.107529 -0.30493367 -0.43598288 -0.04233761 -0.15771228 -0.1809214 0.015464276 0.36628518
-0.41432244 0.36861315 0.25292498 -0.07982891 -0.41335717 0.04861984 0.15897393 -0.28018424
-0.1859324 -0.027974999 0.17890377 -0.2897909 -0.15335733 -0.39284873 -0.065894395 0.10719503
0.042616725 -0.059245378 -0.0014081557 -0.50288624 -0.3463448 -0.2298516 -0.1607482 0.07167765
-0.3493409 0.31689695 -0.43659273 -0.17230265 -0.29721668 0.33993468 -0.007993411 0.017768068
-0.15499043 -0.028549287 -0.30358952 0.1081576 0.10888426 0.021901885 -0.37900567 -0.42741293
-0.015671542 -0.21285477 -0.37725794 -0.03349428 0.24589974 0.31141508 -0.29310337 -0.20018123
-0.056489825 0.34788874 -0.26545003 -0.21118979 0.46498403 0.03442215 -0.3042545 0.18573248
-0.08542457 -0.19705632 -0.20081753 0.11189127 -0.040722072 0.2657849 -0.3331071 0.23841563
0.49925834 0.2002024 0.27264023 0.19660439 0.11442837 0.09591417 -0.25288826 -0.07572702
-0.34203228 0.21563134 -0.35404816 -0.17632657 0.28099093 -0.36900368 0.16184415 -0.25025868
0.5247584 0.3152226 0.32272786 -0.32851702 -0.37617868 0.19405301 0.117650956 0.00047741894

net.2.weight f4 [256, 256]
00000000: 5a5f 75bd 782b 85bd 56a1 19bd a897 aebd
00000010: 00be 003d e4e2 3dbd 5396 f0bd 7365 ffbd
00000020: 4ee5 e9bc 98a3 84bd 3b53 813c 5252 543a
00000030: 8d15 823c c0da d53b d85d 9fbd c429 4ebd
00000040: 6ce2 c8bc 7edd 86bc 70ab adbd 3048 0bbc
00000050: 479e efbd 799e 7dba 5070 25bd 26d5 87bd
00000060: f2e7 553d 983b eabc a47c 7cbd 8a8b 14bd
00000070: aa20 44bc 2626 e8bd becc 7ebc ecae 253d
00000080: 1d5e 60bc 88e1 62bc e140 fd3c b038 4d3d
00000090: 64d0 35bd 1475 39bd 38b0 b0bd 24fc 58bd
000000a0: 1e7c fb3c fc69 ff3c a944 cebc 9d74 e4bc
000000b0: a73c 88bd 3a60 5dbd 3164 acbc 4849 59bd
000000c0: 5208 6ebd b25d 1bbd 3efe 2cbc 4fe3 6dbd
000000d0: 3f85 3abd 044f f3bd 7832 1cbd 40d0 a0bd
000000e0: e14c 5bbd 765a 9cbd 3860 02bd 7c9b d0bd
000000f0: e2ca 2f3d 3856 6c3c 7095 aa3d 0662 43bd
00000100: 02e4 0ebc b39d 91bd 0114 b2bc 0ece c8bd
00000110: bc7a 413d dcfb 12bc ef27 05be 5d8b d4bc
00000120: d3b0 2cbd 50b7 d8bc 607b 1fbd 89eb 9e3c
00000130: c68c 66bd 0fd5 c3bc 58d6 10bc 1096 ef3b
00000140: 5eea 0cbe dcd1 5dbc eabc f8bb a01b 66bb
00000150: da78 bebb 8870 493d 0858 30bd e0ba 2a3c
00000160: 52c5 02bd b4b5 fabd dbdb 05be eefc af3c
00000170: 4508 dfbc 48dd a33c 6e92 96bd ab6b b7bd
00000180: 3911 bfbd 3812 2bbc 05cf dabc 39cd 21bb
00000190: a25b 2fbd fa1e 983b fe76 2cbd d1ec 6cbd
000001a0: 56bf 1cbd 30c9 5dbc 40e1 02bb abbc 79bd
000001b0: 2a7c 1ebd c4d2 24bd b0b9 6fbd 79b2 03be
000001c0: 55a7 95bc 00ed 86b9 66d4 693c b0aa e2bc
000001d0: 04f8 8bbd 2e63 093d ec11 933c 736b e0bd
000001e0: 3e37 7cbc 7034 5abd ae3b a7bd e7a2 a8bc
000001f0: d2f3 2fbd 14ff 4fbd eccc 47bd 7cc3 abbd
00000200: 7426 743d ac01 31bd 8903 cdbd 429b 5bbd
00000210: e069 753c c86a 1abc c227 19bd 4ea0 fdbd
00000220: a21f 49bd d280 94bc 39cb cf3c 28ec 623c
00000230: 83d0 b0bd 526d b3bb 4ce8 57bd d2c9 15bd
00000240: 9d21 aebd 7f6c adbd a8a0 f83c 1b84 e0bd
00000250: e0b5 edbc 7016 ef3c 9b5f 873c 54ee 21bd
00000260: da71 a2bc a7f2 25bd 028f 993c b117 15bd
00000270: a421 02be f9bd 04be ba7e 4b3d 5da5 30bc
00000280: 5a8b dbbd 9a2d 23bd af3e bebc b6ed adbd
00000290: 88e1 113c 5251 383d 8e6f 773d 06f9 bcbd
000002a0: d6ce 613c 3a46 3aba f883 0fbd 8c28 debc
000002b0: 102f 56bd 866b 59bd 7b17 40bc ecd6 0e3d
000002c0: 1ed6 a5bd fd90 a33b 46a8 99bd 403e d93c
000002d0: cf16 14bd c000 0fbb fc6a 2b3d 468c 0abd
000002e0: 7475 3b3d 609a 21bc 1e92 8bbd 6b2a 82bd
000002f0: ce48 5a3d 0893 42bc 7c9d 8dbd 1b7e 11bd
00000300: 51b4 df3c e3ca 6ebd 3ab2 c0bd 8b3d 9fbd
00000310: e881 0abc 8976 77bc bc7c abbd 1dd3 20bc
00000320: 5078 ebbb b48f 103d bebb 18bd 2c11 c33c
00000330: 1e8f b1bc 9549 e9bd d836 e63c de4d 4dbd
00000340: fef4 a2bd 183d 203d 461a 6cbd e518 6dbd
00000350: 815c 4fbd 172e c7bc 7429 35bd c065 92bb
00000360: 700e f73b 2789 eebd f1bc a8bc ba32 b23d
00000370: 2b2b babd c7c7 6abb 5124 b4bd 861e 12bd
00000380: d0ad ec3b 2278 53bd 72df 43bd 1a2a 86bc
00000390: 888c 473c e6aa 4ebd 701d 7ebd b1e7 5ebd
000003a0: 516c 0bbe e6c1 4d3d 9dbc f0bd e05b 75bb
000003b0: e4e8 9dbd 1f03 a4bd ab85 ecbd 19ed 18bd
000003c0: 043a 953c bb6b 6abd 7765 f8ba 54c4 363d
000003d0: e8e6 5ebb 14b9 8cbd 4eb9 c2bd 80a1 e539
000003e0: fce2 c7bd d31e f5bd fdcf 6dbd 6878 9cbd
000003f0: e22a 59bd a400 e1bd f5ec 983c 7ab7 0fbe
-0.059905387 -0.06502432 -0.037507378 -0.0852502 0.031431198 -0.046358958 -0.11747422 -0.12470522
-0.028551724 -0.064765155 0.015786758 0.0008099425 0.015879417 0.006526321 -0.07781571 -0.0503328
-0.024522029 -0.016463038 -0.08479965 -0.008501098 -0.11700111 -0.00096747983 -0.040390313 -0.06632452
0.052223153 -0.02859287 -0.061642304 -0.036265887 -0.011970678 -0.11335401 -0.015551744 0.04045002
-0.013694313 -0.013847716 0.030914726 0.05010289 -0.04438819 -0.04527767 -0.08627361 -0.052974835
0.030698832 0.031178467 -0.025179224 -0.027887637 -0.066521935 -0.054046847 -0.021043869 -0.053048402
-0.058113404 -0.03793115 -0.010558663 -0.058078106 -0.04553723 -0.118803054 -0.03813407 -0.078522205
-0.053540114 -0.076344416 -0.031830043 -0.10185906 0.042918094 0.014424853 0.08329284 -0.047700904
-0.0087213535 -0.07110157 -0.021738054 -0.09804927 0.04723619 -0.008971181 -0.13003515 -0.02594536
-0.04216082 -0.026454598 -0.03893602 0.019399421 -0.056286596 -0.023905305 -0.008840166 0.00731159
-0.13761279 -0.013538804 -0.0075908797 -0.003511168 -0.0058127465 0.049179584 -0.043052703 0.010420531
-0.03192646 -0.12241688 -0.1307215 0.021482911 -0.027225623 0.020002976 -0.07352148 -0.08956083
-0.09329457 -0.010441355 -0.026710043 -0.0024688973 -0.042811997 0.0046423646 -0.042105667 -0.057843033
-0.03826841 -0.013536736 -0.0019970685 -0.060970943 -0.03869263 -0.040240064 -0.058526695 -0.1286105
-0.018268267 -0.0002573505 0.014271831 -0.02766928 -0.068344146 0.03354185 0.017952882 -0.10957994
-0.01539403 -0.053272665 -0.0816568 -0.02058549 -0.042957135 -0.05078037 -0.048779413 -0.08386895
0.059606984 -0.043214485 -0.1001044 -0.053614862 0.014978856 -0.009424873 -0.03739143 -0.12384091
-0.049102433 -0.018127833 0.025365459 0.013850249 -0.086335205 -0.0054756785 -0.05271177 -0.036569424
-0.08502505 -0.084679596 0.030350044 -0.10962697 -0.029017389 0.029185504 0.01652508 -0.039533928
-0.01982968 -0.040514614 0.01874495 -0.036399547 -0.12708145 -0.12963094 0.049681403 -0.010781613
-0.107199386 -0.03983841 -0.02322325 -0.084926054 0.0089038685 0.044999428 0.06040912 -0.09227185
0.013782224 -0.00071058015 -0.035037965 -0.027118944 -0.052290976 -0.053081058 -0.011724348 0.034872934
-0.0809748 0.004991649 -0.07502799 0.02651894 -0.036154564 -0.0021820515 0.041850075 -0.03382518
0.04576631 -0.009863466 -0.06814979 -0.06355747 0.05329209 -0.011875875 -0.069148034 -0.035520654
0.027307661 -0.058298957 -0.09408994 -0.0777541 -0.008453824 -0.015103945 -0.083734006 -0.009815958
-0.007185973 0.035293296 -0.03728842 0.0238119 -0.021674689 -0.11390988 0.028102323 -0.050123088
-0.07956885 0.039120764 -0.057642244 -0.05788507 -0.050625328 -0.02431397 -0.044228986 -0.004467696
0.007539563 -0.116472535 -0.020597907 0.087010816 -0.09090265 -0.0035824643 -0.08795989 -0.03567364
0.0072228685 -0.05162824 -0.047820516 -0.016377497 0.012179501 -0.05045595 -0.062039793 -0.054420177
-0.13615538 0.050233744 -0.11754725 -0.0037438795 -0.07710436 -0.08008408 -0.11548933 -0.03733549
0.01821614 -0.057231646 -0.0018951137 0.044620827 -0.0034012143 -0.06871238 -0.09508 0.0004379861
-0.09760091 -0.1196877 -0.05805968 -0.07640153 -0.05301941 -0.1098645 0.018667677 -0.14034835

net.2.bias f4 [256]
00000000: 4905 f8bd 0d13 e33c 6660 0b3d 009d cb3b
00000010: d402 77bd 30e3 91bb 4297 8abd 6eb2 16bd
00000020: 8c48 38bd bd31 58bd acd6 123d 8237 0b3d
00000030: 3e08 cfbc 2c75 863c dfd7 0cbe 921d e73c
00000040: 3197 74bd 8d7d 263a 98ad d4bc 8a69 babc
00000050: 2d07 37bd 6324 fabc a66d 2bbd f027 f7bd
00000060: dcd1 d8bd 1080 4b3d 92eb e7bc c6af 95bc
00000070: 4599 c9bd 5842 8cbd 583a 553d f09d 11bc
00000080: 8e9c 24bc c332 a2bd 9c75 e63b c95f ae3b
00000090: 2923 3cbc 98c9 76bd b784 63bc ee1a 90bc
000000a0: 7a58 8ebd 28c7 d4bc 9163 c63b ffca b0bd
000000b0: 8c8a 9f3a 1ae7 b5bc 48fb 29bd e1af 14bd
000000c0: 5f77 d8bc eb27 9abd c0f4 c53c 4bb0 dd3b
000000d0: 74be 56bd 588b 10bc 6962 96bc b8af 2bbc
000000e0: 2416 1ebd c2d0 b6bd 6563 72bd 689a 4abd
000000f0: 17c9 26bd 7c33 debd 4ca8 673c 20f8 193c
00000100: ba81 dbbc c089 3f3d 4825 853b acac 25bd
00000110: 496c 8dbd d9e9 253b 8962 bebd c214 8abb
00000120: 7e21 563d 9196 c33c 12f3 903c 14ff d3bd
00000130: d05a efbc b0c2 8ebd 028f 033a 60b0 683b
00000140: d33d 78bd aa75 ca3c c4b5 e1bd 543e 0a3d
00000150: ce29 7dbd d7b1 b0bd 592d aabd ea00 ccbd
00000160: a617 0ebe 71f0 a5bc 6a70 b1bc b0fb 7ebd
00000170: fe3d 22bd 2420 203d e15b 8bbd 8c20 80bd
00000180: c48f 4cbd e63d b4ba 4cc2 71bd 622a 9c3c
00000190: 51e8 72bd 3912 0abd 7111 2cbd 18bf 2dbb
000001a0: 09f4 8cbc 534d 09bd 0c05 10bc 3f46 e2bc
000001b0: 7e61 28bd 28e6 d5bd 422f 853e 9af8 c8bd
000001c0: 4c6e 703d 79a0 7cbd 067b edbc 7e62 57bd
000001d0: 1f7c c23c 6345 75bb 9daa e9bd e916 dbbd
000001e0: 925b 173d b297 2a3c a011 563b 2053 babd
000001f0: ae4b 5cbd 60b2 60bc 66bf 5dbd 295a f93d
00000200: d04f 52bc bfd0 8c3a 8ab5 d7bd c8ce 71bc
00000210: 626c 0dbb 5a08 873b 088f 29bd 3537 e2bc
00000220: 4f01 57bb a98e 20bc ee46 47bd c10f 06bd
00000230: f003 253d f316 d6bd ed4c 41bd 8080 27bc
00000240: 9cbe c0bd bc01 5c3c c138 f4bd a925 a1bd
00000250: 8647 20be 5fd2 21bd da66 1ebd 24c6 4ebd
00000260: 1489 64bd 3e51 54bd 9dc9 993d 66d2 45bd
00000270: fdc1 e3bd 800e a6bb ebc7 9dbd dec4 173d
00000280: d1c5 46bd 457b 4d3d 13da d9bd 5742 15bd
00000290: 56b0 d83c ced1 13be cf38 93bc 081d 1c3d
000002a0: a5ac 95bd b026 713d e565 39bd 380b 92bc
000002b0: 0883 fabc 293e 293d 1c47 c1bc 123b f7bd
000002c0: 28fb 61bd 9438 b5bc e282 aebd c274 83bd
000002d0: 646b 00bd 01bd 963d 664e 69bd 3419 f0bd
000002e0: 3cd8 48bc 6447 5dbc 34b6 f63c 883f 0bbc
000002f0: 0531 6b3d 9951 a3bd 9c9e 063c 98e2 78bd
00000300: e0c5 6f3c f646 87bb b55e 96ba 65d7 c7bd
00000310: e143 95bd 8d8b 5dbd eb25 cbbd ff71 dbbd
00000320: 08d1 74bd 3224 f3bc ff8d 8ebd b08c 203c
00000330: 327b d2bd 4229 e4bc a81c 1d3d 7c92 d2bd
00000340: 1cd6 83bc 3805 52bd 5ab9 da3c 96e8 6a3c
00000350: 30ed e5bd 089f 8abb ab69 c7bd fbe9 173b
00000360: d4f9 ddbd 229e 8fbd 36d3 14bd c08b 61bb
00000370: 0bae 0b3b 006a 3fbc 21a7 8fbd c1f9 943c
00000380: 8376 98bd 0610 8cbd 9678 5d3c 6107 17bd
00000390: f4a8 51bd 0473 09bd 217f af3b 160a 7cbc
000003a0: ce7b b1bd 2de4 79bd 2c00 f33c 2efd 92bc
000003b0: 6186 67bd f243 5dbd 904d 24bd c8ad 75bd
000003c0: 5f7b 3ebd e4b0 96bd b37e 82bd c90c 6d3d
000003d0: b20b f1bd 13f2 09bd 0e7f 05bb 4a0e 453d
000003e0: 0812 5f3d 4392 2ebd 3662 0a3e ee95 abbd
000003f0: 940d c2bd 465d 733d 795e 9fbd 4907 73bd
-0.12110383 0.027719045 0.03402748 0.006213784 -0.06030543 -0.0044521317 -0.067671314 -0.036791258
-0.04499106 -0.05278181 0.03584926 0.033988483 -0.025272485 0.016413294 -0.13754223 0.028212342
-0.0597145 0.0006351106 -0.025961682 -0.022755403 -0.044684578 -0.030534929 -0.041852616 -0.12068164
-0.105869025 0.049682677 -0.02831057 -0.018272292 -0.09843687 -0.068485916 0.052057594 -0.008887753
-0.010047091 -0.07919838 0.007033063 0.005321477 -0.011482992 -0.06025085 -0.013886622 -0.017590966
-0.06950469 -0.025973871 0.0060543497 -0.086324684 0.0012172027 -0.022204924 -0.041499406 -0.036300544
-0.026424108 -0.07527145 0.024164557 0.0067654005 -0.052427724 -0.008822285 -0.018357472 -0.010478906
-0.038595334 -0.08926536 -0.05917682 -0.04946366 -0.040719118 -0.108496636 0.014139246 0.0093975365
-0.026795257 0.046762228 0.004063282 -0.040447876 -0.069054194 0.0025316386 -0.09296138 -0.0042139003
0.052278034 0.023875507 0.01769403 -0.10351387 -0.029218107 -0.069707274 0.0005018563 0.0035505518
-0.060605835 0.02471431 -0.11020997 0.033750847 -0.061807446 -0.0862767 -0.08309431 -0.09961112
-0.13876209 -0.020256253 -0.021660049 -0.062251747 -0.0396099 0.03909315 -0.06804634 -0.06256208
-0.049941793 -0.0013751357 -0.059023187 0.019063178 -0.059303585 -0.033708785 -0.04200882 -0.0026511606
-0.017206209 -0.033521008 -0.008790266 -0.027621387 -0.0411086 -0.104442894 0.26012617 -0.09813042
0.058698937 -0.061676476 -0.028989326 -0.052584164 0.023740826 -0.003742539 -0.11409495 -0.10697729
0.036952563 0.010412144 0.0032664314 -0.09097886 -0.05378311 -0.013714403 -0.05413761 0.121754
-0.012836412 0.0010743364 -0.10532673 -0.014758773 -0.0021579494 0.0041208686 -0.04139617 -0.027614215
-0.0032807176 -0.009799638 -0.04865163 -0.032729868 0.04028696 -0.10453596 -0.047192503 -0.010223508
-0.09411356 0.013428148 -0.119248874 -0.07868511 -0.15652284 -0.039507266 -0.038672306 -0.05048193
-0.05579479 -0.05183529 0.07509158 -0.048296355 -0.11120985 -0.0050676465 -0.07704147 0.03705298
-0.048528496 0.050166387 -0.106372975 -0.03644022 0.026451271 -0.14435503 -0.017971424 0.038113624
-0.0730832 0.058874786 -0.04526319 -0.017827615 -0.030580059 0.041319046 -0.023593478 -0.12071814
-0.055171162 -0.022121705 -0.08521058 -0.06418754 -0.031352416 0.073602684 -0.056959532 -0.11723557
-0.012258586 -0.01350579 0.030116178 -0.008499034 0.057419796 -0.07974548 0.008216526 -0.06076297
0.014634579 -0.0041283322 -0.0011472317 -0.0975788 -0.072883375 -0.054088164 -0.09919342 -0.107151024
-0.05976966 -0.029680345 -0.06960677 0.0097991675 -0.10277404 -0.027851705 0.038357407 -0.10281846
-0.016093306 -0.05127451 0.02669971 0.014337679 -0.112268806 -0.004230384 -0.097369514 0.0023180235
-0.108386666 -0.07012583 -0.03633424 -0.0034415573 0.0021313454 -0.011682987 -0.07014299 0.018185498
-0.07444479 -0.06838994 0.013517519 -0.03687227 -0.051186517 -0.033556953 0.005355731 -0.015383264
-0.08666192 -0.06100862 0.029663168 -0.017942991 -0.056524638 -0.054019876 -0.040113032 -0.059980184
-0.046504375 -0.07357958 -0.06371822 0.05787352 -0.11769809 -0.033678126 -0.002036992 0.04810933
0.054460555 -0.042619955 0.13514027 -0.08378206 -0.09475246 0.059415124 -0.07781691 -0.05933312

net.4.weight f4 [2, 256]
00000000: 84c3 2b3c e58a c53c ae03 15bd 80cb 38bd
00000010: d85f 8a3c 5e4d 1b3d 67a7 493c 592a 343a
00000020: d264 1dbd 3955 13bd 60a0 31bd 7afc 823d
00000030: 6c51 dcbc 10c6 c1bc ab8b b1bd 981e abbc
00000040: 42d9 c23b 3e67 31bc aee2 583d 295d 53bb
00000050: 94d2 7abc 4ded bf3c 2188 373c 3ce2 3c3d
00000060: b043 993c c425 093d 476a c13c 0b97 893c
00000070: a329 20bd 489a 5d3b 51a3 c2bc d021 fb3c
00000080: 35fd 56bd c230 b73b 41c2 4fbc 6ce5 3f3d
00000090: a704 86bd e49f 533d 64fc 8c3d a2db 9dbd
000000a0: 2237 2a3d 907e e63b 5268 b7bc 2ba1 c8bd
000000b0: 93ec c8bd 5052 55bd 5c87 843c 3f57 f0bc
000000c0: d522 5c3c 752a 743d 807e dfbc ff0c 17bd
000000d0: a04d 5dbc 3cc4 d2bc 759a ce3d 68ef 4abc
000000e0: 6e92 513d d9c7 9ebd 428f 923d 8d50 a13c
000000f0: 0702 d03d fad2 b6bc 56d7 8cbd 1cb3 f63c
00000100: 57f4 9e3d 8025 81ba 0ea0 92bd 73c9 553d
00000110: 4267 47bb f31a 28bd 32b3 25bd 27ca 063d
00000120: 2c90 113d 9383 60bd 44e7 e8b9 c974 95ba
00000130: 9a2f 873d 50d1 fabc 4128 27bc 441b 79bd
00000140: 6ccd bd3c 3029 90bd 1ea7 853c 6030 e1bb
00000150: a837 a6bc 7677 12bd 5744 2fbc a744 9cbd
00000160: 2205 6a3c a633 4ebd fc29 e9bb 9fbc 153d
00000170: e2e5 393d 3eb4 74bd a2ad ae3d 340a 3cbd
00000180: e159 833d d1b0 8e3d 8574 18bd f46c 18bb
00000190: 8a9f 1dbd ac6a 03bd e5f8 29bd b652 803d
000001a0: 4700 ba3c 0ca2 d8bc bab1 21bd 48c6 18bd
000001b0: 7e7f e13c cebd c93c cd0c 153e f05e a1bc
000001c0: 709c b53c fffe 513d 2671 313c 0445 c63c
000001d0: 2a35 743d 6a1f ebba e677 343d 258b b73c
000001e0: eab3 2abd fff1 47bd 1c2d 8c3c 44ac 8f3d
000001f0: daa0 94bd 9c51 243d ce2f bfbb 4665 953e
00000200: 2837 46bc 3bf2 5a3d 4e4c 843d 88eb 833c
00000210: cb1c d3bc 060b 3dbd 4173 4abd 02d1 7d3d
00000220: 4e46 dd3c 9bef bebd ab96 4d3c beda 903c
00000230: 982d 13bd 0711 193d aaa1 93bd ea1f 3abc
00000240: 67ee 38bc 345e b23d 887a 033b d705 a9bd
00000250: a05d 15bd 18d0 0c3d da76 7b3d 9460 cabc
00000260: 0c3f f7bc d688 7cbd 9cf2 8e3c c04b e3bb
00000270: e6b4 14ba d278 09bd 8379 6f3d 82ea cdbb
00000280: b9ed e83c c595 45bd e178 b13d f790 07bd
00000290: 3917 b33a 4763 2a3d 8afa 97bc 4eb2 773c
000002a0: 8823 b3bc 6c4b 0e3a 27b2 56bd 2f72 9e3b
000002b0: 28e7 dfbc a896 c43b 2c5a 50bd 5c3a 673d
000002c0: c426 e5bc 0d67 813c 844f 87bc d206 9b3d
000002d0: 5d29 973d f872 473d 58f7 b7bc 2d1c 183c
000002e0: dcb3 44bd 3d0c 1e3c 1c33 68bd ea44 49bc
000002f0: 902a cf3b 4ef4 b23d 1af1 8b3c d6f2 57bd
00000300: 02c6 19bd def9 71bc 0e22 56ba 1bcd dd3c
00000310: 5ac5 15bc 31e9 82bc 1235 713c 93da 283d
00000320: 3666 5a3c f3a1 eabb bea9 aa3b a8a5 44bd
00000330: 9a29 1bbb 6c33 1b3d 5288 213b 81ff a13c
00000340: e88d 653d 7081 293d c74d f1bb c0f6 a1bd
00000350: fdc9 61be 21f8 1cb9 f31b 2e3d 53fd 3bbd
00000360: 8212 a23c c83a 85bd 8dc5 443d b0e7 0bbc
00000370: d574 4e3c 5431 febc b898 62bc ee5c 10bc
00000380: 5657 c43c 249e 653c 9501 1a3c 6e31 903e
00000390: fdf4 d2bc 559f 7f3c d66f 96bc 1fa8 adbb
000003a0: b184 39bc 1d20 b5bc 724d 1dbd 95e1 993d
000003b0: 4c63 8e3c 6e14 48bd a4f8 25bb ded7 2f3a
000003c0: adbe 423c 6034 5f3d 665c 10bd c72a 443d
000003d0: dd73 073d 7174 8fbc 3149 1a3d 948e 79bd
000003e0: a886 7abd 477c 2fbc 8f7b 823e 0417 773d
000003f0: e4c2 8f3b c8a6 61bc 6bc9 bc3d 0c93 323b
0.010483626 0.024114082 -0.036380462 -0.045115948 0.016891405 0.03791558 0.012307978 0.00068727654
-0.038426228 -0.035969947 -0.043365836 0.06395812 -0.026894294 -0.023654014 -0.08669218 -0.020888612
0.0059463093 -0.0108278375 0.052950554 -0.0032251573 -0.015308995 0.023428584 0.011201889 0.04611419
0.018709034 0.03348328 0.023610247 0.016795656 -0.039102208 0.0033813883 -0.023759516 0.030655771
-0.05248757 0.005590529 -0.012680591 0.046849653 -0.06543856 0.051666155 0.06884077 -0.07707907
0.041556485 0.0070341304 -0.022388611 -0.09796365 -0.09810748 -0.052080452 0.016177826 -0.029338477
0.013436039 0.059610803 -0.027282 -0.03687763 -0.013507277 -0.025728337 0.10088054 -0.01238618
0.051165037 -0.07752962 0.071562305 0.01969173 0.10156637 -0.022317398 -0.068770096 0.030114703
0.07761448 -0.0009853095 -0.07159434 0.05219407 -0.0030426537 -0.041041326 -0.040454097 0.03290763
0.035537884 -0.05481298 -0.00044422795 -0.0011402603 0.06600876 -0.030617386 -0.010202468 -0.06081702
0.023169242 -0.07039106 0.01631504 -0.006872222 -0.02029021 -0.035758458 -0.010697446 -0.07630282
0.01428345 -0.050342225 -0.0071156006 0.036556836 0.04538525 -0.059742205 0.085292116 -0.045908168
0.064136274 0.06967319 -0.037220497 -0.00232583 -0.038482226 -0.032084152 -0.04149713 0.06265776
0.02270521 -0.026444457 -0.039476134 -0.03729847 0.027526613 0.024626639 0.14555664 -0.01969859
0.022169322 0.051268574 0.010830199 0.024202831 0.059621014 -0.0017938439 0.044059657 0.022405216
-0.041675486 -0.04881477 0.017111354 0.07015279 -0.072572425 0.04011689 -0.005834556 0.29178828
-0.012098111 0.053453665 0.064598665 0.016103521 -0.025770565 -0.04615309 -0.04942632 0.061966904
0.027011063 -0.09323045 0.012548129 0.01768243 -0.035932153 0.037369754 -0.07208569 -0.011360148
-0.011287308 0.08709374 0.0020062048 -0.08253067 -0.03646624 0.03437814 0.061392643 -0.024704255
-0.03018143 -0.061653934 0.01744967 -0.0069365203 -0.0005672708 -0.03356249 0.058465492 -0.006284059
0.028433667 -0.048238534 0.08665634 -0.033097234 0.0013663537 0.041598585 -0.018552084 0.015118195
-0.021867529 0.0005428109 -0.052415993 0.004835389 -0.027331904 0.005999405 -0.050867245 0.05645214
-0.027972586 0.015796209 -0.016517408 0.0756966 0.07380936 0.048693627 -0.02245681 0.009284061
-0.04802309 0.0096464725 -0.056689367 -0.012284497 0.0063222125 0.08738004 0.01708274 -0.05272182
-0.03754235 -0.014769046 -0.00081685267 0.027075341 -0.009141291 -0.015980335 0.014722126 0.041224074
0.013330033 -0.007160419 0.005208223 -0.048009545 -0.002367592 0.037890837 0.0024647904 0.019775154
0.056043535 0.041383207 -0.007364008 -0.07908392 -0.22049709 -0.00014969755 0.042507123 -0.045895886
0.019784216 -0.06505352 0.04803996 -0.008539125 0.012601097 -0.03102938 -0.013830356 -0.008811219
0.023967426 0.014014754 0.009399791 0.28162712 -0.025751585 0.015601953 -0.018363874 -0.0052995826
-0.01132314 -0.02211004 -0.038403936 0.075137295 0.017381333 -0.04884761 -0.0025325203 0.0006707887
0.011886281 0.054493308 -0.035244368 0.04789236 0.03306948 -0.017511578 0.037667457 -0.06092699
-0.061163574 -0.010710782 0.25484893 0.060324684 0.0043872464 -0.013772674 0.09218105 0.0027248291

net.4.bias f4 [2]
00000000: 3ec0 ab3d e28e 1fbd
0.08386277 -0.038954623
