flappyb/models/cross_entropy/batchsize=100-hiddensize=256-lr=0.01-gamma=.9-PART=30.pt (torch_old, 272411 bytes, 6 tensors)

net.0.weight f4 [256, 5]
-0.21841314 0.23047775 -0.024973482 -0.13450631 -0.1947012 0.3467156 0.17343728 0.21481112
-0.14064492 -0.3074797 -0.17980075 -0.35202315 0.120215885 -0.06559039 -0.23812377 -0.3645207
0.12179315 0.33282134 -0.31994313 0.0139518855 -0.05066833 0.11607307 -0.103420764 0.027913898
-0.15476084 -0.024342155 -0.2507813 0.2669549 -0.33088404 0.32551432 -0.115983255 -0.011876375
-0.20723659 -0.50861925 0.18776894 0.19830245 -0.40145335 0.10946538 0.011714152 0.30027857
0.24353111 -0.42157513 0.2965735 -0.19692342 0.10183379 -0.18767177 0.2647081 -0.42320716
0.03333849 0.36163732 -0.12613246 0.42360172 0.23012581 -0.17561157 0.15066129 0.11758498
0.04553151 0.2980675 -0.18412443 0.1834568 0.40174484 0.31039986 -0.39495853 -0.011091576
-0.18723564 -0.41382357 0.28358233 -0.040010124 -0.23567359 0.23103869 0.35136458 0.1751438
-0.40113238 -0.050653737 0.31701976 0.0488969 0.0748188 -0.438025 0.028900146 0.20926072
-0.060816318 0.6446895 0.15197283 -0.06399539 -0.03865811 -0.36072955 0.37378928 -0.30152008
-0.43880126 0.110102 -0.48436463 -0.3356094 -0.2493835 -0.23432402 -0.121360905 -0.18040836
0.02605429 0.34135813 0.29158685 -0.00029511855 -0.27541575 -0.054819502 -0.42867783 0.09165602
0.2084772 -0.35989714 0.20103092 0.1643545 -0.07501363 0.33111826 -0.35144174 0.23486142
-0.34664825 -0.0010539237 0.27915224 0.20961024 0.20320089 -0.20871346 -0.3363024 0.19433221
-0.19477007 0.24289209 -0.4411747 -0.035473824 -0.4322619 -0.3771355 -0.10612774 0.104548275
-0.32437593 0.44457608 0.09120181 -0.22485101 0.36092713 0.1375587 0.059939947 -0.3542119
-0.02336213 0.109404445 -0.43573824 -0.2825853 -0.26930192 0.14891687 -0.019874034 0.14701264
-0.0013335366 0.011216731 -0.0968712 -0.13982978 -0.07083626 0.25179413 -0.2162085 -0.42037645
0.040272184 0.083375685 0.10921758 -0.39372838 0.23907354 0.11287534 -0.22929484 -0.1724884
0.3637556 -0.17572454 -0.155458 -0.362571 0.2241333 -0.017618656 0.09653854 0.15877873
-0.29413873 0.24506235 -0.04677863 0.18622638 0.19136077 -0.25921607 0.35013932 -0.4251011
0.1740942 -0.16557038 0.32233924 -0.09386125 -0.26443437 -0.056861043 0.42140567 0.2112596
-0.35583532 -0.32057247 0.10073174 0.2738793 -0.46382943 0.12125916 0.09136286 -0.3106768
-0.036058407 -0.25357735 0.0051235 -0.43534884 0.4141122 0.029228568 -0.2766488 -0.31825727
-0.0024587817 0.3260891 0.22792253 -0.17805591 0.24092355 0.02721402 0.40993053 -0.113028884
0.13206726 -0.25900447 -0.1345903 -0.15564373 -0.5405124 0.21851699 -0.26352888 0.24388117
-0.3948476 -0.2760802 0.24644426 -0.3511138 0.12037083 -0.07080463 -0.033848245 0.080613635
0.18754682 0.20317581 0.27299896 -0.308864 0.3723994 -0.2769593 -0.119404994 -0.14408718
-0.08566909 -0.47186983 0.29082185 -0.18651372 -0.24769613 0.15030366 -0.10471256 -0.19051145
-0.34250638 -0.042470463 0.3644048 -0.13618228 -0.18754196 -0.3827134 -0.004103571 0.26632702
0.3205068 -0.3827559 0.14341517 -0.11475981 -0.28311497 -0.33833107 -0.45233124 -0.23155715
00000000: b2a7 5fbe 5c02 6c3e 3095 ccbc 06bc 09be
00000010: c05f 47be b584 b13e 8b99 313e 72f7 5b3e
00000020: 3905 10be fb6d 9dbe b01d 38be 613c b4be
00000030: bf33 f63d 4154 86bd b8d6 73be 75a2 babe
00000040: b06e f93d 8f67 aa3e 96cf a3be 7396 643c
00000050: 9889 4fbd b8b7 ed3d 44ce d3bd b0ab e43c
00000060: a079 1ebe 3369 c7bc 6866 80be 50ae 883e
00000070: a269 a9be d0a9 a63e a188 edbd 2195 42bc
00000080: d435 54be df34 02bf 8046 403e cc0f 4b3e
00000090: 4b8b cdbe 632f e03d b7ec 3f3c 1dbe 993e
000000a0: 3860 793e b2d8 d7be 7bd8 973e 4ba6 49be
000000b0: 3c8e d03d 072d 40be d287 873e 9cae d8be
000000c0: f18d 083d 8728 b93e de28 01be 53e2 d83e
000000d0: 1aa6 6b3e 85d3 33be f446 1a3e 65d0 f03d
000000e0: 407f 3a3d 4e9c 983e 1d8b 3cbe 19dc 3b3e
000000f0: 80b1 cd3e bbec 9e3e 0138 cabe 71b9 35bc
00000100: b3ba 3fbe afe0 d3be b431 913e a8e1 23bd
00000110: 6b54 71be 6895 6c3e 0fe6 b33e e558 333e
00000120: 3961 cdbe 4b7a 4fbd 6a50 a23e 1e48 483d
00000130: 993a 993d d044 e0be 00c0 ec3c 7148 563e
00000140: 881a 79bd 5f0a 253f c49e 1b3e 0410 83bd
00000150: f757 1ebd 8bb1 b8be 4f61 bf3e d760 9abe
00000160: 8faa e0be 287d e13d a4fe f7be ffd4 abbe
00000170: 635e 7fbe a3f2 6fbe 118c f8bd f8bc 38be
00000180: ce6f d53c 7ec6 ae3e df4a 953e 24ba 9ab9
00000190: 4b03 8dbe 6a8a 60bd a97b dbbe 27b6 bb3d
000001a0: 0c7b 553e 7044 b8be 0ddb 4d3e 8c4c 283e
000001b0: bfa0 99bd 5588 a93e 2cf0 b3be 837f 703e
000001c0: e17b b1be d023 8aba 0bed 8e3e 11a4 563e
000001d0: e513 503e fbb8 55be d42f acbe 06ff 463e
000001e0: ce71 47be b4b8 783e a6e1 e1be 004d 11bd
000001f0: 6f51 ddbe e717 c1be 8059 d9bd 681d d63d
00000200: 9a14 a6be 7a9f e33e 04c8 ba3d 583f 66be
00000210: 71cb b83e 30dc 0c3e 9783 753d 435b b5be
00000220: f061 bfbc 700f e03d 1519 dfbe 05af 90be
00000230: f1e1 89be aa7d 183e dfce a2bc 7b8a 163e
00000240: 10ca aeba 61c6 373c 6864 c6bd 8a2f 0fbe
00000250: 9a12 91bd 29eb 803e c365 5dbe 953b d7be
00000260: 72f4 243d dfc0 aa3d 77ad df3d c496 c9be
00000270: b2cf 743e 302b e73d 44cc 6abe cda0 30be
00000280: 2d3e ba3e 22f1 33be 6230 1fbe e8a2 b9be
00000290: 3383 653e 0055 90bc 00b6 c53d e496 223e
000002a0: 5a99 96be a0f1 7a3e f39a 3fbd 21b2 3e3e
000002b0: 14f4 433e f8b7 84be 7645 b33e daa6 d9be
000002c0: c045 323e 488b 29be a609 a53e 543a c0bd
000002d0: f163 87be 20e7 68bd 7cc2 d73e 7054 583e
000002e0: 0c30 b6be 1322 a4be 714c ce3d e839 8c3e
000002f0: 0d7b edbe b956 f83d 731c bb3d 0811 9fbe
00000300: fbb1 13bd e4d4 81be 08e3 a73b 0be6 debe
00000310: 8406 d43e c070 ef3c e9a4 8dbe 9ef2 a2be
00000320: 8323 21bb 27f5 a63e 8664 693e 4a54 36be
00000330: aab4 763e f0ef de3c 6ae2 d13e b07b e7bd
00000340: a43c 073e 3c9c 84be 0ad2 09be 1261 1fbe
00000350: 055f 0abf ebc2 5f3e 42ed 86be fcbb 793e
00000360: 7729 cabe 625a 8dbe e25b 7c3e 30c5 b3be
00000370: fb84 f63d 0502 91bd 75a4 0abd c318 a53d
00000380: 460c 403e 520d 503e 85c6 8b3e 6c23 9ebe
00000390: 22ab be3e 9ccd 8dbe 9b8a f4bd 978b 13be
000003a0: 4773 afbd ec98 f1be 9ae6 943e 74fd 3ebe
000003b0: 0ea4 7dbe 34e9 193e 8a73 d6bd 6f15 43be
000003c0: ff5c afbe 82f5 2dbd 4493 ba3e 5e73 0bbe
000003d0: 000b 40be 03f3 c3be 4077 86bb 045c 883e
000003e0: 7819 a43e 95f8 c3be 6ddb 123e 3107 ebbd
000003f0: 72f4 90be bb39 adbe f697 e7be 511d 6dbe

net.0.bias f4 [256]
-0.44689405 -0.35454473 -0.095947646 0.071129896 -0.10868946 0.25169688 0.18484767 0.27156135
-0.21691911 0.21451072 -0.32353613 0.22390631 -0.060038965 -0.41688696 -0.03168621 -0.0036583538
0.123272255 0.37541208 0.24132843 -0.13075759 -0.10756255 -0.17821221 -0.041245993 0.39087358
-0.40961087 -0.4079987 -0.24169342 0.1843937 0.06499973 -0.22746125 0.2342484 0.09007112
-0.005530455 -0.2947303 -0.104327634 -0.04761657 -0.28085947 0.056366444 0.089654915 -0.24566293
-0.21109875 -0.36749882 0.33421963 0.3641064 -0.41451225 0.29186478 0.1519336 0.119106315
-0.22710504 -0.25239354 0.3655416 -0.023718463 -0.051760208 0.5139762 0.2595395 -0.089814045
-0.4542662 -0.18165834 0.28607145 0.0019726912 0.18832615 -0.06647631 0.12585886 -0.13979588
-0.18019289 -0.0018270606 -0.21405007 -0.110606216 -0.029563218 -0.18542895 -0.06736916 0.12518685
-0.26324686 -0.040629685 -0.12792811 -0.16439831 0.11034128 0.03580509 -0.43966466 -0.20004246
-0.18906501 0.3009443 -0.18198031 0.082016826 0.20712237 -0.23906131 0.28152087 -0.48666614
-0.20517154 -0.25671977 0.17397718 -0.077994905 -0.24947307 -0.32535675 0.24182828 -0.20076415
-0.20097502 -0.16598985 0.2882474 -0.2610518 -0.003237009 0.12977892 -0.14412792 0.19205874
-0.4314069 -0.26973265 -0.4087851 -0.3246124 0.18147844 -0.35485873 -0.30081338 0.32812032
-0.17002708 -0.037700295 0.21770006 0.26997167 0.060094636 -0.24429394 0.1451363 0.36152527
-0.22173825 -0.17109996 0.3155396 -0.32299548 0.33484825 -0.19509107 -0.23096713 -0.008586655
-0.23348588 0.26023126 -0.24002767 -0.1963363 -0.07402554 -0.26049972 0.21746719 0.313966
-0.4337998 0.23023438 0.17029141 -0.20763905 0.27704182 -0.21091567 0.07775575 -0.05529356
0.18605602 -0.20420237 -0.36358196 -0.13966745 -0.19214413 0.014142811 0.26716492 -0.3208537
0.13482195 0.21500567 0.40443695 0.052137144 0.17338137 0.33399934 -0.3256017 0.281736
0.1642446 -0.30493367 -0.41953355 -0.019232638 -0.15771228 -0.1809214 0.015464276 0.36836958
-0.43945003 0.37900582 0.17858319 -0.06339206 -0.41335717 0.0858485 0.12160312 -0.32165307
-0.15433498 0.011133519 0.20422716 -0.30082044 -0.14752781 -0.39284873 -0.065894395 0.090757675
0.042616725 -0.059245378 0.053196687 -0.45390546 -0.3463448 -0.17994641 -0.15778029 0.09761177
-0.34327796 0.3012021 -0.4110433 -0.14855318 -0.25716335 0.3658191 0.033822313 0.08574911
-0.15499043 -0.025659045 -0.30358952 0.11082482 0.1779709 -0.03707881 -0.37900567 -0.42741293
0.0011215485 -0.21285477 -0.37725794 0.0056012296 0.2626606 0.27401856 -0.27307478 -0.20018123
-0.056489825 0.35498828 -0.12735477 -0.1121805 0.38438684 0.036100145 -0.30253297 0.21587123
-0.08542457 -0.19361734 -0.16814935 0.14980526 -0.040722072 0.28702793 -0.3331071 0.31221697
0.40750793 0.2002024 0.27766573 0.2194639 0.13605069 0.09501662 -0.24301687 -0.100464016
-0.34203228 0.21155086 -0.3511417 -0.17972857 0.26976505 -0.3608623 0.16213676 -0.19882886
0.4660287 0.32122687 0.328175 -0.3235972 -0.37617868 0.13266501 0.102298364 0.038662042
00000000: 4ccf e4be e386 b5be 3380 c4bd 8dac 913d
00000010: 9498 debd 6ade 803e b548 3d3e 170a 8b3e
00000020: 0b20 5ebe b3a8 5b3e 87a6 a5be b247 653e
00000030: 6beb 75bd 3572 d5be 66c9 01bd fec0 6fbb
00000040: 2a76 fc3d 0336 c03e cd1e 773e 51e5 05be
00000050: c149 dcbd 437d 36be 8ff1 28bd 9520 c83e
00000060: 84b8 d1be 35e5 d0be 7b7e 77be b4d1 3c3e
00000070: 941e 853d 9aeb 68be d0de 6f3e 3577 b83d
00000080: d238 b5bb e4e6 96be baa9 d5bd 9809 43bd
00000090: d0cc 8fbe 80e0 663d ff9c b73d 108f 7bbe
000000a0: 452a 58be ce28 bcbe d61e ab3e 276c ba3e
000000b0: f33a d4be 4d6f 953e 7b94 1b3e 03ee f33d
000000c0: 398e 68be ba39 81be 4528 bb3e 394d c2bc
000000d0: 8302 54bd f293 033f 5de2 843e 6df0 b7bd
000000e0: 9495 e8be a504 3abe f577 923e 4448 013b
000000f0: 92d8 403e bb24 88bd 25e1 003e a726 0fbe
00000100: 7c84 38be fb79 efba f12f 5bbe 8385 e2bd
00000110: 902e f2bc 16e1 3dbe d8f8 89bd fb30 003e
00000120: 4bc8 86be 506b 26bd 96ff 02be 0858 28be
00000130: 9cfa e13d 5ca8 123d ba1b e1be eed7 4cbe
00000140: 429a 41be 5f15 9a3e 0c59 3abe 70f8 a73d
00000150: e317 543e 7dcc 74be 8123 903e 4e2c f9be
00000160: 7d18 52be c670 83be 1327 323e cbbb 9fbd
00000170: de75 7fbe 2995 a6be d5a1 773e 1e95 4dbe
00000180: 65cc 4dbe 3ef9 29be 2a95 933e 95a8 85be
00000190: 0024 54bb c4e4 043e 4596 13be 0cab 443e
000001a0: 5de1 dcbe 661a 8abe 484c d1be 9933 a6be
000001b0: 7cd5 393e 0bb0 b5be 3604 9abe 63ff a73e
000001c0: 941b 2ebe a06b 1abd c4ec 5e3e ba39 8a3e
000001d0: cb25 763d 3128 7abe 9c9e 143e d719 b93e
000001e0: 5a0f 63be d434 2fbe 688e a13e aa5f a5be
000001f0: 3b71 ab3e f4c5 47be a682 6cbe 0baf 0cbc
00000200: ec16 6fbe 083d 853e d0c9 75be 620c 49be
00000210: b49a 97bd 3860 85be b8af 5e3e 27c0 a03e
00000220: 021b debe 90c2 6b3e df60 2e3e 559f 54be
00000230: 6dd8 8d3e 47fa 57be 683e 9f3d 807b 62bd
00000240: 7885 3e3e 6d1a 51be 6a27 babe fc04 0fbe
00000250: 6ec1 44be 40b7 673c d7c9 883e f046 a4be
00000260: c40e 0a3e 722a 5c3e 5c12 cf3e c28d 553d
00000270: e38a 313e f601 ab3e 44b5 a6be b33f 903e
00000280: bd2f 283e 4420 9cbe 1acd d6be c48d 9dbc
00000290: 547f 21be 7643 39be e05d 7d3c f09a bc3e
000002a0: 98ff e0be 0d0d c23e 83de 363e b2d3 81bd
000002b0: 8da3 d3be 57d1 af3d 0e0b f93d b6af a4be
000002c0: fd09 1ebe 5d69 363c ed20 513e 2305 9abe
000002d0: 8811 17be 7823 c9be a4f3 86bd 29df b93d
000002e0: e08e 2e3d 48ab 72bd c5e4 593d 4c66 e8be
000002f0: 1b54 b1be df43 38be 2891 21be aee8 c73d
00000300: 21c2 afbe 2937 9a3e 4474 d2be 531e 18be
00000310: eaaa 83be a44c bb3e 4489 0a3d 3b9d af3d
00000320: d0b5 1ebe eb32 d2bc 1670 9bbe 20f8 e23d
00000330: 013e 363e f3df 17bd 080d c2be ded5 dabe
00000340: ec00 933a 9af6 59be f427 c1be 858a b73b
00000350: 737b 863e 294c 8c3e 75d0 8bbe 4ffc 4cbe
00000360: e061 67bd 06c1 b53e 4a69 02be e4be e5bd
00000370: 5ace c43e bfdd 133d 9ae5 9abe 590d 5d3e
00000380: 14f3 aebd a043 46be 582f 2cbe 8d66 193e
00000390: 30cc 26bd 53f5 923e 048d aabe e7da 9f3e
000003a0: e1a4 d03e dc01 4d3e 342a 8e3e 25bb 603e
000003b0: df50 0b3e 1398 c23d 6ad9 78be 14c0 cdbd
000003c0: db1e afbe caa0 583e d8c8 b3be c40a 38be
000003d0: a51e 8a3e f2c2 b8be 2e07 263e cb99 4bbe
000003e0: 509b ee3e d977 a43e 8e06 a83e 88ae a5be
000003f0: 7e9a c0be 56d9 073e ce81 d13d 175c 1e3d

net.2.weight f4 [256, 256]
-0.059905387 -0.062259614 -0.037507378 -0.08227123 0.031431198 -0.043217603 -0.11433025 -0.12150622
-0.025137408 -0.061783243 0.018475639 0.003856102 0.018503278 0.006526321 -0.07487202 -0.047199156
-0.023162482 -0.013645799 -0.082481764 -0.0055185575 -0.11352361 0.0018147288 -0.03756939 -0.063320786
0.052223153 -0.02859287 -0.058501925 -0.036265887 -0.009064252 -0.10970408 -0.012075994 0.04045002
-0.010602749 -0.013847716 0.033846784 0.05010289 -0.04438819 -0.042255346 -0.082721375 -0.052974835
0.033485193 0.031178467 -0.0214893 -0.02530061 -0.06405848 -0.051086098 -0.017819608 -0.0492911
-0.058113404 -0.03793115 -0.0075022765 -0.055133343 -0.043086745 -0.115369946 -0.034907065 -0.07547735
-0.05073281 -0.073740676 -0.028688204 -0.09810691 0.04332451 0.017256634 0.08089019 -0.04380734
-0.005481398 -0.06833906 -0.018851953 -0.09431721 0.04723619 -0.005906331 -0.12664786 -0.023374217
-0.0398022 -0.026454598 -0.03893602 0.019688101 -0.053241413 -0.020935027 -0.008840166 0.00731159
-0.13407287 -0.010577571 -0.004403219 -0.003511168 -0.002821087 0.049179584 -0.040071562 0.010420531
-0.0285673 -0.11930995 -0.1270097 0.02060354 -0.02461216 0.02306682 -0.06996901 -0.086586975
-0.09026789 -0.010441355 -0.023711942 0.00035212256 -0.042811997 0.0074662445 -0.0387042 -0.05481938
-0.03826841 -0.013536736 -0.0019970685 -0.058086347 -0.035500105 -0.037453488 -0.058526695 -0.125252
-0.015186153 -0.0002573505 0.017142098 -0.02766928 -0.06476813 0.03354185 0.017952882 -0.10653807
-0.01207162 -0.053272665 -0.07851359 -0.018053608 -0.03972955 -0.047853664 -0.048779413 -0.08094178
0.059606984 -0.04021574 -0.09653369 -0.053614862 0.014978856 -0.009424873 -0.033885673 -0.1207719
-0.046354406 -0.015062525 0.02688311 0.013850249 -0.082660116 -0.0024955275 -0.050326698 -0.036569424
-0.081707686 -0.081936814 0.030350044 -0.106858484 -0.029017389 0.029185504 0.01926844 -0.039533928
-0.017178245 -0.037089713 0.02175223 -0.032558594 -0.1238555 -0.12625185 0.049681403 -0.007933405
-0.104131736 -0.03983841 -0.02111992 -0.08194006 0.0089038685 0.044999428 0.06040912 -0.08912138
0.016487923 0.0023183571 -0.032659855 -0.02410134 -0.052290976 -0.050233334 -0.008617666 0.037584215
-0.078113206 0.00774162 -0.07205479 0.029195225 -0.03332241 -0.0021820515 0.041850075 -0.030750511
0.04576631 -0.009863466 -0.06505543 -0.060895633 0.05329209 -0.009517021 -0.06644194 -0.03258773
0.029926196 -0.055068504 -0.0909984 -0.075382195 -0.005619968 -0.01187665 -0.08060986 -0.006859383
-0.007185973 0.03796418 -0.03728842 0.022370711 -0.0189299 -0.11089374 0.028102323 -0.050123088
-0.07675826 0.039120764 -0.057642244 -0.054590695 -0.04761867 -0.02098912 -0.0416148 -0.004467696
0.007539563 -0.11343269 -0.0180959 0.08449768 -0.08733451 -0.0010494501 -0.085363664 -0.032681197
0.0072228685 -0.048556637 -0.04484184 -0.01338483 0.012179501 -0.047389075 -0.062039793 -0.050764613
-0.13276117 0.050233744 -0.114147805 -0.0037438795 -0.07394447 -0.07682332 -0.112316415 -0.034713473
0.01821614 -0.05422441 0.0011472843 0.044620827 -0.00039660043 -0.06600877 -0.09147036 0.0031232638
-0.09379097 -0.11655453 -0.054294508 -0.07332118 -0.05301941 -0.10669614 0.021539267 -0.13649407
00000000: 5a5f 75bd f003 7fbd 56a1 19bd d27d a8bd
00000010: 00be 003d f104 31bd fa25 eabd 41d8 f8bd
00000020: f7ec cdbc 6d10 7dbd 395a 973c a8b6 7c3b
00000030: 3094 973c c0da d53b 8056 99bd e753 41bd
00000040: 3fbf bdbc a192 5fbc 33ec a8bd 04d5 b4bb
00000050: 117f e8bd 32dc ed3a 5ce2 19bd 54ae 81bd
00000060: f2e7 553d 983b eabc b79f 6fbd 8a8b 14bd
00000070: 3a82 14bc 88ac e0bd 64da 45bc ecae 253d
00000080: 27b7 2dbc 88e1 62bc eda2 0a3d b038 4d3d
00000090: 64d0 35bd f113 2dbd d369 a9bd 24fc 58bd
000000a0: c527 093d fc69 ff3c 540a b0bc 3a43 cfbc
000000b0: 1831 83bd a83f 51bd 6dfa 91bc 77e5 49bd
000000c0: 5208 6ebd b25d 1bbd a8d5 f5bb 80d3 61bd
000000d0: ba7b 30bd 1447 ecbd b6fa 0ebd de93 9abd
000000e0: 35cd 4fbd 5a05 97bd 8603 ebbc 47ec c8bd
000000f0: 0b75 313d c95d 8d3c c2a9 a53d 536f 33bd
00000100: 4d9d b3bb 59f5 8bbd 696f 9abc 6229 c1bd
00000110: bc7a 413d e589 c1bb faaf 01be 497b bfbc
00000120: a207 23bd 50b7 d8bc 607b 1fbd f148 a13c
00000130: ab13 5abd ef7f abbc 58d6 10bc 1096 ef3b
00000140: 664a 09be 8c4d 2dbc e148 90bb a01b 66bb
00000150: fce1 38bb 8870 493d 1422 24bd e0ba 2a3c
00000160: f805 eabc c658 f4bd d50e 02be c1c8 a83c
00000170: 719f c9bc a1f6 bc3c ea4b 8fbd 8354 b1bd
00000180: 5fde b8bd 3812 2bbc 8c3f c2bc 179d b839
00000190: a25b 2fbd 66a7 f43b 4c88 1ebd 498a 60bd
000001a0: 56bf 1cbd 30c9 5dbc 40e1 02bb f3eb 6dbd
000001b0: 8f68 11bd d468 19bd b0b9 6fbd 0f42 00be
000001c0: 58cf 78bc 00ed 86b9 966d 8c3c b0aa e2bc
000001d0: 27a5 84bd 2e63 093d ec11 933c a230 dabd
000001e0: 0bc8 45bc 7034 5abd bccb a0bd 29e5 93bc
000001f0: 74bb 22bd 3402 44bd eccc 47bd cec4 a5bd
00000200: 7426 743d 43b9 24bd 75b3 c5bd 429b 5bbd
00000210: e069 753c c86a 1abc b4cb 0abd 4257 f7bd
00000220: 1ede 3dbd cfc8 76bc f839 dc3c 28ec 623c
00000230: b549 a9bd 018c 23bb 5e23 4ebd d2c9 15bd
00000240: 5c56 a7bd 7dce a7bd a8a0 f83c 9fd8 dabd
00000250: e0b5 edbc 7016 ef3c d9d8 9d3c 54ee 21bd
00000260: 64b9 8cbc 62eb 17bd bc31 b23c 295c 05bd
00000270: f4a7 fdbd 2a48 01be ba7e 4b3d 1dfb 01bc
00000280: 0543 d5bd 9a2d 23bd af03 adbc 31d0 a7bd
00000290: 88e1 113c 5251 383d 8e6f 773d 4585 b6bd
000002a0: ae11 873c 94ef 173b 57c6 05bd 2c70 c5bc
000002b0: 102f 56bd 78c1 4dbd 1c31 0dbc e8f1 193d
000002c0: d1f9 9fbd 6aad fd3b 7691 93bd d32a ef3c
000002d0: 147d 08bd c000 0fbb fc6a 2b3d 7fe8 fbbc
000002e0: 7475 3b3d 609a 21bc c83b 85bd b36d 79bd
000002f0: ce48 5a3d 47ed 1bbc b612 88bd b67a 05bd
00000300: c827 f53c 838f 61bd 5e5d babd fb61 9abd
00000310: b527 b8bb 4896 42bc c816 a5bd adc4 e0bb
00000320: 5078 ebbb 5480 1b3d bebb 18bd c842 b73c
00000330: e112 9bbc 421c e3bd d836 e63c de4d 4dbd
00000340: 6f33 9dbd 183d 203d 461a 6cbd 7e9a 5fbd
00000350: cb0b 43bd 60f1 abbc 4874 2abd c065 92bb
00000360: 700e f73b 664f e8bd da3d 94bc 1f0d ad3d
00000370: 70dc b2bd b48d 89ba 25d3 aebd b8dc 05bd
00000380: d0ad ec3b 53e3 46bd 14ac 37bd 0c4c 5bbc
00000390: 888c 473c 0c1b 42bd 701d 7ebd 8eee 4fbd
000003a0: 8bf2 07be e6c1 4d3d 53c6 e9bd e05b 75bb
000003b0: 3370 97bd 8b55 9dbd 2606 e6bd b72f 0ebd
000003c0: 043a 953c 6a1a 5ebd 7960 963a 54c4 363d
000003d0: cfee cfb9 9b2f 87bd d054 bbbd acaf 4c3b
000003e0: 7b15 c0bd 24b4 eebd eb63 5ebd 6a29 96bd
000003f0: e22a 59bd 8183 dabd 1e73 b03c 1ac5 0bbe

net.2.bias f4 [256]
-0.11797586 0.018248728 0.03402748 0.006213784 -0.06030543 -0.0010275427 0.008505188 -0.035543025
-0.04499106 -0.034273416 0.03584926 0.025219426 -0.023750713 0.016413294 -0.13383362 0.03413985
-0.054525178 0.0024381173 -0.025961682 -0.005224945 -0.040962443 -0.028040009 -0.040147346 -0.11725773
-0.103372864 0.056390636 -0.029225433 -0.01467614 -0.09604271 -0.06598979 0.06078278 -0.008887753
-0.0073666372 -0.07674162 0.0076399427 -0.012430217 -0.008695032 -0.06025085 -0.010283423 -0.015374293
-0.06703315 -0.025973871 0.007865431 -0.08363172 0.0033129028 -0.019739632 -0.041499406 -0.03357982
-0.024642529 -0.07110661 0.024164557 0.007748341 -0.052427724 -0.008822285 -0.014541435 -0.010478906
-0.038595334 0.014610626 -0.05673317 -0.046967596 -0.0382267 -0.10600255 0.016702129 0.0093975365
-0.024304956 0.046762228 0.0056253322 -0.0379619 -0.06458365 0.005302113 -0.090469696 -0.016004767
0.052278034 0.026178574 0.019205999 -0.10101804 -0.02627017 -0.06740784 0.0031534815 0.0035505518
-0.057537403 0.02658994 -0.10744302 0.033750847 -0.061807446 -0.08419044 -0.080610566 -0.021609925
-0.13515697 -0.015669426 -0.018518297 -0.059132785 -0.0396099 0.03909315 -0.065065235 -0.008078106
-0.046654433 0.0024011405 -0.057528824 0.020569792 -0.05681051 -0.033248488 -0.036840506 0.00042178412
-0.013629096 -0.025146846 -0.007832417 -0.025596838 -0.038613603 -0.10139362 0.17077321 -0.09094013
0.058698937 -0.058029983 -0.025532095 -0.052584164 0.010690159 -0.00020570913 -0.111600436 -0.10449402
0.036952563 0.015926084 0.0032664314 0.029774748 -0.036557592 -0.013714403 -0.0339515 0.033650115
-0.012836412 0.0035693129 -0.10003891 -0.014758773 0.00023444391 0.006312228 -0.038831577 -0.038928963
-0.0015520258 -0.007014623 -0.04517661 -0.03130541 0.040877085 -0.100838214 -0.045468565 0.005324237
-0.09056857 0.016246233 -0.115667515 -0.075997494 -0.054730445 -0.0375348 -0.036575362 -0.05048193
-0.05579479 -0.05183529 0.069304526 -0.048296355 -0.10773303 -0.0050676465 -0.074546225 0.038156398
-0.039913733 0.05867813 0.010663278 -0.02726544 0.02570955 -0.051665626 -0.016993351 -0.01471781
-0.070258886 0.062143113 -0.033553194 -0.014244188 -0.030580059 0.032743838 -0.023593478 -0.118223004
-0.05354338 -0.019315325 -0.08178793 -0.059092455 -0.02822879 0.057997007 -0.056959532 -0.11474302
-0.0096568195 -0.011010168 0.030116178 -0.0022390126 0.05820669 -0.07676898 0.010224012 -0.056897227
0.014634579 0.0015638103 -0.00038462 -0.0950834 -0.05328587 -0.0510143 -0.079749726 -0.10470506
-0.056600142 -0.060598083 -0.06390143 0.0097991675 -0.10030057 -0.02434777 0.029666359 -0.09936198
-0.016093306 -0.05127451 0.0273066 0.019513305 -0.030930568 -0.002907391 -0.09487408 0.003974683
-0.10490181 -0.06745624 -0.033109028 -0.0034415573 0.0053294655 -0.011682987 -0.06653446 0.021633208
-0.07112313 -0.06589435 0.015683128 -0.018428529 -0.051127195 -0.0323866 0.007807218 -0.014406442
-0.08318675 -0.05822831 0.029663168 -0.010224034 -0.05403894 -0.051776856 -0.036894463 -0.057029672
-0.04400855 -0.07026759 -0.06122773 0.05256928 -0.115210794 -0.030173583 -0.0128140785 0.04810933
0.054460555 -0.04014152 0.04118349 -0.08129564 0.029672079 0.059415124 -0.0753309 -0.056390993
00000000: 549d f1bd 5b7e 953c 6660 0b3d 009d cb3b
00000010: d402 77bd 9dae 86ba 5859 0b3c 9095 11bd
00000020: 8c48 38bd 4862 0cbd acd6 123d f898 ce3c
00000030: db90 c2bc 2c75 863c ae0b 09be 3ad6 0b3d
00000040: cb55 5fbd d2c8 1f3b 98ad d4bc 0436 abbb
00000050: 3cc8 27bd 29b4 e5bc 8b71 24bd d224 f0bd
00000060: 27b5 d3bd def9 663d 2d6a efbc 3174 70bc
00000070: 0ab2 c4bd a825 87bd 5df7 783d f09d 11bc
00000080: d563 f1bb b62a 9dbd 7c58 fa3b 1ca8 4bbc
00000090: 9c75 0ebc 98c9 76bd cd7b 28bc 75e4 7bbc
000000a0: ad48 89bd 28c7 d4bc 02de 003c 1b47 abbd
000000b0: 491d 593b 02b5 a1bc 48fb 29bd fe8a 09bd
000000c0: 21df c9bc 58a0 91bd c0f4 c53c cce5 fd3b
000000d0: 74be 56bd 588b 10bc 333f 6ebc b8af 2bbc
000000e0: 2416 1ebd 6861 6f3c 0a61 68bd 1861 40bd
000000f0: 9a93 1cbd dd17 d9bd e7d2 883c 20f8 193c
00000100: 301b c7bc c089 3f3d b554 b83b f07d 1bbd
00000110: 6f44 84bd 59bd ad3b 2d48 b9bd 6e1c 83bc
00000120: 7e21 563d 7374 d63c e655 9d3c 8ce2 cebd
00000130: 8a34 d7bc 1f0d 8abd a4aa 4e3b 60b0 683b
00000140: 57ac 6bbd 25d3 d93c 160b dcbd 543e 0a3d
00000150: ce29 7dbd 0a6c acbd 2717 a5bd 4c07 b1bc
00000160: 9766 0abe 2b5d 80bc afb3 97bc 3835 72bd
00000170: fe3d 22bd 2420 203d ec40 85bd 085a 04bc
00000180: b818 3fbd 745c 1d3b 58a3 6bbd fb81 a83c
00000190: 23b2 68bd 912f 08bd 12e6 16bd e822 dd39
000001a0: 924c 5fbc c200 cebc 8a53 00bc 76b0 d1bc
000001b0: 4c29 1ebd 75a7 cfbd 2cdf 2e3e d23e babd
000001c0: 4c6e 703d d9b0 6dbd af28 d1bc 7e62 57bd
000001d0: c725 2f3c a0b3 57b9 c58e e4bd f600 d6bd
000001e0: 925b 173d 6b77 823c a011 563b 2cea f33c
000001f0: 6abd 15bd 60b2 60bc ba10 0bbd b4d4 093d
00000200: d04f 52bc 22eb 693b 33e1 ccbd c8ce 71bc
00000210: 0fd5 7539 ced6 ce3b dc0d 1fbd fa73 1fbd
00000220: 586d cbba ecda e5bb 1c0b 39bd 1a3a 00bd
00000230: bb6e 273d 4484 cebd 3f3d 3abd f076 ae3b
00000240: 047c b9bd d216 853c 17e3 ecbd 93a4 9bbd
00000250: 082d 60bd 17be 19bd 0cd0 15bd 24c6 4ebd
00000260: 1489 64bd 3e51 54bd 88ef 8d3d 66d2 45bd
00000270: 23a3 dcbd 800e a6bb b1ab 98bd e249 1c3d
00000280: 957c 23bd 7b58 703d 08b5 2e3c c65b dfbc
00000290: d69c d23c 569f 53bd a435 8bbc f822 71bc
000002a0: e4e3 8fbd c789 7e3d 136f 09bd 7460 69bc
000002b0: 0883 fabc 671e 063d 1c47 c1bc e71e f2bd
000002c0: 4e50 5bbd 2c3b 9ebc 6e80 a7bd ee0a 72bd
000002d0: 1040 e7bc 458e 6d3d 664e 69bd 63fe eabd
000002e0: a337 1ebc fe63 34bc 34b6 f63c 66bc 12bb
000002f0: 236a 6e3d 0e39 9dbd 9d82 273c 110d 69bd
00000300: e0c5 6f3c c4f8 cc3a d3a6 c9b9 16bb c2bd
00000310: 4942 5abd 5ff4 50bd d353 a3bd 9b6f d6bd
00000320: 8dd5 67bd b235 78bd c1de 82bd b08c 203c
00000330: 636a cdbd f974 c7bc dd06 f33c 4b7e cbbd
00000340: 1cd6 83bc 3805 52bd 17b2 df3c 5eda 9f3c
00000350: 1a62 fdbc ed89 3ebb 574d c2bd 0f3e 823b
00000360: c3d6 d6bd 7f26 8abd 559d 07bd c08b 61bb
00000370: cca2 ae3b 006a 3fbc 3843 88bd 2038 b13c
00000380: 01a9 91bd 9ef3 86bd e779 803c 6df7 96bc
00000390: c06a 51bd d0a7 04bd b1d3 ff3b ff08 6cbc
000003a0: d15d aabd cf80 6ebd 2c00 f33c b582 27bc
000003b0: f057 5dbd f813 54bd a61e 17bd f297 69bd
000003c0: 4f42 34bd 74e8 8fbd eec9 7abd e352 573d
000003d0: a3f3 ebbd 972e f7bc 24f2 51bc 4a0e 453d
000003e0: 0812 5f3d 6f6b 24bd 05b0 283d 547e a6bd
000003f0: dc12 f33c 465d 733d 1647 9abd 3efa 66bd

net.4.weight f4 [2, 256]
0.00743161 -0.002564028 -0.036380462 -0.045115948 0.016891405 0.03428534 0.044908293 0.0030791648
-0.038426228 -0.03231072 -0.043365836 0.028053561 -0.024595616 -0.023654014 -0.083960466 -0.023521071
0.011145393 -0.019605923 0.052950554 0.0022281895 -0.015330415 0.02093464 0.013768947 0.042902544
0.016213665 0.0312379 0.007721471 0.013347125 -0.03638402 0.0008848201 -0.019110538 0.030655771
-0.04951131 0.0031083892 -0.010456116 0.007422001 -0.062862195 0.051666155 0.065990955 -0.0746066
0.039060183 0.0070341304 -0.019826164 -0.095216595 -0.09561204 -0.04938165 0.016177826 -0.026487302
0.019832259 0.057166424 -0.027282 -0.039629743 -0.013507277 -0.025728337 0.09838653 -0.01238618
0.051165037 0.026137263 0.06892845 0.01719606 0.09908889 -0.019821452 -0.065968856 0.030114703
0.07512221 -0.0009853095 -0.069092155 0.049711067 -0.005448713 -0.038274262 -0.037964087 0.0058146524
0.035537884 -0.052102793 0.0021636658 -0.0036356167 0.06354328 -0.02794182 -0.0072008413 -0.06081702
0.019452972 -0.06841519 0.018602181 -0.006872222 -0.02029021 -0.033121765 -0.00821983 -0.01612664
0.013798495 -0.039129905 -0.010024404 0.033280108 0.04538525 -0.059742205 0.082438715 0.028461628
0.060997177 0.0669133 -0.036735255 -0.00013471201 -0.035992585 -0.032787126 -0.04159916 0.058779012
0.020036442 -0.024662877 -0.037277255 -0.034690484 0.02503151 0.02092992 0.07672741 -0.021274114
0.022169322 0.04789451 0.0072835106 0.024202831 0.030406743 -0.0051001585 0.041612785 0.019911468
-0.041675486 -0.055969376 0.017111354 -0.05931203 -0.07046309 0.04011689 0.0018231816 0.065758824
-0.012098111 0.05095707 0.06210965 0.016103521 -0.022738447 -0.043606948 -0.046682633 0.028383523
0.024009436 -0.09062157 0.008905325 0.020090152 -0.034715146 0.03494944 -0.0694277 0.0045719766
-0.014801232 0.083332494 -0.001268313 -0.079785764 0.034745656 0.03161809 0.058790408 -0.024704255
-0.03018143 -0.061653934 -0.0021754743 -0.0069365203 -0.0037069272 -0.03356249 0.05596992 -0.0042843763
0.026078856 -0.048744027 -0.04331529 -0.036374774 -0.010468684 -0.055873536 -0.016093591 0.050723255
-0.01958785 -0.0010591826 -0.04373632 0.0013859015 -0.027331904 -0.012657692 -0.050867245 0.05395692
-0.025530972 0.011775896 -0.019876437 0.07292751 0.070686914 0.024345316 -0.02245681 0.006806143
-0.04529255 0.0071514295 -0.056689367 -0.005908195 -0.0003134898 0.084295325 0.019592617 -0.05216212
-0.03754235 -0.009966224 0.0007757647 0.024580123 -0.013848376 -0.019009672 0.018261123 0.03879154
0.010265494 -0.020106435 0.00978575 -0.048009545 -0.0048114117 0.03449233 -0.012717675 0.016671475
0.056043535 0.041383207 -0.00617747 -0.07388951 -0.14888619 0.0024423646 0.040012617 -0.04329853
0.016319774 -0.062275782 0.044801597 -0.008539125 0.008912351 -0.03102938 -0.017279916 -0.0026523606
0.020811988 0.011518306 0.006497331 0.040474754 -0.0239085 0.018025786 -0.015635291 -0.002823896
-0.01444714 -0.024954185 -0.038403936 0.06823216 0.014982991 -0.046181362 -0.0054162084 0.003326437
0.009390003 0.051175017 -0.032752458 0.035283554 0.030751517 -0.020837782 0.011602703 -0.06092699
-0.061163574 -0.008222972 0.01968949 0.05782844 0.060002223 -0.013772674 0.08969118 0.004958317
00000000: dd84 f33b 4009 28bb ae03 15bd 80cb 38bd
00000010: d85f 8a3c c96e 0c3d c2f1 373d d0cb 493b
00000020: d264 1dbd 3f58 04bd 60a0 31bd 95d0 e53c
00000030: bf7c c9bc 10c6 c1bc 77f3 abbd 43af c0bc
00000040: 2b9b 363c 9a9c a0bc aee2 583d d106 123b
00000050: 6c2c 7bbc 1f7f ab3c 2697 613c 94ba 2f3d
00000060: 85d2 843c a0e6 ff3c 6504 fd3b e6ad 5a3c
00000070: 6907 15bd 46f3 673a b48d 9cbc d021 fb3c
00000080: 5fcc 4abd 1eb6 4b3b 2150 2bbc 4234 f33b
00000090: e5bd 80bd e49f 533d 4426 873d 58cb 98bd
000000a0: 92fd 1f3d 907e e63b 7b6a a2bc eb00 c3bd
000000b0: 3fd0 c3bd 6a44 4abd 5c87 843c e6fb d8bc
000000c0: 4377 a23c 5727 6a3d 807e dfbc cc52 22bd
000000d0: a04d 5dbc 3cc4 d2bc e17e c93d 68ef 4abc
000000e0: 6e92 513d d01d d63c 5c2a 8d3d c0de 8c3c
000000f0: 1eef ca3d 9960 a2bc ae1a 87bd 1cb3 f63c
00000100: acd9 993d 8025 81ba 3080 8dbd d59d 4b3d
00000110: 1e8b b2bb 79c5 1cbd 3b80 1bbd d788 be3b
00000120: 2c90 113d bd69 55bd 4acc 0d3b 8743 6ebb
00000130: fb22 823d 3ee6 e4bc 09f5 ebbb 441b 79bd
00000140: d75b 9f3c 431d 8cbd 9a63 983c 6030 e1bb
00000150: a837 a6bc b0aa 07bd 77ac 06bc 041c 84bc
00000160: 1513 623c ae46 20bd 663d 24bc b950 083d
00000170: e2e5 393d 3eb4 74bd a1d5 a83d 5c28 e93c
00000180: 2dd8 793d d709 893d b577 16bd 7b41 0db9
00000190: f66c 13bd cb4b 06bd e163 2abd 43c2 703d
000001a0: 7723 a43c cd09 cabc 09b0 18bd 9c17 0ebd
000001b0: e20e cd3c 3975 ab3c 4323 9d3d 0d47 aebc
000001c0: 709c b53c 092d 443d 84aa ee3b 0445 c63c
000001d0: 9017 f93c 3b1f a7bb 2b72 2a3d 601d a33c
000001e0: eab3 2abd 2540 65bd 1c2d 8c3c 2cf1 72bd
000001f0: f44e 90bd 9c51 243d d3f7 ee3a 90ac 863d
00000200: 2837 46bc 5cb8 503d b066 7e3d 88eb 833c
00000210: fb45 babc 339d 32bd 4a36 3fbd 9084 e83c
00000220: 70af c43c cd97 b9bd a4e7 113c 1a94 a43c
00000230: 7831 0ebd 2527 0f3d 1c30 8ebd 85d0 953b
00000240: de80 72bc 3aaa aa3d 863d a6ba b866 a3bd
00000250: 7651 0e3d f881 013d 36ce 703d 9460 cabc
00000260: 0c3f f7bc d688 7cbd 6792 0ebb c04b e3bb
00000270: ebef 72bb d278 09bd b740 653d f463 8cbb
00000280: 53a3 d53c d1a7 47bd 606b 31bd b7fd 14bd
00000290: d884 2bbc a6db 64bd b5d6 83bc 30c3 4f3d
000002a0: b376 a0bc 45d4 8aba db24 33bd 23a7 b53a
000002b0: 28e7 dfbc 3562 4fbc 2c5a 50bd ee01 5d3d
000002c0: 5426 d1bc b0ef 403c e9d3 a2bc 055b 953d
000002d0: 4dc4 903d d46f c73c 58f7 b7bc 1106 df3b
000002e0: ae84 39bd 8a56 ea3b 1c33 68bd 8899 c1bb
000002f0: e45b a4b9 07a3 ac3d b280 a03c f2a7 55bd
00000300: 02c6 19bd 6049 23bc b05c 4b3a 415c c93c
00000310: 4de4 62bc 2cba 9bbc 5a98 953c e1e3 1e3d
00000320: 9a30 283c 40b6 a4bc 6954 203c a8a5 44bd
00000330: 0ca9 9dbb d447 0d3d cc5d 50bc 9e92 883c
00000340: e88d 653d 7081 293d 606c cabb 6253 97bd
00000350: 9f75 18be 1410 203b 45e4 233d cd59 31bd
00000360: 0cb1 853c e414 7fbd e181 373d b0e7 0bbc
00000370: 1c05 123c 5431 febc 9c8e 8dbc 3ad3 2dbb
00000380: e77d aa3c 47b7 3c3c 90e7 d43b dbc8 253d
00000390: c2db c3bc d0aa 933c 9515 80bc 1d11 39bb
000003a0: b2b3 6cbc b86c ccbc 724d 1dbd 4dbd 8b3d
000003b0: 387b 753c ab28 3dbd 737a b1bb 5a00 5a3b
000003c0: 87d8 193c e59c 513d 7127 06bd 7d85 103d
000003d0: 9bea fb3c ffb3 aabc 4319 3e3c 948e 79bd
000003e0: a886 7abd a5b9 06bc da4b a13c 84dd 6c3d
000003f0: e4c4 753d c8a6 61bc 02b0 b73d 6179 a23b

net.4.bias f4 [2]
0.06964448 -0.024736281
00000000: c4a1 8e3d bea3 cabc
