flappyb/models/cross_entropy/batchsize=100-hiddensize=256-lr=0.01-gamma=.99-PART=60.pt (torch_old, 272411 bytes, 6 tensors)

net.0.weight f4 [256, 5]
000000 65 18 39 be 75 fa 8d be 2b 72 df be 69 13 06 be
       -0.18075712 -0.27730146 -0.4364179 -0.13093342
000010 52 f1 9a bc 06 76 7e 3e ef 3a 4d 3e c6 a0 ad bd
       -0.018913899 0.2484971 0.20042013 -0.08477931
000020 25 00 29 3d 73 d2 ea bd d3 91 9b be 56 93 98 3e
       0.041259903 -0.11465921 -0.30384693 0.29799908
000030 04 f4 cb bd 3c 29 1b be 39 bb 82 be 80 dd 0d bd
       -0.09958652 -0.15152448 -0.25533465 -0.034635067
000040 11 00 e0 be 20 76 bb bd 4d 5a e0 be d2 01 d3 3e
       -0.4375005 -0.0915339 -0.43818894 0.41212326
000050 5c ce 9a be 5a fa 2f 3e 0d 8d 9c 3d 17 66 41 be
       -0.30235565 0.17185345 0.07644091 -0.188866
000060 0a e1 c4 be 07 cf 8d bd 0e cc 13 3e 57 01 8e bc
       -0.3845294 -0.06924253 0.1443331 -0.017334623
000070 a5 e7 86 3e e8 a6 2b be 18 b5 82 be 38 ff 40 3d
       0.26348606 -0.16762888 -0.2552879 0.047118396
000080 66 86 bf 3e ea 72 8c 3e 76 7e dc be 88 e5 55 3e
       0.37407225 0.27431422 -0.43065232 0.2088834
000090 f6 76 37 3d 9a d8 70 be 62 2a 0b bd d0 7f 5b be
       0.044791184 -0.23520127 -0.033975966 -0.21435475
0000a0 99 31 c6 3d 2a 36 69 bd 15 59 16 bd 8b d6 db be
       0.09677429 -0.05693642 -0.03670605 -0.4293712
0000b0 7c 01 9e 3d 09 8c 1f be 36 03 1f bb 4c 48 97 bd
       0.07715127 -0.15580763 -0.0024263388 -0.073868364
0000c0 e3 0a df be 81 55 c6 3e ec 0a 87 3e d6 82 97 be
       -0.43562993 0.3873711 0.2637552 -0.29592007
0000d0 50 22 c5 be 24 09 28 be 4e 66 df be 39 16 65 3e
       -0.3850274 -0.16409737 -0.4363274 0.22371759
0000e0 8c 0b b0 3e e2 83 bd 3e 84 b5 5d be 21 0c 61 be
       0.3438381 0.3701468 -0.21651274 -0.21977283
0000f0 74 40 97 3e d9 69 e0 be e1 d6 b3 3d eb 9e 67 3e
       0.2954136 -0.43830755 0.08781219 0.22619216
000100 fb f2 82 3e f6 64 75 3e 79 ff 4d 3e 6b 97 b3 3e
       0.25576004 0.23964295 0.20116986 0.3507646
000110 d2 63 c5 3e f3 31 cf be 06 af 11 3d 86 4e 9e be
       0.3855272 -0.40467796 0.035567306 -0.30919284
000120 d3 39 8e 3d ec f0 a5 3e 3c 05 c8 be 6c 92 58 3d
       0.06944623 0.3241037 -0.39066494 0.052874014
000130 fd 02 a5 be 63 7c aa be a3 3d af be ea ba 4c 3e
       -0.32228842 -0.33298025 -0.34226713 0.19993177
000140 08 9c c0 bd d9 5e 89 be a3 9d 2f bd d7 f7 63 be
       -0.094047606 -0.26830176 -0.042874943 -0.22262512
000150 aa af 69 be 80 99 07 3d 3e ef 87 be fe 1e 52 be
       -0.22820917 0.033105373 -0.26549715 -0.20519635
000160 f4 36 3a 3e 6c f0 18 3e 90 37 9e bc ea 23 d7 3e
       0.18185025 0.14935464 -0.019313604 0.42019588
000170 b8 e8 5a bd d0 ac a1 3d 50 81 65 be 81 db 83 3d
       -0.053444594 0.078942895 -0.2241261 0.064383514
000180 81 a2 7c 3e 86 2f b8 be 69 a8 cf 3d c4 ad 48 3d
       0.24671365 -0.35973758 0.101395436 0.04899384
000190 3b 1f a5 be aa 59 d6 3e 20 b8 dc be 60 2e cd 3d
       -0.3225039 0.41865283 -0.43109226 0.10018611
0001a0 1c bc 9e be 99 71 f8 3d 48 c9 b6 3b ea ea 95 be
       -0.3100289 0.12131042 0.005578194 -0.29280788
0001b0 99 9e 3b be 00 8f 92 be 83 54 0a bc 4f 9a 7a 3e
       -0.18322219 -0.28624725 -0.008443001 0.24472927
0001c0 1b 64 8a 3e 71 57 ac 3d ee 9b 42 be 40 42 5b 3d
       0.270295 0.084151156 -0.19004795 0.053529978
0001d0 96 07 85 be b4 8a ef bd bf f9 c9 be 2c aa 92 3e
       -0.2598235 -0.116963774 -0.39448354 0.28645456
0001e0 1a 2c 4c be 00 44 f4 3b 00 d5 c4 3d 5c 4f 4b 3e
       -0.19938698 0.0074543953 0.09610939 0.19854492
0001f0 78 ba 2e 3d 5e 51 6e 3e b0 e9 b3 3e 41 e7 ba 3e
       0.0426583 0.23273227 0.35139227 0.36504558
000200 72 7e b0 bd 92 95 a3 3e ea dc 7b 3e 23 7f 3f 3e
       -0.086178675 0.3195005 0.24595991 0.18700843
000210 a3 81 96 3e a7 a5 9c bd ba 75 1a be e4 03 84 be
       0.2939578 -0.07648783 -0.15083972 -0.25784218
000220 c3 99 b0 3e f9 fd 88 bd cc 95 18 3d 12 11 44 be
       0.3449231 -0.066890664 0.037252232 -0.19147137
000230 dd f0 4b 3e 0c cc 29 be ca 8f a0 bd 25 70 e5 bc
       0.19916101 -0.16581744 -0.078399256 -0.028007576
000240 6c b9 40 3e 03 9c 7c be 4d e3 a4 3e e8 86 bd 3e
       0.18820733 -0.24668889 0.32204667 0.37016988
000250 38 05 1a be b2 ff aa 3e 02 7b 7b 3e e6 35 96 be
       -0.15041053 0.33398205 0.24558643 -0.29337996
000260 f4 23 a8 be 75 44 70 be 58 eb e9 bd ef 69 a2 3d
       -0.3283993 -0.23463614 -0.114218414 0.079303615
000270 c6 17 b4 3e d7 a1 99 3e 01 af ee 3e df 7a 83 be
       0.35174388 0.30006287 0.46617892 -0.2567968
000280 ca 24 02 bf 3b 73 b1 3e 61 ef f9 be db 19 17 3e
       -0.50837386 0.34658226 -0.48815444 0.14755957
000290 16 6d fb be 98 4e 8c 3e 4d 71 ba 3e 73 e5 cf bd
       -0.49106663 0.27403712 0.36414567 -0.10151186
0002a0 b6 cf 0e 3e 8c e1 db be f7 73 cf bd 0b ad 79 3d
       0.13946423 -0.42945516 -0.101295404 0.060956042
0002b0 4e 4f 31 3e 70 b4 4d be 63 9e 52 be c4 5f e0 3d
       0.17315409 -0.20088363 -0.20568232 0.10955766
0002c0 7d c3 85 3d 1c 3b b9 be 3f ab 87 be 76 79 13 be
       0.06531427 -0.3617791 -0.26497838 -0.14401802
0002d0 33 3f 7a 3e 45 a3 46 3d 2c d1 50 be bd d9 76 3e
       0.24438171 0.04849555 -0.20392293 0.24106498
0002e0 52 cd 9c 3e c8 c6 c0 be 87 cb 16 bf c0 2e 1c bd
       0.30625397 -0.37651658 -0.5890431 -0.03813052
0002f0 f9 70 e7 be 88 59 65 be d0 d1 19 3d 3a ff d9 3e
       -0.4520338 -0.22397435 0.03755361 0.42577535
000300 81 af c3 be 60 b9 da bc 14 41 bb be 51 6e fd bc
       -0.38219836 -0.026699722 -0.36573088 -0.030936392
000310 0d 1c 8f 3d 94 69 93 3e bb fb f0 be bc 87 bc be
       0.06987772 0.28791487 -0.47067055 -0.36822307
000320 42 c4 4d 3e dd 3d 8c be 0b b2 c2 bd 50 59 ad 3e
       0.20094398 -0.27390948 -0.09506615 0.33857203
000330 77 b9 e2 be d0 f1 c4 be 11 a3 30 be bc 4c 31 be
       -0.44282123 -0.38465738 -0.17249705 -0.17314428
000340 af 2b a8 3e aa 06 bb 3d fc e8 ec 3d 8b 0d 89 be
       0.32845828 0.091321304 0.11567876 -0.26768145
000350 84 77 75 3d 06 d8 cc 3d 1f f6 a3 be a6 59 92 bd
       0.059928432 0.10002141 -0.32023713 -0.07146005
000360 c9 34 12 be 66 58 f0 be 80 ee ed be 29 d2 18 3e
       -0.14277948 -0.46942443 -0.46471024 0.1492392
000370 49 59 2c 3e 72 be a2 be a7 8c 3b be a9 b5 2f 3e
       0.16830935 -0.31785923 -0.18315373 0.17159142
000380 ba 19 cf be a3 7b a3 3e dc 9c 22 3e f8 4b 9a be
       -0.40449315 0.31930265 0.1588015 -0.30136085
000390 81 02 80 3e 15 94 6c bd 8a df e0 be 06 f3 e2 bd
       0.2500191 -0.05775841 -0.43920547 -0.11081509
0003a0 a7 5f 89 bd e5 a8 35 bd 1d 51 a2 3e e1 97 7b be
       -0.06707697 -0.044350524 0.3170251 -0.24569656
0003b0 04 af b0 bd 47 8d 6e 3e fb 59 15 bd 96 1b 3e be
       -0.086271316 0.2329608 -0.036462765 -0.1856521
0003c0 0c 0a a6 3e dc 6b 71 be 68 85 7f 3e 19 f7 b0 3e
       0.3242954 -0.23576301 0.24953234 0.3456352
0003d0 08 ac c9 be a6 bb d4 be 70 01 e8 3d 41 8c c2 be
       -0.39389062 -0.41549414 0.11328399 -0.3799763
0003e0 0c f8 c4 3e 72 e3 56 bd 61 36 c3 be 17 9a 87 3d
       0.38470495 -0.052463003 -0.38127425 0.06621187
0003f0 70 90 82 be 12 29 8e be 07 f3 19 be 74 f4 ab 3e
       -0.25500822 -0.2776571 -0.15034114 0.3358494

net.0.bias f4 [256]
000000 9d c5 8c 3e 6b 77 37 3c c2 2b a9 be 54 17 9c be
       0.27494517 0.011197905 -0.33041197 -0.30486548
000010 44 a5 38 3e 49 21 a5 3d da cb c9 be de ce be 3d
       0.18031794 0.08062989 -0.3941334 0.093168005
000020 95 57 82 3c 3d 98 c1 bd 2e 80 7a be 30 78 96 3e
       0.015910903 -0.09452865 -0.24462959 0.2938857
000030 4d 16 27 3e fc 8b c2 3e 7d 88 5e 3e 09 84 cb 3e
       0.16317101 0.37997425 0.21731754 0.39749172
000040 4d 2d 84 3e d6 67 ab be 70 e5 db be 3f 01 f1 bc
       0.25815812 -0.33477658 -0.42948484 -0.02941954
000050 00 29 3f 3c d4 64 a6 3e 76 0c d5 be fa c4 9f be
       0.01166749 0.324988 -0.4161107 -0.3120497
000060 a5 81 8e be f6 fc 66 3e 38 12 d2 be 0e 46 9e bc
       -0.27833286 0.22557434 -0.41029525 -0.019320514
000070 65 e8 83 be b0 f4 a1 be df ee 90 3e 72 10 bb bd
       -0.2576324 -0.31631994 0.28307244 -0.09133996
000080 0f 57 84 3e 89 07 a8 3d 74 91 7d bb 4d 45 35 3e
       0.2584767 0.08204562 -0.0038691433 0.17702217
000090 f6 3e 8e 3e b1 d5 bf 3e fa 16 37 be 8f 66 76 3e
       0.2778241 0.3746772 -0.17879859 0.2406256
0000a0 ca 6c 15 3e 4e 6c d4 3e 19 b1 a9 3e 6f 23 68 3e
       0.14592281 0.4148888 0.33142927 0.22669767
0000b0 2d 5a c6 3d 9e 95 d1 be 8a 6c 3e bb d9 3e 98 3d
       0.096851684 -0.4093446 -0.0029056394 0.07433862
0000c0 9f 9d 98 3c 96 20 9b bd 94 2d 97 3e 26 17 ce be
       0.018629847 -0.07574575 0.2952696 -0.40252036
0000d0 42 ed 0c 3e 80 9a 46 be 0c 67 9d be 81 93 19 be
       0.13762382 -0.19394875 -0.3074268 -0.14997675
0000e0 98 b6 34 3e 00 2e cd be dd 0e 89 be b0 f9 98 bd
       0.17647779 -0.40074158 -0.26769152 -0.07469499
0000f0 e8 9a ee 3d 2d 0f c9 3e c7 67 92 3e af 8e 30 3e
       0.1165064 0.3926939 0.285948 0.1724193
000100 30 32 8e be 99 5b dc 3d 10 ca dc 3d 33 32 43 3e
       -0.27772665 0.10759658 0.10780728 0.19062118
000110 d8 c4 55 be 00 3b bc be 00 9e e2 ba 72 a1 82 be
       -0.20875871 -0.36763763 -0.0017289519 -0.25513798
000120 16 14 df 3d 41 d8 97 bd ed 67 1f 3c e9 9b a5 be
       0.10892503 -0.07414294 0.009729368 -0.32345513
000130 dc 0f ea be 92 d8 de be f2 c0 0a 3c 1f b3 e1 be
       -0.45715225 -0.43524605 0.008468853 -0.4408197
000140 18 f7 44 be a5 4e 55 3e 52 5d 1c 3d f2 35 d5 be
       -0.19234884 0.20830782 0.038174935 -0.4164272
000150 ce c8 0f be d3 8d 00 bd af d3 b0 be 5c 52 e0 be
       -0.14041445 -0.031385254 -0.34536502 -0.43812835
000160 68 c7 52 be ce ce 2c be ee 3b 9d be 1b a0 46 3d
       -0.2058388 -0.16875765 -0.30709785 0.048492532
000170 8c 10 82 be dd 09 e7 be 52 67 00 bf a9 dd 9b 3e
       -0.2540325 -0.45124713 -0.50157654 0.3044255
000180 f8 16 56 bd 12 8c c8 be fd 59 11 be 8f ab ab 3e
       -0.052268 -0.39169365 -0.14194484 0.33529326
000190 a9 3c 93 3e 57 d2 d8 be 4f c6 92 be a3 2b e4 be
       0.28757218 -0.42347977 -0.28666922 -0.44564542
0001a0 20 b2 cb be 76 0c 91 be 30 53 2d be 31 b1 3d 3e
       -0.39784336 -0.2832982 -0.16926265 0.18524624
0001b0 22 4e 40 3e 76 82 7b 3d cb 80 b4 bd 19 84 a5 be
       0.18779805 0.061403714 -0.08813628 -0.32327345
0001c0 10 70 43 be 0e c8 5c 3e 40 3d ee bd ed d7 87 be
       -0.19085717 0.2156069 -0.11632776 -0.26531926
0001d0 26 ee de 3e d1 d1 a8 be 10 57 af 3e 84 4b 0a 3b
       0.43541068 -0.32972577 0.3424611 0.002110214
0001e0 d7 9c 9f 3e 53 e0 11 be 56 f0 b5 be c6 2f 97 3e
       0.31174347 -0.14245729 -0.35534924 0.29528636
0001f0 96 37 2e be 1e ef bd be 0c 0e 22 bc 8a c8 f6 be
       -0.17013392 -0.37096494 -0.009891044 -0.48199874
000200 83 7a 97 be 58 48 3b bc 2c 78 a2 bd fc 36 dd be
       -0.29585657 -0.011430822 -0.07933077 -0.43206012
000210 26 84 90 be b4 83 bc 3e 2c 7a 8f be 86 3c 07 be
       -0.2822582 0.36819232 -0.28022897 -0.13206682
000220 60 db 9f bd e7 06 e9 3d 87 40 c5 3e 0a c5 5a 3b
       -0.07805514 0.1137827 0.38525793 0.0033381605
000230 19 e2 c1 be c0 66 48 3d 76 b3 33 3e 7d 23 c1 be
       -0.3786781 0.048926115 0.17548928 -0.37722388
000240 52 46 18 3d 27 12 8f 3d b2 8c da 3c 74 62 a0 3d
       0.037176438 0.06985884 0.026678417 0.078312784
000250 8e 64 ae be ff 8b 16 3e 54 16 54 3e ff 1b 94 be
       -0.34061092 0.14701842 0.20711643 -0.2892761
000260 d8 08 81 3d 74 4f 57 3e 5b 21 8d 3d 8b 28 03 bf
       0.06300515 0.21026403 0.06891128 -0.5123374
000270 67 bb 24 be 9f aa c5 be 91 79 a8 be 57 85 7f 3e
       -0.16087113 -0.38606736 -0.32905248 0.24953209
000280 16 fe be be 65 f6 ca be 4d 75 50 be 7c 77 3d 3e
       -0.37303227 -0.3964111 -0.20357247 0.18502611
000290 7b d7 35 3e dd 37 d4 3e 2d 26 72 be 7f f8 98 3e
       0.1775798 0.4144887 -0.23647375 0.29877087
0002a0 35 22 b1 be 74 a7 9f 3d 90 c2 88 3d 11 32 eb be
       -0.3459641 0.07795611 0.06677735 -0.45936635
0002b0 4b e4 c7 3e bd bb 59 be c3 98 63 be 48 c3 2e be
       0.3904136 -0.21263023 -0.22226243 -0.17066681
0002c0 c5 50 46 3e a9 68 9a 3d 4b 07 20 3d 0f ad 80 3e
       0.19366749 0.075394936 0.039069455 0.25132033
0002d0 90 65 7e be e4 53 dc 3d a0 a7 3a 3e b9 11 bb be
       -0.2484343 0.10758188 0.18228006 -0.3653696
0002e0 d0 10 84 3e 0e b9 22 be 2d 19 93 bd 20 d4 cb be
       0.25794077 -0.15890905 -0.07182536 -0.39810276
0002f0 5a 2b f6 3e ef 97 06 3e 98 18 8e 3e f9 4a e0 3d
       0.4807995 0.13143896 0.2775314 0.109518
000300 eb 66 10 3e 87 05 81 3e dc 23 a2 3d 00 f9 cd bd
       0.1410176 0.2519953 0.07916996 -0.100572586
000310 17 83 f6 be 62 96 11 be 21 2e a9 be 75 fa e6 bd
       -0.4814689 -0.14217523 -0.33043006 -0.1127824
000320 2c a3 78 be 9c e6 da be ac e4 99 bd 2c 25 7a 3e
       -0.24280995 -0.42754066 -0.07514319 0.24428242
000330 51 84 47 be 52 06 cb bd 73 60 e3 be b2 20 8a bc
       -0.19484068 -0.09913315 -0.44409522 -0.016861293
000340 b0 35 73 bd 23 8d d2 be 5c ed 2a 3e 08 4f 43 bd
       -0.059377372 -0.41123304 0.16692108 -0.047682792
000350 5d 66 b3 be da 99 8a be b9 26 7b 3e cb bf 4a be
       -0.35039034 -0.27070504 0.2452649 -0.19799726
000360 40 0a 28 3d 2a 0e c2 be fe c7 06 3e 44 c1 f1 be
       0.0410254 -0.3790143 0.13162228 -0.47217762
000370 56 f8 7f 3e d6 10 07 be ee ff a7 be 3b 46 f9 3d
       0.24997076 -0.13190016 -0.32812446 0.121715985
000380 a4 74 f3 bd 1f 43 73 be a4 f1 b8 3d e3 ae b5 3e
       -0.11887482 -0.23756073 0.09030464 0.3548499
000390 7e cc 7f bd 71 1d fd 3d 91 b1 e8 bd 60 6d c1 be
       -0.06245088 0.12359131 -0.11361993 -0.3777876
0003a0 a5 d8 d1 be cc c7 07 3c 15 af 63 3e bd 1c 68 3d
       -0.409856 0.008287381 0.22234757 0.056668032
0003b0 42 fb 50 3e d6 f7 87 3d e8 9b e6 bd 0c ee 95 3e
       0.20408347 0.06639068 -0.112602055 0.29283178
0003c0 6f 9b 89 3e 88 0a 6d 3e 72 22 27 3e 08 a3 ac be
       0.268764 0.23148549 0.16321734 -0.33718133
0003d0 98 69 cd 3d fe f9 82 be 5d b8 89 be df 37 11 3e
       0.10029906 -0.25581354 -0.2689847 0.1418147
0003e0 21 93 bf 3e 1b 2e b7 3e ea 7b 14 be b9 75 dc bd
       0.37416938 0.35777363 -0.14500394 -0.10764641
0003f0 ca 03 6d 3e 4e ad 3c be 50 47 65 3e 5c 04 96 3e
       0.23145977 -0.18425485 0.22390485 0.293002

net.2.weight f4 [256, 256]
000000 f8 f3 99 bd 1c 32 ce bd 80 c3 a6 3c 70 d8 96 bb
       -0.075172365 -0.10068151 0.020356894 -0.004603438
000010 d3 fd f7 bd bd 15 93 bc 78 48 5f 3c 7d 84 a3 bd
       -0.1210896 -0.017954702 0.013628118 -0.079842545
000020 7d 77 91 bd 15 47 2b bd 08 46 1a 3c 0e fa 8d bd
       -0.07102869 -0.041815836 0.009416111 -0.0693246
000030 cb 64 a0 bc 29 e5 e3 bd 37 5d b7 bd 7a 87 ba bd
       -0.019579312 -0.11127693 -0.08953326 -0.09107871
000040 3b 1b bb bc 38 35 91 bc 08 62 5e 3c 1b 2f f5 bc
       -0.022840133 -0.017725572 0.013573177 -0.029929688
000050 14 5c a5 3c 7d e2 9d bc 46 64 b7 bd f0 62 c1 3c
       0.020185508 -0.019273037 -0.089546725 0.023606747
000060 b8 86 97 3c a6 52 12 bd a9 17 0d bd c8 32 66 3c
       0.018496856 -0.03572335 -0.034446392 0.014050193
000070 0a 38 e9 bd 7c f6 8c bd c5 37 f9 bd 17 0e fd 3b
       -0.11387642 -0.06882951 -0.1216884 0.007722627
000080 19 70 af 3c 26 aa 96 bd a5 ae 85 bd bd 66 6d bd
       0.021415757 -0.07356672 -0.065274514 -0.057959307
000090 10 af 36 bb 96 5f c3 bd 32 3b 41 bd 18 a2 e7 bd
       -0.0027875341 -0.09539716 -0.047175594 -0.11310214
0000a0 8c 5c dd bc a8 d2 d0 bd f6 f2 c5 bd df 98 60 bc
       -0.027021669 -0.101964295 -0.09665482 -0.013708322
0000b0 91 4c cd bc ea ec a2 bd 5e b4 e1 bd f2 1b 92 bd
       -0.025060924 -0.07955344 -0.110207304 -0.071342364
0000c0 70 9c 97 bd 1d 9a 9c bc 68 cb 1a 3d 88 54 d0 3c
       -0.07402885 -0.019116456 0.03779164 0.025430933
0000d0 39 dc c2 bd 38 9c bd bc f8 9d 2a bd 01 0c 63 bd
       -0.095146604 -0.02314578 -0.041654557 -0.05543137
0000e0 3e 28 49 ba a4 67 27 bd 88 30 37 3c c6 84 30 bd
       -0.0007673538 -0.040870324 0.011181004 -0.043095373
0000f0 6c 9d bc bc 4a ff 8f bd ab f8 70 bd e3 84 c2 3c
       -0.023024283 -0.070311144 -0.0588309 0.023745006
000100 7c 03 64 bd 60 54 55 bd 18 de 56 bd 67 88 7b bd
       -0.055667385 -0.05208242 -0.0524579 -0.06140938
000110 fa b9 50 bd b8 40 e4 bc 42 de 4f 3d 6d eb aa bc
       -0.05095861 -0.027862892 0.05074907 -0.020864213
000120 e5 86 d7 bd f0 c6 c9 bc 57 c3 62 3d 8e f3 83 bc
       -0.10523776 -0.024630994 0.05536207 -0.016107347
000130 f0 98 20 bd f8 02 77 bd 8e 96 6a bc 50 40 e0 3b
       -0.039208353 -0.060305566 -0.014318122 0.006843604
000140 f4 91 54 bd 01 67 49 bd 7c 33 cc 3c c8 71 93 bc
       -0.051897004 -0.049170498 0.024926893 -0.017998591
000150 9a 30 fb bc 83 d0 54 bd 00 75 3b bb ed 81 b1 3a
       -0.030662823 -0.051956665 -0.0028603673 0.0013542749
000160 e6 8f b3 3d 24 9d 92 3c f4 39 3e 3d 96 55 cf bd
       0.08767681 0.017897196 0.046441987 -0.10123746
000170 b0 13 6e bd ce 4f 80 bd d7 4b 52 bd e1 08 8e bd
       -0.058124244 -0.062652215 -0.051341858 -0.06935287
000180 4e 39 c6 bd 11 49 3c bd 29 30 f6 bd dd 0a 39 bd
       -0.09678899 -0.04596812 -0.120209046 -0.045176376
000190 2d f9 89 bd a3 06 df 3a 64 a3 a9 bc 4e d5 05 3d
       -0.0673698 0.0017015528 -0.020707794 0.032674126
0001a0 e8 3d 43 3c fe a2 1c bd 55 40 2a bd 74 fe cf bd
       0.011916615 -0.03824138 -0.041565258 -0.10155955
0001b0 a4 63 d2 bd d4 97 80 bb d3 88 8a bc 80 de 41 3c
       -0.10272911 -0.0039243493 -0.016910946 0.011832833
0001c0 c0 ac de bb 48 09 fa bd d0 cb 7b 3d db cb 7c bd
       -0.0067954957 -0.122088015 0.061473668 -0.06171785
0001d0 ba a4 83 bd d4 88 86 3c 96 16 d7 bd 49 17 24 bd
       -0.064279035 0.016422667 -0.10502355 -0.04006127
0001e0 16 67 e8 bd 97 9f 08 bd 14 e9 b1 bc 2c 9a d3 bd
       -0.11347787 -0.03335532 -0.021717586 -0.1033214
0001f0 0f 5f 61 bd f0 09 19 bc 82 b5 ab bd fc 13 0b bd
       -0.055022296 -0.009340748 -0.08384229 -0.033954605
000200 5a f4 5a 3d 93 47 1a bd 59 e1 35 bd 70 88 24 bd
       0.053455688 -0.037665915 -0.04440436 -0.04016918
000210 d0 9c 8e bb fc 2c dd bd f8 8d f4 3c 82 91 1b bd
       -0.0043521896 -0.10799596 0.029852852 -0.037980564
000220 d4 af 36 3d 34 af 39 3d fc 18 d5 bd 3d 5a 8d bd
       0.044601277 0.045333102 -0.10405156 -0.06901977
000230 46 33 d7 bd 5c ae 65 bd 70 80 2f bc 1b c6 5d 3d
       -0.105078265 -0.056074485 -0.010711774 0.054144006
000240 a7 32 3b bd 1b 91 2a bd ac 73 f8 bc d9 25 f7 bd
       -0.045702603 -0.04164229 -0.030328594 -0.12067766
000250 4a bd 65 bd 00 c8 bf bb a1 ba 8b bd b6 47 60 3d
       -0.056088723 -0.0058526993 -0.06822706 0.05475589
000260 b8 21 cf bd 93 34 dd bd b8 86 33 3c 4a 67 d8 bc
       -0.10113853 -0.10801043 0.010957412 -0.02641644
000270 40 ea f3 bb 04 c5 28 bd 50 2b e9 3c 11 a6 d1 bd
       -0.0074436963 -0.041203514 0.028463036 -0.10236753
000280 e5 e5 e3 bd 84 fe 31 bd d6 00 46 bd ba 30 95 bd
       -0.11127833 -0.043455616 -0.04834064 -0.072846845
000290 5d 82 c5 bc ad ea 3d bd cb 75 47 bd d6 c4 87 bd
       -0.024110014 -0.046366382 -0.04869632 -0.0662934
0002a0 88 96 01 bc a4 54 8d bb b8 2f 10 3c 82 4b bf bd
       -0.007909425 -0.0043130685 0.00880044 -0.09340574
0002b0 33 3a f2 bc 67 aa ce bd 88 0f e1 3c 59 3d b2 bc
       -0.029568767 -0.100910954 0.027473226 -0.021757768
0002c0 00 79 5b ba 49 58 81 bd a9 67 9a bc c1 21 32 bd
       -0.00083722174 -0.06315667 -0.018848257 -0.04348922
0002d0 68 c5 5d bc 14 ef bd bb c4 07 c1 bc f0 36 d7 bd
       -0.013535835 -0.0057963226 -0.023563273 -0.10508525
0002e0 30 17 a4 39 33 62 e6 bd 8b 47 94 bc 02 9d 57 bd
       0.00031297794 -0.11249199 -0.01810052 -0.05263997
0002f0 56 e4 21 3d ad ba 9e bc 9e 66 18 bd b4 80 bd bd
       0.0395244 -0.019376123 -0.03720724 -0.09253064
000300 1a d4 8c bd ff 9e 22 bd ae 4d f0 bd a0 19 61 3b
       -0.06876393 -0.03970241 -0.11733566 0.003434755
000310 ca 13 b6 bd fe c6 56 bd 5a 17 e2 bd 9a dd 9a bd
       -0.08890493 -0.052435867 -0.1103961 -0.075617984
000320 72 ad 49 bd 8b c4 83 bb 08 b6 6a 3c f2 77 24 3d
       -0.049237676 -0.0040212325 0.014325626 0.04015345
000330 60 12 ba bd 0e 61 18 bd 10 b8 58 3c d8 c4 f0 bd
       -0.09085536 -0.037201934 0.013227478 -0.11756295
000340 56 bf 77 3d 52 71 11 3d 30 5b d8 bc 74 eb 0d 3d
       0.060485207 0.03550846 -0.02641067 0.034648374
000350 04 23 c7 bc 9a 76 3e 3d 5c c8 25 bc a1 18 3d bc
       -0.024308689 0.046499826 -0.01011857 -0.0115415165
000360 d5 fd b7 bd 97 8c 60 bd 59 2d f6 3a fe d6 9d bd
       -0.089839615 -0.054821577 0.0018781825 -0.07707022
000370 6c c4 8c bd 00 a9 20 bb 06 9f 57 bd e8 d7 93 bd
       -0.06873402 -0.0024514794 -0.05264189 -0.07218915
000380 f6 fd 3d bd 84 7b b9 3c 53 4b ef bd 89 36 2d bd
       -0.046384774 0.022641905 -0.11684289 -0.042288337
000390 88 7b 8b bc 8d 2f 8a bd fd f5 ca bd a4 af 5d 3d
       -0.017026678 -0.06747351 -0.099102 0.054122582
0003a0 c7 72 12 bc 20 13 b4 bd c5 9a e2 3a 06 f7 5a bd
       -0.008938498 -0.0879271 0.0017288557 -0.053458236
0003b0 e0 68 d1 bd 05 53 d3 bd 83 ca 87 bd 60 c7 a5 bd
       -0.102250814 -0.10318569 -0.06630423 -0.080946684
0003c0 4d 86 d3 bb e5 c1 75 bd 2c f7 b7 bc 76 06 13 3d
       -0.006455219 -0.059999365 -0.022456728 0.035894834
0003d0 b1 28 b9 bd 17 45 e4 bd 8a b9 e8 bd 98 b6 aa bd
       -0.090409644 -0.1114599 -0.11363514 -0.08335608
0003e0 a6 25 cd bd c7 bc 6f bd 50 d3 82 bb b7 e3 f6 bb
       -0.100169465 -0.05852964 -0.0039924756 -0.00753447
0003f0 f8 8b 7f ba c6 0a 49 bc f1 82 4d bd 9d c5 d0 bd
       -0.0009748335 -0.012270635 -0.050173704 -0.10193942

net.2.bias f4 [256]
000000 4e 60 d1 bc 16 7d 2f 3d cf c2 15 3e d5 4d 00 3c
       -0.025558617 0.0428439 0.14625095 0.007831057
000010 b5 9e 84 bd f4 53 d9 bd d2 20 1d bd 31 05 28 bc
       -0.064755835 -0.10611716 -0.038361378 -0.010255144
000020 dd fe 92 bc 9f 9a f2 bd 58 71 70 bd 9c d2 15 bc
       -0.017943794 -0.11845898 -0.058701843 -0.0091444515
000030 cf bf ab bd 7d 29 1f bd 18 79 0a bd 48 60 9b bd
       -0.08386194 -0.038857926 -0.03380689 -0.075867236
000040 fa 82 69 bd 6c 87 8d 3c 52 1f 18 bd ed ab d5 bd
       -0.057009675 0.017276488 -0.037139244 -0.10433183
000050 6a a3 37 bd de 57 a0 bd 4a 8f 81 bd 36 aa 0c bd
       -0.04483358 -0.07829259 -0.06326158 -0.034342013
000060 c4 a7 b0 bd 10 0a 62 bd 3a e6 2b bd 8c e0 ab bc
       -0.08625749 -0.055185378 -0.041967608 -0.020981096
000070 d6 01 37 bc 10 e4 40 bd 91 7c 81 bd a6 35 54 3d
       -0.011169871 -0.047092497 -0.06322587 0.051808976
000080 67 e6 94 bd 70 4a b8 3c e0 30 8f 3c f5 da d6 bd
       -0.07270508 0.022496432 0.01747936 -0.104909815
000090 ca 8d 00 bd b3 9e 56 3d c8 a4 92 bc 40 69 ce ba
       -0.03138522 0.05239744 -0.01790084 -0.001574792
0000a0 c0 7e a4 3a 85 ab a7 bd 89 8d 08 3c c4 00 05 bd
       0.0012549981 -0.08187012 0.008334526 -0.032471433
0000b0 f5 0a 2d bb b5 e3 11 bb 7a 6f 8b bd a0 32 bd bc
       -0.0026404236 -0.0022260968 -0.06808372 -0.023095429
0000c0 dd 08 c1 bb a6 af d1 bd 08 93 b6 bd 00 cd 23 bc
       -0.005890949 -0.102385804 -0.08914763 -0.009997606
0000d0 5a bb 8c bd b8 56 d6 bc c9 69 6d bc 18 01 e7 bc
       -0.06871672 -0.026164398 -0.014490553 -0.028198764
0000e0 27 bb 03 bc 53 fb 17 bd 92 a2 aa bd e4 78 e1 3d
       -0.008040226 -0.037104916 -0.08331789 0.11009386
0000f0 78 b2 cf bd 38 c7 80 bd 35 d9 83 bd f9 09 ba bb
       -0.10141462 -0.06287998 -0.06437913 -0.0056774584
000100 2a 89 8b bd a4 79 41 bc ef b4 b0 bc 18 fb be b8
       -0.06813271 -0.011808787 -0.02157065 -9.106676e-05
000110 2b 00 ce 3b a0 f0 d0 bd f1 c3 86 bd e2 a7 53 bc
       0.006286641 -0.102021456 -0.065803416 -0.012918444
000120 a4 82 a8 bd f9 a7 9f 3b 28 ab d7 bb 30 88 82 bd
       -0.08228043 0.004872319 -0.0065816827 -0.06373632
000130 48 b9 dd 3c fd c1 10 bd a1 f1 45 bc f4 21 35 bd
       0.027065888 -0.03534125 -0.012081535 -0.044221833
000140 91 22 0f bd fa e6 85 bb cc f5 bf 3c 7f ce 95 bc
       -0.034945074 -0.0040863724 0.023432635 -0.018286942
000150 e6 99 43 bd 34 74 14 bc 20 bb cf bc 90 c0 88 bb
       -0.04775419 -0.009060908 -0.025357783 -0.004173346
000160 0b 3f a9 bd fe 79 65 bd c8 d1 36 bd fb c0 e5 bd
       -0.082639776 -0.056024544 -0.044633657 -0.11218449
000170 1f f4 d4 bd 0d d4 83 bd 2c 0c f5 bd a0 cd a0 bd
       -0.10398125 -0.0643693 -0.11965212 -0.0785172
000180 8a 72 ce bd 86 3c 13 bd b0 ee a7 bc ce 7d a3 ba
       -0.1008044 -0.03594639 -0.020499557 -0.0012473406
000190 4b d6 aa 3c 59 83 25 bb 07 28 e8 bc b5 e9 bc bd
       0.020854136 -0.0025255291 -0.028339399 -0.092242636
0001a0 72 5f 19 bd 74 71 ef bd 52 34 de bc a8 e5 33 bd
       -0.03744454 -0.11691561 -0.027124558 -0.04392019
0001b0 86 ab aa bd a0 a7 04 bc c2 a8 7b bd 8f be d8 bd
       -0.08333497 -0.008096606 -0.061440237 -0.10583221
0001c0 05 1f ae bd a2 be 66 bd e4 ba 82 bd b8 b5 b5 bd
       -0.0850201 -0.056334145 -0.06383303 -0.08872551
0001d0 33 f9 32 bd 64 7f f8 bc 8c 8e cf bd 94 b2 c2 bd
       -0.043694686 -0.030334182 -0.101346105 -0.09506717
0001e0 cb 26 61 bc 6a 5b 07 3d 80 19 06 3e 0d 14 66 bc
       -0.013742159 0.033046164 0.13095665 -0.014042866
0001f0 1e dc 05 bd 41 a2 03 bd c0 e3 1b 3b 1b 91 90 bd
       -0.032680623 -0.03213716 0.0023786873 -0.07058927
000200 91 0f b3 bd b8 68 7d bc cc 36 c1 bd 8a 12 cf bd
       -0.087432034 -0.015466861 -0.0943428 -0.10110958
000210 f8 f7 74 bc da 8d df bc 2f 36 5c bd 74 9f 15 bd
       -0.0149516985 -0.02728932 -0.05376261 -0.03652902
000220 e7 9e da bc 87 18 7e bd a8 a1 df 3d 18 ee fe bc
       -0.026687099 -0.06203511 0.10919505 -0.031119391
000230 01 4d 09 bd 3e f5 a0 bc 32 b8 2c bd 28 d3 bc bc
       -0.033520702 -0.01964819 -0.04216785 -0.023049906
000240 39 ed 32 bd dc 13 a1 bc ab fb 47 3c 9a 56 9b bd
       -0.043683264 -0.01966279 0.012205998 -0.07584877
000250 77 e4 ec bd 81 51 c5 bd a1 d7 9a bb f3 24 b2 bc
       -0.11567014 -0.09634686 -0.004725412 -0.021746134
000260 a0 9a 93 bc 5c 30 73 bc 44 f4 b6 bb c5 16 ab bc
       -0.018018067 -0.014843073 -0.005583318 -0.02088488
000270 14 24 4a bd b3 c7 fc bc b8 ad 60 bd 25 36 7f bd
       -0.049350813 -0.030856943 -0.05485317 -0.062307496
000280 4d 9b eb bd 5a d2 bf bd f2 59 4a bc b4 5e 1a bd
       -0.11504231 -0.09366293 -0.012350546 -0.037687972
000290 79 31 c7 bd 47 e8 dc bd 8b 22 79 bd 57 84 81 bd
       -0.09726233 -0.10786491 -0.06082396 -0.0632407
0002a0 d3 2a 27 bd 46 c9 00 3c ea 37 c7 bd ce 69 0d bd
       -0.040812325 0.007860487 -0.09727462 -0.03452473
0002b0 88 5e cc bc 28 e0 59 bd f2 82 48 bd 80 ba 86 bd
       -0.02494742 -0.053192288 -0.048953004 -0.06578541
0002c0 61 62 e0 bd f1 e1 17 3c b5 ec 20 bd 34 d0 b9 bd
       -0.10956264 0.009270177 -0.03928824 -0.09072915
0002d0 6e 46 05 bd 75 da 7d bd 2b df 80 39 ee 92 03 bc
       -0.03253787 -0.061975915 0.00024580336 -0.008030636
0002e0 da 21 54 bd b8 7b 2a 3d d3 6d a8 bd 00 3f 9f bc
       -0.051790096 0.041621894 -0.08224072 -0.01943922
0002f0 c4 72 f3 bd da 82 7c 3d e8 c0 55 3c f7 26 f9 bc
       -0.11887124 0.061648227 0.013046481 -0.030414088
000300 0b d6 47 bc 96 94 c0 bd 96 6d 4e bc 92 c1 3e bd
       -0.012197028 -0.094033405 -0.0125993695 -0.04657132
000310 d0 1b 98 ba 84 c8 33 bc 8b 88 b3 bd 1c 15 6e bd
       -0.0011604968 -0.0109731 -0.08766278 -0.0581256
000320 40 86 c3 bd 9d cd c4 bd 64 99 83 bd 24 53 af ba
       -0.095470905 -0.0960953 -0.06425741 -0.0013376218
000330 4e 6f 67 bd a8 bf b3 bd 63 53 d1 bc da 68 ac bc
       -0.056502633 -0.0877679 -0.025552457 -0.02104609
000340 c2 df 3e bd 0e 20 00 bd 44 26 55 bd a1 59 a9 bd
       -0.04660011 -0.03128057 -0.052038446 -0.082690485
000350 38 bc 13 bc b3 c1 6b bd 93 19 07 bd 4a a8 3e 3d
       -0.009017043 -0.057557773 -0.032983374 0.04654721
000360 10 07 2a 3c 73 cf 26 bd e7 f9 32 bd 41 16 d6 bd
       0.01037766 -0.040725183 -0.043695357 -0.10453463
000370 13 7f 8a bc d2 2e 6c bd c8 b4 e9 bd 94 86 f5 bd
       -0.016906297 -0.05766184 -0.114114344 -0.11988559
000380 d1 92 c1 bd 3c 67 56 3d fc fd c5 bd d5 80 74 bd
       -0.09451831 0.052344546 -0.09667584 -0.059693176
000390 d5 f8 c5 bd 82 3b fb bc b9 53 50 bd e6 52 0e bc
       -0.096666016 -0.030668024 -0.050861094 -0.008686757
0003a0 db c7 ac bd ab d8 d1 bd d6 cf 37 bd 60 05 ae bd
       -0.08436557 -0.10246404 -0.044875942 -0.08497119
0003b0 94 16 bf bd 11 d6 0b bd f6 3b ee bc 5d c3 9d bd
       -0.09330478 -0.034139697 -0.029081326 -0.07703278
0003c0 78 0a ba bd 90 35 ef bc 0b b2 45 bc 92 db 02 bc
       -0.09084028 -0.029200345 -0.0120663745 -0.00798692
0003d0 b9 fc b7 bc 03 9b 80 bc 64 d7 32 bd f4 f1 73 bd
       -0.022459375 -0.015698915 -0.043662444 -0.059556916
0003e0 8c 3a 28 bd 09 c8 8f bd 25 f9 87 bc 8e a8 53 3d
       -0.04107146 -0.070205756 -0.016598294 0.05167442
0003f0 5f ee 33 bd c7 de b1 bb e8 f1 5b 3c 0a 2e d8 bd
       -0.0439285 -0.0054281685 0.013424374 -0.10555656

net.4.weight f4 [2, 256]
000000 d6 74 d7 3d c0 c4 cf 3a 3a b5 02 3e 44 35 43 bd
       0.105203316 0.0015851483 0.12764445 -0.04765822
000010 66 3d 63 ba ea 82 07 bd 1e 6b 64 3d 30 1d ab 3d
       -0.0008668512 -0.033083834 0.055766217 0.083551764
000020 99 5b 6e bc 26 71 ac 3d 5c cb 1c bb c6 0c 66 3d
       -0.014548206 0.08420019 -0.0023924923 0.056164525
000030 90 4d 8c ba 48 15 85 3d 8e 67 5f bb 13 46 a9 bd
       -0.0010704268 0.064982 -0.0034088823 -0.08265319
000040 c4 30 6e bd 56 c2 2f 3d 18 05 e4 bc 3f d9 65 3d
       -0.058151975 0.042909943 -0.02783446 0.056115385
000050 59 25 ad 3d 1a c1 73 bd 74 93 a8 bc 6f 19 49 3c
       0.08454389 -0.059510328 -0.020578124 0.01227413
000060 fb 7d be bc ce f8 1b bd 02 af 80 3d 7a cf 5c bd
       -0.023253432 -0.038079076 0.0628338 -0.053908803
000070 f8 ef 33 bc 6c 4d 9a 3d a6 09 37 bd 1e 3e 03 bd
       -0.010982506 0.07534298 -0.044686936 -0.03204166
000080 88 15 0a bc 48 ae 22 bd a4 35 02 3d eb 3c b5 3c
       -0.008427985 -0.03971699 0.031789437 0.022123775
000090 5b ac ec bd b2 34 b2 3d 89 1d 10 bb 0e fa 09 3d
       -0.11556312 0.08701457 -0.002199026 0.033685736
0000a0 6a e2 3d bd af 0e db bc f6 55 1d bd b6 72 9c bd
       -0.046358503 -0.0267404 -0.038412057 -0.07639067
0000b0 11 44 c3 3c 53 c4 29 bc 00 34 a8 3d 00 c4 ae b8
       0.023836168 -0.010361749 0.08213043 -8.3334744e-05
0000c0 83 bb 21 bd 33 f6 19 bd cb e7 5d 3d cc 12 e6 3c
       -0.039485466 -0.03758831 0.054176133 0.028085135
0000d0 e9 54 30 3d 32 c0 57 3d 80 e3 e1 3c be 7d ec 3c
       0.043049727 0.052673526 0.0275743 0.028868552
0000e0 ab b0 62 3c 75 05 29 bd 3e 00 97 3d 87 b8 82 3e
       0.013836066 -0.04126497 0.07373093 0.25531408
0000f0 a8 b1 16 3d 15 b3 c3 3c 8b 9a 08 3d 0f 26 5f 3b
       0.03679052 0.023889104 0.03335051 0.0034049784
000100 04 4f 84 3c 1f bd 03 bd ca 1c 3c 3c cc 35 af 3c
       0.016150959 -0.03216278 0.011481473 0.021387957
000110 e0 82 a5 3b b7 4b 29 3d 51 58 01 bd 31 0c c9 ba
       0.005051002 0.041331973 -0.031578366 -0.0015338716
000120 09 58 04 bd 1c b9 c6 3b cc b5 27 3d 97 8c 6d 3d
       -0.03231052 0.006064547 0.04094486 0.057995405
000130 32 01 3e 3d f7 57 92 3d 63 02 2a bc d0 d4 83 3b
       0.04638786 0.07145684 -0.010376546 0.004023172
000140 b1 68 6b bd 87 c1 c5 bb d8 a1 50 bd 0c b7 93 3d
       -0.05747289 -0.006035033 -0.050935596 0.07212648
000150 f8 74 79 3c 4a f5 0a 3d d3 2e f0 3c 2f dc ea bc
       0.015225641 0.033925332 0.029319203 -0.028669445
000160 07 b8 8f 3c aa dc 06 bd 40 a6 d9 3a 39 33 15 bc
       0.017543806 -0.032925285 0.0016605332 -0.009106451
000170 c2 82 0d bd 47 fd 83 3d 68 65 1f bb a1 5f 32 3b
       -0.03454853 0.06444793 -0.0024321917 0.0027217644
000180 25 26 18 3c 54 84 33 bc 4b 71 87 3c 71 93 b3 3c
       0.009286438 -0.010956842 0.016533514 0.021920891
000190 9b 0c 31 be 1b 0d 33 ba f5 68 14 bc bf 3a 18 3d
       -0.17289965 -0.0006830261 -0.009058227 0.0371654
0001a0 aa aa fc 3c 6c 0a e7 3c 86 fb 6a 3b 87 a1 96 3d
       0.030843098 0.028203212 0.0035855486 0.07355028
0001b0 ad 1e 58 bc 98 3e 5c 3d 90 ef dd 3c e8 55 31 3d
       -0.013190907 0.05377063 0.027091771 0.043294817
0001c0 8b ba 04 bd d7 16 7e bc de b4 9d bd b0 35 06 bd
       -0.032404464 -0.015508375 -0.07700513 -0.032766044
0001d0 fd b0 c3 3b ad bd 5f 3d b9 f5 9a 3d 48 e0 3e bc
       0.0059720264 0.05462425 0.07566399 -0.0116501525
0001e0 15 c5 53 bd d0 49 6a bd 84 64 c4 3d bb 1a 61 bc
       -0.051701624 -0.0571993 0.09589484 -0.013739283
0001f0 6e 68 05 3d d7 57 45 bd d5 8b 99 ba 59 ed 88 3c
       0.032570295 -0.048179474 -0.0011714647 0.016714739
000200 32 df 9c 3b 30 f7 c0 3c 48 20 af bb 5c 20 6f 39
       0.004787349 0.023555368 -0.0053444244 0.00022804871
000210 be 97 d6 3d 8f f8 4e 3c b0 44 8e 3d d6 b3 3a 3d
       0.10478161 0.012632503 0.06946695 0.04558166
000220 78 90 3a 3c 61 97 2a bd f9 7f c1 3c e4 2c 23 3d
       0.011386983 -0.041648272 0.023620592 0.039837733
000230 14 5f 5d 3d 73 a8 50 bd 20 8c 84 bb 48 f2 18 3d
       0.05404575 -0.050941896 -0.0040450245 0.037340432
000240 dd 72 05 bd 50 a8 b2 bb a9 6f 76 bd 18 da 23 bd
       -0.032580245 -0.0054521933 -0.06016508 -0.040002912
000250 1e d3 76 bd 3e f5 2b 3d 5a 2a 8f ba 05 5a 06 3c
       -0.06025993 0.041981928 -0.0010922656 0.008200173
000260 ca f1 1c bd 3e 5a 91 3d 08 86 68 3c 27 19 c5 bc
       -0.038316526 0.070972905 0.014192112 -0.024059845
000270 d6 0e a1 3b f1 e9 96 3d 6a 50 c6 3b 5c 7c ad 3c
       0.0049150987 0.073688395 0.0060520666 0.021177463
000280 4b 07 ca 39 ec a4 8b 3d 0b 3f 07 3b e0 30 20 bb
       0.00038533876 0.06818566 0.0020636942 -0.0024443194
000290 91 25 0d bd 48 34 52 3d 25 69 49 bc 5b a7 f1 3c
       -0.034459654 0.05131939 -0.012293135 0.029498747
0002a0 04 c8 e7 3a f6 5d 3c bd d6 ff 4d 3d ec 64 ef 3c
       0.0017683511 -0.045988046 0.050292812 0.029222928
0002b0 68 06 04 bd a0 85 1c 3b 50 4c b6 bb 66 a0 78 bd
       -0.032232672 0.0023883358 -0.0055632964 -0.060699843
0002c0 ff 10 ab bc f3 27 51 bc 66 a9 7b 3c d6 87 29 3c
       -0.020882128 -0.012765872 0.015360212 0.010347327
0002d0 ed 4d ee ba 87 30 36 3b 28 9f e1 ba ce 91 91 bc
       -0.0018181183 0.002779992 -0.001721357 -0.01776972
0002e0 63 0e 2f 3c 1c 4d d3 bc 87 0f 4c 3d 6e ba 93 3d
       0.010684582 -0.025793605 0.049819496 0.07213293
0002f0 e4 36 5d 3d 60 f2 7d bb 08 88 11 bc 78 84 17 3d
       0.054007426 -0.0038749203 -0.00888253 0.036991566
000300 68 c8 60 3d 31 78 af 3d 9e d6 99 b9 5e ab 9d 3c
       0.054878622 0.085678466 -0.00029342336 0.019246753
000310 b5 b6 88 bd e9 71 93 3c 2e ee da bb b0 8c f9 3b
       -0.066754736 0.017998653 -0.0066812253 0.007615648
000320 15 fe 44 3d fb fb 4b 3c 12 8e 88 bd a6 0b 60 3d
       0.048093874 0.012450214 -0.06667723 0.05469861
000330 e9 6f d2 3d c8 c2 35 3d c0 cb 3d ba 6d ce a4 bc
       0.102752514 0.04437521 -0.0007240139 -0.020117963
000340 16 e8 00 bd c8 37 f8 bc 34 a7 89 bc 8f ce 54 3d
       -0.031471334 -0.030300036 -0.016803361 0.051954802
000350 2a e4 77 bd 84 b3 a6 bc 94 ab 9d bc 8a 40 28 3d
       -0.06052033 -0.020349272 -0.019246854 0.041077174
000360 50 80 7a 3d 21 91 56 3c a0 95 01 bd 77 7e 67 bc
       0.061157525 0.013096125 -0.031636834 -0.014129273
000370 48 8b 1e bd 9a 00 28 3c df cd b6 3d df 1f 46 3c
       -0.038707048 0.01025405 0.089259855 0.01209256
000380 37 dc 61 3d 20 07 cf bb 56 f8 2f 3d fe b8 41 3d
       0.055141654 -0.006317988 0.04296144 0.047295563
000390 ae ae 17 3d fe 4c 8f bc f4 df 66 bd 9b 27 a3 3d
       0.037031822 -0.017492767 -0.056365922 0.079665385
0003a0 f0 60 90 ba ab 57 9d bc 1c 00 c7 3c f9 61 8e 3d
       -0.0011015218 -0.019206842 0.024292044 0.069522806
0003b0 39 3e 11 bc 21 89 18 3d 0d bc 5a 3d 56 01 9b 3d
       -0.008864933 0.03724015 0.053401995 0.07568614
0003c0 8c 74 12 3d be 86 5a bc 8a b4 12 3c fd 39 72 bc
       0.03575568 -0.013337789 0.008954177 -0.014784333
0003d0 a0 b2 a4 3d fc 2b 55 bd 94 27 e6 3d 98 3e a9 3c
       0.080418825 -0.0520439 0.11238018 0.02065973
0003e0 3d f4 94 bd 27 92 6d 3b 35 5b 0b bc 68 ce 39 3d
       -0.07273147 0.0036250444 -0.008505632 0.04536286
0003f0 15 25 8b bd 2f d8 b9 3c 90 74 49 bd 2e 8d 81 bd
       -0.06794182 0.022686092 -0.04918343 -0.06325756

net.4.bias f4 [2]
000000 63 0d 0a bd 3e d8 8c 3d
       -0.033704173 0.068771824
