flappyb/models/cross_entropy/batchsize=100-hiddensize=256-lr=0.01-gamma=.9-PART=150.pt (torch_old, 272411 bytes, 6 tensors)

net.0.weight f4 [256, 5]
-0.21841314 0.23047775 -0.024973482 -0.13450631 -0.1947012 0.3897765 0.19356178 0.26081944
-0.15755951 -0.3048463 -0.18570429 -0.3454435 0.111465275 -0.068550676 -0.24437588 -0.42515308
0.17169055 0.3644308 -0.2648982 0.038976297 -0.05066833 0.11607307 -0.103420764 0.027913898
-0.15476084 -0.04524656 -0.27595726 0.24785297 -0.34316358 0.3159581 -0.120578066 -0.017712476
-0.21157402 -0.51260144 0.18368621 0.18673411 -0.41719463 0.09487773 0.0031502647 0.2956413
0.23651734 -0.43308017 0.29331493 -0.17257144 0.1158297 -0.21120471 0.30490863 -0.4458229
0.048815064 0.3766952 -0.122334585 0.42377445 0.25591698 -0.168649 0.1571595 0.09444608
0.0151942605 0.26909602 -0.20266813 0.16820504 0.4847211 0.3053224 -0.35880023 -0.034222823
-0.1987104 -0.41382357 0.28358233 -0.040010124 -0.23567359 0.23103869 0.31356636 0.13798593
-0.43506223 -0.06795836 0.29584286 0.016481811 0.06861004 -0.45823985 0.007816759 0.18714713
-0.0374685 0.6062757 0.1946087 -0.073287986 -0.074280895 -0.3013437 0.43113765 -0.28679514
-0.39734313 0.1522978 -0.4866641 -0.3333158 -0.25171468 -0.23665425 -0.123697855 -0.20365863
0.039406646 0.3584456 0.2677284 -0.026238464 -0.27785808 -0.05733748 -0.4307651 0.08938882
0.20620982 -0.39538652 0.15875115 0.17790763 -0.076325886 0.3243223 -0.35530272 0.23191945
-0.35100082 -0.00528288 0.27490702 0.19549094 0.19448824 -0.23016867 -0.34831083 0.18787223
-0.19477007 0.24289209 -0.4411747 -0.035473824 -0.4322619 -0.3771355 -0.10612774 0.104548275
-0.32437593 0.44457608 0.0830942 -0.24363025 0.36652583 0.13074136 0.04674236 -0.3542119
-0.02336213 0.109404445 -0.43573824 -0.2825853 -0.28092232 0.1394723 -0.046589468 0.123872906
-0.02134098 0.008830087 -0.09879149 -0.14241719 -0.07324248 0.24938142 -0.20798987 -0.40305245
0.03923667 0.0734472 0.11720008 -0.38526434 0.35940242 0.20459549 -0.19061096 -0.13637735
0.33381003 -0.21600683 -0.16970599 -0.36935014 0.21508719 -0.017618656 0.09653854 0.15877873
-0.29413873 0.24506235 -0.059730075 0.16038546 0.18012606 -0.2709101 0.3348856 -0.4251011
0.1740942 -0.16557038 0.32233924 -0.09386125 -0.26443437 -0.056861043 0.42140567 0.2112596
-0.35583532 -0.35205367 0.13509215 0.26610273 -0.4678326 0.10867347 0.078408524 -0.34258172
-0.015856737 -0.25728396 0.0036676112 -0.43534884 0.4141122 0.029228568 -0.2766488 -0.31825727
-0.015977358 0.30517194 0.22627686 -0.18863507 0.223237 0.02721402 0.40993053 -0.113028884
0.13206726 -0.25900447 -0.1398094 -0.15827233 -0.54599845 0.21307257 -0.2690185 0.23402467
-0.35150105 -0.29780185 0.25394252 -0.30765417 0.11777776 -0.0734652 -0.036475107 0.0779981
0.18493187 0.18402955 0.26164064 -0.33552954 0.35528436 -0.28982902 -0.15496477 -0.21398932
-0.09570754 -0.48897213 0.27392453 -0.21046975 -0.2747369 0.21659687 -0.09697006 -0.17782883
-0.3451536 -0.04493146 0.36170098 -0.13860583 -0.19016176 -0.3827134 -0.004103571 0.26632702
0.3205068 -0.3827559 0.09716463 -0.16106069 -0.31428832 -0.3599981 -0.4809043 -0.24296518
00000000: b2a7 5fbe 5c02 6c3e 3095 ccbc 06bc 09be
00000010: c05f 47be c990 c73e 0f35 463e 208a 853e
00000020: 4857 21be d014 9cbe 4429 3ebe f8dd b0be
00000030: e847 e43d 4c64 8cbd ac3d 7abe aaad d9be
00000040: a6cf 2f3e ac96 ba3e bda0 87be 9ca5 1f3d
00000050: 9889 4fbd b8b7 ed3d 44ce d3bd b0ab e43c
00000060: a079 1ebe 7554 39bd 454a 8dbe 2bcd 7d3e
00000070: 23b3 afbe 43c5 a13e a2f1 f6bd c119 91bc
00000080: dca6 58be d939 03bf 3d18 3c3e 3a37 3f3e
00000090: 899a d5be 414f c23d ac74 4e3b 4c5e 973e
000000a0: 9a31 723e afbc ddbe 602d 963e 91b6 30be
000000b0: 1f38 ed3d 0c46 58be fc1c 9c3e e642 e4be
000000c0: 4ef2 473d 31de c03e 8e8a fabd f7f8 d83e
000000d0: 8d07 833e 53b2 2cbe 6cee 203e f26c c13d
000000e0: 59f1 783c f4c6 893e 3c88 4fbe f13d 2c3e
000000f0: 5d2d f83e 3853 9c3e aab4 b7be 3b2d 0cbd
00000100: bd7a 4bbe afe0 d3be b431 913e a8e1 23bd
00000110: 6b54 71be 6895 6c3e c58b a03e 2f4c 0d3e
00000120: 7ac0 debe c12d 8bbd b778 973e dd04 873c
00000130: 6c83 8c3d 6a9e eabe dd11 003c 7fa3 3f3e
00000140: 9278 19bd e234 1b3f 8147 473e 0318 96bd
00000150: 9520 98bd b949 9abe 13be dc3e d0d6 92be
00000160: 8f70 cbbe f4f3 1b3e 092c f9be 5ea8 aabe
00000170: bfe0 80be 7e55 72be 4d55 fdbd e38b 50be
00000180: dd68 213d 2f86 b73e b213 893e 0cf2 d6bc
00000190: 6a43 8ebe b5da 6abd 3e8d dcbe 7c11 b73d
000001a0: ab28 533e 1a70 cabe a98f 223e 6b2d 363e
000001b0: bf50 9cbd 930d a63e 3dea b5be 4b7c 6d3e
000001c0: 61b6 b3be 021c adbb 9dc0 8c3e c72e 483e
000001d0: ed27 473e 56b1 6bbe cc55 b2be 9461 403e
000001e0: ce71 47be b4b8 783e a6e1 e1be 004d 11bd
000001f0: 6f51 ddbe e717 c1be 8059 d9bd 681d d63d
00000200: 9a14 a6be 7a9f e33e 4b2d aa3d 357a 79be
00000210: 46a9 bb3e 10e1 053e eb74 3f3d 435b b5be
00000220: f061 bfbc 700f e03d 1519 dfbe 05af 90be
00000230: 0dd5 8fbe d4d1 0e3e 99d4 3ebd 14b1 fd3d
00000240: 47d3 aebc 12ac 103c 3153 cabd d0d5 11be
00000250: 2700 96bd d85d 7f3e 4cfb 54be e45c cebe
00000260: a1b6 203d 7c6b 963d 9806 f03d 5e41 c5be
00000270: 9803 b83e 7b81 513e 852f 43be 81a6 0bbe
00000280: 26e9 aa3e e530 5dbe 68c7 2dbe 761b bdbe
00000290: d13f 5c3e 0055 90bc 00b6 c53d e496 223e
000002a0: 5a99 96be a0f1 7a3e 86a7 74bd 163c 243e
000002b0: f772 383e bbb4 8abe 2076 ab3e daa6 d9be
000002c0: c045 323e 488b 29be a609 a53e 543a c0bd
000002d0: f163 87be 20e7 68bd 7cc2 d73e 7054 583e
000002e0: 0c30 b6be 6140 b4be 9955 0a3e 9e3e 883e
000002f0: c187 efbe 3290 de3d a694 a03d df66 afbe
00000300: fde5 81bc b9ba 83be 4e5c 703b 0be6 debe
00000310: 8406 d43e c070 ef3c e9a4 8dbe 9ef2 a2be
00000320: f3e2 82bc 7f3f 9c3e 1fb5 673e 8d29 41be
00000330: 3d98 643e f0ef de3c 6ae2 d13e b07b e7bd
00000340: a43c 073e 3c9c 84be 322a 0fbe 2412 22be
00000350: 8ec6 0bbf b22f 5a3e cbbc 89be 2aa4 6f3e
00000360: f2f7 b3be 7c79 98be c104 823e d984 9dbe
00000370: 7735 f13d ec74 96bd ec66 15bd 78bd 9f3d
00000380: c85e 3d3e 3e72 3c3e c3f5 853e 87ca abbe
00000390: d5e7 b53e 7864 94be 16af 1ebe 0420 5bbe
000003a0: 5102 c4bd 8e5a fabe d63f 8c3e 6285 57be
000003b0: 51aa 8cbe 92cb 5d3e 3d98 c6bd c318 36be
000003c0: f9b7 b0be 0d0a 38bd df30 b93e b0ee 0dbe
000003d0: c4b9 42be 03f3 c3be 4077 86bb 045c 883e
000003e0: 7819 a43e 95f8 c3be 40fe c63d 18ed 24be
000003f0: 66ea a0be ac51 b8be 1739 f6be ddcb 78be

net.0.bias f4 [256]
-0.44689405 -0.3290407 -0.10710018 0.04840259 -0.10868946 0.24753557 0.1805724 0.27451333
-0.22215818 0.22888099 -0.3177891 0.21478844 -0.052572582 -0.41688696 -0.060464527 -0.027987901
0.04391539 0.4186104 0.23898935 -0.16055521 -0.10983001 -0.1952253 -0.045524437 0.3946516
-0.40961087 -0.4079987 -0.2657896 0.1843937 0.050359443 -0.22988963 0.2754304 0.12274135
-0.019025426 -0.2947303 -0.1257639 -0.04761657 -0.28085947 0.030531716 0.09257838 -0.24566293
-0.24070574 -0.36749882 0.32864428 0.46873343 -0.41712546 0.28671122 0.13684794 0.14079857
-0.2298114 -0.25239354 0.3281846 -0.031766206 -0.05296979 0.5968202 0.22211508 -0.11734028
-0.4564349 -0.18516193 0.28784582 -0.0034047153 0.28258756 -0.091466986 0.123702675 -0.13220313
-0.207781 -0.03939669 -0.23011011 -0.078829385 -0.029563218 -0.20288506 -0.08000725 0.11949023
-0.26805964 -0.040629685 -0.12792811 -0.16683319 0.10433775 0.022400385 -0.43966466 -0.20004246
-0.19318482 0.29545876 -0.18655044 0.082016826 0.19753134 -0.23906131 0.3161606 -0.48960802
-0.22420186 -0.3145093 0.112879574 -0.08069641 -0.2515184 -0.32821453 0.19539727 -0.1951065
-0.242517 -0.16598985 0.27690518 -0.2316949 -0.003237009 0.10384819 -0.14386496 0.18432382
-0.4314069 -0.26973265 -0.4087851 -0.35297382 0.18530677 -0.36018613 -0.30081338 0.31315133
-0.18302965 -0.037700295 0.22791341 0.26997167 0.05978628 -0.24429394 0.1451363 0.35820293
-0.2363084 -0.17109996 0.3150967 -0.30931136 0.3308274 -0.19641192 -0.23523776 -0.038839135
-0.23348588 0.24123926 -0.24091779 -0.1963363 -0.07402554 -0.26049972 0.20312487 0.3086496
-0.42774716 0.17874809 0.09077314 -0.30239043 0.30723915 -0.23106585 0.1491894 -0.05529356
0.20995048 -0.23333208 -0.36358196 -0.09944246 -0.19214413 0.014142811 0.2585999 -0.3208537
0.13670592 0.20917271 0.41489813 0.05219928 0.16649315 0.40280363 -0.3256017 0.26259702
0.13678938 -0.30493367 -0.43288818 -0.0362619 -0.15771228 -0.1809214 0.015464276 0.37253022
-0.4093419 0.37627998 0.24948172 -0.08150738 -0.41335717 0.05176878 0.15520827 -0.25155574
-0.16614671 -0.0014697441 0.19148713 -0.3054849 -0.13709663 -0.39284873 -0.065894395 0.12741353
0.042616725 -0.059245378 -0.0003192717 -0.48414364 -0.3463448 -0.20121007 -0.1607482 0.08661974
-0.3285817 0.3127862 -0.43238795 -0.15962622 -0.2786326 0.35588396 0.021542152 0.05367085
-0.15499043 -0.028549274 -0.30358952 0.1081576 0.112974666 -0.014508587 -0.37900567 -0.42741293
-0.0013498619 -0.21285477 -0.37725794 -0.032104716 0.24015717 0.30498922 -0.27173883 -0.20018123
-0.056489825 0.35378864 -0.1797313 -0.1868512 0.45543745 0.03442215 -0.28262207 0.20389514
-0.08542457 -0.19705632 -0.20004863 0.13581751 -0.040722072 0.28115633 -0.3331071 0.23933001
0.48178852 0.2002024 0.27264023 0.19660449 0.12643489 0.10132782 -0.25415665 -0.067354746
-0.34203228 0.2140925 -0.35404816 -0.15910235 0.27159324 -0.36605683 0.16323027 -0.23847099
0.5193396 0.31817383 0.32272786 -0.32851702 -0.37617868 0.1718787 0.09876318 0.03285479
00000000: 4ccf e4be 0678 a8be 5757 dbbd cb41 463d
00000010: 9498 debd f779 7d3e f9e7 383e 038d 8c3e
00000020: 6f7d 63be c75f 6a3e 41b5 a2be 80f1 5b3e
00000030: 5956 57bd 3572 d5be a7a9 77bd e246 e5bc
00000040: a0e0 333d 1a54 d63e a0b9 743e 9668 24be
00000050: 8eee e0bd 24e9 47be d577 3abd c60f ca3e
00000060: 84b8 d1be 35e5 d0be 9315 88be b4d1 3c3e
00000070: b445 4e3d 3068 6bbe 3705 8d3e d15f fb3d
00000080: 36db 9bbc e4e6 96be 40c8 00be 9809 43bd
00000090: d0cc 8fbe a61d fa3c bc99 bd3d 108f 7bbe
000000a0: 917b 76be ce28 bcbe 1044 a83e d4fd ef3e
000000b0: 7891 d5be d0cb 923e de21 0c3e 802d 103e
000000c0: ae53 6bbe ba39 81be d007 a83e 481d 02bd
000000d0: daf6 58bd 35c9 183f 2372 633e 1a50 f0bd
000000e0: d6b1 e9be 179b 3dbe 8760 933e a521 5fbb
000000f0: 51af 903e 0b53 bbbd d457 fd3d 4260 07be
00000100: 8bc4 54be 6c5e 21bd fca1 6bbe 4d71 a1bd
00000110: 902e f2bc 1ac1 4fbe d7da a3bd 4bb7 f43d
00000120: 1d3f 89be 506b 26bd 96ff 02be 52d6 2abe
00000130: 08af d53d 0381 b73c ba1b e1be eed7 4cbe
00000140: 3ed2 45be 5f46 973e 1407 3fbe 70f8 a73d
00000150: a845 4a3e 7dcc 74be cddf a13e e7ad fabe
00000160: 2c95 65be 5d07 a1be 682d e73d 2944 a5bd
00000170: 05c7 80be bc0b a8be 3916 483e 00ca 47be
00000180: 6056 78be 3ef9 29be 84c6 8d3e 6e41 6dbe
00000190: 0024 54bb 5cae d43d 5651 13be 62bf 3c3e
000001a0: 5de1 dcbe 661a 8abe 484c d1be fcb8 b4be
000001b0: 0fc1 3d3e 516a b8be 3604 9abe 5f55 a03e
000001c0: 206c 3bbe a06b 1abd 2262 693e ba39 8a3e
000001d0: 75e2 743d 3128 7abe 9c9e 143e 6066 b73e
000001e0: d4fa 71be d434 2fbe 5b54 a13e 0f5e 9ebe
000001f0: 3562 a93e 3520 49be 2be2 70be c915 1fbd
00000200: ec16 6fbe 6d07 773e 27b3 76be 620c 49be
00000210: b49a 97bd 3860 85be f7ff 4f3e 5207 9e3e
00000220: ad01 dbbe bd09 373e 45e7 b93d ebd2 9abe
00000230: 734e 9d3e 879c 6cbe 1bc5 183e 807b 62bd
00000240: 42fd 563e 9bee 6ebe 6a27 babe 7da8 cbbd
00000250: 6ec1 44be 40b7 673c 3567 843e f046 a4be
00000260: a3fc 0b3e 5f31 563e 876d d43e eace 553d
00000270: 2e7d 2a3e 473c ce3e 44b5 a6be 1e73 863e
00000280: 8412 0c3e 4420 9cbe 85a3 ddbe 5c87 14bd
00000290: 547f 21be 7643 39be e05d 7d3c 48bc be3e
000002a0: 4395 d1be c5a7 c03e 2378 7f3e 57ed a6bd
000002b0: 8da3 d3be 800b 543d ebee 1e3e eacb 80be
000002c0: 5d22 2abe 6ea4 c0ba 3415 443e 8468 9cbe
000002d0: 0f63 0cbe 7823 c9be a4f3 86bd b178 023e
000002e0: e08e 2e3d 48ab 72bd ec63 a7b9 ade1 f7be
000002f0: 1b54 b1be 030a 4ebe 2d9b 24be b165 b13d
00000300: dc3b a8be 8325 a03e f461 ddbe 0e75 23be
00000310: efa8 8ebe 6c36 b63e 2b79 b03c f7d5 5b3d
00000320: d0b5 1ebe 2be0 e9bc 1670 9bbe bb81 dd3d
00000330: 435f e73d 6db5 6dbc 080d c2be ded5 dabe
00000340: d9ed b0ba 9af6 59be f427 c1be 3c80 03bd
00000350: c3eb 753e 8c27 9c3e 5a21 8bbe 4ffc 4cbe
00000360: e061 67bd c923 b53e 7b0b 38be ec55 3fbe
00000370: 192f e93e 3efe 0c3d d7b3 90be e3c9 503e
00000380: 14f3 aebd 22c9 49be 8cd9 4cbe bf13 0b3e
00000390: 30cc 26bd b9f3 8f3e 048d aabe ed12 753e
000003a0: fcac f63e dc01 4d3e 8097 8b3e b052 493e
000003b0: 2678 013e f684 cf3d d220 82be 49f1 89bd
000003c0: db1e afbe 103b 5b3e cd45 b5be baeb 22be
000003d0: 450e 8b3e cd6b bbbe d625 273e bd31 74be
000003e0: 71f3 043f aee7 a23e 963c a53e 6233 a8be
000003f0: 7e9a c0be f800 303e 5a44 ca3d bf92 063d

net.2.weight f4 [256, 256]
-0.059905387 -0.06502432 -0.037507378 -0.0852502 0.031431198 -0.046358954 -0.11747422 -0.12470522
-0.028551707 -0.064765155 0.015786769 0.0008099622 0.015879428 0.006526321 -0.07781571 -0.050332796
-0.024522029 -0.016463025 -0.08479965 -0.008501082 -0.11700111 -0.0009674619 -0.040390313 -0.06632452
0.052223153 -0.02859287 -0.0616423 -0.036265887 -0.0119706625 -0.11335401 -0.0155517245 0.04045002
-0.013694296 -0.013847716 0.030914739 0.05010289 -0.04438819 -0.045277666 -0.08627361 -0.052974835
0.030698845 0.031178467 -0.025179205 -0.027887626 -0.066521935 -0.054046843 -0.021043854 -0.05304839
-0.058113404 -0.03793115 -0.010558646 -0.058078106 -0.04553723 -0.118803054 -0.038134065 -0.078522205
-0.053540114 -0.076344416 -0.03183004 -0.10185906 0.042918094 0.014424869 0.08329284 -0.047700893
-0.008721336 -0.07110157 -0.021738041 -0.09804927 0.04723619 -0.008971164 -0.13003515 -0.025945349
-0.04216082 -0.026454598 -0.03893602 0.019399421 -0.056286592 -0.023905292 -0.008840166 0.00731159
-0.13761279 -0.013538788 -0.00759086 -0.003511168 -0.005812729 0.049179584 -0.0430527 0.010420531
-0.031926453 -0.12241688 -0.1307215 0.021482911 -0.027225612 0.020002991 -0.07352148 -0.08956083
-0.09329457 -0.010441355 -0.02671003 -0.0024688798 -0.042811997 0.0046423813 -0.04210566 -0.05784303
-0.03826841 -0.013536736 -0.0019970685 -0.060970943 -0.038692627 -0.040240064 -0.058526695 -0.1286105
-0.018268252 -0.0002573505 0.014271847 -0.02766928 -0.068344146 0.03354185 0.017952882 -0.10957994
-0.0153940115 -0.053272665 -0.0816568 -0.02058548 -0.04295713 -0.05078037 -0.048779413 -0.08386895
0.059606984 -0.04321448 -0.1001044 -0.053614862 0.014978856 -0.009424873 -0.037391424 -0.12384091
-0.049102433 -0.018127818 0.02536546 0.013850249 -0.086335205 -0.005475661 -0.05271177 -0.036569424
-0.08502505 -0.084679596 0.030350044 -0.10962697 -0.029017389 0.029185504 0.016525093 -0.039533928
-0.019829668 -0.040514607 0.018744964 -0.036399536 -0.12708145 -0.12963094 0.049681403 -0.010781597
-0.107199386 -0.03983841 -0.023223242 -0.084926054 0.0089038685 0.044999428 0.06040912 -0.09227185
0.013782238 -0.00071056053 -0.035037965 -0.027118929 -0.052290976 -0.053081058 -0.0117243305 0.034872934
-0.0809748 0.004991665 -0.07502799 0.026518952 -0.036154564 -0.0021820515 0.041850075 -0.033825178
0.04576631 -0.009863466 -0.06814979 -0.06355747 0.05329209 -0.011875863 -0.069148034 -0.035520654
0.027307672 -0.058298953 -0.09408994 -0.0777541 -0.008453808 -0.015103927 -0.083734006 -0.0098159425
-0.007185973 0.035293296 -0.03728842 0.0238119 -0.021674676 -0.11390988 0.028102323 -0.050123088
-0.07956885 0.039120764 -0.057642244 -0.057885062 -0.050625324 -0.024313955 -0.044228986 -0.004467696
0.007539563 -0.116472535 -0.020597896 0.087010816 -0.09090265 -0.0035824487 -0.08795989 -0.035673637
0.0072228685 -0.051628236 -0.047820512 -0.016377484 0.012179501 -0.050455946 -0.062039793 -0.054420166
-0.13615538 0.050233744 -0.11754725 -0.0037438795 -0.07710436 -0.08008408 -0.11548933 -0.03733549
0.01821614 -0.057231642 -0.0018950943 0.044620827 -0.0034011956 -0.06871238 -0.09508 0.0004380035
-0.09760091 -0.1196877 -0.05805967 -0.07640153 -0.05301941 -0.1098645 0.01866769 -0.14034835
00000000: 5a5f 75bd 782b 85bd 56a1 19bd a897 aebd
00000010: 00be 003d e3e2 3dbd 5396 f0bd 7365 ffbd
00000020: 45e5 e9bc 98a3 84bd 4153 813c a553 543a
00000030: 9315 823c c0da d53b d85d 9fbd c329 4ebd
00000040: 6ce2 c8bc 77dd 86bc 70ab adbd 1f48 0bbc
00000050: 479e efbd 459d 7dba 5070 25bd 26d5 87bd
00000060: f2e7 553d 983b eabc a37c 7cbd 8a8b 14bd
00000070: 9920 44bc 2626 e8bd a9cc 7ebc ecae 253d
00000080: 0a5e 60bc 88e1 62bc e840 fd3c b038 4d3d
00000090: 64d0 35bd 1375 39bd 38b0 b0bd 24fc 58bd
000000a0: 257c fb3c fc69 ff3c 9f44 cebc 9774 e4bc
000000b0: a73c 88bd 3960 5dbd 2964 acbc 4549 59bd
000000c0: 5208 6ebd b25d 1bbd 2cfe 2cbc 4fe3 6dbd
000000d0: 3f85 3abd 044f f3bd 7732 1cbd 40d0 a0bd
000000e0: e14c 5bbd 765a 9cbd 3760 02bd 7c9b d0bd
000000f0: e2ca 2f3d 4956 6c3c 7095 aa3d 0362 43bd
00000100: efe3 0ebc b39d 91bd fa13 b2bc 0ece c8bd
00000110: bc7a 413d cafb 12bc ef27 05be 578b d4bc
00000120: d3b0 2cbd 50b7 d8bc 607b 1fbd 89eb 9e3c
00000130: c58c 66bd 08d5 c3bc 58d6 10bc 1096 ef3b
00000140: 5eea 0cbe cbd1 5dbc c0bc f8bb a01b 66bb
00000150: b478 bebb 8870 493d 0758 30bd e0ba 2a3c
00000160: 50c5 02bd b4b5 fabd dbdb 05be eefc af3c
00000170: 3f08 dfbc 50dd a33c 6e92 96bd ab6b b7bd
00000180: 3911 bfbd 3812 2bbc fece dabc eecc 21bb
00000190: a25b 2fbd 1e1f 983b fc76 2cbd d0ec 6cbd
000001a0: 56bf 1cbd 30c9 5dbc 40e1 02bb abbc 79bd
000001b0: 297c 1ebd c4d2 24bd b0b9 6fbd 79b2 03be
000001c0: 4da7 95bc 00ed 86b9 77d4 693c b0aa e2bc
000001d0: 04f8 8bbd 2e63 093d ec11 933c 736b e0bd
000001e0: 2a37 7cbc 7034 5abd ae3b a7bd e1a2 a8bc
000001f0: d1f3 2fbd 14ff 4fbd eccc 47bd 7cc3 abbd
00000200: 7426 743d ab01 31bd 8903 cdbd 429b 5bbd
00000210: e069 753c c86a 1abc c027 19bd 4ea0 fdbd
00000220: a21f 49bd ca80 94bc 3acb cf3c 28ec 623c
00000230: 83d0 b0bd 2c6d b3bb 4ce8 57bd d2c9 15bd
00000240: 9d21 aebd 7f6c adbd a8a0 f83c 1b84 e0bd
00000250: e0b5 edbc 7016 ef3c a25f 873c 54ee 21bd
00000260: d471 a2bc a5f2 25bd 0a8f 993c ae17 15bd
00000270: a421 02be f9bd 04be ba7e 4b3d 4ca5 30bc
00000280: 5a8b dbbd 9a2d 23bd ab3e bebc b6ed adbd
00000290: 88e1 113c 5251 383d 8e6f 773d 06f9 bcbd
000002a0: e5ce 613c e944 3aba f883 0fbd 8428 debc
000002b0: 102f 56bd 866b 59bd 6817 40bc ecd6 0e3d
000002c0: 1ed6 a5bd 1f91 a33b 46a8 99bd 463e d93c
000002d0: cf16 14bd c000 0fbb fc6a 2b3d 458c 0abd
000002e0: 7475 3b3d 609a 21bc 1e92 8bbd 6b2a 82bd
000002f0: ce48 5a3d fb92 42bc 7c9d 8dbd 1b7e 11bd
00000300: 57b4 df3c e2ca 6ebd 3ab2 c0bd 8b3d 9fbd
00000310: d781 0abc 7676 77bc bc7c abbd 0cd3 20bc
00000320: 5078 ebbb b48f 103d bebb 18bd 2c11 c33c
00000330: 178f b1bc 9549 e9bd d836 e63c de4d 4dbd
00000340: fef4 a2bd 183d 203d 461a 6cbd e318 6dbd
00000350: 805c 4fbd 0f2e c7bc 7429 35bd c065 92bb
00000360: 700e f73b 2789 eebd ebbc a8bc ba32 b23d
00000370: 2b2b babd 84c7 6abb 5124 b4bd 851e 12bd
00000380: d0ad ec3b 2178 53bd 71df 43bd 132a 86bc
00000390: 888c 473c e5aa 4ebd 701d 7ebd aee7 5ebd
000003a0: 516c 0bbe e6c1 4d3d 9dbc f0bd e05b 75bb
000003b0: e4e8 9dbd 1f03 a4bd ab85 ecbd 19ed 18bd
000003c0: 043a 953c ba6b 6abd d064 f8ba 54c4 363d
000003d0: 98e6 5ebb 14b9 8cbd 4eb9 c2bd d6a3 e539
000003e0: fce2 c7bd d31e f5bd facf 6dbd 6878 9cbd
000003f0: e22a 59bd a400 e1bd fcec 983c 7ab7 0fbe

net.2.bias f4 [256]
-0.12110383 0.02345846 0.03402748 0.006213784 -0.06030543 -0.0044521107 0.008505188 -0.036791258
-0.04499106 -0.04093376 0.03584926 0.029726923 -0.025272483 0.016413294 -0.13754223 0.02821231
-0.059714478 0.0029856125 -0.025961682 -0.015010317 -0.044684567 -0.030534917 -0.041852616 -0.12068164
-0.105869025 0.05304124 -0.027232688 -0.018272275 -0.09843687 -0.068485916 0.057211716 -0.008887753
-0.010047077 -0.07919838 0.0070330654 -0.0033147063 -0.011482976 -0.06025085 -0.013886603 -0.017590959
-0.06950469 -0.025973871 0.0060543595 -0.086324684 0.0012172159 -0.022204913 -0.041499406 -0.036300544
-0.026399117 -0.07415951 0.024164557 0.0073321518 -0.052427724 -0.008822285 -0.018357437 -0.010478906
-0.038595334 -0.088288434 -0.05917682 -0.04946366 -0.040719118 -0.108496636 0.01413926 0.0093975365
-0.026795246 0.046762228 0.004063291 -0.040447876 -0.069054194 0.002531656 -0.09296138 -0.009160609
0.052278034 0.023875516 0.017694032 -0.10351387 -0.029218094 -0.069707274 0.0005018733 0.0035505518
-0.06060583 0.024714315 -0.11020997 0.033750847 -0.061807446 -0.0862767 -0.08309431 -0.021609925
-0.13876209 -0.020256229 -0.021660034 -0.062251743 -0.0396099 0.03909315 -0.06804634 -0.008078106
-0.049941786 -0.0013751115 -0.059023187 0.01906318 -0.059303585 -0.033304505 -0.0420088 -0.0026511413
-0.017206192 -0.033520967 -0.008790263 -0.02762138 -0.0411086 -0.104442894 0.25266057 -0.098130405
0.058698937 -0.061676465 -0.02898931 -0.052584164 0.017377846 -0.0037425167 -0.11409495 -0.10697729
0.036952563 0.012664863 0.0032664314 0.029774748 -0.044534538 -0.013714403 -0.0541375 0.10810163
-0.012836412 0.0010743522 -0.10253194 -0.014758773 -0.0021579345 0.004120881 -0.04139617 -0.032200363
-0.0032807072 -0.009799622 -0.04865162 -0.032729868 0.04028696 -0.103793144 -0.047192503 -0.00272735
-0.09411356 0.013428164 -0.119248874 -0.07868511 -0.15556592 -0.039507266 -0.038672306 -0.05048193
-0.05579479 -0.05183529 0.07342985 -0.048296355 -0.11120985 -0.0050676465 -0.07704147 0.03705298
-0.042621706 0.05401445 0.010663278 -0.03644017 0.02608359 -0.14329416 -0.017971424 0.056761373
-0.0730832 0.058874797 -0.039501727 -0.017827598 -0.030580059 0.03685799 -0.023593478 -0.12071814
-0.055171162 -0.022121692 -0.08521058 -0.063515574 -0.031352412 0.06556186 -0.056959532 -0.11723557
-0.012258572 -0.013505777 0.030116178 -0.0084989965 0.05712831 -0.07974548 0.008216536 -0.06076296
0.014634579 0.0004193766 -0.0011472272 -0.0975788 -0.07288328 -0.05408816 -0.09919332 -0.107151024
-0.059769657 -0.025717571 -0.06960677 0.0097991675 -0.10277404 -0.027851688 0.03694243 -0.10281846
-0.016093306 -0.05127451 0.027576987 0.014337711 -0.0961343 -0.004230377 -0.097369514 0.0023180333
-0.108386666 -0.07012583 -0.036334235 -0.0034415573 0.0021313655 -0.011682987 -0.07014299 0.015796077
-0.07444479 -0.06838994 0.01351753 -0.043333467 -0.050446235 -0.033556953 0.005355745 -0.015383261
-0.08666192 -0.06100862 0.029663168 -0.017942946 -0.056524638 -0.054019876 -0.04011303 -0.05998018
-0.046504375 -0.07357958 -0.06371822 0.054362964 -0.11769809 -0.03367812 -0.0069109644 0.04810933
0.054460555 -0.042619955 0.122389115 -0.08378206 0.029672079 0.059415124 -0.07781691 -0.05933312
00000000: 4905 f8bd f52b c03c 6660 0b3d 009d cb3b
00000010: d402 77bd 03e3 91bb 5859 0b3c 6eb2 16bd
00000020: 8c48 38bd 29aa 27bd acd6 123d e085 f33c
00000030: 3d08 cfbc 2c75 863c dfd7 0cbe 811d e73c
00000040: 2b97 74bd 44aa 433b 98ad d4bc d5ed 75bc
00000050: 2a07 37bd 5d24 fabc a66d 2bbd f027 f7bd
00000060: dcd1 d8bd c541 593d 1617 dfbc bdaf 95bc
00000070: 4599 c9bd 5842 8cbd d556 6a3d f09d 11bc
00000080: 7f9c 24bc c332 a2bd a175 e63b 8b3b 59bb
00000090: 1823 3cbc 98c9 76bd a284 63bc ea1a 90bc
000000a0: 7a58 8ebd 28c7 d4bc a663 c63b ffca b0bd
000000b0: fd8a 9f3a 14e7 b5bc 48fb 29bd e1af 14bd
000000c0: f642 d8bc f1e0 97bd c0f4 c53c 8c42 f03b
000000d0: 74be 56bd 588b 10bc 5662 96bc b8af 2bbc
000000e0: 2416 1ebd 91d0 b4bd 6563 72bd 689a 4abd
000000f0: 17c9 26bd 7c33 debd 5ba8 673c 20f8 193c
00000100: b481 dbbc c089 3f3d 5b25 853b acac 25bd
00000110: 496c 8dbd 24ea 253b 8962 bebd 6116 16bc
00000120: 7e21 563d 9696 c33c 13f3 903c 14ff d3bd
00000130: c95a efbc b0c2 8ebd 2690 033a 60b0 683b
00000140: d23d 78bd ad75 ca3c c4b5 e1bd 543e 0a3d
00000150: ce29 7dbd d7b1 b0bd 592d aabd 4c07 b1bc
00000160: a617 0ebe 64f0 a5bc 6270 b1bc affb 7ebd
00000170: fe3d 22bd 2420 203d e15b 8bbd 085a 04bc
00000180: c28f 4cbd 163d b4ba 4cc2 71bd 632a 9c3c
00000190: 51e8 72bd 4e6a 08bd 6b11 2cbd c5be 2dbb
000001a0: 00f4 8cbc 484d 09bd 0905 10bc 3b46 e2bc
000001b0: 7e61 28bd 28e6 d5bd ba5c 813e 98f8 c8bd
000001c0: 4c6e 703d 76a0 7cbd fd7a edbc 7e62 57bd
000001d0: fc5b 8e3c 0345 75bb 9daa e9bd e916 dbbd
000001e0: 925b 173d 4980 4f3c a011 563b 2cea f33c
000001f0: d969 36bd 60b2 60bc 48bf 5dbd 6364 dd3d
00000200: d04f 52bc 47d1 8c3a 44fc d1bd c8ce 71bc
00000210: 226c 0dbb 7508 873b 088f 29bd 87e4 03bd
00000220: 2201 57bb 988e 20bc ec46 47bd c10f 06bd
00000230: f003 253d 8091 d4bd ed4c 41bd 57bd 32bb
00000240: 9cbe c0bd cd01 5c3c c138 f4bd a925 a1bd
00000250: ac4c 1fbe 5fd2 21bd da66 1ebd 24c6 4ebd
00000260: 1489 64bd 3e51 54bd 6462 963d 66d2 45bd
00000270: fdc1 e3bd 800e a6bb ebc7 9dbd dec4 173d
00000280: 1994 2ebd 423e 5d3d 08b5 2e3c 4a42 15bd
00000290: 41ad d53c b4bb 12be cf38 93bc 9d7e 683d
000002a0: a5ac 95bd b326 713d 90cc 21bd 2f0b 92bc
000002b0: 0883 fabc 67f8 163d 1c47 c1bc 123b f7bd
000002c0: 28fb 61bd 8d38 b5bc e282 aebd 7414 82bd
000002d0: 636b 00bd 4c45 863d 664e 69bd 3419 f0bd
000002e0: 2dd8 48bc 5647 5dbc 34b6 f63c 603f 0bbc
000002f0: 60ff 693d 9951 a3bd a69e 063c 95e2 78bd
00000300: e0c5 6f3c c6df db39 8f5e 96ba 65d7 c7bd
00000310: d443 95bd 8c8b 5dbd de25 cbbd ff71 dbbd
00000320: 07d1 74bd a8ad d2bc ff8d 8ebd b08c 203c
00000330: 327b d2bd 3929 e4bc f250 173d 7c92 d2bd
00000340: 1cd6 83bc 3805 52bd 22e9 e13c b8e8 6a3c
00000350: 0fe2 c4bd f99e 8abb ab69 c7bd 25ea 173b
00000360: d4f9 ddbd 229e 8fbd 35d3 14bd c08b 61bb
00000370: 61ae 0b3b 006a 3fbc 21a7 8fbd c666 813c
00000380: 8376 98bd 0610 8cbd a178 5d3c 6f7e 31bd
00000390: b6a0 4ebd 0473 09bd 3f7f af3b 130a 7cbc
000003a0: ce7b b1bd 2de4 79bd 2c00 f33c 16fd 92bc
000003b0: 6186 67bd f243 5dbd 8f4d 24bd c7ad 75bd
000003c0: 5f7b 3ebd e4b0 96bd b37e 82bd b3ab 5e3d
000003d0: b20b f1bd 11f2 09bd 5f75 e2bb 4a0e 453d
000003e0: 0812 5f3d 4392 2ebd 25a7 fa3d ee95 abbd
000003f0: dc12 f33c 465d 733d 795e 9fbd 4907 73bd

net.4.weight f4 [2, 256]
0.0104836095 0.012706255 -0.036380462 -0.045115948 0.016891405 0.03791557 0.044908293 0.0006872918
-0.038426228 -0.033783678 -0.043365836 0.047558438 -0.026894284 -0.023654014 -0.08669218 -0.020888632
0.0059463414 -0.011333743 0.052950554 0.0008713637 -0.015308995 0.023428572 0.011201903 0.046114188
0.018709023 0.03225518 0.021953946 0.016795639 -0.039102208 0.0033813727 -0.021680195 0.030655771
-0.052487567 0.005590515 -0.01268058 0.030388817 -0.06543856 0.051666155 0.06884077 -0.07707907
0.041556485 0.0070341304 -0.0223886 -0.09796365 -0.09810748 -0.052080452 0.016177826 -0.029338464
0.017721092 0.0596215 -0.027282 -0.035779823 -0.013507277 -0.025728337 0.10088054 -0.01238618
0.051165037 -0.07655469 0.071562305 0.019691719 0.10156637 -0.022317387 -0.068770096 0.030114703
0.07761448 -0.0009853095 -0.07159434 0.05219407 -0.003042668 -0.041041326 -0.040454097 0.028389003
0.035537884 -0.05481298 -0.00044421104 -0.0011402761 0.06600876 -0.030617375 -0.010202452 -0.06081702
0.023169223 -0.07039106 0.016315049 -0.006872222 -0.02029021 -0.035758458 -0.010697433 -0.01612664
0.01428345 -0.05034216 -0.0071156183 0.03655683 0.04538525 -0.059742205 0.085292116 0.028461628
0.064136274 0.06967319 -0.037220497 -0.0023258165 -0.038482226 -0.03119691 -0.04149713 0.06265776
0.0227052 -0.026444454 -0.039476134 -0.03729847 0.027526602 0.02462662 0.12961783 -0.019698592
0.022169322 0.051268566 0.01083018 0.024202831 0.05468211 -0.0017938652 0.044059657 0.022405205
-0.041675486 -0.051526632 0.017111354 -0.05931203 -0.072630055 0.04011689 -0.00583451 0.22939736
-0.012098111 0.053453665 0.0646058 0.016103521 -0.02577055 -0.04615309 -0.04942632 0.055564675
0.02701105 -0.09323045 0.0125481095 0.017682439 -0.035932153 0.0373999 -0.07208569 -0.0055320007
-0.011287328 0.08709374 0.002006184 -0.08253067 -0.035801303 0.03437814 0.061392643 -0.024704255
-0.03018143 -0.061653934 0.013950011 -0.0069365203 -0.00056729105 -0.03356249 0.058465492 -0.006284048
0.028513087 -0.046563487 -0.04331529 -0.033097237 0.00085437053 0.040554155 -0.018552072 0.023544692
-0.02186752 0.0005428002 -0.043689556 0.004835368 -0.027331904 0.002649976 -0.050867245 0.05645214
-0.027972577 0.01579619 -0.016517425 0.075718 0.07380936 0.041979875 -0.02245681 0.009284048
-0.04802309 0.0096464595 -0.056689367 -0.012284458 0.003236345 0.08738004 0.01708275 -0.05272182
-0.03754235 -0.012265168 -0.00081684254 0.02707533 -0.009141316 -0.01598035 0.014722144 0.041224074
0.013330016 -0.004811788 0.005208251 -0.048009545 -0.002367607 0.03789083 -5.637064e-05 0.01977514
0.056043535 0.041383207 -0.0053225453 -0.07908392 -0.19850382 -0.00014968068 0.042507123 -0.045895886
0.0197842 -0.06505352 0.048039958 -0.008539125 0.012601076 -0.03102938 -0.013830376 -0.005315708
0.023967411 0.014014741 0.009399775 0.22698118 -0.0229075 0.015601965 -0.018363861 -0.0052995686
-0.011323158 -0.022110052 -0.038403936 0.07513728 0.017381324 -0.04884761 -0.0025325383 0.00067080575
0.011886268 0.0544933 -0.035244368 0.04595338 0.03306948 -0.017511593 0.032685887 -0.06092699
-0.061163574 -0.010710769 0.1988464 0.060324684 0.060002223 -0.013772674 0.09218105 0.0027248426
00000000: 72c3 2b3c e52d 503c ae03 15bd 80cb 38bd
00000010: d85f 8a3c 5b4d 1b3d c2f1 373d 5f2b 343a
00000020: d264 1dbd c160 0abd 60a0 31bd a3cc 423d
00000030: 6751 dcbc 10c6 c1bc ab8b b1bd a31e abbc
00000040: 87d9 c23b 2ab1 39bc aee2 583d 3a6c 643a
00000050: 94d2 7abc 47ed bf3c 3088 373c 3be2 3c3d
00000060: aa43 993c 021e 043d c3d8 b33c 0297 893c
00000070: a329 20bd 059a 5d3b aa9a b1bc d021 fb3c
00000080: 34fd 56bd a430 b73b 35c2 4fbc f8f1 f83c
00000090: a704 86bd e49f 533d 64fc 8c3d a2db 9dbd
000000a0: 2237 2a3d 907e e63b 4c68 b7bc 2ba1 c8bd
000000b0: 93ec c8bd 5052 55bd 5c87 843c 3857 f0bc
000000c0: d32b 913c ad35 743d 807e dfbc dd8d 12bd
000000d0: a04d 5dbc 3cc4 d2bc 759a ce3d 68ef 4abc
000000e0: 6e92 513d b5c8 9cbd 428f 923d 8750 a13c
000000f0: 0702 d03d f4d2 b6bc 56d7 8cbd 1cb3 f63c
00000100: 57f4 9e3d 8025 81ba 0ea0 92bd 73c9 553d
00000110: 8067 47bb f31a 28bd 32b3 25bd 0e90 e83c
00000120: 2c90 113d 9383 60bd ffe4 e8b9 5175 95ba
00000130: 9a2f 873d 4ad1 fabc 2f28 27bc 441b 79bd
00000140: 62cd bd3c 3029 90bd 23a7 853c 6030 e1bb
00000150: a837 a6bc 7677 12bd 4944 2fbc 041c 84bc
00000160: 2205 6a3c 9533 4ebd 222a e9bb 9dbc 153d
00000170: e2e5 393d 3eb4 74bd a2ad ae3d 5c28 e93c
00000180: e159 833d d1b0 8e3d 8574 18bd ba6c 18bb
00000190: 8a9f 1dbd aa90 ffbc e5f8 29bd b652 803d
000001a0: 4100 ba3c 0aa2 d8bc bab1 21bd 48c6 18bd
000001b0: 787f e13c c4bd c93c 89ba 043e f15e a1bc
000001c0: 709c b53c fdfe 513d 1171 313c 0445 c63c
000001d0: 59fa 5f3d 2120 ebba e677 343d 1f8b b73c
000001e0: eab3 2abd 970d 53bd 1c2d 8c3c 2cf1 72bd
000001f0: 11bf 94bd 9c51 243d 6b2f bfbb 24e7 6a3e
00000200: 2837 46bc 3bf2 5a3d 0c50 843d 88eb 833c
00000210: c31c d3bc 060b 3dbd 4173 4abd c997 633d
00000220: 4746 dd3c 9bef bebd 9696 4d3c c3da 903c
00000230: 982d 13bd a330 193d aaa1 93bd c945 b5bb
00000240: 7cee 38bc 345e b23d 2f7a 033b d705 a9bd
00000250: 63a4 12bd 18d0 0c3d da76 7b3d 9460 cabc
00000260: 0c3f f7bc d688 7cbd 968e 643c c04b e3bb
00000270: 42b6 14ba d278 09bd 8379 6f3d 6aea cdbb
00000280: 4794 e93c 5bb9 3ebd 606b 31bd f890 07bd
00000290: d6f7 5f3a 1d1c 263d 84fa 97bc cce0 c03c
000002a0: 8323 b3bc b44a 0e3a d2f3 32bd 0272 9e3b
000002b0: 28e7 dfbc 38ab 2d3b 2c5a 50bd 5c3a 673d
000002c0: bf26 e5bc 0367 813c 8d4f 87bc 0a12 9b3d
000002d0: 5d29 973d 17f3 2b3d 58f7 b7bc 1f1c 183c
000002e0: dcb3 44bd 2f0c 1e3c 1c33 68bd c044 49bc
000002f0: dc18 543b 4ef4 b23d 20f1 8b3c d6f2 57bd
00000300: 02c6 19bd d8f3 48bc 6021 56ba 15cd dd3c
00000310: 75c5 15bc 39e9 82bc 2635 713c 93da 283d
00000320: 2466 5a3c 34ac 9dbb faa9 aa3b a8a5 44bd
00000330: db29 1bbb 6a33 1b3d 846f 6cb8 79ff a13c
00000340: e88d 653d 7081 293d bf68 aebb c0f6 a1bd
00000350: 9644 4bbe 9af3 1cb9 f31b 2e3d 53fd 3bbd
00000360: 7912 a23c c83a 85bd 8cc5 443d b0e7 0bbc
00000370: be74 4e3c 5431 febc cd98 62bc 642f aebb
00000380: 4e57 c43c 169e 653c 8401 1a3c c16d 683e
00000390: 82a8 bbbc 629f 7f3c cf6f 96bc 01a8 adbb
000003a0: c484 39bc 2420 b5bc 724d 1dbd 93e1 993d
000003b0: 4763 8e3c 6e14 48bd f1f8 25bb 03d9 2f3a
000003c0: 9fbe 423c 5e34 5f3d 665c 10bd 9d39 3c3d
000003d0: dd73 073d 7974 8fbc a3e1 053d 948e 79bd
000003e0: a886 7abd 397c 2fbc 649e 4b3e 0417 773d
000003f0: e4c4 753d c8a6 61bc 6bc9 bc3d 4693 323b

net.4.bias f4 [2]
0.07925237 -0.034344193
00000000: 114f a23d 7fac 0cbd
