flappyb/models/cross_entropy/batchsize=100-hiddensize=256-lr=0.01-gamma=.9-PART=210.pt (torch_old, 272411 bytes, 6 tensors)

net.0.weight f4 [256, 5]
0	0xbe5fa7b2	-0.21841314
1	0x3e6c025c	0.23047775
2	0xbccc9530	-0.024973482
3	0xbe09bc06	-0.13450631
4	0xbe475fc0	-0.1947012
5	0x3eca4924	0.39508927
6	0x3e36bd43	0.17845635
7	0x3e7d5f9f	0.24743508
8	0xbe3b039e	-0.18263099
9	0xbea7b5c0	-0.32755852
10	0xbe3e2944	-0.18570429
11	0xbeb0ddf8	-0.3454435
12	0x3de447e4	0.111465245
13	0xbd8c644c	-0.068550676
14	0xbe7a3dac	-0.24437588
15	0xbedea919	-0.43488386
16	0x3e573e3f	0.21019839
17	0x3ec3133b	0.3810061
18	0xbe7e9445	-0.24861248
19	0x3d3d8059	0.04626498
20	0xbd4f8998	-0.05066833
21	0x3dedb7b8	0.11607307
22	0xbdd3ce44	-0.103420764
23	0x3ce4abb0	0.027913898
24	0xbe1e79a0	-0.15476084
25	0xbd89e437	-0.06732982
26	0xbe9a7dc2	-0.3017407
27	0x3e6588fe	0.2241554
28	0xbeb4da32	-0.3532272
29	0x3e9c42fc	0.30519855
30	0xbdf6f130	-0.120577216
31	0xbc91185f	-0.017711816
32	0xbe58a6c1	-0.21157362
33	0xbf0339d9	-0.51260144
34	0x3e3c1858	0.18368661
35	0x3e317724	0.17330605
36	0xbedee7c3	-0.43536195
37	0x3d9e4af7	0.07729142
38	0xbb3ececa	-0.0029114955
39	0x3e944895	0.28961626
40	0x3e832ca7	0.25620005
41	0xbed2642d	-0.41092053
42	0x3e997747	0.29973814
43	0xbe1e9970	-0.1548822
44	0x3e01d576	0.12679085
45	0xbe5d9b23	-0.21641211
46	0x3e973d86	0.29539126
47	0xbee89569	-0.4542649
48	0x3d6eb0c0	0.05827403
49	0x3ec5a01f	0.38598725
50	0xbe00c31f	-0.12574433
51	0x3ed57d9d	0.41697398
52	0x3e97fc68	0.29684758
53	0xbe2b2b08	-0.16715634
54	0x3e26fb70	0.16306853
55	0x3d8d733f	0.06906747
56	0xbcc868bc	-0.024464004
57	0x3e743102	0.2384682
58	0xbe5f126f	-0.21784376
59	0x3e1be66c	0.15224618
60	0x3f002413	0.50055045
61	0x3e93f421	0.28897193
62	0xbeb97e9f	-0.36229417
63	0xbd877f5e	-0.0661609
64	0xbe6244b2	-0.22096518
65	0xbed3e0af	-0.41382357
66	0x3e9131b4	0.28358233
67	0xbd23e1a8	-0.040010124
68	0xbe71546b	-0.23567359
69	0x3e6c9568	0.23103869
70	0x3e9183d9	0.28420904
71	0x3dd69399	0.10477371
72	0xbeed3b3f	-0.46334264
73	0xbdad52fb	-0.08463093
74	0x3e8e2987	0.27766058
75	0x3c8582f3	0.016297793
76	0x3d8c5ce7	0.06853657
77	0xbeeaada3	-0.458356
78	0x3bfc3dc8	0.0076977946
79	0x3e3f822a	0.18701997
80	0xbd5064de	-0.050877444
81	0x3f16dfb3	0.5893509
82	0x3e3df2ef	0.18549703
83	0xbdb8acb7	-0.09017318
84	0xbdbf982e	-0.09355198
85	0xbe960222	-0.29298502
86	0x3ede5b32	0.43428952
87	0xbe97b9e7	-0.2963402
88	0xbec99664	-0.3937255
89	0x3e22f94a	0.15915409
90	0xbef92c09	-0.4866641
91	0xbeaaa85e	-0.3333158
92	0xbe80e0bf	-0.25171468
93	0xbe72557e	-0.23665425
94	0xbdfd554d	-0.123697855
95	0xbe52602e	-0.20544502
96	0x3d657eec	0.056029245
97	0x3ebd4659	0.36967734
98	0x3e843a11	0.2582555
99	0xbd139a14	-0.036035612
100	0xbe8e436a	-0.27785808
101	0xbd6adab5	-0.05733748
102	0xbedc8d3e	-0.4307651
103	0x3db7117c	0.08938882
104	0x3e5328ab	0.20620982
105	0xbed3c4ad	-0.4136099
106	0x3e170f20	0.14751863
107	0x3e3fb037	0.18719564
108	0xbd67e852	-0.056618042
109	0x3eaba7b0	0.33526373
110	0xbeb5ea3d	-0.35530272
111	0x3e6d7c4b	0.23191945
112	0xbeb3b661	-0.35100082
113	0xbbad1c3a	-0.005282906
114	0x3e8cc09d	0.27490702
115	0x3e3eccf6	0.18632874
116	0x3e39dfba	0.18151751
117	0xbe7a2ff4	-0.24432355
118	0xbeb67f9d	-0.35644236
119	0x3e3b7e47	0.1830989
120	0xbe4771ce	-0.19477007
121	0x3e78b8b4	0.24289209
122	0xbee1e1a6	-0.4411747
123	0xbd114d00	-0.035473824
124	0xbedd516f	-0.4322619
125	0xbec117e7	-0.3771355
126	0xbdd95980	-0.10612774
127	0x3dd61d68	0.104548275
128	0xbea6149a	-0.32437593
129	0x3ee39f7a	0.44457608
130	0x3db90a4e	0.090351686
131	0xbe837298	-0.25673366
132	0x3ec0b33c	0.37636745
133	0x3e0aa5e4	0.13539845
134	0x3d435396	0.047687136
135	0xbeb55b43	-0.3542119
136	0xbcbf61f0	-0.02336213
137	0x3de00f70	0.109404445
138	0xbedf1915	-0.43573824
139	0xbe90af05	-0.2825853
140	0xbe8fd527	-0.2809231
141	0x3e0ed17b	0.13947098
142	0xbd3ed636	-0.046591006
143	0x3dfdb053	0.12387147
144	0xbcaed5fb	-0.021342268
145	0x3c10ac05	0.008830075
146	0xbdca5331	-0.09879149
147	0xbe11d5d0	-0.14241719
148	0xbd960027	-0.07324248
149	0x3e7f5dd8	0.24938142
150	0xbe5472ec	-0.20746964
151	0xbed0dcb0	-0.4079337
152	0x3cf7014b	0.030151984
153	0x3d945005	0.07241825
154	0x3df54f22	0.11977984
155	0xbece40f4	-0.4028393
156	0x3ec5c28c	0.3862499
157	0x3e57c6f1	0.21071984
158	0xbe460d0e	-0.19340917
159	0xbe1453bc	-0.14485067
160	0x3eb12a48	0.3460257
161	0xbe72f220	-0.23725176
162	0xbe40c0e7	-0.18823586
163	0xbeb4b8dd	-0.3529729
164	0x3e633c6f	0.22191022
165	0xbc905500	-0.017618656
166	0x3dc5b600	0.09653854
167	0x3e2296e4	0.15877873
168	0xbe96995a	-0.29413873
169	0x3e7af1a0	0.24506235
170	0xbda36725	-0.07978658
171	0x3e056fb7	0.13030897
172	0x3e286643	0.1644526
173	0xbe9348d3	-0.28766498
174	0x3ea1d551	0.3160806
175	0xbed9a6da	-0.4251011
176	0x3e3245c0	0.1740942
177	0xbe298b48	-0.16557038
178	0x3ea509a6	0.32233924
179	0xbdc03a54	-0.09386125
180	0xbe8763f1	-0.26443437
181	0xbd68e720	-0.056861043
182	0x3ed7c27c	0.42140567
183	0x3e585470	0.2112596
184	0xbeb6300c	-0.35583532
185	0xbeaf1641	-0.34196666
186	0x3e36f785	0.17867859
187	0x3e8fedab	0.28111014
188	0xbf02da1f	-0.51114076
189	0x3dacb918	0.08433741
190	0x3d66145e	0.056171767
191	0xbecb3231	-0.3968673
192	0xbbc1ef6a	-0.005918433
193	0xbe8b8389	-0.2724879
194	0xbba61e0c	-0.0050695
195	0xbedee60b	-0.43534884
196	0x3ed40684	0.4141122
197	0x3cef70c0	0.029228568
198	0xbe8da4e9	-0.2766488
199	0xbea2f29e	-0.31825727
200	0xbccd6bba	-0.025075782
201	0x3e988263	0.29786977
202	0x3e66a646	0.22524366
203	0xbe4a00fe	-0.19726941
204	0x3e58e364	0.21180493
205	0x3cdeeff0	0.02721402
206	0x3ed1e26a	0.40993053
207	0xbde77bb0	-0.113028884
208	0x3e073ca4	0.13206726
209	0xbe849c3c	-0.25900447
210	0xbe0f29e2	-0.13980821
211	0xbe221253	-0.15827303
212	0xbf0bc68e	-0.54599845
213	0x3e5a2fdc	0.2130732
214	0xbe89bcb6	-0.26901788
215	0x3e6e0c34	0.23246843
216	0xbeb5c261	-0.35499862
217	0xbe9cdbe2	-0.30636507
218	0x3e817d0e	0.25290722
219	0xbe9c2e0e	-0.30503887
220	0x3df13577	0.11777776
221	0xbd9674ec	-0.0734652
222	0xbd1566ec	-0.036475107
223	0x3d9fbd78	0.0779981
224	0x3e3d5ec8	0.18493187
225	0x3e345eb5	0.17614253
226	0x3e7fb32c	0.24970692
227	0xbeb24f0b	-0.3482593
228	0x3eb2a8a5	0.3489429
229	0xbe95ff2f	-0.29296252
230	0xbe1a84cb	-0.15089719
231	0xbe5dbf27	-0.2165495
232	0xbdb472aa	-0.08810933
233	0xbef8facb	-0.4862884
234	0x3e8e3034	0.2777115
235	0xbe6302d1	-0.22169043
236	0xbe405f38	-0.18786323
237	0x3e812030	0.2521987
238	0xbdbe9636	-0.09305994
239	0xbe2f235f	-0.17103337
240	0xbeb0b7f9	-0.3451536
241	0xbd380a0d	-0.04493146
242	0x3eb930df	0.36170098
243	0xbe0deeb0	-0.13860583
244	0xbe42b9c4	-0.19016176
245	0xbec3f303	-0.3827134
246	0xbb867740	-0.004103571
247	0x3e885c04	0.26632702
248	0x3ea41978	0.3205068
249	0xbec3f895	-0.3827559
250	0x3dc65dbb	0.096858464
251	0xbe25325b	-0.1613249
252	0xbea1023c	-0.31447017
253	0xbeb86460	-0.3601408
254	0xbef652f1	-0.48110154
255	0xbe84497a	-0.25837308

net.0.bias f4 [256]
0	0xbee4cf4c	-0.44689405
1	0xbeb2a5a8	-0.3489201
2	0xbddb575d	-0.107100226
3	0x3d2b6d9d	0.041852582
4	0xbdde9894	-0.10868946
5	0x3e711b8d	0.23545666
6	0x3e38e82b	0.18057315
7	0x3e898139	0.26856402
8	0xbe645840	-0.2229929
9	0x3e7397d9	0.23788394
10	0xbe9c0662	-0.3047362
11	0x3e4a3723	0.19747595
12	0xbd7560c9	-0.059906755
13	0xbed57235	-0.41688696
14	0xbda69207	-0.08133321
15	0xbce676ad	-0.02813276
16	0x3caa107b	0.020759812
17	0x3edc5603	0.43034372
18	0x3e74b9a0	0.23898935
19	0xbe2efc9e	-0.17088553
20	0xbde0ee8e	-0.10983001
21	0xbe4f2b04	-0.20231253
22	0xbd3a77d9	-0.045524452
23	0x3eca87fe	0.3955688
24	0xbed1b884	-0.40961087
25	0xbed0e535	-0.4079987
26	0xbe8ac6ba	-0.2710474
27	0x3e3cd1b4	0.1843937
28	0x3d4e44af	0.05035847
29	0xbe6b6830	-0.22988963
30	0x3e9187c5	0.28423896
31	0x3dde8b00	0.10866356
32	0xbcf7cfa9	-0.030250387
33	0xbe96e6e4	-0.2947303
34	0xbe17a0e8	-0.14807475
35	0xbd430998	-0.04761657
36	0xbe8fccd0	-0.28085947
37	0x3cf42faa	0.029807884
38	0x3dc4229c	0.09576914
39	0xbe7b8f10	-0.24566293
40	0xbe83764f	-0.256762
41	0xbebc28ce	-0.36749882
42	0x3ea84428	0.328645
43	0x3ef45e0e	0.47728008
44	0xbed59178	-0.41712546
45	0x3e93ee0f	0.28892562
46	0x3e11d4db	0.14241354
47	0x3e1a4fc8	0.15069497
48	0xbe6b53ae	-0.2298114
49	0xbe8139ba	-0.25239354
50	0x3ea7e4e4	0.32791817
51	0xbd2f5ea8	-0.04281488
52	0xbd58f6da	-0.05296979
53	0x3f1b6f92	0.6071712
54	0x3e4972c2	0.19672683
55	0xbe11f2a1	-0.14252712
56	0xbee9b1d6	-0.4564349
57	0xbe3d9b17	-0.18516193
58	0x3e8e823e	0.27833742
59	0xbb600d14	-0.0034187483
60	0x3e948713	0.29009303
61	0xbde035b8	-0.10947746
62	0x3dfd57d4	0.123702675
63	0xbdfbf448	-0.12302452
64	0xbe583f11	-0.21117808
65	0xbd363cc6	-0.04449155
66	0xbe7d258e	-0.24721357
67	0xbdb1b859	-0.0867774
68	0xbcf22e90	-0.029563218
69	0xbe610b26	-0.21976909
70	0xbda40e44	-0.080105335
71	0x3df4b73b	0.11949011
72	0xbe893f1d	-0.26805964
73	0xbd266b50	-0.040629685
74	0xbe02ff96	-0.12792811
75	0xbe2ad652	-0.16683319
76	0x3dd5a16c	0.104311794
77	0x3ba22fba	0.004949537
78	0xbee11bba	-0.43966466
79	0xbe4cd7ee	-0.20004246
80	0xbe45d23e	-0.19318482
81	0x3e97465f	0.29545876
82	0xbe3d95e6	-0.18514213
83	0x3da7f870	0.082016826
84	0x3e3767e8	0.17910731
85	0xbe74cc7d	-0.23906131
86	0x3ea1e1d3	0.31617603
87	0xbefaade7	-0.48960802
88	0xbe71c643	-0.23610787
89	0xbea1b875	-0.31586042
90	0x3deaf577	0.114726
91	0xbda54429	-0.08069641
92	0xbe80c705	-0.2515184
93	0xbea80bbc	-0.32821453
94	0x3e475672	0.1946657
95	0xbe523d89	-0.20531286
96	0xbe85278f	-0.26006743
97	0xbe29f93e	-0.16598985
98	0x3e894a1d	0.26814356
99	0xbe797285	-0.24360092
100	0xbb542400	-0.003237009
101	0x3dad358b	0.08457478
102	0xbe28a2f5	-0.16468413
103	0x3e351ba7	0.1768633
104	0xbedce15d	-0.4314069
105	0xbe8a1a66	-0.26973265
106	0xbed14c48	-0.4087851
107	0xbebda04f	-0.37036368
108	0x3e26ef07	0.16302119
109	0xbebeadad	-0.3724188
110	0xbe9a0436	-0.30081338
111	0x3e9fcc71	0.31210664
112	0xbe52d2ad	-0.20588179
113	0xbd1a6ba0	-0.037700295
114	0x3e66f299	0.22553481
115	0x3e8a39ba	0.26997167
116	0x3d74ea5d	0.05979382
117	0xbe7a2831	-0.24429394
118	0x3e149e9c	0.1451363
119	0x3eb42735	0.35186163
120	0xbe6dbf3f	-0.23217486
121	0xbe2f34d4	-0.17109996
122	0x3e9bb5a2	0.30412012
123	0xbea03d5c	-0.31296813
124	0x3ea96235	0.3308274
125	0xbe643ecd	-0.22289582
126	0xbe70e22b	-0.23523776
127	0xbd41dc36	-0.04732915
128	0xbe6f16ec	-0.23348588
129	0x3e60bcc5	0.2194701
130	0xbe76b02b	-0.2409064
131	0xbe490c62	-0.1963363
132	0xbd979ab4	-0.07402554
133	0xbe856038	-0.26049972
134	0x3e3993a0	0.1812272
135	0x3e96197b	0.29316315
136	0xbedb648e	-0.42850155
137	0x3e2a91fd	0.16657253
138	0x3d6d0660	0.057867408
139	0xbe9b0c7b	-0.3028296
140	0x3ea4a7c8	0.32159257
141	0xbe7d8a35	-0.24759753
142	0x3e0d5889	0.13803305
143	0xbd627b80	-0.05529356
144	0x3e6748fa	0.22586432
145	0xbe78c3bf	-0.24293421
146	0xbeba276a	-0.36358196
147	0xbdb3f13d	-0.08786247
148	0xbe44c16e	-0.19214413
149	0x3c67b740	0.014142811
150	0x3e793af0	0.24338889
151	0xbea446f0	-0.3208537
152	0x3e079836	0.13241658
153	0x3e56315f	0.20917271
154	0x3ed73576	0.42032975
155	0x3d63714c	0.05552797
156	0x3e1be9a4	0.15225846
157	0x3ed35554	0.41276038
158	0xbea6b544	-0.3256017
159	0x3e86e326	0.26345176
160	0x3de65379	0.1124639
161	0xbe9c2044	-0.30493367
162	0xbedf8ee4	-0.43663704
163	0xbd338b31	-0.043833915
164	0xbe217f54	-0.15771228
165	0xbe394376	-0.1809214
166	0x3c7d5de0	0.015464276
167	0x3ebc3d38	0.36765456
168	0xbed2e41b	-0.41189656
169	0x3ebcd408	0.36880517
170	0x3e814dc7	0.25254652
171	0xbd9d8730	-0.076918006
172	0xbed3a38d	-0.41335717
173	0x3d49cb2c	0.049266025
174	0x3e22aa21	0.15885212
175	0xbe88a54d	-0.26688614
176	0xbe43539f	-0.19074868
177	0xbc8ecaee	-0.017430749
178	0x3e398c16	0.18119845
179	0xbe93e575	-0.28886
180	0xbe12d968	-0.14340746
181	0xbec92378	-0.39284873
182	0xbd86f3a4	-0.065894395
183	0x3de1d784	0.110274345
184	0x3d2e8ee0	0.042616725
185	0xbd72ab48	-0.059245378
186	0xbab84749	-0.001405933
187	0xbeff1972	-0.498241
188	0xbeb1541b	-0.3463448
189	0xbe57dd2e	-0.21080467
190	0xbe249b2d	-0.1607482
191	0x3d97f61c	0.074199885
192	0xbeac6f6c	-0.33678758
193	0x3ea17b8a	0.31539565
194	0xbeda07ca	-0.42584068
195	0xbe1e8ec7	-0.15484153
196	0xbe961e9e	-0.29320234
197	0x3eb5ddb8	0.3552072
198	0xbaa51bcb	-0.0012596784
199	0x3cb59ae3	0.022168582
200	0xbe1eb5d0	-0.15499043
201	0xbce9e032	-0.028549287
202	0xbe9b7016	-0.30358952
203	0x3ddd81bb	0.1081576
204	0x3ddf9b56	0.109183
205	0x3ccf8995	0.025334159
206	0xbec20d08	-0.37900567
207	0xbedad5de	-0.42741293
208	0xbc18b3fb	-0.009320254
209	0xbe59f69a	-0.21285477
210	0xbec127f4	-0.37725794
211	0xbd0c8c88	-0.03431371
212	0x3e755b20	0.23960543
213	0x3e9d97c0	0.3077984
214	0xbe93d20a	-0.28871185
215	0xbe4cfc4f	-0.20018123
216	0xbd6761e0	-0.056489825
217	0x3eb253fc	0.348297
218	0xbe50e5c8	-0.20400155
219	0xbe52649f	-0.20546196
220	0x3eecf807	0.4628298
221	0x3d0cfe3e	0.03442215
222	0xbe987109	-0.2977374
223	0x3e419824	0.18905693
224	0xbdaef314	-0.08542457
225	0xbe49c922	-0.19705632
226	0xbe4da2b1	-0.20081593
227	0x3deeec8e	0.11666213
228	0xbd26cc30	-0.040722072
229	0x3e896b97	0.26839897
230	0xbeaa8d04	-0.3331071
231	0x3e7438ef	0.23849843
232	0x3efc85a9	0.49320725
233	0x3e4d01dc	0.2002024
234	0x3e8b9780	0.27264023
235	0x3e4952a9	0.19660439
236	0x3ded438c	0.11585149
237	0x3db9c77f	0.09071254
238	0xbe80eb9a	-0.2517975
239	0xbd9ca342	-0.076483265
240	0xbeaf1edb	-0.34203228
241	0x3e5c4fd1	0.21514823
242	0xbeb545cd	-0.35404816
243	0xbe2f6fc1	-0.17132474
244	0x3e9070a4	0.28210938
245	0xbebbb5e4	-0.3666221
246	0x3e2725d6	0.16323027
247	0xbe79bdb5	-0.24388774
248	0x3f054fd8	0.52074957
249	0x3ea0980e	0.3136601
250	0x3ea53c96	0.32272786
251	0xbea83362	-0.32851702
252	0xbec09a7e	-0.37617868
253	0x3e3d3e48	0.1848079
254	0x3ddc435b	0.107550345
255	0x3c66e642	0.014092984

net.2.weight f4 [256, 256]
0	0xbd755f5a	-0.059905387
1	0xbd852b78	-0.06502432
2	0xbd19a156	-0.037507378
3	0xbdae97a8	-0.0852502
4	0x3d00be00	0.031431198
5	0xbd3de2e4	-0.046358958
6	0xbdf09653	-0.11747422
7	0xbdff6573	-0.12470522
8	0xbce9e54e	-0.028551724
9	0xbd84a398	-0.064765155
10	0x3c81533b	0.015786758
11	0x3a545252	0.0008099425
12	0x3c82158d	0.015879417
13	0x3bd5dac0	0.006526321
14	0xbd9f5dd8	-0.07781571
15	0xbd4e29c4	-0.0503328
16	0xbcc8e26c	-0.024522029
17	0xbc86dd7e	-0.016463038
18	0xbdadab70	-0.08479965
19	0xbc0b4830	-0.008501098
20	0xbdef9e47	-0.11700111
21	0xba7d9e79	-0.00096747983
22	0xbd257050	-0.040390313
23	0xbd87d526	-0.06632452
24	0x3d55e7f2	0.052223153
25	0xbcea3b98	-0.02859287
26	0xbd7c7ca4	-0.061642304
27	0xbd148b8a	-0.036265887
28	0xbc4420aa	-0.011970678
29	0xbde82626	-0.11335401
30	0xbc7eccbe	-0.015551744
31	0x3d25aeec	0.04045002
32	0xbc605e1d	-0.013694313
33	0xbc62e188	-0.013847716
34	0x3cfd40e1	0.030914726
35	0x3d4d38b0	0.05010289
36	0xbd35d064	-0.04438819
37	0xbd397514	-0.04527767
38	0xbdb0b038	-0.08627361
39	0xbd58fc24	-0.052974835
40	0x3cfb7c1e	0.030698832
41	0x3cff69fc	0.031178467
42	0xbcce44a9	-0.025179224
43	0xbce4749d	-0.027887637
44	0xbd883ca7	-0.066521935
45	0xbd5d603a	-0.054046847
46	0xbcac6431	-0.021043869
47	0xbd594948	-0.053048402
48	0xbd6e0852	-0.058113404
49	0xbd1b5db2	-0.03793115
50	0xbc2cfe3e	-0.010558663
51	0xbd6de34f	-0.058078106
52	0xbd3a853f	-0.04553723
53	0xbdf34f04	-0.118803054
54	0xbd1c3278	-0.03813407
55	0xbda0d040	-0.078522205
56	0xbd5b4ce1	-0.053540114
57	0xbd9c5a76	-0.076344416
58	0xbd026038	-0.031830043
59	0xbdd09b7c	-0.10185906
60	0x3d2fcae2	0.042918094
61	0x3c6c5638	0.014424853
62	0x3daa9570	0.08329284
63	0xbd436206	-0.047700904
64	0xbc0ee402	-0.0087213535
65	0xbd919db3	-0.07110157
66	0xbcb21401	-0.021738054
67	0xbdc8ce0e	-0.09804927
68	0x3d417abc	0.04723619
69	0xbc12fbdc	-0.008971181
70	0xbe0527ef	-0.13003515
71	0xbcd48b5d	-0.02594536
72	0xbd2cb0d3	-0.04216082
73	0xbcd8b750	-0.026454598
74	0xbd1f7b60	-0.03893602
75	0x3c9eeb89	0.019399421
76	0xbd668cc6	-0.056286596
77	0xbcc3d50f	-0.023905305
78	0xbc10d658	-0.008840166
79	0x3bef9610	0.00731159
80	0xbe0cea5e	-0.13761279
81	0xbc5dd1dc	-0.013538804
82	0xbbf8bcea	-0.0075908797
83	0xbb661ba0	-0.003511168
84	0xbbbe78da	-0.0058127465
85	0x3d497088	0.049179584
86	0xbd305808	-0.043052703
87	0x3c2abae0	0.010420531
88	0xbd02c552	-0.03192646
89	0xbdfab5b4	-0.12241688
90	0xbe05dbdb	-0.1307215
91	0x3caffcee	0.021482911
92	0xbcdf0845	-0.027225623
93	0x3ca3dd48	0.020002976
94	0xbd96926e	-0.07352148
95	0xbdb76bab	-0.08956083
96	0xbdbf1139	-0.09329457
97	0xbc2b1238	-0.010441355
98	0xbcdacf05	-0.026710043
99	0xbb21cd39	-0.0024688973
100	0xbd2f5ba2	-0.042811997
101	0x3b981efa	0.0046423646
102	0xbd2c76fe	-0.042105667
103	0xbd6cecd1	-0.057843033
104	0xbd1cbf56	-0.03826841
105	0xbc5dc930	-0.013536736
106	0xbb02e140	-0.0019970685
107	0xbd79bcab	-0.060970943
108	0xbd1e7c2a	-0.03869263
109	0xbd24d2c4	-0.040240064
110	0xbd6fb9b0	-0.058526695
111	0xbe03b279	-0.1286105
112	0xbc95a755	-0.018268267
113	0xb986ed00	-0.0002573505
114	0x3c69d466	0.014271831
115	0xbce2aab0	-0.02766928
116	0xbd8bf804	-0.068344146
117	0x3d09632e	0.03354185
118	0x3c9311ec	0.017952882
119	0xbde06b73	-0.10957994
120	0xbc7c373e	-0.01539403
121	0xbd5a3470	-0.053272665
122	0xbda73bae	-0.0816568
123	0xbca8a2e7	-0.02058549
124	0xbd2ff3d2	-0.042957135
125	0xbd4fff14	-0.05078037
126	0xbd47ccec	-0.048779413
127	0xbdabc37c	-0.08386895
128	0x3d742674	0.059606984
129	0xbd3101ac	-0.043214485
130	0xbdcd0389	-0.1001044
131	0xbd5b9b42	-0.053614862
132	0x3c7569e0	0.014978856
133	0xbc1a6ac8	-0.009424873
134	0xbd1927c2	-0.03739143
135	0xbdfda04e	-0.12384091
136	0xbd491fa2	-0.049102433
137	0xbc9480d2	-0.018127833
138	0x3ccfcb39	0.025365459
139	0x3c62ec28	0.013850249
140	0xbdb0d083	-0.086335205
141	0xbbb36d52	-0.0054756785
142	0xbd57e84c	-0.05271177
143	0xbd15c9d2	-0.036569424
144	0xbdae219d	-0.08502505
145	0xbdad6c7f	-0.084679596
146	0x3cf8a0a8	0.030350044
147	0xbde0841b	-0.10962697
148	0xbcedb5e0	-0.029017389
149	0x3cef1670	0.029185504
150	0x3c875f9b	0.01652508
151	0xbd21ee54	-0.039533928
152	0xbca271da	-0.01982968
153	0xbd25f2a7	-0.040514614
154	0x3c998f02	0.01874495
155	0xbd1517b1	-0.036399547
156	0xbe0221a4	-0.12708145
157	0xbe04bdf9	-0.12963094
158	0x3d4b7eba	0.049681403
159	0xbc30a55d	-0.010781613
160	0xbddb8b5a	-0.107199386
161	0xbd232d9a	-0.03983841
162	0xbcbe3eaf	-0.02322325
163	0xbdadedb6	-0.084926054
164	0x3c11e188	0.0089038685
165	0x3d385152	0.044999428
166	0x3d776f8e	0.06040912
167	0xbdbcf906	-0.09227185
168	0x3c61ced6	0.013782224
169	0xba3a463a	-0.00071058015
170	0xbd0f83f8	-0.035037965
171	0xbcde288c	-0.027118944
172	0xbd562f10	-0.052290976
173	0xbd596b86	-0.053081058
174	0xbc40177b	-0.011724348
175	0x3d0ed6ec	0.034872934
176	0xbda5d61e	-0.0809748
177	0x3ba390fd	0.004991649
178	0xbd99a846	-0.07502799
179	0x3cd93e40	0.02651894
180	0xbd1416cf	-0.036154564
181	0xbb0f00c0	-0.0021820515
182	0x3d2b6afc	0.041850075
183	0xbd0a8c46	-0.03382518
184	0x3d3b7574	0.04576631
185	0xbc219a60	-0.009863466
186	0xbd8b921e	-0.06814979
187	0xbd822a6b	-0.06355747
188	0x3d5a48ce	0.05329209
189	0xbc429308	-0.011875875
190	0xbd8d9d7c	-0.069148034
191	0xbd117e1b	-0.035520654
192	0x3cdfb451	0.027307661
193	0xbd6ecae3	-0.058298957
194	0xbdc0b23a	-0.09408994
195	0xbd9f3d8b	-0.0777541
196	0xbc0a81e8	-0.008453824
197	0xbc777689	-0.015103945
198	0xbdab7cbc	-0.083734006
199	0xbc20d31d	-0.009815958
200	0xbbeb7850	-0.007185973
201	0x3d108fb4	0.035293296
202	0xbd18bbbe	-0.03728842
203	0x3cc3112c	0.0238119
204	0xbcb18f1e	-0.021674689
205	0xbde94995	-0.11390988
206	0x3ce636d8	0.028102323
207	0xbd4d4dde	-0.050123088
208	0xbda2f4fe	-0.07956885
209	0x3d203d18	0.039120764
210	0xbd6c1a46	-0.057642244
211	0xbd6d18e5	-0.05788507
212	0xbd4f5c81	-0.050625328
213	0xbcc72e17	-0.02431397
214	0xbd352974	-0.044228986
215	0xbb9265c0	-0.004467696
216	0x3bf70e70	0.007539563
217	0xbdee8927	-0.116472535
218	0xbca8bcf1	-0.020597907
219	0x3db232ba	0.087010816
220	0xbdba2b2b	-0.09090265
221	0xbb6ac7c7	-0.0035824643
222	0xbdb42451	-0.08795989
223	0xbd121e86	-0.03567364
224	0x3becadd0	0.0072228685
225	0xbd537822	-0.05162824
226	0xbd43df72	-0.047820516
227	0xbc862a1a	-0.016377497
228	0x3c478c88	0.012179501
229	0xbd4eaae6	-0.05045595
230	0xbd7e1d70	-0.062039793
231	0xbd5ee7b1	-0.054420177
232	0xbe0b6c51	-0.13615538
233	0x3d4dc1e6	0.050233744
234	0xbdf0bc9d	-0.11754725
235	0xbb755be0	-0.0037438795
236	0xbd9de8e4	-0.07710436
237	0xbda4031f	-0.08008408
238	0xbdec85ab	-0.11548933
239	0xbd18ed19	-0.03733549
240	0x3c953a04	0.01821614
241	0xbd6a6bbb	-0.057231646
242	0xbaf86577	-0.0018951137
243	0x3d36c454	0.044620827
244	0xbb5ee6e8	-0.0034012143
245	0xbd8cb914	-0.06871238
246	0xbdc2b94e	-0.09508
247	0x39e5a180	0.0004379861
248	0xbdc7e2fc	-0.09760091
249	0xbdf51ed3	-0.1196877
250	0xbd6dcffd	-0.05805968
251	0xbd9c7868	-0.07640153
252	0xbd592ae2	-0.05301941
253	0xbde100a4	-0.1098645
254	0x3c98ecf5	0.018667677
255	0xbe0fb77a	-0.14034835

net.2.bias f4 [256]
0	0xbdf80549	-0.12110383
1	0x3cd18366	0.025575351
2	0x3d0b6066	0.03402748
3	0x3bcb9d00	0.006213784
4	0xbd7702d4	-0.06030543
5	0xbb91e330	-0.0044521317
6	0x3c0b5958	0.008505188
7	0xbd16b26e	-0.036791258
8	0xbd38488c	-0.04499106
9	0xbd539408	-0.051654845
10	0x3d12d6ac	0.03584926
11	0x3d024cb5	0.031811435
12	0xbccf083e	-0.025272485
13	0x3c86752c	0.016413294
14	0xbe0cd7df	-0.13754223
15	0x3ce71d92	0.028212342
16	0xbd749731	-0.0597145
17	0x3b35f4f3	0.002776441
18	0xbcd4ad98	-0.025961682
19	0xbc9fbca9	-0.01949914
20	0xbd37072d	-0.044684578
21	0xbcfa2463	-0.030534929
22	0xbd2b6da6	-0.041852616
23	0xbdf727f0	-0.12068164
24	0xbdd8d1dc	-0.105869025
25	0x3d4c9dd7	0.049955215
26	0xbcd42c9d	-0.02590018
27	0xbc95afc6	-0.018272292
28	0xbdc99945	-0.09843687
29	0xbd8c4258	-0.068485916
30	0x3d641d96	0.055692278
31	0xbc119df0	-0.008887753
32	0xbc249c8e	-0.010047091
33	0xbda232c3	-0.07919838
34	0x3be6759c	0.007033063
35	0x3babb35a	0.005239886
36	0xbc3c2329	-0.011482992
37	0xbd76c998	-0.06025085
38	0xbc6384b7	-0.013886622
39	0xbc901aee	-0.017590966
40	0xbd8e587a	-0.06950469
41	0xbcd4c728	-0.025973871
42	0x3bc66391	0.0060543497
43	0xbdb0caff	-0.086324684
44	0x3a9f8a8c	0.0012172027
45	0xbcb5e71a	-0.022204924
46	0xbd29fb48	-0.041499406
47	0xbd14afe1	-0.036300544
48	0xbcd8666c	-0.026416026
49	0xbd9a10ca	-0.075227335
50	0x3cc5f4c0	0.024164557
51	0x3bc92d74	0.0061394516
52	0xbd56be74	-0.052427724
53	0xbc108b58	-0.008822285
54	0xbc966269	-0.018357472
55	0xbc2bafb8	-0.010478906
56	0xbd1e1624	-0.038595334
57	0xbdb6cfb7	-0.08926337
58	0xbd726365	-0.05917682
59	0xbd4a9a68	-0.04946366
60	0xbd26c917	-0.040719118
61	0xbdde337c	-0.108496636
62	0x3c67a84c	0.014139246
63	0x3c19f820	0.0093975365
64	0xbcdb81ba	-0.026795257
65	0x3d3f89c0	0.046762228
66	0x3b852548	0.004063282
67	0xbd25acac	-0.040447876
68	0xbd8d6c49	-0.069054194
69	0x3b25e9d9	0.0025316386
70	0xbdbe6289	-0.09296138
71	0xbb633d3c	-0.003467395
72	0x3d56217e	0.052278034
73	0x3cc39691	0.023875507
74	0x3c90f312	0.01769403
75	0xbdd3ff14	-0.10351387
76	0xbcef5ad0	-0.029218107
77	0xbd8ec2b0	-0.069707274
78	0x3a038f02	0.0005018563
79	0x3b68b060	0.0035505518
80	0xbd783dd3	-0.060605835
81	0x3cca75aa	0.02471431
82	0xbde1b5c4	-0.11020997
83	0x3d0a3e54	0.033750847
84	0xbd7d29ce	-0.061807446
85	0xbdb0b1d7	-0.0862767
86	0xbdaa2d59	-0.08309431
87	0xbcb1074c	-0.021609925
88	0xbe0e17a6	-0.13876209
89	0xbca5f071	-0.020256253
90	0xbcb1706a	-0.021660049
91	0xbd7efbb0	-0.062251747
92	0xbd223dfe	-0.0396099
93	0x3d202024	0.03909315
94	0xbd8b5be1	-0.06804634
95	0xbc8c000e	-0.01708987
96	0xbd4c8fc4	-0.049941793
97	0xbab43de6	-0.0013751357
98	0xbd71c24c	-0.059023187
99	0x3c9c2a62	0.019063178
100	0xbd72e851	-0.059303585
101	0xbd0c7e0f	-0.034299906
102	0xbd2c1171	-0.04200882
103	0xbb2dbf18	-0.0026511606
104	0xbc8cf409	-0.017206209
105	0xbd094d53	-0.033521008
106	0xbc10050c	-0.008790266
107	0xbce2463f	-0.027621387
108	0xbd28617e	-0.0411086
109	0xbdd5e628	-0.104442894
110	0x3e83a98e	0.25715297
111	0xbdc8f89a	-0.09813042
112	0x3d706e4c	0.058698937
113	0xbd7ca079	-0.061676476
114	0xbced7b06	-0.028989326
115	0xbd57627e	-0.052584164
116	0x3cbb27c1	0.022846105
117	0xbb754563	-0.003742539
118	0xbde9aa9d	-0.11409495
119	0xbddb16e9	-0.10697729
120	0x3d175b92	0.036952563
121	0x3c2df03e	0.01061636
122	0x3b5611a0	0.0032664314
123	0xbdb34b5b	-0.08754607
124	0xbd3669e3	-0.044534575
125	0xbc60b260	-0.013714403
126	0xbd5dbf66	-0.05413761
127	0x3df321bb	0.11871668
128	0xbc524fd0	-0.012836412
129	0x3a8cd0bf	0.0010743364
130	0xbdd5b8e2	-0.10435654
131	0xbc71cec8	-0.014758773
132	0xbb0d6c62	-0.0021579494
133	0x3b87085a	0.0041208686
134	0xbd298f08	-0.04139617
135	0xbcda1125	-0.026619503
136	0xbb57014f	-0.0032807176
137	0xbc208ea9	-0.009799638
138	0xbd4746ee	-0.04865163
139	0xbd060fc1	-0.032729868
140	0x3d2503f0	0.04028696
141	0xbdd614f6	-0.10453217
142	0xbd414ced	-0.047192503
143	0xbc15f768	-0.0091532245
144	0xbdc0be9c	-0.09411356
145	0x3c5c01bc	0.013428148
146	0xbdf438c1	-0.119248874
147	0xbda125a9	-0.07868511
148	0xbe204702	-0.15652087
149	0xbd21d25f	-0.039507266
150	0xbd1e66da	-0.038672306
151	0xbd4ec624	-0.05048193
152	0xbd648914	-0.05579479
153	0xbd54513e	-0.05183529
154	0x3d9bbf60	0.07604861
155	0xbd45d266	-0.048296355
156	0xbde3c1fd	-0.11120985
157	0xbba60e80	-0.0050676465
158	0xbd9dc7eb	-0.07704147
159	0x3d17c4de	0.03705298
160	0xbd4632b9	-0.048388217
161	0x3d61308f	0.05497795
162	0xbdd61e00	-0.10454941
163	0xbd154257	-0.03644022
164	0x3cdef39a	0.027215768
165	0xbe13d13c	-0.14435285
166	0xbc9338cf	-0.017971424
167	0x3d158fd4	0.03651412
168	0xbd95aca5	-0.0730832
169	0x3d7126b0	0.058874786
170	0xbd2b50fd	-0.041825283
171	0xbc920b38	-0.017827615
172	0xbcfa8308	-0.030580059
173	0x3d25feaf	0.04052609
174	0xbcc1471c	-0.023593478
175	0xbdf73b12	-0.12071814
176	0xbd61fb28	-0.055171162
177	0xbcb53894	-0.022121705
178	0xbdae82e2	-0.08521058
179	0xbd83740d	-0.06418619
180	0xbd006b64	-0.031352416
181	0x3d913742	0.07090618
182	0xbd694e66	-0.056959532
183	0xbdf01934	-0.11723557
184	0xbc48d83c	-0.012258586
185	0xbc5d4764	-0.01350579
186	0x3cf6b634	0.030116178
187	0xbc0b3f88	-0.008499034
188	0x3d6b38a9	0.057427082
189	0xbda35199	-0.07974548
190	0x3c069e9c	0.008216526
191	0xbd78e298	-0.06076297
192	0x3c6fc5e0	0.014634579
193	0xbb5a0388	-0.0033266265
194	0xba965eb5	-0.0011472317
195	0xbdc7d765	-0.0975788
196	0xbd9543e1	-0.072883375
197	0xbd5d8b8d	-0.054088164
198	0xbdcb25eb	-0.09919342
199	0xbddb71ff	-0.107151024
200	0xbd74d108	-0.05976966
201	0xbce19311	-0.027535947
202	0xbd8e8dff	-0.06960677
203	0x3c208cb0	0.0097991675
204	0xbdd27b32	-0.10277404
205	0xbce42942	-0.027851705
206	0x3d233391	0.0398441
207	0xbdd2927c	-0.10281846
208	0xbc83d61c	-0.016093306
209	0xbd520538	-0.05127451
210	0x3cdd3a6b	0.027005395
211	0x3c6ae896	0.014337679
212	0xbddc9cca	-0.10772093
213	0xbb8a9f08	-0.004230384
214	0xbdc769ab	-0.097369514
215	0x3b17e9fb	0.0023180235
216	0xbdddf9d4	-0.108386666
217	0xbd8f9e22	-0.07012583
218	0xbd14d336	-0.03633424
219	0xbb618bc0	-0.0034415573
220	0x3b0bae0b	0.0021313454
221	0xbc3f6a00	-0.011682987
222	0xbd8fa721	-0.07014299
223	0x3c8bd15e	0.017067607
224	0xbd987683	-0.07444479
225	0xbd8c1006	-0.06838994
226	0x3c5d7896	0.013517519
227	0xbd2795db	-0.040914398
228	0xbd532b61	-0.05155504
229	0xbd097304	-0.033556953
230	0x3baf7f21	0.005355731
231	0xbc7c0a16	-0.015383264
232	0xbdb17bce	-0.08666192
233	0xbd79e42d	-0.06100862
234	0x3cf3002c	0.029663168
235	0xbc92fd2e	-0.017942991
236	0xbd678661	-0.056524638
237	0xbd5d43f2	-0.054019876
238	0xbd244d90	-0.040113032
239	0xbd75adc8	-0.059980184
240	0xbd3e7b5f	-0.046504375
241	0xbd96b0e4	-0.07357958
242	0xbd827eb3	-0.06371822
243	0x3d680c4d	0.056652356
244	0xbdf10bb2	-0.11769809
245	0xbd09f213	-0.033678126
246	0xba9e269d	-0.0012065951
247	0x3d450e4a	0.04810933
248	0x3d5f1208	0.054460555
249	0xbd2e9243	-0.042619955
250	0x3e09d19e	0.13458869
251	0xbdab95ee	-0.08378206
252	0xbdad4fd2	-0.0846249
253	0x3d735d46	0.059415124
254	0xbd9f5e79	-0.07781691
255	0xbd730749	-0.05933312

net.4.weight f4 [2, 256]
0	0x3c2bc384	0.010483626
1	0x3c9a5f51	0.018844279
2	0xbd1503ae	-0.036380462
3	0xbd38cb80	-0.045115948
4	0x3c8a5fd8	0.016891405
5	0x3d1b4d5e	0.03791558
6	0x3d37f1c2	0.044908293
7	0x3a342a59	0.00068727654
8	0xbd1d64d2	-0.038426228
9	0xbcf8521e	-0.030312594
10	0xbd31a060	-0.043365836
11	0x3d6c682f	0.057716545
12	0xbcdc516c	-0.026894294
13	0xbcc1c610	-0.023654014
14	0xbdb18bab	-0.08669218
15	0xbcab1e98	-0.020888612
16	0x3bc2d942	0.0059463093
17	0xbc2a1125	-0.010380064
18	0x3d58e2ae	0.052950554
19	0x3b1123a0	0.0022146478
20	0xbc7ad294	-0.015308995
21	0x3cbfed4d	0.023428584
22	0x3c378821	0.011201889
23	0x3d3ce23c	0.04611419
24	0x3c9943b0	0.018709034
25	0x3d10e625	0.035375733
26	0x3cc61122	0.024178091
27	0x3c89970b	0.016795656
28	0xbd2029a3	-0.039102208
29	0x3b5d9a48	0.0033813883
30	0xbc9062dc	-0.017625265
31	0x3cfb21d0	0.030655771
32	0xbd56fd35	-0.05248757
33	0x3bb730c2	0.005590529
34	0xbc4fc241	-0.012680591
35	0x3d1e9088	0.038712054
36	0xbd8604a7	-0.06543856
37	0x3d539fe4	0.051666155
38	0x3d8cfc64	0.06884077
39	0xbd9ddba2	-0.07707907
40	0x3d2a3722	0.041556485
41	0x3be67e90	0.0070341304
42	0xbcb76852	-0.022388611
43	0xbdc8a12b	-0.09796365
44	0xbdc8ec93	-0.09810748
45	0xbd555250	-0.052080452
46	0x3c84875c	0.016177826
47	0xbcf0573f	-0.029338477
48	0x3c8f7a98	0.017514512
49	0x3d742ae8	0.05961123
50	0xbcdf7e80	-0.027282
51	0xbd0ec064	-0.034851447
52	0xbc5d4da0	-0.013507277
53	0xbcd2c43c	-0.025728337
54	0x3dce9a75	0.10088054
55	0xbc4aef68	-0.01238618
56	0x3d51926e	0.051165037
57	0xbd9ec6cf	-0.077527635
58	0x3d928f42	0.071562305
59	0x3ca1508d	0.01969173
60	0x3dd00207	0.10156637
61	0xbcb6d2fa	-0.022317398
62	0xbd8cd756	-0.068770096
63	0x3cf6b31c	0.030114703
64	0x3d9ef457	0.07761448
65	0xba812580	-0.0009853095
66	0xbd92a00e	-0.07159434
67	0x3d55c973	0.05219407
68	0xbb476742	-0.0030426537
69	0xbd281af3	-0.041041326
70	0xbd25b332	-0.040454097
71	0x3d098fb5	0.033584315
72	0x3d11902c	0.035537884
73	0xbd608393	-0.05481298
74	0xb9e8e744	-0.00044422795
75	0xba9574c9	-0.0011402603
76	0x3d872f9a	0.06600876
77	0xbcfad150	-0.030617386
78	0xbc272841	-0.010202468
79	0xbd791b44	-0.06081702
80	0x3cbdcd6c	0.023169242
81	0xbd902930	-0.07039106
82	0x3c85a71e	0.01631504
83	0xbbe13060	-0.006872222
84	0xbca637a8	-0.02029021
85	0xbd127776	-0.035758458
86	0xbc2f4457	-0.010697446
87	0xbc841c04	-0.01612664
88	0x3c6a0522	0.01428345
89	0xbd4e33a6	-0.050342225
90	0xbbe929fc	-0.0071156006
91	0x3d15bc9f	0.036556836
92	0x3d39e5e2	0.04538525
93	0xbd74b43e	-0.059742205
94	0x3daeada2	0.085292116
95	0xbd745687	-0.05965283
96	0x3d8359e1	0.064136274
97	0x3d8eb0d1	0.06967319
98	0xbd187485	-0.037220497
99	0xbb186cf4	-0.00232583
100	0xbd1d9f8a	-0.038482226
101	0xbcf2d3ea	-0.029642064
102	0xbd29f8e5	-0.04149713
103	0x3d8052b6	0.06265776
104	0x3cba0047	0.02270521
105	0xbcd8a20c	-0.026444457
106	0xbd21b1ba	-0.039476134
107	0xbd18c648	-0.03729847
108	0x3ce17f7e	0.027526613
109	0x3cc9bdce	0.024626639
110	0x3e0d3572	0.13789919
111	0xbca15ef0	-0.01969859
112	0x3cb59c70	0.022169322
113	0x3d51feff	0.051268574
114	0x3c317126	0.010830199
115	0x3cc64504	0.024202831
116	0x3d7865a8	0.060643822
117	0xbaeb1f6a	-0.0017938439
118	0x3d3477e6	0.044059657
119	0x3cb78b25	0.022405216
120	0xbd2ab3ea	-0.041675486
121	0xbd44d650	-0.048055947
122	0x3c8c2d1c	0.017111354
123	0x3d88a15b	0.06671401
124	0xbd94bf11	-0.072630055
125	0x3d24519c	0.04011689
126	0xbbbf2fce	-0.005834556
127	0x3e840edd	0.2579259
128	0xbc463728	-0.012098111
129	0x3d5af23b	0.053453665
130	0x3d844d9b	0.064601146
131	0x3c83eb88	0.016103521
132	0xbcd31ccb	-0.025770565
133	0xbd3d0b06	-0.04615309
134	0xbd4a7341	-0.04942632
135	0x3d80152e	0.0625404
136	0x3cdd464e	0.027011063
137	0xbdbeef9b	-0.09323045
138	0x3c4d96ab	0.012548129
139	0x3c90dabe	0.01768243
140	0xbd132d98	-0.035932153
141	0x3d19112f	0.037369903
142	0xbd93a1aa	-0.07208569
143	0xbb84d1a5	-0.004053312
144	0xbc38ee67	-0.011287308
145	0x3db25e34	0.08709374
146	0x3b037a88	0.0020062048
147	0xbda905d7	-0.08253067
148	0xbd155c37	-0.036464896
149	0x3d0cd018	0.03437814
150	0x3d7b76da	0.061392643
151	0xbcca6094	-0.024704255
152	0xbcf73f0c	-0.03018143
153	0xbd7c88d6	-0.061653934
154	0x3c91d41e	0.01780134
155	0xbbe34bc0	-0.0069365203
156	0xba14b4e6	-0.0005672708
157	0xbd0978d2	-0.03356249
158	0x3d6f7983	0.058465492
159	0xbbcdea82	-0.006284059
160	0x3ce8f1ae	0.028435554
161	0xbd3961c7	-0.045259263
162	0x3dadb7f5	0.08482353
163	0xbd0790f7	-0.033097234
164	0x3aeb9eb6	0.0017976377
165	0x3d2a610a	0.04159645
166	0xbc97fa8a	-0.018552084
167	0x3c6241c5	0.013809626
168	0xbcb32388	-0.021867529
169	0x3a0e4b6c	0.0005428109
170	0xbd428028	-0.0474855
171	0x3b9e722f	0.004835389
172	0xbcdfe728	-0.027331904
173	0x3bd386f6	0.0064552976
174	0xbd505a2c	-0.050867245
175	0x3d673a5c	0.05645214
176	0xbce526c4	-0.027972586
177	0x3c81670d	0.015796209
178	0xbc874f84	-0.016517408
179	0x3d9b06d4	0.07569662
180	0x3d97295d	0.07380936
181	0x3d49c238	0.049257487
182	0xbcb7f758	-0.02245681
183	0x3c181c2d	0.009284061
184	0xbd44b3dc	-0.04802309
185	0x3c1e0c3d	0.0096464725
186	0xbd68331c	-0.056689367
187	0xbc4944ea	-0.012284497
188	0x3ba6911f	0.0050832178
189	0x3db2f44e	0.08738004
190	0x3c8bf11a	0.01708274
191	0xbd57f2d6	-0.05272182
192	0xbd19c602	-0.03754235
193	0xbc3f05b9	-0.011659079
194	0xba56220e	-0.00081685267
195	0x3cddcd1b	0.027075341
196	0xbc15c55a	-0.009141291
197	0xbc82e931	-0.015980335
198	0x3c713512	0.014722126
199	0x3d28da93	0.041224074
200	0x3c5a6636	0.013330033
201	0xbbb05d41	-0.0053822105
202	0x3baaa9be	0.005208223
203	0xbd44a5a8	-0.048009545
204	0xbb1b299a	-0.002367592
205	0x3d1b336c	0.037890837
206	0x3b1839a8	0.0023227725
207	0x3ca1ff81	0.019775154
208	0x3d658de8	0.056043535
209	0x3d298170	0.041383207
210	0xbb955335	-0.004557038
211	0xbda1f6c0	-0.07908392
212	0xbe5667f3	-0.20938091
213	0xb91cf821	-0.00014969755
214	0x3d2e1bf3	0.042507123
215	0xbd3bfd53	-0.045895886
216	0x3ca21282	0.019784216
217	0xbd853ac8	-0.06505352
218	0x3d44c58d	0.04803996
219	0xbc0be7b0	-0.008539125
220	0x3c4e74d5	0.012601097
221	0xbcfe3154	-0.03102938
222	0xbc6298b8	-0.013830356
223	0xbbf4f50c	-0.007475501
224	0x3cc45756	0.023967426
225	0x3c659e24	0.014014754
226	0x3c1a0195	0.009399791
227	0x3e81f78d	0.2538418
228	0xbcb97842	-0.022640351
229	0x3c7f9f55	0.015601953
230	0xbc966fd6	-0.018363874
231	0xbbada81f	-0.0052995826
232	0xbc3984b1	-0.01132314
233	0xbcb5201d	-0.02211004
234	0xbd1d4d72	-0.038403936
235	0x3d99e195	0.075137295
236	0x3c8e634c	0.017381333
237	0xbd48146e	-0.04884761
238	0xbb25f8a4	-0.0025325203
239	0x3a2fd7de	0.0006707887
240	0x3c42bead	0.011886281
241	0x3d5f3460	0.054493308
242	0xbd105c66	-0.035244368
243	0x3d4509de	0.048105113
244	0x3d0773dd	0.03306948
245	0xbc8f7471	-0.017511578
246	0x3d1e2ab1	0.038614932
247	0xbd798e94	-0.06092699
248	0xbd7a86a8	-0.061163574
249	0xbc2f7c47	-0.010710782
250	0x3e66d785	0.22543152
251	0x3d771704	0.060324684
252	0x3c119d2f	0.008887573
253	0xbc61a6c8	-0.013772674
254	0x3dbcc96b	0.09218105
255	0x3b32930c	0.0027248291

net.4.bias f4 [2]
0	0x3daa943b	0.08329054
1	0xbd1d36d4	-0.038382366
