flappyb/models/cross_entropy/batchsize=100-hiddensize=256-lr=0.01-gamma=.9-PART=0.pt (torch_old, 272411 bytes, 6 tensors)

net.0.weight f4 [256, 5]
0	0xbe5fa7b2	-0.21841314
1	0x3e6c025c	0.23047775
2	0xbccc9530	-0.024973482
3	0xbe09bc06	-0.13450631
4	0xbe475fc0	-0.1947012
5	0x3ec810f6	0.3907544
6	0x3e5b6f89	0.21429266
7	0x3e8553af	0.26040408
8	0xbdcd35ab	-0.10020002
9	0xbe87c250	-0.26515436
10	0xbe2e5b7a	-0.17027083
11	0xbeb9ad40	-0.36264992
12	0x3e099a38	0.13437736
13	0xbd791f58	-0.060820907
14	0xbe698058	-0.22802866
15	0xbea2057d	-0.31644812
16	0x3e2f801b	0.17138712
17	0x3ec2ae96	0.38023823
18	0xbe8cdb5d	-0.2751111
19	0x3d74c61a	0.059759237
20	0xbd4f8998	-0.05066833
21	0x3dedb7b8	0.11607307
22	0xbdd3ce44	-0.103420764
23	0x3ce4abb0	0.027913898
24	0xbe1e79a0	-0.15476084
25	0x3d4159da	0.04720483
26	0xbe25fb76	-0.16209206
27	0x3eaa35b7	0.33244106
28	0xbe88c704	-0.26714337
29	0x3ec7abf2	0.3899837
30	0xbd1f924e	-0.038957886
31	0x3d92c62f	0.07166707
32	0xbe08472a	-0.13308397
33	0xbee07e09	-0.43846157
34	0x3e84cdd2	0.25938278
35	0x3e7121c4	0.23548037
36	0xbeaec4ca	-0.34134513
37	0x3e130f17	0.14361225
38	0x3d45595c	0.048180923
39	0x3eabc41c	0.33548057
40	0x3e907c00	0.28219604
41	0xbeb53704	-0.35393536
42	0x3eaa8ca0	0.33310413
43	0xbe25024e	-0.1611416
44	0x3e0c447c	0.13698
45	0xbdf4688a	-0.11934002
46	0x3ead0876	0.33795518
47	0xbeb5dc08	-0.35519433
48	0x3dc6ecc9	0.09713132
49	0x3eda47c6	0.42632884
50	0xbdd14ac0	-0.102193356
51	0x3ee217d5	0.44158807
52	0x3e845770	0.2584796
53	0xbe1b2420	-0.151505
54	0x3e343d60	0.17601538
55	0x3e5a1364	0.2129646
56	0x3e11f334	0.14252931
57	0x3ec84eee	0.3912272
58	0xbdc1e599	-0.094676204
59	0x3e8c6364	0.2741958
60	0x3ed1466b	0.40874037
61	0x3e9cff35	0.30663458
62	0xbec7b315	-0.39003816
63	0x3a0b28d0	0.0005308511
64	0xbe33de87	-0.17565356
65	0xbed3e0af	-0.41382357
66	0x3e9131b4	0.28358233
67	0xbd23e1a8	-0.040010124
68	0xbe71546b	-0.23567359
69	0x3e6c9568	0.23103869
70	0x3ecbbf2d	0.39794293
71	0x3e6c9e38	0.2310723
72	0xbeb67503	-0.35636148
73	0xbb9bd4b4	-0.004755581
74	0x3eb996f6	0.36247987
75	0x3d86ac00	0.06575775
76	0x3dc0b44e	0.094093904
77	0xbed46cba	-0.41489202
78	0x3d47fb58	0.048823684
79	0x3e6a0929	0.22855057
80	0xbe70106d	-0.23443766
81	0x3ee26c6c	0.44223344
82	0x3bd24ac0	0.0064176023
83	0xbe41dd02	-0.18931964
84	0xbe2b6a66	-0.16739807
85	0xbea8ec94	-0.32992995
86	0x3ecb1da0	0.3967104
87	0xbe8986be	-0.26860613
88	0xbed1aaa8	-0.40950513
89	0x3e0fd340	0.14045429
90	0xbee18f6c	-0.44054735
91	0xbec234c4	-0.37930882
92	0xbe51e4b1	-0.20497395
93	0xbe427de4	-0.18993336
94	0xbd9d5fca	-0.07684286
95	0xbdbe7df0	-0.093013644
96	0x3df7586b	0.12077411
97	0x3eda3d32	0.42624813
98	0x3ebf11f9	0.373184
99	0x3da8e697	0.082471065
100	0xbe697bb0	-0.2280109
101	0xbbc412b6	-0.005983676
102	0xbec66c3c	-0.3875445
103	0x3e0b411f	0.1359906
104	0x3e81710f	0.2528157
105	0xbea56bb5	-0.32308736
106	0x3e705688	0.23470509
107	0x3e4f02e7	0.20215951
108	0xbd27f7cf	-0.041007813
109	0x3ebb94da	0.36637002
110	0xbe8ce4e9	-0.27518395
111	0x3e9b2294	0.3029982
112	0xbe88c823	-0.26715192
113	0x3da0eb5f	0.078573935
114	0x3eb7bf7e	0.35888284
115	0x3e809893	0.25116405
116	0x3e85efe9	0.261596
117	0xbe2ca6fd	-0.16860576
118	0xbe97a3a8	-0.29617047
119	0x3e6f76a8	0.23385108
120	0xbe4771ce	-0.19477007
121	0x3e78b8b4	0.24289209
122	0xbee1e1a6	-0.4411747
123	0xbd114d00	-0.035473824
124	0xbedd516f	-0.4322619
125	0xbec117e7	-0.3771355
126	0xbdd95980	-0.10612774
127	0x3dd61d68	0.104548275
128	0xbea6149a	-0.32437593
129	0x3ee39f7a	0.44457608
130	0x3e0ec6ea	0.13943067
131	0xbe1f33c5	-0.15547092
132	0x3ecebfa1	0.40380576
133	0x3e390f07	0.18072139
134	0x3dd2be9c	0.10290262
135	0xbeb55b43	-0.3542119
136	0xbcbf61f0	-0.02336213
137	0x3de00f70	0.109404445
138	0xbedf1915	-0.43573824
139	0xbe90af05	-0.2825853
140	0xbe6a3eea	-0.22875562
141	0x3e3f6449	0.186906
142	0x3cab228c	0.020890497
143	0x3e3cd195	0.18439324
144	0x3d1819e0	0.03713405
145	0x3d6ca0a2	0.05777038
146	0xbd6f5e78	-0.0584397
147	0xbdb856a0	-0.090008974
148	0xbcc48b3e	-0.023992177
149	0x3e98f783	0.29876336
150	0xbe237844	-0.15963846
151	0xbebe1219	-0.37123182
152	0x3dd1c976	0.10243504
153	0x3e120a53	0.14261751
154	0x3e2c796b	0.16843192
155	0xbec7ed26	-0.39048117
156	0x3e6cb3d0	0.23115468
157	0x3dfb3130	0.12265241
158	0xbe651dd6	-0.22374663
159	0xbe291e34	-0.16515428
160	0x3edf35f1	0.43595842
161	0xbdb11872	-0.08647241
162	0xbdb2d760	-0.08732486
163	0xbe984082	-0.29736716
164	0x3e948dd0	0.29014444
165	0xbc905500	-0.017618656
166	0x3dc5b600	0.09653854
167	0x3e2296e4	0.15877873
168	0xbe96995a	-0.29413873
169	0x3e7af1a0	0.24506235
170	0xbc613892	-0.013746398
171	0x3e5d0c93	0.21586828
172	0x3e63f57a	0.2226161
173	0xbe6d5ee5	-0.2318073
174	0x3ec221c8	0.37916398
175	0xbed9a6da	-0.4251011
176	0x3e3245c0	0.1740942
177	0xbe298b48	-0.16557038
178	0x3ea509a6	0.32233924
179	0xbdc03a54	-0.09386125
180	0xbe8763f1	-0.26443437
181	0xbd68e720	-0.056861043
182	0x3ed7c27c	0.42140567
183	0x3e585470	0.2112596
184	0xbeb6300c	-0.35583532
185	0xbe8ff6a5	-0.28117862
186	0x3e108fb8	0.14117324
187	0x3e9fda1b	0.3122109
188	0xbedbbf64	-0.42919457
189	0x3e213631	0.15743329
190	0x3e1b3e16	0.15160403
191	0xbe778ea1	-0.24175502
192	0x3cab18c3	0.02088583
193	0xbe4a1001	-0.19732668
194	0x3d7d846d	0.06189387
195	0xbedee60b	-0.43534884
196	0x3ed40684	0.4141122
197	0x3cef70c0	0.029228568
198	0xbe8da4e9	-0.2766488
199	0xbea2f29e	-0.31825727
200	0x3d285096	0.041092478
201	0x3eba8ac9	0.3643401
202	0x3e8b19b8	0.2716806
203	0xbe0a2b93	-0.13493185
204	0x3e91b584	0.28458798
205	0x3cdeeff0	0.02721402
206	0x3ed1e26a	0.40993053
207	0xbde77bb0	-0.113028884
208	0x3e073ca4	0.13206726
209	0xbe849c3c	-0.25900447
210	0xbd1de5a8	-0.038549095
211	0xbdd6e4b5	-0.10492841
212	0xbee3e293	-0.445088
213	0x3ea24474	0.3169285
214	0xbe288ccd	-0.16459961
215	0x3e52fe0c	0.20604724
216	0xbe9ca58d	-0.30595055
217	0xbeb02c49	-0.34408787
218	0x3e294361	0.1652961
219	0xbedc5108	-0.43030572
220	0x3e2e3153	0.17011003
221	0xbca3c962	-0.019993488
222	0x3c87811f	0.016541062
223	0x3e05e31f	0.13074921
224	0x3e73609a	0.2376732
225	0x3e944a4e	0.2896294
226	0x3ebbded8	0.36693454
227	0xbe67dbc2	-0.22642425
228	0x3ee786fb	0.4522017
229	0xbe488bab	-0.19584529
230	0xbd3d7650	-0.04625541
231	0xbd8d258a	-0.06891926
232	0xbc3a267b	-0.0113617135
233	0xbeccfab2	-0.40035015
234	0x3eb9dedb	0.36302838
235	0xbe1c23d8	-0.15248048
236	0xbe8e5356	-0.27797955
237	0x3e3e2eb1	0.18572499
238	0xbd7d47b7	-0.06183597
239	0xbe199403	-0.14997868
240	0xbe95872c	-0.2920469
241	0x3b9325c0	0.004490584
242	0x3ed4f52c	0.415933
243	0xbdb82af0	-0.08992565
244	0xbe0ce648	-0.1375972
245	0xbec3f303	-0.3827134
246	0xbb867740	-0.004103571
247	0x3e885c04	0.26632702
248	0x3ea41978	0.3205068
249	0xbec3f895	-0.3827559
250	0x3e48dbbb	0.1961507
251	0xbd3ff30e	-0.046862654
252	0xbe6f402c	-0.23364323
253	0xbe94eff6	-0.29089326
254	0xbecef71a	-0.404229
255	0xbe358ae1	-0.1772876

net.0.bias f4 [256]
0	0xbee4cf4c	-0.44689405
1	0xbe9ea517	-0.3098533
2	0xbd9f6e64	-0.07784727
3	0x3df29dbd	0.118464924
4	0xbdde9894	-0.10868946
5	0x3ea29e02	0.31761175
6	0x3e84bec8	0.25926805
7	0x3e9bc66d	0.30424824
8	0xbe3b6191	-0.18298937
9	0x3e8fdaec	0.28096712
10	0xbe97a857	-0.2962062
11	0x3ea22c7e	0.3167457
12	0xbd46cd8e	-0.048535876
13	0xbed57235	-0.41688696
14	0x3c53139e	0.012883095
15	0x3c69a137	0.014259628
16	0xbc2b9c00	-0.010474205
17	0x3ed0990e	0.4074177
18	0x3e925fb6	0.28588647
19	0xbd3c8764	-0.046027556
20	0xbd817af7	-0.06322282
21	0xbe102cf9	-0.14079656
22	0x3d1e6577	0.038670983
23	0x3edbbc69	0.42917183
24	0xbed1b884	-0.40961087
25	0xbed0e535	-0.4079987
26	0xbe4be82e	-0.19912788
27	0x3e3cd1b4	0.1843937
28	0x3dd7a055	0.10528628
29	0xbe388306	-0.18018731
30	0x3e963624	0.2933818
31	0x3dca9428	0.0989154
32	0x3d7e4a30	0.06208247
33	0xbe96e6e4	-0.2947303
34	0xbd948a72	-0.07252969
35	0xbd430998	-0.04761657
36	0xbe8fccd0	-0.28085947
37	0x3dc280be	0.09497212
38	0x3e16f9a7	0.14743672
39	0xbe7b8f10	-0.24566293
40	0xbe2a89c3	-0.16654114
41	0xbebc28ce	-0.36749882
42	0x3ede4601	0.43412784
43	0x3e93bbe4	0.28854287
44	0xbeba93ff	-0.36441037
45	0x3ec027e3	0.3753043
46	0x3e66cadb	0.2253832
47	0x3e1ebf77	0.15502726
48	0xbe33bf94	-0.1755355
49	0xbe8139ba	-0.25239354
50	0x3ed4394c	0.41449964
51	0x3cefe630	0.029284567
52	0xbcad70ee	-0.021172013
53	0x3ee419c6	0.44550914
54	0x3eb97fd6	0.36230344
55	0xbd238436	-0.039921008
56	0xbed2d6e5	-0.41179577
57	0xbdf3428c	-0.11877927
58	0x3eadb220	0.3392496
59	0x3d9b1eb5	0.07574216
60	0x3e56136e	0.2090585
61	0xbd4706e7	-0.048590567
62	0x3e2412f5	0.16022857
63	0xbdd3f8d0	-0.103501916
64	0xbdcf7c50	-0.101311326
65	0x3ccb9224	0.024849959
66	0xbe2c8bc9	-0.16850199
67	0xbdb95182	-0.090487495
68	0xbcf22e90	-0.029563218
69	0xbdf37e8e	-0.11889373
70	0x3a40cb70	0.00073545333
71	0x3e2d793a	0.16940776
72	0xbe41e671	-0.18935563
73	0xbd266b50	-0.040629685
74	0xbe02ff96	-0.12792811
75	0xbdf0428c	-0.11731443
76	0x3e30752e	0.172322
77	0x3df5b6d5	0.11997763
78	0xbee11bba	-0.43966466
79	0xbe4cd7ee	-0.20004246
80	0xbde228b1	-0.110429175
81	0x3ec96271	0.39332917
82	0xbdcdc0f8	-0.100465715
83	0x3da7f870	0.082016826
84	0x3e80aed5	0.25133386
85	0xbe74cc7d	-0.23906131
86	0x3ebd9373	0.37026557
87	0xbee0820c	-0.43849218
88	0xbe327c6c	-0.17430276
89	0xbe2eef6d	-0.17083521
90	0x3e470407	0.1943513
91	0xbcd93a40	-0.026517034
92	0xbe54fba2	-0.20799115
93	0xbe952f59	-0.29137686
94	0x3e8879a0	0.26655293
95	0xbdcf8470	-0.10132682
96	0xbe2a2317	-0.16614948
97	0xbe29f93e	-0.16598985
98	0x3eb21fd3	0.34789905
99	0xbe70adea	-0.23503843
100	0xbb542400	-0.003237009
101	0x3e1f1802	0.15536502
102	0xbdf1caef	-0.11806285
103	0x3e8f6c0a	0.28012115
104	0xbedce15d	-0.4314069
105	0xbe8a1a66	-0.26973265
106	0xbed14c48	-0.4087851
107	0xbe8dd49f	-0.2770128
108	0x3e6e9e03	0.23302464
109	0xbea11254	-0.31459296
110	0xbe9a0436	-0.30081338
111	0x3e842753	0.25811252
112	0xbdc0af24	-0.094084054
113	0xbd1a6ba0	-0.037700295
114	0x3e798b27	0.24369489
115	0x3e8a39ba	0.26997167
116	0x3da010e4	0.07815722
117	0xbe7a2831	-0.24429394
118	0x3e149e9c	0.1451363
119	0x3ee63a86	0.44966525
120	0xbe4c893f	-0.1997423
121	0xbe2f34d4	-0.17109996
122	0x3ecff7ac	0.40618646
123	0xbe9ee1aa	-0.31031543
124	0x3ed30f5e	0.41222662
125	0xbe2073f6	-0.15669236
126	0xbe41f534	-0.18941194
127	0x3c9f9030	0.019477934
128	0xbe6f16ec	-0.23348588
129	0x3eb52674	0.353809
130	0xbe4cd152	-0.20001724
131	0xbe490c62	-0.1963363
132	0xbd979ab4	-0.07402554
133	0xbe856038	-0.26049972
134	0x3e7fc94c	0.24979132
135	0x3eca769c	0.39543617
136	0xbed96a72	-0.42464024
137	0x3e8e4ff5	0.27795377
138	0x3da0d10f	0.07852375
139	0xbe5c93db	-0.21540777
140	0x3e999292	0.29994637
141	0xbe289f3a	-0.1646699
142	0xbdf264f0	-0.118356586
143	0xbd627b80	-0.05529356
144	0x3e6116ba	0.21981326
145	0xbe381aac	-0.17978925
146	0xbeba276a	-0.36358196
147	0xbe0cf875	-0.13766654
148	0xbe44c16e	-0.19214413
149	0x3c67b740	0.014142811
150	0x3e9b8e08	0.303818
151	0xbea446f0	-0.3208537
152	0x3e22fc31	0.15916516
153	0x3ea04dbe	0.31309313
154	0x3ee63841	0.44964793
155	0x3d86b575	0.06577579
156	0x3e3f8011	0.18701197
157	0x3eca0c6a	0.39462596
158	0xbea6b544	-0.3256017
159	0x3ea6c142	0.3256932
160	0x3e6aad84	0.22917753
161	0xbe9c2044	-0.30493367
162	0xbedea51f	-0.43485352
163	0x3c98c273	0.018647408
164	0xbe217f54	-0.15771228
165	0xbe394376	-0.1809214
166	0x3c7d5de0	0.015464276
167	0x3ed088cd	0.4072937
168	0xbec88c05	-0.39169326
169	0x3ee83dbe	0.45359606
170	0x3d52824c	0.051393792
171	0x3d0b5892	0.034020014
172	0xbed3a38d	-0.41335717
173	0x3e0ba37f	0.13636588
174	0x3e3a805b	0.18213026
175	0xbe975f18	-0.29564738
176	0xbdfa17cb	-0.122115694
177	0x3d1cced2	0.038283177
178	0x3e895fdf	0.26830956
179	0xbe91cbf4	-0.28475916
180	0xbdf4d7fa	-0.11955257
181	0xbec92378	-0.39284873
182	0xbd86f3a4	-0.065894395
183	0x3e37d3e4	0.17951924
184	0x3d2e8ee0	0.042616725
185	0xbd72ab48	-0.059245378
186	0x3e093430	0.13398814
187	0xbedc4d73	-0.4302784
188	0xbeb1541b	-0.3463448
189	0xbe3bffb4	-0.18359262
190	0xbdefe663	-0.11713865
191	0x3e01d480	0.12678719
192	0xbea5ffdc	-0.32421768
193	0x3eb6ec74	0.35727274
194	0xbeb4fd2a	-0.353494
195	0xbe01bdfb	-0.12670128
196	0xbe667b9d	-0.22508092
197	0x3ec3032b	0.38088354
198	0x3da36909	0.07979018
199	0x3e32859a	0.17433777
200	0xbe1eb5d0	-0.15499043
201	0x3c67045e	0.014100162
202	0xbe9b7016	-0.30358952
203	0x3e258a1c	0.16165966
204	0x3e23ed2d	0.16008444
205	0xbcbe7fbc	-0.023254268
206	0xbec20d08	-0.37900567
207	0xbedad5de	-0.42741293
208	0x3c75c1f1	0.0149998525
209	0xbe59f69a	-0.21285477
210	0xbec127f4	-0.37725794
211	0x3daaa985	0.083331145
212	0x3e9fd3f2	0.3121639
213	0x3ea9e57f	0.33182904
214	0xbe7d637d	-0.24744983
215	0xbe4cfc4f	-0.20018123
216	0xbd6761e0	-0.056489825
217	0x3ecc1267	0.3985779
218	0xbde3dc32	-0.11125983
219	0xbe5a9522	-0.21345952
220	0x3ed9bc35	0.42526403
221	0x3d9ada56	0.075611755
222	0xbe89435d	-0.26809207
223	0x3e86cc83	0.26327905
224	0xbdaef314	-0.08542457
225	0xbe05ca9b	-0.13065569
226	0xbdfbe137	-0.12298816
227	0x3e678a03	0.22611241
228	0xbd26cc30	-0.040722072
229	0x3e9f29a3	0.31086454
230	0xbeaa8d04	-0.3331071
231	0x3eaf02cc	0.3418182
232	0x3e9e26f3	0.3088909
233	0x3e4d01dc	0.2002024
234	0x3ebfaaad	0.37434903
235	0x3e6a9f74	0.22912389
236	0x3e504bb9	0.20341386
237	0x3dfeba96	0.12437932
238	0xbe1f1751	-0.15536238
239	0xbd8079ae	-0.062732086
240	0xbeaf1edb	-0.34203228
241	0x3e84ca58	0.25935626
242	0xbe97f7ad	-0.2968115
243	0xbeb75e39	-0.35814074
244	0x3eb86e85	0.3602182
245	0xbea5aea4	-0.32359803
246	0x3e2c2bde	0.16813609
247	0xbe34f147	-0.17670165
248	0x3eae6aa1	0.34065726
249	0x3ecef306	0.40419787
250	0x3ed89125	0.42298236
251	0xbe72ea1d	-0.2372212
252	0xbec09a7e	-0.37617868
253	0x3e56f68d	0.20992489
254	0x3e19e53f	0.15028857
255	0x3d580ce4	0.05274667

net.2.weight f4 [256, 256]
0	0xbd755f5a	-0.059905387
1	0xbcce978b	-0.025218746
2	0xbd19a156	-0.037507378
3	0xbd31ff72	-0.043456502
4	0x3d00be00	0.031431198
5	0x3c34d4bb	0.011037047
6	0xbd777020	-0.060409665
7	0xbd85840b	-0.06519326
8	0x3d17ad6a	0.037030615
9	0xbc8d585e	-0.01725405
10	0x3d5732e4	0.052538767
11	0x3d5440ed	0.05181973
12	0x3d55540f	0.052082118
13	0x3bd5dac0	0.006526321
14	0xbd08cab7	-0.03339645
15	0x3bb5da0e	0.005549676
16	0x38b14400	8.452684e-05
17	0x3cb84258	0.022492573
18	0xbd1ccc09	-0.03828052
19	0x3d174c49	0.036937986
20	0xbd50cb7d	-0.05097531
21	0x3d19486c	0.037422583
22	0x3b84e6f0	0.00405585
23	0xbc9b6904	-0.018970974
24	0x3d55e7f2	0.052223153
25	0xbcea3b98	-0.02859287
26	0xbb8c11d0	-0.0042745844
27	0xbd148b8a	-0.036265887
28	0x3cee0370	0.029054374
29	0xbd341e3e	-0.043974154
30	0x3d4fd0e4	0.050736323
31	0x3d25aeec	0.04045002
32	0x3d2764fe	0.040867798
33	0xbc62e188	-0.013847716
34	0x3d93dfa9	0.07220394
35	0x3d4d38b0	0.05010289
36	0xbd35d064	-0.04438819
37	0xbb273ce0	-0.0025518462
38	0xbc9472ca	-0.018121142
39	0xbd58fc24	-0.052974835
40	0x3d8e6c22	0.069542184
41	0x3cff69fc	0.031178467
42	0x3d36d88e	0.044640116
43	0x3cc23cd8	0.023710653
44	0xbcf06620	-0.029345572
45	0xbc1e73ac	-0.009671133
46	0x3d209669	0.039205942
47	0x3c9aa498	0.018877313
48	0xbd6e0852	-0.058113404
49	0xbd1b5db2	-0.03793115
50	0x3d1447c0	0.03620124
51	0xbc806815	-0.01567463
52	0x3b6c0f0c	0.003601971
53	0xbd574d99	-0.052564237
54	0x3cba7920	0.022762835
55	0xbce3d8e6	-0.027813386
56	0xbc095955	-0.008383115
57	0xbcc844fa	-0.024446953
58	0x3cd1ae7c	0.025595896
59	0xbcf88c9a	-0.030340482
60	0x3d319a7b	0.043360215
61	0x3d5e6fd3	0.054305863
62	0x3d07515e	0.033036582
63	0x3cd78cc9	0.026312249
64	0x3d5427cc	0.051795766
65	0xbd042f8b	-0.032271903
66	0x3c973dea	0.01846214
67	0xbce01d36	-0.027357679
68	0x3d417abc	0.04723619
69	0x3d33bad7	0.043879356
70	0xbd887c46	-0.06664328
71	0x3c100c2a	0.008791963
72	0x3ba93358	0.0051635914
73	0xbcd8b750	-0.026454598
74	0xbd1f7b60	-0.03893602
75	0x3cc88ae0	0.024480283
76	0xbb7f27c0	-0.0038933605
77	0x3cab4726	0.02090795
78	0xbc10d658	-0.008840166
79	0x3bef9610	0.00731159
80	0xbd8e40f2	-0.06945981
81	0x3d03c1f6	0.032167397
82	0x3d55ae03	0.052167904
83	0xbb661ba0	-0.003511168
84	0x3d275380	0.040851116
85	0x3d497088	0.049179584
86	0x3af7da58	0.0018909676
87	0x3c2abae0	0.010420531
88	0x3d02c151	0.031922642
89	0xbd86c54b	-0.065805994
90	0xbd74612d	-0.059662987
91	0x3b703e40	0.0036658198
92	0x3ccaf69e	0.0247758
93	0x3d86bd04	0.065790206
94	0xbba823a8	-0.0051312037
95	0xbd2c3c49	-0.04204968
96	0xbd388d69	-0.045056734
97	0xbc2b1238	-0.010441355
98	0x3ca39e8c	0.019973062
99	0x3d16d425	0.03682341
100	0xbd2f5ba2	-0.042811997
101	0x3d35a8dc	0.04435049
102	0x3caf1bc1	0.021375539
103	0xbc0618f1	-0.008184657
104	0xbd1cbf56	-0.03826841
105	0xbc5dc930	-0.013536736
106	0xbb02e140	-0.0019970685
107	0xbca8e837	-0.020618541
108	0x3ca8d925	0.020611355
109	0xb7c79400	-2.3791566e-05
110	0xbd6fb9b0	-0.058526695
111	0xbd82fee0	-0.0639627
112	0x3d121552	0.035664864
113	0xb986ed00	-0.0002573505
114	0x3d5f4591	0.054509703
115	0xbce2aab0	-0.02766928
116	0xba3102a0	-0.00067524053
117	0x3d09632e	0.03354185
118	0x3c9311ec	0.017952882
119	0xbd713491	-0.05888802
120	0x3d420d1a	0.047375776
121	0xbd5a3470	-0.053272665
122	0xbcc6fec3	-0.024291402
123	0x3c5be30f	0.013420834
124	0x3c82d8ba	0.015972484
125	0xbc0460e8	-0.008079745
126	0xbd47ccec	-0.048779413
127	0xbd29fe7d	-0.041502465
128	0x3d742674	0.059606984
129	0x3b403dd4	0.0029333727
130	0xbd016895	-0.031593878
131	0xbd5b9b42	-0.053614862
132	0x3c7569e0	0.014978856
133	0xbc1a6ac8	-0.009424873
134	0x3cf5c885	0.030002842
135	0xbd911cba	-0.07085557
136	0xbc1e1b19	-0.009650015
137	0x3cdabd60	0.02670163
138	0x3d3bff06	0.045897506
139	0x3c62ec28	0.013850249
140	0xbc81baaa	-0.015836079
141	0x3d1bcd48	0.03803757
142	0xbb9f6866	-0.00486474
143	0xbd15c9d2	-0.036569424
144	0xbcbbc5ad	-0.022921408
145	0xbd3bf99e	-0.04589235
146	0x3cf8a0a8	0.030350044
147	0xbd60c8ed	-0.054879118
148	0xbcedb5e0	-0.029017389
149	0x3cef1670	0.029185504
150	0x3d5df9f0	0.054193437
151	0xbd21ee54	-0.039533928
152	0x3c8d2b90	0.017232686
153	0x3cbec9b7	0.023289545
154	0x3d7a2108	0.061066657
155	0x3d17606b	0.036957186
156	0xbd88122f	-0.06644093
157	0xbd85925e	-0.06522058
158	0x3d4b7eba	0.049681403
159	0x3cec3e72	0.02883837
160	0xbd5f5b68	-0.05453053
161	0xbd232d9a	-0.03983841
162	0x3b852fba	0.0040645273
163	0xbd2e50f8	-0.042557687
164	0x3c11e188	0.0089038685
165	0x3d385152	0.044999428
166	0x3d776f8e	0.06040912
167	0xbd0e2886	-0.034706615
168	0x3d507f1e	0.05090248
169	0x3d4987d5	0.049201805
170	0x3c4f9bb3	0.012671399
171	0x3cbb870c	0.022891544
172	0xbd562f10	-0.052290976
173	0xbc5f0774	-0.013612617
174	0x3d32efc7	0.0436857
175	0x3d939174	0.07205477
176	0xbd255ea1	-0.04037345
177	0x3d3291bd	0.043596018
178	0xbd013b57	-0.03155073
179	0x3d811326	0.063024804
180	0x3b60b144	0.0034285346
181	0xbb0f00c0	-0.0021820515
182	0x3d2b6afc	0.041850075
183	0x3ca0b6fc	0.019618504
184	0x3d3b7574	0.04576631
185	0xbc219a60	-0.009863466
186	0xbc3284d4	-0.0108959265
187	0xbcd74949	-0.026280062
188	0x3d5a48ce	0.05329209
189	0x3c9e53e0	0.019327104
190	0xbcf78494	-0.030214585
191	0x3bbfcad6	0.0058530373
192	0x3d80a7c8	0.06282002
193	0x3b075f30	0.0020656101
194	0xbd21a8f6	-0.039467774
195	0xbd369ac6	-0.044581197
196	0x3cff62f9	0.031175124
197	0x3d432165	0.04763927
198	0xbce011a0	-0.027352154
199	0x3d08298e	0.033242755
200	0xbbeb7850	-0.007185973
201	0x3d938b5d	0.07204316
202	0xbd18bbbe	-0.03728842
203	0xbbad8b30	-0.0052961335
204	0x3d05bf0c	0.0326529
205	0xbd60b61e	-0.05486118
206	0x3ce636d8	0.028102323
207	0xbd4d4dde	-0.050123088
208	0xbd26b8c7	-0.04070356
209	0x3d203d18	0.039120764
210	0xbd6c1a46	-0.057642244
211	0x3ba1c5ac	0.0049368944
212	0xbbec477c	-0.00721067
213	0x3d1fe016	0.039032064
214	0xbc0186a6	-0.007905638
215	0xbb9265c0	-0.004467696
216	0x3bf70e70	0.007539563
217	0xbd875d6b	-0.06609615
218	0x3c949158	0.018135712
219	0x3d152de5	0.03642072
220	0xbcbada9c	-0.02280932
221	0x3d40c9ea	0.04706756
222	0xbd4d4ecc	-0.050123975
223	0x3c0b909e	0.008518366
224	0x3becadd0	0.0072228685
225	0x3ae3e710	0.0017387588
226	0xbb26aa14	-0.0025430964
227	0x3cf52f70	0.029929847
228	0x3c478c88	0.012179501
229	0x3b1bf41c	0.0023796624
230	0xbd7e1d70	-0.062039793
231	0x3c8100cc	0.01574745
232	0xbd91d47a	-0.07120605
233	0x3d4dc1e6	0.050233744
234	0xbd5d2d84	-0.053998485
235	0xbb755be0	-0.0037438795
236	0xbc9bc768	-0.019015983
237	0xbc9b476a	-0.018954951
238	0xbd655aa9	-0.055994663
239	0xba08ac80	-0.0005213693
240	0x3c953a04	0.01821614
241	0xbc17fa47	-0.009275979
242	0x3d541a7c	0.05178307
243	0x3d36c454	0.044620827
244	0x3d35fbb2	0.04442949
245	0xbcf9e526	-0.030504774
246	0xbcd2784d	-0.02569213
247	0x3d1b196e	0.03786605
248	0xbccb54b4	-0.024820663
249	0xbd80cfb3	-0.062896155
250	0x3c59c933	0.013292599
251	0xbcb87cd0	-0.022520453
252	0xbd592ae2	-0.05301941
253	0xbd54c56b	-0.051946085
254	0x3d70157c	0.05861424
255	0xbd889691	-0.06669343

net.2.bias f4 [256]
0	0xbd83fcee	-0.06444727
1	0x3cb84a8e	0.022496488
2	0x3d0b6066	0.03402748
3	0x3bcb9d00	0.006213784
4	0xbd7702d4	-0.06030543
5	0x3d3d0b75	0.046153504
6	0x3c0b5958	0.008505188
7	0xbbf834ee	-0.007574669
8	0xbd38488c	-0.04499106
9	0xbcee2e84	-0.029074915
10	0x3d12d6ac	0.03584926
11	0x3cdcaa78	0.026936755
12	0x3c0c3c2c	0.008559268
13	0x3c86752c	0.016413294
14	0xbd816ae4	-0.06319216
15	0x3d3c96c5	0.046042223
16	0xbc53b6d8	-0.012922011
17	0x3b6bc584	0.0035975883
18	0xbcd4ad98	-0.025961682
19	0x3b425d2c	0.0029657586
20	0x3cf53b5d	0.029935533
21	0x3c9f97b5	0.01948152
22	0xbba0671a	-0.004895103
23	0xbd8e36e0	-0.0694406
24	0xbd64ab4d	-0.055827428
25	0x3d8ab0c7	0.06771999
26	0xbcdea36e	-0.027177539
27	0x3d0f68ec	0.03501217
28	0xbd4a7a95	-0.04943331
29	0xbc971b04	-0.0184455
30	0x3d895810	0.0670625
31	0xbc119df0	-0.008887753
32	0x3d32f2a7	0.043688443
33	0xbcf538c5	-0.029934296
34	0x3ccdf3bb	0.025140634
35	0xbb955f9e	-0.0045585176
36	0x3d35e4e1	0.04440773
37	0xbd76c998	-0.06025085
38	0x3d1aa1b2	0.03775186
39	0x3cdc903e	0.026924249
40	0xbca36bb0	-0.01994881
41	0xbcd4c728	-0.025973871
42	0x3d37aa7d	0.044840325
43	0xbd039e7a	-0.032133557
44	0x3d38604f	0.045013722
45	0x3ce5573e	0.027995702
46	0xbd29fb48	-0.041499406
47	0x3c95708e	0.018242147
48	0xbc6193c6	-0.013768142
49	0xbcbb3224	-0.022851057
50	0x3cc5f4c0	0.024164557
51	0x3ca71d5b	0.02039974
52	0xbd56be74	-0.052427724
53	0xbc108b58	-0.008822285
54	0x3d06c8ad	0.032906223
55	0xbc2bafb8	-0.010478906
56	0xbd1e1624	-0.038595334
57	0x3c6f6168	0.014610626
58	0xbcd054f1	-0.025431128
59	0x3a16fbb0	0.000575955
60	0x3c178621	0.009248287
61	0xbd6f9962	-0.058495887
62	0x3d862936	0.06550829
63	0x3c19f820	0.0093975365
64	0x3cbd7b2b	0.02313002
65	0x3d3f89c0	0.046762228
66	0x3d1dc378	0.03851649
67	0x3c19e1c1	0.009392203
68	0xbca5b2d0	-0.020226866
69	0x3d6ddd4e	0.05807238
70	0xbd3029e8	-0.043008715
71	0xbc68d6a5	-0.0142113315
72	0x3d56217e	0.052278034
73	0x3d917612	0.07102598
74	0x3d525766	0.05135288
75	0xbd5b0d07	-0.05347922
76	0x3cb23f34	0.021758653
77	0xbcb80946	-0.02246536
78	0x3d5bc9f6	0.0536594
79	0x3b68b060	0.0035505518
80	0xbc8e4644	-0.01736749
81	0x3d835135	0.064119734
82	0xbd603536	-0.054738246
83	0x3d0a3e54	0.033750847
84	0xbd7d29ce	-0.061807446
85	0xbd2f0f1f	-0.04273903
86	0xbd0862e8	-0.03329745
87	0xbcb1074c	-0.021609925
88	0xbd882a9a	-0.066487506
89	0x3c8b3acc	0.01699581
90	0x3cfd6ed4	0.030936636
91	0xbc64ee80	-0.013972878
92	0xbd223dfe	-0.0396099
93	0x3d202024	0.03909315
94	0xbcdca1ee	-0.026932683
95	0xbc045a08	-0.008078106
96	0x3b4b063c	0.0030979058
97	0x3d56a4e0	0.05240333
98	0xbd06a9a8	-0.03287664
99	0x3d58379c	0.05278741
100	0xbc18c0a2	-0.009323271
101	0xbcc49e84	-0.024001367
102	0xb9cc0900	-0.00038916618
103	0x3d256a2c	0.040384457
104	0x3d2d0ebc	0.04225038
105	0x3d1c68d7	0.03818592
106	0x3c78485d	0.0151539715
107	0x3c7435ca	0.014905402
108	0x3c11facf	0.008909895
109	0xbd7fc1ce	-0.062440686
110	0x3d780d80	0.06055975
111	0xbd7fb208	-0.062425643
112	0x3d706e4c	0.058698937
113	0xbbc78470	-0.006088786
114	0x3cb14bf5	0.021642664
115	0xbd57627e	-0.052584164
116	0x3c371039	0.011173301
117	0x3d477ca8	0.048702866
118	0xbd833f79	-0.06408591
119	0xbd6a40d8	-0.057190746
120	0x3d175b92	0.036952563
121	0x3cc93034	0.024559118
122	0x3b5611a0	0.0032664314
123	0x3cf3ea2c	0.029774748
124	0x3d261f8c	0.04055743
125	0xbc60b260	-0.013714403
126	0xbc384040	-0.011245787
127	0x3b380b20	0.0028082803
128	0xbc524fd0	-0.012836412
129	0x3d5145d1	0.051091973
130	0xbd57419f	-0.052552816
131	0xbc71cec8	-0.014758773
132	0x3d3b9c84	0.04580356
133	0x3d4b10be	0.049576513
134	0x3c2cdf3e	0.010551272
135	0xbd11feb0	-0.03564328
136	0x3caa7d71	0.020811768
137	0x3d3c8be8	0.046031862
138	0x3b3454cc	0.0027516363
139	0xba070cf0	-0.0005151769
140	0x3d55cc82	0.052196987
141	0xbd57e579	-0.052709077
142	0xbc2137ca	-0.009839961
143	0x3c75025d	0.014954177
144	0xbd2c25d6	-0.04202827
145	0x3d5519ac	0.052026436
146	0xbd867329	-0.06564934
147	0xbcc96bf9	-0.024587618
148	0xbd602d08	-0.054730445
149	0xbc4166bd	-0.01180428
150	0xbc13542b	-0.008992235
151	0xbd4ec624	-0.05048193
152	0xbd648914	-0.05579479
153	0xbd54513e	-0.05183529
154	0x3d93a309	0.07208831
155	0xbd45d266	-0.048296355
156	0xbd725760	-0.05916536
157	0xbba60e80	-0.0050676465
158	0xbcdd5448	-0.027017727
159	0x3d82874e	0.063734636
160	0x3c3f2d09	0.011668452
161	0x3d8c723d	0.06857727
162	0x3c2eb508	0.010663278
163	0x3c5e3610	0.013562694
164	0x3cfa33e7	0.030542327
165	0xbd539f56	-0.051665626
166	0x3bd8d962	0.006617711
167	0xbc7122f8	-0.01471781
168	0xbc86de78	-0.016463503
169	0x3d8da87f	0.06916904
170	0xbcb79dbe	-0.022414085
171	0x3d129c8c	0.035793826
172	0xbcfa8308	-0.030580059
173	0x3d2795f0	0.040914476
174	0xbcc1471c	-0.023593478
175	0xbd90c9b0	-0.07069719
176	0xbc9f0b22	-0.019414488
177	0x3c8304de	0.015993532
178	0xbd0d7daa	-0.03454367
179	0xbc18685e	-0.009302227
180	0x3cc835d2	0.024439726
181	0x3d83615a	0.06415053
182	0xbd694e66	-0.056959532
183	0xbd89c269	-0.06726534
184	0x3d254214	0.04034622
185	0x3d159ac5	0.036524553
186	0x3cf6b634	0.030116178
187	0x3d1800ba	0.037110068
188	0x3d89b940	0.06724787
189	0xbcee2654	-0.02907101
190	0x3d4eafea	0.050460733
191	0x3c53ae35	0.012919952
192	0x3c6fc5e0	0.014634579
193	0x3ba10982	0.0049144635
194	0x3ca14db6	0.019690376
195	0xbd42c660	-0.047552466
196	0xbc917dd4	-0.017760195
197	0xba8b6da8	-0.0010637539
198	0xbd5c7364	-0.053820983
199	0xbd6dfb9c	-0.05810128
200	0xbc80f3cb	-0.01574125
201	0xbd7835b2	-0.060598083
202	0xbc9b0ad4	-0.018926062
203	0x3c208cb0	0.0097991675
204	0xbd59d371	-0.053180162
205	0x3cc9f222	0.02465159
206	0x3d22d712	0.03975589
207	0xbd50e724	-0.051001683
208	0xbc83d61c	-0.016093306
209	0xbd520538	-0.05127451
210	0x3d0e0776	0.034675084
211	0x3d798166	0.06091442
212	0xbd74aa12	-0.059732504
213	0x3cd5fc52	0.026121292
214	0xbd41e9f9	-0.047342274
215	0x3d1dc0d2	0.038513966
216	0xbd6a4df5	-0.057203252
217	0xbc880ef7	-0.016608698
218	0x3c3770aa	0.011196295
219	0xbb618bc0	-0.0034415573
220	0x3d47cc49	0.048778806
221	0xbc3f6a00	-0.011682987
222	0xbc88e8cf	-0.016712574
223	0x3cb817b8	0.022472247
224	0xbcdcc4df	-0.026949344
225	0xbc9665e6	-0.018359136
226	0x3d320dde	0.043470256
227	0x3bd9ba4a	0.006644522
228	0xbd356c67	-0.044292834
229	0xbbb8ce90	-0.0056398585
230	0x3d61f3fe	0.05516433
231	0x3c13b701	0.0090157995
232	0xbd0da8fa	-0.034584977
233	0xbcbd0b6c	-0.023076735
234	0x3cf3002c	0.029663168
235	0x3d075ad6	0.033045612
236	0xbbdb3850	-0.0066900626
237	0xbbfd8b80	-0.007737577
238	0x3b97468c	0.004616564
239	0xba59c910	-0.0008307854
240	0x3b676094	0.0035305368
241	0xbcbce871	-0.023060055
242	0xbc61e92e	-0.0137885045
243	0x3d7054b5	0.058674533
244	0xbd8aeaf2	-0.067830935
245	0x3c993f1a	0.018706847
246	0xbba0866a	-0.004898836
247	0x3d450e4a	0.04810933
248	0x3d5f1208	0.054460555
249	0x3be7b39e	0.0070709726
250	0x3c4d6968	0.012537338
251	0xbd0afc50	-0.03393203
252	0x3cf312dc	0.029672079
253	0x3d735d46	0.059415124
254	0xbce52c74	-0.027975298
255	0xb9b86f00	-0.00035177916

net.4.weight f4 [2, 256]
0	0xbd1c7c9a	-0.038204767
1	0x3ccfd9bb	0.025372377
2	0xbd1503ae	-0.036380462
3	0xbd38cb80	-0.045115948
4	0x3c8a5fd8	0.016891405
5	0xbc9811aa	-0.01856311
6	0x3d37f1c2	0.044908293
7	0x3d4b4f44	0.04963614
8	0xbd1d64d2	-0.038426228
9	0x3c8356f3	0.016032672
10	0xbd31a060	-0.043365836
11	0x3d8cce9a	0.068753436
12	0x3ca765bc	0.020434253
13	0xbcc1c610	-0.023654014
14	0xbd02c7a1	-0.031928662
15	0x3bc4936e	0.0059990203
16	0x3d6550c4	0.055985227
17	0x3c9d5ac8	0.019208327
18	0x3d58e2ae	0.052950554
19	0x3d2ccdff	0.04218864
20	0xbc80edef	-0.015738456
21	0xbcd9a6aa	-0.02656873
22	0x3d814f40	0.06313944
23	0xba12a910	-0.000559465
24	0xbd004589	-0.031316314
25	0x3d62da79	0.055384133
26	0x3d3ad24c	0.04561071
27	0xbd0a68b0	-0.033791244
28	0x3c7e8cc6	0.015536493
29	0xbd3f26a2	-0.046667702
30	0x3ccdf2b1	0.025140138
31	0x3cfb21d0	0.030655771
32	0x3beb3582	0.0071780095
33	0xbd34ef81	-0.04417372
34	0x3d0973af	0.03355759
35	0x3d429be0	0.047511935
36	0xbc61ee14	-0.013789672
37	0x3d539fe4	0.051666155
38	0x3cf532be	0.029931422
39	0xbce15306	-0.027505409
40	0xbc0b0f86	-0.008487588
41	0x3be67e90	0.0070341304
42	0x3cf1414f	0.029450087
43	0xbd2f6a7c	-0.04282616
44	0xbd421449	-0.047382627
45	0x3b107ea4	0.002204814
46	0x3c84875c	0.016177826
47	0x3ce3e5ec	0.027819596
48	0x3d8fcd8b	0.07021626
49	0x3c1e91ab	0.009678285
50	0xbcdf7e80	-0.027282
51	0xbd8bdf19	-0.06829662
52	0xbc5d4da0	-0.013507277
53	0xbcd2c43c	-0.025728337
54	0x3d5036b7	0.05083343
55	0xbc4aef68	-0.01238618
56	0x3d51926e	0.051165037
57	0x3cd61dd0	0.026137263
58	0x3d0fa193	0.0350662
59	0xbcf88ae1	-0.03033966
60	0x3d548e24	0.05189337
61	0x3ce313aa	0.027719337
62	0xbc4ea593	-0.012612718
63	0x3cf6b31c	0.030114703
64	0x3ce28114	0.02764944
65	0xba812580	-0.0009853095
66	0xbcaa2f5e	-0.02077454
67	0x3b1e1c2c	0.0024125678
68	0xbcf16548	-0.02946724
69	0x3c6c76e8	0.014432646
70	0x3c1b1594	0.009465594
71	0x3d192f8c	0.03739886
72	0x3d11902c	0.035537884
73	0xb9a263e0	-0.0003097346
74	0x3d562349	0.052279744
75	0xbd5192cb	-0.051165383
76	0x3c83c697	0.016085906
77	0x3cbdf22e	0.02318677
78	0x3d4caef0	0.04997152
79	0xbd791b44	-0.06081702
80	0xbd025caa	-0.031826653
81	0xbcea8e67	-0.028632356
82	0x3d7f23fe	0.062290184
83	0xbbe13060	-0.006872222
84	0xbca637a8	-0.02029021
85	0x3c8e528a	0.017373342
86	0x3d1fa6f0	0.038977563
87	0xbc841c04	-0.01612664
88	0x3b9575e2	0.004561172
89	0x3cc5e792	0.024158273
90	0xbd4fcae6	-0.05073061
91	0xbc9605cc	-0.018313311
92	0x3d39e5e2	0.04538525
93	0xbd74b43e	-0.059742205
94	0x3d3dba2e	0.046320133
95	0x3ce9285c	0.028461628
96	0x3c8e0304	0.017335422
97	0x3d032667	0.032019045
98	0xbceb0414	-0.028688468
99	0x3d3095cb	0.043111604
100	0x3c3b475e	0.0114305895
101	0xbd8160b2	-0.06317271
102	0xbd2d5dfc	-0.04232596
103	0x3b9d0d36	0.0047928346
104	0xbc81b4f8	-0.015833363
105	0xbd1ef776	-0.038810216
106	0x3bce5528	0.0062967725
107	0x3c7bc232	0.015366124
108	0xbcb84415	-0.022493402
109	0xbcf3f52c	-0.029779993
110	0xbcca809c	-0.024719529
111	0xbce1be00	-0.02755642
112	0x3cb59c70	0.022169322
113	0xbb2aeda4	-0.0026081586
114	0xbd28a930	-0.041176975
115	0x3cc64504	0.024202831
116	0x3d93764e	0.07200299
117	0xbd51f93a	-0.05126307
118	0xbba41cfc	-0.005008338
119	0xbce200ce	-0.027588274
120	0xbd2ab3ea	-0.041675486
121	0xbcd13396	-0.025537293
122	0x3c8c2d1c	0.017111354
123	0xbd72f12c	-0.05931203
124	0xbcc1f397	-0.023675723
125	0x3d24519c	0.04011689
126	0x3c2b7848	0.010465689
127	0x3d6c9e24	0.057768002
128	0xbc463728	-0.012098111
129	0x3b5f1544	0.0034039775
130	0x3c6ea10b	0.014564763
131	0x3c83eb88	0.016103521
132	0x3d0f6cc0	0.03501582
133	0x3bb375f8	0.0054767095
134	0x3bb94c18	0.005654823
135	0x3d90a004	0.070617706
136	0xbc7f6c54	-0.015589792
137	0xbd27a56a	-0.040929236
138	0xbd30750a	-0.043080367
139	0x3d88e46e	0.066841945
140	0x3be7b50e	0.007071144
141	0xbc4d5f6d	-0.012534958
142	0xbc978138	-0.018494233
143	0x3d5f1bb8	0.054469794
144	0xbd823f5a	-0.063597396
145	0x3d02d2b9	0.031939242
146	0xbd3d2499	-0.04617748
147	0xbce0b334	-0.0274292
148	0x3d0e5176	0.034745656
149	0xbb9c4906	-0.0047694473
150	0x3cc63d75	0.024199227
151	0xbcca6094	-0.024704255
152	0xbcf73f0c	-0.03018143
153	0xbd7c88d6	-0.061653934
154	0x3cccd0f2	0.025001977
155	0xbbe34bc0	-0.0069365203
156	0xbd42d6aa	-0.047568
157	0xbd0978d2	-0.03356249
158	0x3c0a3524	0.008435521
159	0x3d132791	0.035926405
160	0xbca63120	-0.020287097
161	0xbc33e9a7	-0.010981
162	0xbd316b60	-0.04331529
163	0xbd5120bc	-0.05105661
164	0x3d07965f	0.03310239
165	0xbd64dba6	-0.055873536
166	0x3d016944	0.03159453
167	0x3d4fc330	0.050723255
168	0x3cc33e7e	0.02383351
169	0x3d031cae	0.032009773
170	0xbc75a4eb	-0.014992933
171	0xbd4c8813	-0.049934458
172	0xbcdfe728	-0.027331904
173	0x3cdb7abe	0.026791926
174	0xbd505a2c	-0.050867245
175	0x3bd2acb2	0.0064292783
176	0x3cb2b34c	0.021814011
177	0xbd354c96	-0.04426249
178	0xbd87f1a6	-0.06637888
179	0x3ca952c4	0.020669349
180	0x3c7edec4	0.015556041
181	0x3d82d3be	0.06388043
182	0xbcb7f758	-0.02245681
183	0xbd257738	-0.0403969
184	0x3bdfc420	0.0068288
185	0xbd255d9e	-0.040372483
186	0xbd68331c	-0.056689367
187	0x3d13cc6a	0.036083616
188	0x3d1a5716	0.037680708
189	0x3d1404b2	0.03613729
190	0x3d8b40be	0.06799458
191	0xbd225cd2	-0.0396393
192	0xbd19c602	-0.03754235
193	0xbd284620	-0.0410825
194	0x3d0ed8f0	0.034874856
195	0xbcbbfb26	-0.022946905
196	0xbcb7c77c	-0.022433989
197	0xbd72db38	-0.059291095
198	0x3cbc727c	0.02300381
199	0xbbf7beb0	-0.0075605735
200	0xbceed2c4	-0.029153235
201	0xbca4b640	-0.020106435
202	0x3d3c420e	0.045961432
203	0xbd44a5a8	-0.048009545
204	0xbd526ece	-0.051375203
205	0xbc5faa1f	-0.0136514
206	0x3b3a03b0	0.0028383546
207	0xbce30884	-0.027714022
208	0x3d658de8	0.056043535
209	0x3d298170	0.041383207
210	0xbd1157f1	-0.035484258
211	0xbd03886e	-0.03211253
212	0xbd040ab4	-0.03223677
213	0x3d562b52	0.052287407
214	0xbbf5cfd4	-0.0075015817
215	0x3bd9ab2a	0.006642719
216	0xbcfde729	-0.030994015
217	0xbc197ade	-0.009367673
218	0xb7fd3600	-3.0185096e-05
219	0xbc0be7b0	-0.008539125
220	0xbd35561a	-0.044271566
221	0xbcfe3154	-0.03102938
222	0xbd8465ac	-0.06464705
223	0x3d23ad2a	0.039960064
224	0xbcaa1146	-0.02076019
225	0xbd139646	-0.036031984
226	0xbd0464ec	-0.03232281
227	0xbcce484e	-0.025180962
228	0xbd694fd7	-0.056960907
229	0x3d85324a	0.065037325
230	0x3d155dde	0.03646647
231	0x3d38d3b7	0.045123782
232	0xbd74d886	-0.059776805
233	0xbd7df02b	-0.06199662
234	0xbd1d4d72	-0.038403936
235	0x3cf17b84	0.029477842
236	0xbcfbb926	-0.030727934
237	0x3b9e4192	0.004829594
238	0xbd2ae6ee	-0.041724138
239	0x3d5ccf83	0.053908836
240	0xbd1c4a79	-0.03815696
241	0x3ad04ca8	0.0015891986
242	0x3c710f60	0.014713138
243	0x3d782adf	0.06058776
244	0xbc5c6263	-0.013451192
245	0xbd893eae	-0.06701408
246	0x3d5a1826	0.053245686
247	0xbd798e94	-0.06092699
248	0xbd7a86a8	-0.061163574
249	0x3d206bfb	0.03916548
250	0x3b8ac2d0	0.0042346492
251	0x3c287526	0.010281837
252	0x3d75c4e4	0.060002223
253	0xbc61a6c8	-0.013772674
254	0x3d2d1ca1	0.04226363
255	0x3d428f31	0.04749984

net.4.bias f4 [2]
0	0x3d80d54a	0.06290682
1	0xbc9371da	-0.017998625
