flappyb/models/cross_entropy/batchsize=100-hiddensize=256-lr=0.01-gamma=.99-PART=240.pt (torch_old, 272411 bytes, 6 tensors)

net.0.weight f4 [256, 5]
0	0xbe393260	-0.18085623
1	0xbe8e1738	-0.2775209
2	0xbedf8197	-0.43653557
3	0xbe0637af	-0.13107179
4	0xbc9bf7e3	-0.0190391
5	0x3e84168d	0.25798455
6	0x3e64c72c	0.22341603
7	0xbdb4fefa	-0.088376954
8	0x3d3eac9c	0.046551332
9	0xbdee4e89	-0.11636073
10	0xbe9b91d3	-0.30384693
11	0x3e989356	0.29799908
12	0xbdcbf404	-0.09958652
13	0xbe1b293c	-0.15152448
14	0xbe82bb39	-0.25533465
15	0xbd0ddd80	-0.034635067
16	0xbee00011	-0.4375005
17	0xbdbb7620	-0.0915339
18	0xbee05a4d	-0.43818894
19	0x3ed301d2	0.41212326
20	0xbe9ae653	-0.30253848
21	0x3e2fc9cf	0.17166828
22	0x3d9c2d21	0.07625795
23	0xbe41939c	-0.18903965
24	0xbec4f84b	-0.38470683
25	0xbdd54e70	-0.104153514
26	0x3e08dc48	0.1336528
27	0xbd29df5b	-0.041472774
28	0x3e7aaae6	0.24479255
29	0xbe34acbb	-0.17644016
30	0xbe82b518	-0.2552879
31	0x3d40ff38	0.047118396
32	0x3ebf8666	0.37407225
33	0x3e8c72ea	0.27431422
34	0xbedc7e76	-0.43065232
35	0x3e7eb42f	0.24873422
36	0x3d95afd4	0.07308927
37	0xbe5149eb	-0.20438354
38	0xbd569a6b	-0.05239336
39	0xbe6e2863	-0.23257594
40	0x3dad50ab	0.08462652
41	0xbd86d245	-0.065830745
42	0xbd83f695	-0.06443516
43	0xbee38bc2	-0.44442564
44	0x3d5b118b	0.053483527
45	0xbe1fb378	-0.15595806
46	0xbb28e314	-0.0025770115
47	0xbd979705	-0.074018516
48	0xbedf1e77	-0.4357793
49	0x3ec641e9	0.3872216
50	0x3e870aec	0.2637552
51	0xbe9782d6	-0.29592007
52	0xbec52250	-0.3850274
53	0xbe280924	-0.16409737
54	0xbedf664e	-0.4363274
55	0x3e54fc61	0.207994
56	0x3ea0f90b	0.31440005
57	0x3eb880bc	0.36035717
58	0xbe6ae6e1	-0.22939636
59	0xbe70dcdb	-0.2352175
60	0x3e910561	0.28324416
61	0xbedc38f4	-0.43012202
62	0x3da2f67c	0.079571694
63	0x3e584ebd	0.21123786
64	0x3e77ebb4	0.24211007
65	0x3e692349	0.22767366
66	0x3e3eae9e	0.18621299
67	0x3eaf9d0f	0.34299514
68	0x3ebf2100	0.37329865
69	0xbed67604	-0.41886914
70	0x3c0179ce	0.007902576
71	0xbe932f3c	-0.28746974
72	0x3dc983cb	0.09839591
73	0x3ea08e81	0.31358722
74	0xbecd5546	-0.4010412
75	0x3cc8f575	0.024531106
76	0xbe9a3559	-0.30118826
77	0xbec12dc8	-0.3773024
78	0xbeb0d932	-0.34540707
79	0x3e525cf8	0.20543277
80	0xbde3b2b9	-0.11118073
81	0xbe8172af	-0.2528281
82	0xbd46b920	-0.048516393
83	0xbe6b6044	-0.22985941
84	0xbe700d0b	-0.23442475
85	0x3d079980	0.033105373
86	0xbe87ef3e	-0.26549715
87	0xbe521efe	-0.20519635
88	0x3e3a36f4	0.18185025
89	0x3e18f06c	0.14935464
90	0xbc9e3790	-0.019313604
91	0x3ed723ea	0.42019588
92	0xbd5ae8b8	-0.053444594
93	0x3da1acd0	0.078942895
94	0xbe658150	-0.2241261
95	0xbb121475	-0.0022290025
96	0x3ef83c2e	0.48483413
97	0xbee2e14e	-0.4431252
98	0x3dc44fd8	0.095855415
99	0x3d821b31	0.063528426
100	0xbea51f3b	-0.3225039
101	0x3ed659aa	0.41865283
102	0xbedcb820	-0.43109226
103	0x3dcd2e60	0.10018611
104	0xbe9ebc1c	-0.3100289
105	0x3df18099	0.11792106
106	0x3d754724	0.059882298
107	0xbea0dea8	-0.31419873
108	0xbe155242	-0.1458216
109	0xbe75e6cb	-0.24013822
110	0xbc0d0bf4	-0.008608807
111	0x3e7a7024	0.24456841
112	0x3e8a4de7	0.2701256
113	0x3dac00c4	0.083985835
114	0xbe42c786	-0.19021425
115	0x3d5b4240	0.053529978
116	0xbe850796	-0.2598235
117	0xbdef8ab4	-0.116963774
118	0xbec9f9bf	-0.39448354
119	0x3e92aa2c	0.28645456
120	0xbe4c2c1a	-0.19938698
121	0x3bf44400	0.0074543953
122	0x3dc4d500	0.09610939
123	0x3e4b4f5c	0.19854492
124	0x3d2eba78	0.0426583
125	0x3e5bfde7	0.21483575
126	0x3eab6edc	0.33483016
127	0x3eb16b66	0.3465225
128	0xbdd16ca8	-0.10225803
129	0x3e9b031d	0.30275813
130	0x3eba32d6	0.3636691
131	0x3e864921	0.26227668
132	0x3e979b43	0.29610643
133	0xba473a00	-0.000759989
134	0xbdda3af1	-0.106557734
135	0xbe845be8	-0.2585137
136	0x3eb04b2a	0.34432346
137	0xbd8a4fcd	-0.06753502
138	0x3d15bfa7	0.036559727
139	0xbe44c1b3	-0.19214515
140	0x3ec60da6	0.38682288
141	0xbe08d57f	-0.13362692
142	0xbdb93202	-0.09042741
143	0xbdda0609	-0.10645682
144	0x3e051ff9	0.13000478
145	0xbe7c55f4	-0.24642164
146	0x3eae67b8	0.34063506
147	0x3ed8f475	0.42374006
148	0xbde3e9e3	-0.11128595
149	0x3eb8120f	0.35951278
150	0x3e605028	0.21905577
151	0xbe995ebd	-0.29955092
152	0xbebd2cf9	-0.36948374
153	0xbe594c00	-0.21220398
154	0xbdaad83a	-0.08342023
155	0x3de926d8	0.11384362
156	0x3ead308e	0.33826107
157	0x3e9c924c	0.30580366
158	0x3ef2178f	0.472836
159	0xbe88f44c	-0.26748884
160	0xbf023395	-0.5085996
161	0x3eb155ab	0.34635672
162	0xbefa0b79	-0.48836878
163	0x3e16ded8	0.14733446
164	0xbefb8b69	-0.491298
165	0x3ea2cf4e	0.31798786
166	0x3ead6b4d	0.33870926
167	0xbdb82c33	-0.08992805
168	0x3e29be4f	0.16576503
169	0xbed66896	-0.41876668
170	0xbde9e76c	-0.11421093
171	0x3d2571d4	0.040391758
172	0x3e21483e	0.15750214
173	0xbe5757e2	-0.21029618
174	0xbe5f1470	-0.2178514
175	0x3dc63508	0.09678084
176	0x3e1d0481	0.1533375
177	0xbec6d088	-0.38830972
178	0xbe9e02e5	-0.30861583
179	0xbe15b67c	-0.14620394
180	0x3e5e2782	0.21694759
181	0x3d0eed09	0.034894023
182	0xbe68d690	-0.22738099
183	0x3e65d5d5	0.22444852
184	0x3e9663ea	0.29373103
185	0xbee1cc8d	-0.44101372
186	0xbf824c33	-1.0179504
187	0x3d447aff	0.04796886
188	0xbf126543	-0.57185763
189	0xbe83c33e	-0.25734895
190	0x3d19d1d0	0.03755361
191	0x3ed9ff3a	0.42577535
192	0xbec3af81	-0.38219836
193	0xbcdab960	-0.026699722
194	0xbebb4114	-0.36573088
195	0xbd3b96a8	-0.045797974
196	0xbdb9f288	-0.09079462
197	0x3eb0d020	0.34533787
198	0xbeee0d43	-0.46494493
199	0xbec26cae	-0.3797354
200	0x3e82dcbe	0.25559038
201	0xbe705eed	-0.23473711
202	0xbe110dfc	-0.14165491
203	0x3ea83877	0.3285558
204	0xbeedb6da	-0.46428567
205	0xbecc3584	-0.3988458
206	0xbe20f3c5	-0.1571799
207	0xbe3e1dba	-0.18566027
208	0x3ea66f3e	0.32506746
209	0x3dd000ca	0.101564005
210	0x3dbb290e	0.0913869
211	0xbe8bee50	-0.27330256
212	0x3d09ddc7	0.03365877
213	0x3dbd7117	0.09250086
214	0xbea5607f	-0.32300183
215	0xbdb4e0b4	-0.08831921
216	0xbe1ec1af	-0.15503572
217	0xbef3db70	-0.47628355
218	0xbef12665	-0.47099605
219	0x3e0f1d00	0.13975906
220	0x3e1945e7	0.14968072
221	0xbee752b8	-0.45180297
222	0xbe547125	-0.20746286
223	0x3e30a05f	0.17248677
224	0xbecf033c	-0.40432155
225	0x3e9e9dd3	0.30979785
226	0x3e1486b4	0.1450451
227	0xbe9c6a4d	-0.3054985
228	0x3e73dea7	0.23815404
229	0xbd8c7a3f	-0.06859254
230	0xbee9e017	-0.4567878
231	0xbdca6073	-0.098816775
232	0xbdc0bbcb	-0.09410819
233	0xbd9c3525	-0.07627324
234	0x3e930e06	0.28721637
235	0xbe95c53b	-0.29252037
236	0x3dcd6657	0.100292854
237	0x3e9350b9	0.28772524
238	0x3d8c889d	0.068619944
239	0xbdd67bbb	-0.104728185
240	0x3eb020fa	0.3440016
241	0xbe66e88e	-0.2254965
242	0x3e8a590d	0.27021065
243	0x3ead74d8	0.33878207
244	0xbed144c9	-0.4087279
245	0xbed4ce08	-0.4156344
246	0x3de7b659	0.11314077
247	0xbec29e49	-0.38011387
248	0x3ec4e58d	0.38456383
249	0xbd577a75	-0.05260702
250	0xbec33d71	-0.38132814
251	0x3d878b55	0.06618372
252	0xbe828bcf	-0.2549729
253	0xbe8e32e6	-0.27773207
254	0xbe19fa9d	-0.15037008
255	0x3eabf474	0.3358494

net.0.bias f4 [256]
0	0x3e8cb889	0.2748454
1	0xbb235545	-0.002492265
2	0xbea92bc2	-0.33041197
3	0xbe9c1754	-0.30486548
4	0x3e3875ad	0.1801364
5	0x3db58965	0.088640966
6	0xbec9cbda	-0.3941334
7	0x3d9a7110	0.07541096
8	0xbcb680d1	-0.022278221
9	0xbdc1e6e4	-0.09467867
10	0xbe7a802e	-0.24462959
11	0x3e8c4328	0.27394986
12	0x3e1b7563	0.15181498
13	0x3eb985b3	0.36234817
14	0x3e546712	0.20742443
15	0x3ed5a9f5	0.4173123
16	0x3e81c506	0.2534563
17	0xbeab67d6	-0.33477658
18	0xbedbe570	-0.42948484
19	0x3ca3759b	0.01995354
20	0x3c3f2900	0.01166749
21	0x3ec4b0dc	0.38416183
22	0xbed52279	-0.41627863
23	0xbe9fc4fa	-0.3120497
24	0xbe8e81a5	-0.27833286
25	0x3e54a82e	0.2076728
26	0xbed303ab	-0.41213736
27	0xbca386c8	-0.01996173
28	0xbe8e62b6	-0.27809685
29	0xbea0ed6d	-0.31431141
30	0x3ea71372	0.32632023
31	0xbe048b98	-0.12943876
32	0x3e8437db	0.25823864
33	0x3d864f08	0.06558043
34	0xbc9c52cc	-0.01908245
35	0x3e66bad4	0.22532207
36	0x3e8b7b89	0.27242687
37	0x3ee0b59a	0.4388855
38	0xbe3716fa	-0.17879859
39	0x3e4cccfc	0.2000007
40	0x3dd6dae9	0.104909725
41	0x3ee521c7	0.44752333
42	0x3eac75a5	0.33683506
43	0x3e5932db	0.21210806
44	0x3dc549b0	0.096331954
45	0xbed6193e	-0.41816133
46	0xbce86915	-0.02837042
47	0x3dfd5a8f	0.12370788
48	0xbc17f569	-0.009274819
49	0xbd9b6c8f	-0.07589065
50	0x3e97334b	0.2953132
51	0xbece1726	-0.40252036
52	0x3e0cc6b4	0.13747674
53	0xbe469a80	-0.19394875
54	0xbe9d670c	-0.3074268
55	0xbe147fa7	-0.1450182
56	0x3e491e36	0.19640431
57	0xbece0c23	-0.40243635
58	0xbe8922ca	-0.26784354
59	0xbd98f9b0	-0.07469499
60	0x3dea6fb7	0.11447089
61	0x3ec6c34f	0.38820884
62	0x3e88d82f	0.26727435
63	0x3e305ed5	0.17223676
64	0xbe8e3230	-0.27772665
65	0x3dd20d2a	0.10256417
66	0x3ddcca10	0.10780728
67	0x3e549371	0.2075937
68	0xbe69f9f4	-0.22849256
69	0xbebc3b00	-0.36763763
70	0xbae29e00	-0.0017289519
71	0xbe7e4acd	-0.24833222
72	0x3e0e547c	0.13899416
73	0xbd8fa34c	-0.07013568
74	0x3c18a559	0.009316766
75	0xbea3856f	-0.3193774
76	0xbeea2cb1	-0.45737222
77	0xbeded892	-0.43524605
78	0x3c463735	0.012098123
79	0xbee1b31f	-0.4408197
80	0xbe44f718	-0.19234884
81	0x3e7621c1	0.24036314
82	0x3d1bc1a2	0.03802646
83	0xbed535f2	-0.4164272
84	0xbe1dc93a	-0.15408793
85	0x3c75d2e2	0.015003892
86	0xbeb1257d	-0.34598914
87	0xbedd2104	-0.4318925
88	0xbe7d5056	-0.24737677
89	0xbe2ccece	-0.16875765
90	0xbe9d3bee	-0.30709785
91	0x3d45d700	0.048300743
92	0xbe82108c	-0.2540325
93	0xbee7337c	-0.45156467
94	0xbf00733e	-0.50175846
95	0x3ea23a54	0.31685126
96	0xbda3fb36	-0.08006899
97	0xbec8a88f	-0.391911
98	0xbe110c21	-0.14164783
99	0x3ea0ebfb	0.3143004
100	0x3e8bf471	0.27334931
101	0xbee67c09	-0.45016506
102	0xbe8c41c3	-0.27393922
103	0xbee42ba3	-0.44564542
104	0xbed7e12d	-0.42163983
105	0xbe911fd0	-0.28344584
106	0xbe53402e	-0.20629951
107	0x3e80ba77	0.2514226
108	0x3e9b440d	0.30325356
109	0x3d5bcce0	0.05366218
110	0xbdb4f040	-0.088348866
111	0xbea58419	-0.32327345
112	0xbe437010	-0.19085717
113	0x3e71dc07	0.2361909
114	0xbdee3d40	-0.11632776
115	0xbe8ae3fc	-0.27127063
116	0x3ef0bb93	0.47018108
117	0xbea8e2a7	-0.32985422
118	0x3eaf4658	0.34233356
119	0x3b2602a5	0.0025331166
120	0x3eacc7fe	0.33746332
121	0xbe118caf	-0.14213823
122	0xbeb5f056	-0.35534924
123	0x3ea35dc3	0.31907472
124	0xbe39c99f	-0.18143319
125	0xbebdef1e	-0.37096494
126	0xbcbc15fd	-0.022959704
127	0xbefc7446	-0.4930746
128	0xbe977a83	-0.29585657
129	0xbc3dd2da	-0.011585915
130	0xbdde8287	-0.1086474
131	0xbedff6a0	-0.43742847
132	0xbe908426	-0.2822582
133	0x3ec6c85a	0.3882473
134	0xbea3c199	-0.3198364
135	0xbe076703	-0.1322289
136	0xbd9fdb60	-0.07805514
137	0x3d9aa673	0.07551279
138	0x3ec399b8	0.38203216
139	0xbcd85eba	-0.026412357
140	0xbedbd184	-0.42933285
141	0xbd0d652e	-0.03452032
142	0x3e27f97f	0.16403769
143	0xbed24389	-0.4106715
144	0x3cf1f71e	0.02953678
145	0x3daa1547	0.083048396
146	0x39e91691	0.00044458036
147	0x3d6b1b59	0.057399128
148	0xbeae648e	-0.34061092
149	0x3e14c18b	0.14526956
150	0x3e476073	0.19470386
151	0xbe946862	-0.28985888
152	0x3d35ad8d	0.044354964
153	0x3e59ef28	0.21282637
154	0x3d8cc357	0.068731956
155	0xbf033301	-0.512497
156	0xbe24ec7f	-0.16105841
157	0xbecfbcbc	-0.4057368
158	0xbea87991	-0.32905248
159	0x3e8bcc0b	0.2730411
160	0xbec7e7ae	-0.39043945
161	0xbecaf665	-0.3964111
162	0xbe50754d	-0.20357247
163	0x3e5fcd82	0.21855739
164	0x3e25546a	0.16145483
165	0x3ee3e609	0.4451144
166	0xbe8c1ef7	-0.27367374
167	0x3e8d12f9	0.27553537
168	0xbeb12235	-0.3459641
169	0x3d9f3b3e	0.077749714
170	0x3d88c290	0.06677735
171	0xbeeb4829	-0.4595349
172	0x3ecc7fb7	0.3994119
173	0xbe6a4fd5	-0.22882016
174	0xbe6398c3	-0.22226243
175	0xbe2f4838	-0.17117393
176	0x3e4554e3	0.19270663
177	0x3e31bab9	0.17356385
178	0x3d17e7c8	0.03708628
179	0x3e92de41	0.2868519
180	0xbe55a215	-0.2086261
181	0x3ddf5dd8	0.10906571
182	0x3e3b2a48	0.18277848
183	0xbebb2835	-0.36554113
184	0x3e86ada8	0.26304364
185	0xbe34f2e0	-0.17670774
186	0xbd554c78	-0.05207488
187	0xbecbd420	-0.39810276
188	0x3f025fe9	0.509276
189	0x3dfcac40	0.123375416
190	0x3e8dbea3	0.27684507
191	0x3e180221	0.14844562
192	0x3e05d700	0.13070297
193	0x3e72db84	0.23716551
194	0x3ced5f36	0.028976064
195	0xbdcdf900	-0.100572586
196	0xbf130d5d	-0.57442266
197	0xbe217d4f	-0.15770458
198	0xbeaa861f	-0.3330545
199	0xbe566129	-0.20935501
200	0xbe78ccbf	-0.24296854
201	0xbedbcfca	-0.42931968
202	0xbd99e4ac	-0.07514319
203	0x3e7a252c	0.24428242
204	0xbe47abad	-0.19499083
205	0xbdcb6179	-0.09930701
206	0xbee36073	-0.44409522
207	0xbb88afb5	-0.0041713365
208	0xbd7335b0	-0.059377372
209	0xbed28d23	-0.41123304
210	0x3e3375b3	0.17525367
211	0xbd43ef3f	-0.047835585
212	0xbeb3665d	-0.35039034
213	0xbe8a99da	-0.27070504
214	0x3e68544f	0.22688411
215	0xbe4e7853	-0.20163088
216	0xbcaa2213	-0.020768201
217	0xbeca5ffb	-0.39526352
218	0x3dbe538f	0.09293281
219	0xbefb8a04	-0.49128735
220	0x3e6d5e1c	0.23180431
221	0xbe0710d6	-0.13190016
222	0xbea7ffee	-0.32812446
223	0x3e0715f7	0.13191973
224	0xbdf374a4	-0.11887482
225	0xbe73431f	-0.23756073
226	0x3db88c44	0.090111285
227	0x3ec36760	0.38164806
228	0xbd808efe	-0.062772736
229	0x3dc6e587	0.097117476
230	0xbde3016a	-0.11084254
231	0xbec16d60	-0.3777876
232	0xbed1ecbe	-0.41000932
233	0xbcd85f94	-0.026412763
234	0x3e619e29	0.2203299
235	0x3c9fe76c	0.01951953
236	0x3e55b870	0.20871139
237	0x3d28390c	0.04107003
238	0xbe064d6c	-0.13115472
239	0x3eb13450	0.34610224
240	0x3e954dd6	0.29160947
241	0x3e5fcf36	0.21856388
242	0x3e6e8f0b	0.23296754
243	0xbeaca308	-0.33718133
244	0x3dcd30c5	0.10019068
245	0xbea006b5	-0.31255117
246	0xbe89d2a5	-0.26918522
247	0x3e2ba215	0.16761048
248	0x3ed79a14	0.4210974
249	0x3eadf58b	0.33976397
250	0xbe147bea	-0.14500394
251	0xbc28dc77	-0.010306469
252	0x3e63b2d5	0.22236188
253	0xbe3e95c4	-0.18611819
254	0x3e56ed11	0.20988871
255	0x3e8e006c	0.27734697

net.2.weight f4 [256, 256]
0	0xbd9a3777	-0.0753011
1	0xbdce7aaa	-0.1008199
2	0x3ca6c380	0.020356894
3	0xbb96d870	-0.004603438
4	0xbdf84517	-0.12122553
5	0xbc9437ee	-0.018093076
6	0x3c5f4878	0.013628118
7	0xbda3cccc	-0.07998046
8	0xbd91c004	-0.07116702
9	0xbd2bccfb	-0.04194353
10	0x3c1a4608	0.009416111
11	0xbd8e42a4	-0.069463044
12	0xbca1873e	-0.019717809
13	0xbde42dc0	-0.111415386
14	0xbdb7a5ca	-0.08967169
15	0xbdbad003	-0.09121706
16	0xbcbc3b36	-0.022977453
17	0xbc913538	-0.017725572
18	0x3c5e6208	0.013573177
19	0xbcf650c2	-0.030067805
20	0x3ca55c14	0.020185508
21	0xbc9f0414	-0.019411124
22	0xbdb7a282	-0.08966543
23	0x3cc162f0	0.023606747
24	0x3c9786b8	0.018496856
25	0xbd12e3d8	-0.03586182
26	0xbd0da610	-0.034582198
27	0x3c65aa48	0.014017649
28	0xbde98084	-0.114014655
29	0xbd8d3f05	-0.06896786
30	0xbdf98046	-0.12182669
31	0x3c007f4a	0.007842848
32	0x3cafd114	0.021462
33	0xbd96f2a1	-0.073704965
34	0xbd85f69c	-0.06541178
35	0xbd6df557	-0.058095302
36	0xbb3fc28c	-0.0029260246
37	0xbdc3a79c	-0.09553453
38	0xbd413b32	-0.047175594
39	0xbde7eaa4	-0.11324051
40	0xbcde7ed7	-0.027160091
41	0xbdd11b39	-0.102102704
42	0xbdc63b87	-0.09679323
43	0xbc626748	-0.0138185695
44	0xbcce69b0	-0.02519688
45	0xbda33401	-0.07968903
46	0xbde1fc90	-0.110345006
47	0xbd926477	-0.071480684
48	0xbd97e505	-0.07416729
49	0xbc9c8769	-0.019107537
50	0x3d1acb68	0.03779164
51	0x3cd05488	0.025430933
52	0xbdc315bf	-0.09525632
53	0xbcbd9c38	-0.02314578
54	0xbd2a9df8	-0.041654557
55	0xbd639d02	-0.055569656
56	0xba6d70f0	-0.00090576615
57	0xbd2767a4	-0.040870324
58	0x3c373088	0.011181004
59	0xbd3084c6	-0.043095373
60	0xbcbdba69	-0.023160176
61	0xbd9047dd	-0.07044957
62	0xbd7189d7	-0.058969345
63	0x3cc2c87a	0.023777235
64	0xbd64037c	-0.055667385
65	0xbd55e57c	-0.052220806
66	0xbd56de18	-0.0524579
67	0xbd7c1952	-0.061547585
68	0xbd514aee	-0.05109685
69	0xbce440b8	-0.027862892
70	0x3d4fde42	0.05074907
71	0xbcac0d3b	-0.021002403
72	0xbdd7cf5a	-0.10537596
73	0xbccae8fb	-0.024769297
74	0x3d62dd06	0.055386566
75	0xbc8515be	-0.016245719
76	0xbd2106b4	-0.039313033
77	0xbd7702f8	-0.060305566
78	0xbc6cd91a	-0.014456058
79	0x3be04050	0.006843604
80	0xbd5491f4	-0.051897004
81	0xbd49f81c	-0.04930888
82	0x3ccb8169	0.024841981
83	0xbc9371c8	-0.017998591
84	0xbcfc52b7	-0.03080116
85	0xbd5561a6	-0.052095078
86	0xbb3b7500	-0.0028603673
87	0x3a9f6e6d	0.0012163647
88	0x3db3c1da	0.087772086
89	0x3c929d24	0.017897196
90	0x3d3e39f4	0.046441987
91	0xbdcf9cf6	-0.1013736
92	0xbd6e13b0	-0.058124244
93	0xbd809846	-0.06279044
94	0xbd52dccb	-0.051480096
95	0xbd8e5173	-0.06949129
96	0xbdc681e3	-0.09692743
97	0xbd3cd9f6	-0.0461063
98	0xbdf6788c	-0.12034711
99	0xbd399c0d	-0.045314837
100	0xbd8a41c3	-0.06750824
101	0x3acce7d7	0.0015633059
102	0xbcaac416	-0.020845454
103	0x3d05d54e	0.032674126
104	0x3c433de8	0.011916615
105	0xbd1d2584	-0.038365856
106	0xbd2ad177	-0.041703667
107	0xbdd044f8	-0.10169405
108	0xbdd2abda	-0.10286684
109	0xbb852154	-0.004062811
110	0xbc8ba957	-0.017048521
111	0x3c41de80	0.011832833
112	0xbbdeacc0	-0.0067954957
113	0xbdfa51d1	-0.122226365
114	0x3d7bcbd0	0.061473668
115	0xbd7d5b19	-0.061854456
116	0xbd83b9ef	-0.064319484
117	0x3c86367a	0.016383398
118	0xbdd75ec0	-0.10516119
119	0xbd24a75e	-0.040198676
120	0xbde8afa7	-0.11361628
121	0xbd0925e9	-0.03348342
122	0xbcb1e914	-0.021717586
123	0xbdd3e2be	-0.10345982
124	0xbd61efe4	-0.05516042
125	0xbc1909f0	-0.009340748
126	0xbdabfe0e	-0.083980665
127	0xbd0ba4e0	-0.034092784
128	0x3d5af45a	0.053455688
129	0xbd1ad70a	-0.037802733
130	0xbd367275	-0.04454275
131	0xbd248870	-0.04016918
132	0xbb8e9cd0	-0.0043521896
133	0xbddd758c	-0.10813436
134	0x3cf48df8	0.029852852
135	0xbd1c218f	-0.03811794
136	0x3d36afd4	0.044601277
137	0x3d39af34	0.045333102
138	0xbdd56191	-0.10419
139	0xbd8da2ce	-0.06915818
140	0xbdd77ad8	-0.105214775
141	0xbd65ae5c	-0.056074485
142	0xbc2f8070	-0.010711774
143	0x3d5dd665	0.05415954
144	0xbd3bc20c	-0.045839354
145	0xbd2b2239	-0.041780684
146	0xbcf995d2	-0.030466948
147	0xbdf76e5c	-0.12081596
148	0xbd65bd4a	-0.056088723
149	0xbbc4199a	-0.0059844973
150	0xbd8c0337	-0.06836551
151	0x3d6047b6	0.05475589
152	0xbdcf6a00	-0.1012764
153	0xbddd7d26	-0.10814886
154	0x3c3386b8	0.010957412
155	0xbcd97c7a	-0.026548613
156	0xbbf82db4	-0.0075738076
157	0xbd2954eb	-0.04134075
158	0x3ce92b50	0.028463036
159	0xbdd1ee82	-0.1025057
160	0xbde42e6e	-0.11141668
161	0xbd31fe84	-0.043455616
162	0xbd4600d6	-0.04834064
163	0xbd9578ec	-0.07298455
164	0xbcc6a4c0	-0.02424848
165	0xbd3e7b92	-0.046504565
166	0xbd480680	-0.048834324
167	0xbd880d52	-0.06643166
168	0xbc019688	-0.007909425
169	0xbb9190ce	-0.004442311
170	0x3c102fb8	0.00880044
171	0xbdbf9378	-0.09354299
172	0xbcf35c75	-0.029707173
173	0xbdcef2d6	-0.10104911
174	0x3ce10f88	0.027473226
175	0xbcb1ad7a	-0.021689165
176	0xba5b7900	-0.00083722174
177	0xbd81a0c3	-0.06329491
178	0xbc9b876e	-0.018985476
179	0xbd32b2a1	-0.043627385
180	0xbc5dc568	-0.013535835
181	0xbbc27866	-0.005934763
182	0xbcc22a14	-0.023701705
183	0xbdd77e26	-0.10522108
184	0x3936f9f4	0.00017449987
185	0xbde6aac6	-0.11263041
186	0xbc956954	-0.0182387
187	0xbd579d02	-0.05263997
188	0x3d21e456	0.0395244
189	0xbc9fdd1c	-0.019514613
190	0xbd18f59c	-0.037343606
191	0xbdbdc940	-0.09266901
192	0xbd8d1ca3	-0.06890228
193	0xbd232fef	-0.039840635
194	0xbdf094f6	-0.11747162
195	0x3b6119a0	0.003434755
196	0xbdb65b2f	-0.08904111
197	0xbd57582d	-0.052574325
198	0xbde25fc8	-0.11053425
199	0xbd9b2552	-0.07575478
200	0xbd4a2e09	-0.04936031
201	0xbb87c325	-0.004143136
202	0x3c6ab608	0.014325626
203	0x3d2477f2	0.04015345
204	0xbdba50fa	-0.09097476
205	0xbd18610e	-0.037201934
206	0x3c58b810	0.013227478
207	0xbdf10c63	-0.11769941
208	0x3d77bf56	0.060485207
209	0x3d117152	0.03550846
210	0xbcd97d61	-0.026549043
211	0x3d0deb74	0.034648374
212	0xbcc72304	-0.024308689
213	0x3d3e769a	0.046499826
214	0xbc280d2b	-0.010257046
215	0xbc3f5bcc	-0.011679601
216	0xbdb84407	-0.0899735
217	0xbd611d2b	-0.054959457
218	0x3b01f055	0.0019827087
219	0xbd9e1f46	-0.07720809
220	0xbd8d0cb4	-0.068871886
221	0xbb20a900	-0.0024514794
222	0xbd579f06	-0.05264189
223	0xbd942059	-0.07232732
224	0xbd3dfdf6	-0.046384774
225	0x3cb97b84	0.022641905
226	0xbdef9310	-0.11697972
227	0xbd2dc7a6	-0.042426728
228	0xbc8c8c65	-0.01715679
229	0xbd8a7823	-0.067611955
230	0xbdcb23de	-0.099189505
231	0x3d5dafa4	0.054122582
232	0xbc139884	-0.0090085305
233	0xbdb45b90	-0.08806527
234	0x3ad076bc	0.0015904526
235	0xbd5b87ec	-0.053596422
236	0xbdd1b174	-0.102389246
237	0xbdd39b8b	-0.10332402
238	0xbd881316	-0.06644265
239	0xbda60fe5	-0.081085004
240	0xbbd80fc3	-0.006593676
241	0xbd765312	-0.060137816
242	0xbcb91960	-0.022595108
243	0x3d130676	0.035894834
244	0xbdb97138	-0.09054798
245	0xbde488a8	-0.111588776
246	0xbde901ea	-0.11377318
247	0xbdaaff2b	-0.08349451
248	0xbdcd6e22	-0.10030772
249	0xbd704def	-0.058668073
250	0xbb82d350	-0.0039924756
251	0xbbfb6ae4	-0.0076726545
252	0xba91ed0b	-0.0011133266
253	0xbc4b4f16	-0.012408992
254	0xbd4e1422	-0.05031217
255	0xbdd10e33	-0.102077864

net.2.bias f4 [256]
0	0xbcd282c1	-0.025697114
1	0x3d2f7d16	0.0428439
2	0x3e285d23	0.16441779
3	0x3bfae2af	0.0076564173
4	0xbd84fc42	-0.06493427
5	0xbdd9add2	-0.10628857
6	0xbd1d20d2	-0.038361378
7	0xbc2a49b4	-0.010393549
8	0xbc946800	-0.018115997
9	0xbdf2e338	-0.11859745
10	0xbd71028d	-0.058840323
11	0xbc2c4d8e	-0.010516537
12	0xbdac17ce	-0.08402978
13	0xbd1fba74	-0.038996175
14	0xbd0ba757	-0.034095135
15	0xbd9bb89a	-0.07603569
16	0xbd6982fa	-0.057009675
17	0x3c8d876c	0.017276488
18	0xbde53321	-0.11191393
19	0xbdd5f47c	-0.10447022
20	0xbd3834a4	-0.044972077
21	0xbda0acda	-0.07845469
22	0xbd81eac5	-0.06343607
23	0xbd0d3b72	-0.03448052
24	0xbdb10068	-0.086426556
25	0xbd620a10	-0.055185378
26	0xbd2c7776	-0.042106114
27	0xbcad00cd	-0.021118546
28	0xbc3983c6	-0.011322921
29	0xbd4174de	-0.047230594
30	0xbd81d00b	-0.06338509
31	0x3d5435a6	0.051808976
32	0xbd954666	-0.07288818
33	0x3cb5ee9a	0.0222085
34	0x3c8f30e0	0.01747936
35	0xbdd77706	-0.10520749
36	0xbd011242	-0.031511553
37	0x3d975e56	0.0739104
38	0xbc941c88	-0.018080011
39	0xbace6940	-0.001574792
40	0x3aa47ec0	0.0012549981
41	0xbda7f8ac	-0.08201727
42	0x3c066d8c	0.008204829
43	0xbd05a974	-0.032632306
44	0xbb361f29	-0.002778957
45	0xbb1bbf42	-0.0023765122
46	0xbd8bb80f	-0.06822216
47	0xbcbd32a0	-0.023095429
48	0xbbc6d816	-0.00606824
49	0xbdd20f71	-0.102568515
50	0xbdb6db9e	-0.089286074
51	0xbd0b7877	-0.03405043
52	0xbd8d03ed	-0.068855144
53	0xbcd778fa	-0.026302803
54	0xbc6faeb2	-0.014629053
55	0xbce8463c	-0.028353803
56	0xbc060030	-0.008178756
57	0xbd18bac4	-0.03728749
58	0xbdaaeb27	-0.08345633
59	0x3e17a13f	0.14807604
60	0xbdcffb15	-0.10155312
61	0xbd810fd5	-0.06301848
62	0xbd8421d0	-0.06451762
63	0xbbbe93fa	-0.00581598
64	0xbd8bd19b	-0.068270884
65	0xbc444281	-0.011978746
66	0xbcb1d771	-0.021709176
67	0xb970c042	-0.00022959805
68	0x3bc815e6	0.006106126
69	0xbdd13934	-0.10215989
70	0xbd87205e	-0.065979704
71	0xbc591334	-0.013249207
72	0xbda8d1ac	-0.08243117
73	0x3b9a5066	0.0047092913
74	0x3945103b	0.0001879343
75	0xbd82d0cd	-0.06387482
76	0x3cddb948	0.027065888
77	0x3d06c7a8	0.03290525
78	0xbc482f4d	-0.012218309
79	0xbd3521f4	-0.044221833
80	0xbd0fd8df	-0.035118934
81	0xbb8ad8e7	-0.0042372826
82	0x3cbff5cc	0.023432635
83	0xbc96f101	-0.018425466
84	0xbe17173d	-0.14754958
85	0xbc16b77f	-0.009199022
86	0xbcd0dd7c	-0.025496237
87	0xbb8e5bff	-0.004344463
88	0xbda987a8	-0.082778275
89	0xbd66274a	-0.056189813
90	0xbd36d1c8	-0.044633657
91	0xbde61a8c	-0.11235532
92	0xbdd53c3c	-0.104118794
93	0xbd841caa	-0.0645078
94	0xbdf554b9	-0.1197905
95	0xbda12393	-0.07868113
96	0xbdcebb27	-0.1009429
97	0xbd13e754	-0.036109284
98	0xbcaba158	-0.020950958
99	0xbab5a09d	-0.0013857071
100	0x3c6c82e8	0.014435507
101	0xbb2e978f	-0.002664063
102	0xbce95bc2	-0.028486136
103	0xbdbd322e	-0.09238087
104	0xbd1a1843	-0.037620794
105	0xbdefb9ed	-0.117053844
106	0xbd19208e	-0.037384562
107	0xbd3476cc	-0.044058606
108	0xbdab0ce1	-0.08352066
109	0xbc06ec97	-0.008235118
110	0xbd7ba8c2	-0.061440237
111	0xbdd9072c	-0.10597071
112	0xbdae7b1b	-0.08519574
113	0xbd6782ef	-0.056521352
114	0xbd8311f2	-0.06399907
115	0xbdb60ffe	-0.08889769
116	0xbd338a6f	-0.043833192
117	0xbcf9a1e7	-0.030472709
118	0xbdcfd726	-0.10148458
119	0xbdc3a7f3	-0.09553518
120	0xbc63fc4c	-0.013915133
121	0x3d075b6a	0.033046164
122	0x3e1c4751	0.1526158
123	0xbc68e65b	-0.014215077
124	0xbd05dc1e	-0.032680623
125	0xbd03da59	-0.032190654
126	0x3b1079a7	0.0022045167
127	0xbd90d9b5	-0.07072774
128	0xbdb370b4	-0.08761731
129	0xbc7d68b8	-0.015466861
130	0xbdc190de	-0.09451459
131	0xbdcf7dd9	-0.101314254
132	0xbc774489	-0.015092024
133	0xbce0c2f4	-0.02743671
134	0xbd5cc75f	-0.053901073
135	0xbd159f74	-0.03652902
136	0xbcdc1bcc	-0.026868723
137	0xbd7eb361	-0.062182788
138	0x3dfee2a6	0.124455735
139	0xbcfeee18	-0.031119391
140	0xbd09de30	-0.03365916
141	0xbca1f323	-0.019769257
142	0xbd2d6b0c	-0.042338416
143	0xbcbcd328	-0.023049906
144	0xbd33f1cf	-0.04393178
145	0xbca113dc	-0.01966279
146	0x3c4d6301	0.012535811
147	0xbd9bb373	-0.076025866
148	0xbded45c8	-0.11585575
149	0xbdc59a1e	-0.09648536
150	0xbba049d0	-0.0048916116
151	0xbcb31a86	-0.021863233
152	0xbc939aa0	-0.018018067
153	0xbc757556	-0.014981588
154	0xbbbb7d23	-0.0057217046
155	0xbcac35b1	-0.021021696
156	0xbd4ac4c2	-0.04950405
157	0xbcfdea33	-0.030995464
158	0xbd613ef8	-0.054991692
159	0xbd7fc765	-0.062446017
160	0xbdebdb10	-0.11516392
161	0xbdc0269f	-0.093823664
162	0xbc4c75c6	-0.012479251
163	0xbd1a5eb4	-0.037687972
164	0xbdc78a3a	-0.097431615
165	0xbddd30e4	-0.10800341
166	0xbd79a3b6	-0.060947143
167	0xbd81ccf4	-0.0633792
168	0xbd27bbee	-0.040950708
169	0x3bfbd137	0.0076848525
170	0xbdc78073	-0.097412966
171	0xbd0d69ce	-0.03452473
172	0xbccc5e88	-0.02494742
173	0xbd59e028	-0.053192288
174	0xbd4882f2	-0.048953004
175	0xbd871efb	-0.06597706
176	0xbde0a3cd	-0.109687425
177	0x3c151b98	0.009100817
178	0xbd217df5	-0.039426763
179	0xbdba16d3	-0.090863846
180	0xbd05d7ae	-0.03267639
181	0xbd7e6bb3	-0.06211443
182	0x38e0fe43	0.00010728512
183	0xbc066118	-0.00820186
184	0xbd54b5d8	-0.051931232
185	0x3d2a7bb8	0.041621894
186	0xbda8b66d	-0.0823792
187	0xbca0617d	-0.019577736
188	0xbdf3bb61	-0.11900974
189	0x3d7c82da	0.061648227
190	0x3c55c0e8	0.013046481
191	0xbcfa4974	-0.030552603
192	0xbc4a1b13	-0.012335557
193	0xbdc0dd27	-0.094171815
194	0xbc50b2a3	-0.012737903
195	0xbd3f501b	-0.046707254
196	0xbaac34ed	-0.0013138332
197	0xbc360d7f	-0.011111616
198	0xbdb74606	-0.08948903
199	0xbd6e151c	-0.0581256
200	0xbdc3cedd	-0.095609404
201	0xbdc5163a	-0.0962338
202	0xbd83f268	-0.0644272
203	0xbac16a55	-0.0014756421
204	0xbd680014	-0.0566407
205	0xbdb40816	-0.08790605
206	0xbcd2771c	-0.025691561
207	0xbcadd6d7	-0.021220608
208	0xbd3edfc2	-0.04660011
209	0xbd00200e	-0.03128057
210	0xbdb51e3d	-0.08843658
211	0xbda9ecf8	-0.08297151
212	0xbc13bc38	-0.009017043
213	0xbd6c74bc	-0.057728514
214	0xbd086108	-0.03329566
215	0x3d3ea84a	0.04654721
216	0x3c2a0710	0.01037766
217	0xbd277c40	-0.04088998
218	0xbd33a5a2	-0.04385913
219	0xbdd671b8	-0.10470909
220	0xbc8b6e83	-0.01702047
221	0xbd6ccc92	-0.05781228
222	0xbde9fcd3	-0.114251755
223	0xbdf5cf31	-0.12002409
224	0xbdc1db6e	-0.09465681
225	0xbd488eb4	-0.048964217
226	0xbdd0282e	-0.10163914
227	0xbd751202	-0.059831627
228	0xbdc64145	-0.09680418
229	0xbcfca78d	-0.030841613
230	0xbd511215	-0.051042635
231	0xbc1097c8	-0.00882525
232	0xbdad1064	-0.08450392
233	0xbdd237ba	-0.10264535
234	0xbd37cfd6	-0.044875942
235	0xbdae4dfa	-0.085109666
236	0xbdbf7071	-0.09347618
237	0xbd0c9c9c	-0.03432904
238	0xbcef5e78	-0.02921985
239	0xbd9e079a	-0.07716294
240	0xbdba5315	-0.09097878
241	0xbcf0b1e6	-0.029381704
242	0xbc482dba	-0.012217933
243	0xbc05620f	-0.008141055
244	0xbcb91f28	-0.022597864
245	0xbc81edb6	-0.01586042
246	0xbd33684b	-0.043800633
247	0xbd73f1f4	-0.059556916
248	0xbd28dadb	-0.04122434
249	0xbd902303	-0.07037928
250	0xbc893b9f	-0.016752062
251	0x3d53a88e	0.05167442
252	0xbd34a448	-0.044101983
253	0xbbb668c8	-0.00556669
254	0x3c5bf1e8	0.013424374
255	0xbdd9f110	-0.10641682

net.4.weight f4 [2, 256]
0	0x3dd7bd73	0.105341814
1	0x3acfc4c0	0.0015851483
2	0x3e15b81d	0.14621015
3	0xbd43e033	-0.047821235
4	0xba87c70e	-0.0010359006
5	0xbd08317c	-0.033250317
6	0x3d646b1e	0.055766217
7	0x3dab65ca	0.08369024
8	0xbc712211	-0.014717595
9	0x3dacb9c3	0.08433869
10	0xbb13b71b	-0.002253956
11	0x3d6bb43d	0.057544935
12	0xbaa24de9	-0.0012382838
13	0x3d855de5	0.065120496
14	0xbb4c7e63	-0.0031203262
15	0xbda99eec	-0.08282265
16	0xbd6e30c4	-0.058151975
17	0x3d2fc256	0.042909943
18	0x3d68f802	0.056877144
19	0x3d666a79	0.056253884
20	0x3dad6df6	0.08468239
21	0xbd746fae	-0.05967682
22	0xbca9f76a	-0.020747859
23	0x3c4b5e7d	0.0124126645
24	0xbcbfdfef	-0.02342221
25	0xbd1bf8ce	-0.038079076
26	0x3d80f79c	0.06297228
27	0xbd5d7254	-0.05406411
28	0xbc366662	-0.011132808
29	0x3d9a95aa	0.075480774
30	0xbd37b337	-0.044848647
31	0xbd033e1e	-0.03204166
32	0xbc0cb7ab	-0.008588712
33	0xbd51ad7f	-0.05119085
34	0x3d0235a4	0.031789437
35	0x3cb7e696	0.02244882
36	0xbdecef0a	-0.115690306
37	0x3dae4e91	0.08511079
38	0xbb1b19fb	-0.0023666609
39	0x3d09fa0e	0.033685736
40	0xbd3de26a	-0.046358503
41	0xbcdc6e0b	-0.026907941
42	0xbd1dfd15	-0.038571436
43	0xbd9ccc04	-0.076561004
44	0x3cc46697	0.0239747
45	0xbc2c9079	-0.010532492
46	0x3da87c9d	0.08226893
47	0xb8aec400	-8.3334744e-05
48	0xbd226a05	-0.03965189
49	0xbd1a9f59	-0.037749622
50	0x3d5e790b	0.054314654
51	0x3ce81445	0.028329978
52	0x3d30e624	0.04318823
53	0x3d585137	0.052811828
54	0x3ce305ee	0.027712788
55	0x3ced9fa9	0.029006796
56	0x3c64f59c	0.013974573
57	0xbd29b0a6	-0.04142823
58	0x3d9748c9	0.073869295
59	0x3f626c47	0.8844647
60	0x3d1742e8	0.03692904
61	0x3cc4d59f	0.024027644
62	0x3d092bcb	0.03348903
63	0x3b6839ee	0.003543492
64	0x3c857181	0.016289474
65	0xbd046b35	-0.032328803
66	0x3c3e61db	0.01162001
67	0x3cb05853	0.021526491
68	0x3ba02ed2	0.004888394
69	0x3d29dc63	0.041469943
70	0xbd020798	-0.031745523
71	0xbae158a0	-0.001719255
72	0xbd0503fe	-0.03247451
73	0x3bc1290b	0.0058947853
74	0x3d127e11	0.035764758
75	0x3d6e1dd3	0.05813391
76	0x3d3e0132	0.04638786
77	0x3f05681e	0.52111995
78	0xbc2ca61b	-0.0105376495
79	0x3b83d4d0	0.004023172
80	0xbd6c1743	-0.05763937
81	0xbbcb2d43	-0.006200464
82	0xbd50a1d8	-0.050935596
83	0x3d93ffa9	0.07226498
84	0xbcc6c2bb	-0.024262777
85	0x3d0b8611	0.034063403
86	0x3cf15156	0.02945773
87	0xbcec4066	-0.028839301
88	0x3c90da8f	0.017682342
89	0xbd078df9	-0.03309438
90	0x3ad9a640	0.0016605332
91	0xbc17e994	-0.009271998
92	0xbd0e0b56	-0.03467878
93	0x3d8445e4	0.06458643
94	0xbb167eec	-0.0022963835
95	0x3b2749c0	0.0025526136
96	0x3c1a6b34	0.009424973
97	0xbc361224	-0.0111127235
98	0x3c87cfb5	0.016578535
99	0x3cb4b5e0	0.022059381
100	0xbe822db7	-0.25425503
101	0xba0ebc84	-0.0005444961
102	0xbc1722d8	-0.009224616
103	0x3d18cbbc	0.03730367
104	0x3cfd4ece	0.030921366
105	0x3ce82ccf	0.028341679
106	0x3bce4190	0.0062944368
107	0x3d96e94d	0.07368717
108	0xbc5adc3d	-0.013358173
109	0x3d5ccfd8	0.053909153
110	0x3cddef90	0.027091771
111	0x3d31e728	0.04343334
112	0xbd05664c	-0.03256826
113	0xbc805d77	-0.015669568
114	0xbd9e0e84	-0.077176124
115	0xbd06e778	-0.03293559
116	0x3bc83b14	0.0061105583
117	0x3d604ee8	0.05476275
118	0x3d9b3e55	0.07580248
119	0xbc468f5a	-0.012119139
120	0xbd5477c2	-0.051872022
121	0xbd6a49d0	-0.0571993
122	0x3e111f7b	0.14172165
123	0xbc63d814	-0.0139064975
124	0x3d05686e	0.032570295
125	0xbd450286	-0.04809811
126	0xbaafa3dd	-0.0013400275
127	0x3c8a0fe3	0.016853279
128	0x3b978678	0.004624184
129	0x3cc0f730	0.023555368
130	0xbbb4afba	-0.0055141123
131	0x39c7aaee	0.0003808359
132	0x3dd6e04f	0.10492002
133	0x3c4c5267	0.012470818
134	0x3d8e8d4d	0.06960545
135	0x3d3ab3d6	0.04558166
136	0x3c37d08e	0.011219157
137	0xbd2b480a	-0.04181675
138	0x3cbf6069	0.023361402
139	0x3d232ce4	0.039837733
140	0x3d5def73	0.054183435
141	0xbd513706	-0.051077865
142	0xbb8a077e	-0.004212319
143	0x3d18f248	0.037340432
144	0xbd051cba	-0.0324981
145	0xbbb2a850	-0.0054521933
146	0xbd96e2ec	-0.07367501
147	0xbd2489bb	-0.040170413
148	0xbd778188	-0.060426265
149	0x3d2c867e	0.04212045
150	0xbaa56197	-0.0012617585
151	0x3c03a6cb	0.008035372
152	0xbd1cf1ca	-0.038316526
153	0x3d91a2db	0.0711114
154	0x3c6ab886	0.01432622
155	0xbcc6677b	-0.024219265
156	0x3b9ba5f2	0.004750007
157	0x3d97328e	0.073826894
158	0x3bcada84	0.0061906
159	0x3cae9ede	0.021315988
160	0x3a08cc5c	0.000521844
161	0x3d8bdbd9	0.06829042
162	0x3b1050b7	0.0022020766
163	0xbb2030e0	-0.0024443194
164	0xbd0dd730	-0.034629047
165	0x3d52c588	0.05145791
166	0xbc4acdb0	-0.012378141
167	0x3cf2c9e1	0.029637279
168	0x3af9d04d	0.0019059271
169	0xbd3d0aba	-0.046152808
170	0x3d4e90f2	0.0504312
171	0x3cef64ec	0.029222928
172	0xbd040668	-0.032232672
173	0x3b1c85a0	0.0023883358
174	0xbbb64c50	-0.0055632964
175	0xbd78ff0f	-0.060790118
176	0xbcac212d	-0.021011913
177	0xbc53e7ed	-0.012933713
178	0x3c7dee7c	0.015498754
179	0x3c26d939	0.010183626
180	0xbadc256a	-0.0016795818
181	0x3b3f44d4	0.0029185312
182	0xbacf7a82	-0.0015829357
183	0xbc92f4cf	-0.017939
184	0x3c2c5184	0.010517482
185	0xbcd34d1c	-0.025793605
186	0x3d4ca0c7	0.049958017
187	0x3d940308	0.07227141
188	0x3d5dc824	0.054145947
189	0xbb7df260	-0.0038749203
190	0xbc118808	-0.00888253
191	0x3d1815b8	0.037130088
192	0x3d6159a8	0.055017143
193	0x3dafc0ba	0.085816815
194	0xb9226979	-0.00015488816
195	0x3c9eccff	0.01938486
196	0xbd890675	-0.06690685
197	0x3c949458	0.018137142
198	0xbc0c7249	-0.00857217
199	0x3bf98cb0	0.007615648
200	0x3d458f55	0.048232395
201	0x3c4e4110	0.012588754
202	0xbd88e64e	-0.06684552
203	0x3d609cc0	0.05483699
204	0x3dd2b886	0.10289101
205	0x3d365408	0.044513732
206	0xba696623	-0.0008903464
207	0xbca62f12	-0.020286117
208	0xbd00e816	-0.031471334
209	0xbcf837c8	-0.030300036
210	0xbc8116be	-0.015757915
211	0x3d5615dd	0.052266944
212	0xbd77e42a	-0.06052033
213	0xbca8195b	-0.020519903
214	0xbc9d9548	-0.019236222
215	0x3d28408a	0.041077174
216	0x3d7a8050	0.061157525
217	0x3c53d445	0.012929027
218	0xbd024992	-0.031808443
219	0xbc6a40c3	-0.014297667
220	0xbd1f3098	-0.038864702
221	0x3c252cfa	0.010081524
222	0x3db71660	0.089398146
223	0x3c4864f0	0.012231097
224	0x3d626d67	0.055280115
225	0xbdcfcda7	-0.10146647
226	0x3d2f0722	0.04273141
227	0x3d4249ff	0.04743385
228	0x3d183e42	0.03716875
229	0xbc90af92	-0.017661843
230	0xbd678b0b	-0.056529086
231	0x3da37038	0.079803884
232	0xba7c9046	-0.00096345355
233	0xbc9eaead	-0.019370401
234	0x3cc7001c	0.024292044
235	0x3d8eaa96	0.069661304
236	0xbc13f539	-0.009030634
237	0x3d194ffd	0.0374298
238	0x3d5b4d4d	0.053540517
239	0x3d9b4654	0.075817734
240	0x3d1305cc	0.0358942
241	0xbc5d3dff	-0.013503551
242	0x3c0ff122	0.008785518
243	0xbc74bf86	-0.014938241
244	0x3da4fb3d	0.080557324
245	0xbd55ce79	-0.05219886
246	0x3de67029	0.112518616
247	0x3ca93e98	0.02065973
248	0xbd9548df	-0.0728929
249	0x3b627697	0.0034555548
250	0xbc0ddf30	-0.008659169
251	0x3d39ce68	0.04536286
252	0xbd8b7c4f	-0.06810819
253	0x3cbafab7	0.022824628
254	0xbd497490	-0.04918343
255	0xbd82c38b	-0.06384953

net.4.bias f4 [2]
0	0xbd11b1e8	-0.035570055
1	0x3d90aa73	0.070637606
