flappyb/models/cross_entropy/batchsize=100-hiddensize=256-lr=0.01-gamma=.9-PART=60.pt (torch_old, 272411 bytes, 6 tensors)

net.0.weight f4 [256, 5]
000000 b2 a7 5f be 5c 02 6c 3e 30 95 cc bc 06 bc 09 be
       -0.21841314 0.23047775 -0.024973482 -0.13450631
000010 c0 5f 47 be ca d8 bd 3e fd df 45 3e a6 ff 70 3e
       -0.1947012 0.3707946 0.19323726 0.23535022
000020 af cb 08 be ce 84 97 be 64 d4 3d be 49 0d b1 be
       -0.13358949 -0.2959351 -0.18538052 -0.34580448
000030 f3 43 e5 3d 52 0f 8c bd c4 e3 79 be 26 57 b9 be
       0.11194601 -0.068388596 -0.24403292 -0.361993
000040 f3 31 05 3e c6 96 af 3e 71 c6 9a be 3c 80 d7 3c
       0.13007335 0.34294719 -0.30229524 0.026306264
000050 98 89 4f bd b8 b7 ed 3d 44 ce d3 bd b0 ab e4 3c
       -0.05066833 0.11607307 -0.103420764 0.027913898
000060 a0 79 1e be ea 68 f2 bc b8 a6 83 be 4c 4a 85 3e
       -0.15476084 -0.029591043 -0.25713134 0.26033247
000070 14 88 ab be 64 db a4 3e ff 98 f6 bd 01 fd 8e bc
       -0.33502257 0.32198632 -0.120409004 -0.017454626
000080 82 73 58 be 25 2d 03 bf 2f 48 3c 3e 94 c2 47 3e
       -0.21137813 -0.5124076 0.18386911 0.1950782
000090 6c ea ce be 38 2a d5 3d 46 83 19 3c 65 1c 99 3e
       -0.40413225 0.10408443 0.009369677 0.29904476
0000a0 11 fc 70 3e 9a 83 dc be 16 8b 92 3e 1d 14 4f be
       0.23533656 -0.43069154 0.2862174 -0.20222516
0000b0 98 44 c5 3d 31 f2 4b be b2 58 78 3e cf 6d e1 be
       0.09632224 -0.19916607 0.24252585 -0.4402909
0000c0 bc ae d7 3c 2c 48 b6 3e 70 85 fe bd 6c c7 d9 3e
       0.026328437 0.35601938 -0.12427795 0.4253496
0000d0 8c a0 6c 3e 4e 59 30 be ed b6 1c 3e 1d e7 e2 3d
       0.23108119 -0.17221567 0.15304156 0.110792376
0000e0 1a 25 23 3d 04 5e 93 3e 2f 31 43 be cf 20 36 3e
       0.039830305 0.28782666 -0.19061731 0.17785953
0000f0 e4 d8 e9 3e f9 38 b2 3e bc f8 aa be 85 b4 97 3c
       0.45673287 0.34809092 -0.33392894 0.018518696
000100 86 7d 1f be af e0 d3 be b4 31 91 3e a8 e1 23 bd
       -0.15575227 -0.41382357 0.28358233 -0.040010124
000110 6b 54 71 be 68 95 6c 3e f8 36 ae 3e 01 20 24 3e
       -0.23567359 0.23103869 0.34026313 0.16027834
000120 e5 7d d3 be 00 8e 78 bd 41 b7 9c 3e 4f da 46 3d
       -0.41306987 -0.060682297 0.30608562 0.04854804
000130 3a aa a8 3d 9e ea df be e6 ac ed 3c fc 71 56 3e
       0.08235593 -0.43733686 0.029013108 0.20941919
000140 6a 05 f1 bc f7 29 20 3f f6 6e 48 3e 1a af 88 bd
       -0.029421527 0.62564033 0.19573578 -0.06674023
000150 e1 d2 6c bd fc a2 b6 be 4a d4 c2 3e 1a 37 98 be
       -0.057818297 -0.35671222 0.3805259 -0.2972954
000160 94 5e df be dc 6b e8 3d 54 1b f9 be 09 b9 aa be
       -0.43626845 0.113486975 -0.48653662 -0.33344296
000170 ce cf 80 be 9a 33 72 be 57 11 fd bd ea a8 44 be
       -0.25158542 -0.23652497 -0.12356823 -0.1920506
000180 6a cd 88 3c a1 47 ac 3e 45 f8 91 3e ea e2 11 bc
       0.016699512 0.336484 0.28509727 -0.008904198
000190 ac 31 8e be 37 48 6a bd 15 7e dc be 6d 53 b7 3d
       -0.27772272 -0.057197776 -0.43064943 0.08951459
0001a0 a1 49 53 3e b7 16 b4 be 6b fd 5f 3e 6c fc 34 3e
       0.20633556 -0.3517358 0.21874015 0.17674416
0001b0 f4 71 81 bd 98 e5 ae 3e 2a ce b5 be 14 a7 6d 3e
       -0.06320563 0.3415954 -0.35508853 0.23208266
0001c0 bd 96 b3 be d4 6b a5 bb 79 df 8c 3e be a6 52 3e
       -0.35075942 -0.0050482545 0.27514246 0.2057142
0001d0 76 73 4a 3e d2 2c 5c be b8 dd ad be 3a 9d 44 3e
       0.19770607 -0.21501473 -0.3395822 0.19200602
0001e0 ce 71 47 be b4 b8 78 3e a6 e1 e1 be 00 4d 11 bd
       -0.19477007 0.24289209 -0.4411747 -0.035473824
0001f0 6f 51 dd be e7 17 c1 be 80 59 d9 bd 68 1d d6 3d
       -0.4322619 -0.3771355 -0.10612774 0.104548275
000200 9a 14 a6 be 7a 9f e3 3e d4 9a be 3d e7 35 5b be
       -0.32437593 0.44457608 0.09306875 -0.21407281
000210 bb 9c ba 3e 0b e6 0d 3e da 14 79 3d 43 5b b5 be
       0.364477 0.13857286 0.0608109 -0.3542119
000220 f0 61 bf bc 70 0f e0 3d 15 19 df be 05 af 90 be
       -0.02336213 0.109404445 -0.43573824 -0.2825853
000230 9a 33 8c be 8d 35 1a 3e 02 ec 09 bd cb 60 0b 3e
       -0.2738312 0.1505949 -0.03367234 0.13611142
000240 48 41 2d bc 72 d7 12 3c 59 1b ca bd 31 b0 11 be
       -0.010574646 0.008962499 -0.098684974 -0.14227368
000250 2c ba 95 bd f0 80 7f 3e 6f c5 4b be f2 2f c9 be
       -0.073109 0.2495153 -0.19899534 -0.39294392
000260 d1 d2 22 3d 60 ea ad 3d 68 b1 ee 3d 5b 33 ab be
       0.03975183 0.08491969 0.11654931 -0.3343762
000270 3b 7b a9 3e 77 fa 0c 3e be f5 3f be e0 6b 0a be
       0.3310183 0.1376742 -0.18746087 -0.13517714
000280 dd 24 b9 3e 64 f3 36 be 16 0d 1f be 1a 86 b9 be
       0.36160937 -0.17866284 -0.15532336 -0.36235124
000290 a8 fd 65 3e 00 55 90 bc 00 b6 c5 3d e4 96 22 3e
       0.22460043 -0.017618656 0.09653854 0.15877873
0002a0 5a 99 96 be a0 f1 7a 3e 45 b4 4f bd 4f 20 37 3e
       -0.29413873 0.24506235 -0.050709028 0.17883419
0002b0 64 49 42 3e c5 4d 86 be d6 2a b1 3e da a6 d9 be
       0.18973309 -0.26231208 0.34602994 -0.4251011
0002c0 c0 45 32 3e 48 8b 29 be a6 09 a5 3e 54 3a c0 bd
       0.1740942 -0.16557038 0.32233924 -0.09386125
0002d0 f1 63 87 be 20 e7 68 bd 7c c2 d7 3e 70 54 58 3e
       -0.26443437 -0.056861043 0.42140567 0.2112596
0002e0 0c 30 b6 be e0 b8 a7 be 97 af be 3d 0d 5b 88 3e
       -0.35583532 -0.32758236 0.09310835 0.26631966
0002f0 af 8e f0 be be e6 ea 3d c2 67 a3 3d 9f ab a1 be
       -0.4698386 0.11469792 0.079787746 -0.3157625
000300 25 2d 6b bd 96 60 86 be 6b 64 b0 bb 0b e6 de be
       -0.0574161 -0.26245564 -0.0053830645 -0.43534884
000310 84 06 d4 3e c0 70 ef 3c e9 a4 8d be 9e f2 a2 be
       0.4141122 0.029228568 -0.2766488 -0.31825727
000320 ef 71 99 bb af 1c a3 3e f6 aa 6a 3e 42 ce 38 be
       -0.0046827714 0.3185782 0.22916779 -0.18047431
000330 58 63 72 3e f0 ef de 3c 6a e2 d1 3e b0 7b e7 bd
       0.23670709 0.02721402 0.40993053 -0.113028884
000340 a4 3c 07 3e 3c 9c 84 be 42 fe 0e be f5 d9 21 be
       0.13206726 -0.25900447 -0.13964179 -0.158058
000350 a8 b4 0b bf 37 6d 5a 3e 5c 9e 89 be 9a b6 72 3e
       -0.54572535 0.21330725 -0.2687863 0.2370247
000360 5a 13 b8 be f2 0e 95 be 86 b2 82 3e 87 c5 a1 be
       -0.35952264 -0.29112965 0.25526828 -0.31596014
000370 e4 80 f1 3d 8b 27 96 bd 1c ce 14 bd 8e 09 a0 3d
       0.11792162 -0.07331761 -0.036329374 0.078143224
000380 d1 84 3d 3e 86 21 4a 3e 57 df 85 3e b9 d1 a1 be
       0.18507697 0.1973935 0.26146957 -0.31605318
000390 bd 21 bb 3e 56 14 91 be b5 2d de bd d1 68 fa bd
       0.36549178 -0.28335828 -0.10848562 -0.122270234
0003a0 fe 75 ab bd e7 bc f0 be 25 d1 96 3e 10 1d 4a be
       -0.083721146 -0.4701912 0.2945644 -0.19737649
0003b0 02 06 ad be 12 15 1a 3e d9 f3 ea bd 96 09 4c be
       -0.33793646 0.150471 -0.114722915 -0.19925532
0003c0 bc a4 b0 be 1c 7b 37 bd 7f 44 b9 3e 83 cb 0d be
       -0.34500682 -0.04479514 0.3618507 -0.13847165
0003d0 b2 93 42 be 03 f3 c3 be 40 77 86 bb 04 5c 88 3e
       -0.19001654 -0.3827134 -0.004103571 0.26632702
0003e0 78 19 a4 3e 95 f8 c3 be c4 a9 01 3e 97 16 08 be
       0.3205068 -0.3827559 0.12662417 -0.13289867
0003f0 62 eb 97 be 4a 3c b1 be 57 7c ec be 34 b4 71 be
       -0.2967177 -0.3461631 -0.46188614 -0.23603898

net.0.bias f4 [256]
000000 4c cf e4 be 78 af ac be ab 15 da bd b0 53 99 3d
       -0.44689405 -0.33727622 -0.10648664 0.07486665
000010 94 98 de bd 8c 60 7f 3e f7 11 39 3e 21 84 8b 3e
       -0.10868946 0.24939173 0.1807326 0.27249244
000020 70 2a 64 be 8c bb 58 3e 81 44 a5 be 8e 46 61 3e
       -0.22281814 0.21165293 -0.32278827 0.2199957
000030 b8 8f d0 bc 35 72 d5 be df eb 35 bd af ed 5e bb
       -0.025459155 -0.41688696 -0.044414397 -0.0034016182
000040 a7 07 9d 3d 9c a2 c2 3e a3 db 74 3e f9 c4 12 be
       0.07667475 0.38014686 0.2391191 -0.14332952
000050 9c ac e0 bd 08 30 2e be ee 7e 39 bd 57 e4 c7 3e
       -0.109704226 -0.1701051 -0.045287065 0.39041397
000060 84 b8 d1 be 35 e5 d0 be 9c e0 76 be b4 d1 3c 3e
       -0.40961087 -0.4079987 -0.24109119 0.1843937
000070 61 06 70 3d e0 44 6b be 21 78 81 3e 2c b0 fb 3d
       0.058599833 -0.22975492 0.25286964 0.122894615
000080 aa b9 95 bb e4 e6 96 be 06 b1 e1 bd 98 09 43 bd
       -0.004569252 -0.2947303 -0.11020093 -0.04761657
000090 d0 cc 8f be f4 5f 48 3d 33 8a 9b 3d 10 8f 7b be
       -0.28085947 0.048919633 0.07594719 -0.24566293
0000a0 1d 97 5f be ce 28 bc be d2 61 a8 3e 81 a8 e3 3e
       -0.21834989 -0.36749882 0.3288713 0.44464496
0000b0 79 7e d5 be ae aa 92 3e 0d 79 23 3e 20 e2 e7 3d
       -0.41698053 0.28645843 0.15964146 0.11322427
0000c0 58 2c 6b be ba 39 81 be 78 22 b5 3e 4d 9d d9 bc
       -0.22966135 -0.25239354 0.3537786 -0.026564265
0000d0 7c b0 58 bd 80 64 14 3f 47 26 81 3e 67 57 c3 bd
       -0.052902684 0.5796585 0.25224516 -0.09538155
0000e0 11 a2 e9 be 26 68 3d be 35 17 93 3e 83 d6 e7 ba
       -0.4563146 -0.1849676 0.28728643 -0.0017687831
0000f0 65 90 86 3e 2c 1d 93 bd 8d 96 fd 3d 69 8f 0e be
       0.2628204 -0.071832985 0.12382231 -0.13921894
000100 a1 91 42 be e4 1a 20 bc c7 28 60 be ee 90 bf bd
       -0.19000866 -0.009772036 -0.21890555 -0.09353815
000110 90 2e f2 bc 71 62 3e be 29 51 8e bd 45 07 f7 3d
       -0.029563218 -0.1859224 -0.06949074 0.120619334
000120 1e 1c 89 be 50 6b 26 bd 96 ff 02 be ec b2 2a be
       -0.26779264 -0.040629685 -0.12792811 -0.16669816
000130 07 6c db 3d e5 e3 00 3d ba 1b e1 be ee d7 4c be
       0.10713964 0.031467337 -0.43966466 -0.20004246
000140 cc 97 45 be 1d 6d 97 3e a6 aa 3e be 70 f8 a7 3d
       -0.19296187 0.29575434 -0.18619785 0.082016826
000150 7c 97 4f 3e 7d cc 74 be 6d 15 94 3e 87 98 fa be
       0.2027263 -0.23906131 0.28922597 -0.48944494
000160 ec 13 52 be ba 75 81 be 4c 65 37 3e 9a f5 a4 bd
       -0.20515412 -0.2528513 0.17909735 -0.08054657
000170 29 b8 80 be 39 ef a7 be 15 ab 68 3e cb 38 56 be
       -0.25140503 -0.327997 0.22721513 -0.20920102
000180 96 0d 4a be 3e f9 29 be 02 35 90 3e d8 5f 5c be
       -0.19731745 -0.16598985 0.28165442 -0.21520936
000190 00 24 54 bb 13 70 fc 3d 27 3e 0e be 07 de 3e 3e
       -0.003237009 0.12326064 -0.13890897 0.18639384
0001a0 5d e1 dc be 66 1a 8a be 48 4c d1 be 16 f4 a8 be
       -0.4314069 -0.26973265 -0.4087851 -0.32998723
0001b0 07 10 38 3e d4 a3 aa be 36 04 9a be 26 e7 b3 3e
       0.17974864 -0.33328116 -0.30081338 0.3513729
0001c0 2b cb 31 be a0 6b 1a bd 69 5f 5b 3e ba 39 8a 3e
       -0.17362659 -0.037700295 0.21423115 0.26997167
0001d0 86 6f 82 3d 31 28 7a be 9c 9e 14 3e 91 17 b7 3e
       0.06368928 -0.24429394 0.1451363 0.35760167
0001e0 95 25 64 be d4 34 2f be 8a 22 9e 3e e4 d6 91 be
       -0.22279961 -0.17109996 0.30885726 -0.2848426
0001f0 6e 7f a9 3e c0 74 4d be 51 a4 70 be 31 43 d4 bc
       0.33105034 -0.20064068 -0.23500182 -0.025910946
000200 ec 16 6f be d1 ac 80 3e 89 c1 77 be 62 0c 49 be
       -0.23348588 0.25131848 -0.24194922 -0.1963363
000210 b4 9a 97 bd 38 60 85 be a4 5a 62 3e d8 3c 9e 3e
       -0.07402554 -0.26049972 0.22104889 0.30905795
000220 10 8c d9 be 12 05 59 3e 37 d5 f8 3d 3e c9 62 be
       -0.42489672 0.2119334 0.121500425 -0.2214708
000230 8d 92 93 3e 08 4c 5e be 60 3b fe 3d 80 7b 62 bd
       0.28822747 -0.21708691 0.12413669 -0.05529356
000240 12 b3 3c 3e a6 55 58 be 6a 27 ba be 25 8f 18 be
       0.18427685 -0.21126422 -0.36358196 -0.14898355
000250 6e c1 44 be 40 b7 67 3c 0e 40 88 3e f0 46 a4 be
       -0.19214413 0.014142811 0.2661137 -0.3208537
000260 f2 85 09 3e 35 86 56 3e 71 88 d1 3e 8e ef 66 3d
       0.13430002 0.20949633 0.4092441 0.0563808
000270 c2 1b 30 3e d8 ac bb 3e 44 b5 a6 be 28 d7 87 3e
       0.17198089 0.36655307 -0.3256017 0.2653134
000280 2a a6 1e 3e 44 20 9c be 99 63 d3 be 3d e0 ae bc
       0.15493074 -0.30493367 -0.41286924 -0.02134716
000290 54 7f 21 be 76 43 39 be e0 5d 7d 3c 93 45 bd 3e
       -0.15771228 -0.1809214 0.015464276 0.36967143
0002a0 9b 5b db be bc 5f c0 3e 13 aa 70 3e 0a 73 9f bd
       -0.42843327 0.3757304 0.23502378 -0.07785614
0002b0 8d a3 d3 be 0c 1c 8b 3d bf c5 16 3e 54 7a 93 be
       -0.41335717 0.06792459 0.14723872 -0.28804266
0002c0 18 83 21 be 22 2d e2 3b 74 37 4b 3e 4c 75 9c be
       -0.15772665 0.006902353 0.19845372 -0.3055824
0002d0 71 f5 0f be 78 23 c9 be a4 f3 86 bd 4b 9a ab 3d
       -0.14058472 -0.39284873 -0.065894395 0.083790384
0002e0 e0 8e 2e 3d 48 ab 72 bd aa d8 33 3d 3e 68 eb be
       0.042616725 -0.059245378 0.0439078 -0.45977968
0002f0 1b 54 b1 be 85 80 1a be 04 70 24 be c8 00 c1 3d
       -0.3463448 -0.15088089 -0.16058356 0.09423977
000300 93 80 98 be 16 20 9b 3e ab 01 d8 be 35 c8 21 be
       -0.29785594 0.30297917 -0.42188773 -0.15799029
000310 75 46 87 be 22 52 bc 3e ca 66 fc 3c f3 78 a2 3d
       -0.26420942 0.36781412 0.030810732 0.079332255
000320 d0 b5 1e be e3 8f e8 bc 16 70 9b be 43 cf dd 3d
       -0.15499043 -0.028388923 -0.30358952 0.10830548
000330 9b 54 fc 3d 5c 92 28 bd 08 0d c2 be de d5 da be
       0.12320825 -0.041155204 -0.37900567 -0.42741293
000340 8c fa 53 3b 9a f6 59 be f4 27 c1 be 48 bf 4c 39
       0.0032345382 -0.21285477 -0.37725794 0.00019526214
000350 d3 50 84 3e 13 2f 97 3e e9 7a 79 be 4f fc 4c be
       0.25842914 0.29528102 -0.24363293 -0.20018123
000360 e0 61 67 bd 46 3d b5 3e d0 d2 f5 bd 7e be 1d be
       -0.056489825 0.3539831 -0.120031 -0.15404698
000370 d9 e2 db 3e da 5f 0d 3d 15 a6 92 be c2 4e 59 3e
       0.4294651 0.03451524 -0.28642336 0.2122145
000380 14 f3 ae bd 20 97 49 be d0 7e 21 be 73 ac 13 3e
       -0.08542457 -0.19686556 -0.15771031 0.14421253
000390 30 cc 26 bd bc 93 92 3e 04 8d aa be f3 30 97 3e
       -0.040722072 0.28628337 -0.3331071 0.29529533
0003a0 28 62 e2 3e dc 01 4d 3e 07 bc 8b 3e 57 9e 4a 3e
       0.44215512 0.2002024 0.2729189 0.19786964
0003b0 b4 5c 09 3e ad 22 c8 3d c0 8c 7c be 7e 3c 9c bd
       0.1341427 0.09772239 -0.24663067 -0.076287255
0003c0 db 1e af be 35 b9 57 3e ad 30 b5 be 19 a4 10 be
       -0.34203228 0.21066745 -0.353887 -0.14125098
0003d0 b7 da 87 3e 07 8d ba be f1 15 27 3e 5b a1 50 be
       0.26534054 -0.3643572 0.16316964 -0.20374052
0003e0 db 0c 01 3f 6b 5e a5 3e 2d 64 a5 3e a3 0f a8 be
       0.5041024 0.32298598 0.3230299 -0.3282443
0003f0 7e 9a c0 be 04 85 25 3e 72 4c c9 3d 0b 05 33 3d
       -0.37617868 0.16164023 0.09829034 0.04370598

net.2.weight f4 [256, 256]
000000 5a 5f 75 bd 10 db 84 bd 56 a1 19 bd 00 41 ae bd
       -0.059905387 -0.06487095 -0.037507378 -0.085084915
000010 00 be 00 3d 25 2c 3d bd e1 3a f0 bd 63 08 ff bd
       0.031431198 -0.046184678 -0.1172998 -0.124527715
000020 04 58 e8 bc da 4c 84 bd 1b 8c 82 3c 92 50 80 3a
       -0.028362282 -0.06459971 0.015935948 0.0009789637
000030 dd 46 83 3c c0 da d5 3b 3a 08 9f bd 75 73 4d bd
       0.016025001 0.006526321 -0.07765241 -0.050158937
000040 3a 45 c8 bc af 95 85 bc 16 68 ad bd 18 92 08 bc
       -0.024447072 -0.016306726 -0.084671184 -0.008335613
000050 51 39 ef bd 8c 26 55 ba 34 cc 24 bd c6 7d 87 bd
       -0.11680854 -0.0008131049 -0.040233806 -0.06615786
000060 f2 e7 55 3d 98 3b ea bc f4 c5 7b bd 8a 8b 14 bd
       0.052223153 -0.02859287 -0.06146808 -0.036265887
000070 47 7c 41 bc f9 bb e7 bd d7 a3 7b bc ec ae 25 3d
       -0.011809415 -0.1131515 -0.015358887 0.04045002
000080 a2 8e 5d bc 88 e1 62 bc 13 96 fe 3c b0 38 4d 3d
       -0.013522776 -0.013847716 0.03107742 0.05010289
000090 64 d0 35 bd 39 c5 38 bd e4 48 b0 bd 24 fc 58 bd
       -0.04438819 -0.04510996 -0.08607653 -0.052974835
0000a0 53 c0 fc 3c fc 69 ff 3c 49 97 cc bc 9e 47 e3 bc
       0.030853426 0.031178467 -0.024974482 -0.02774411
0000b0 03 f5 87 bd fa b3 5c bd 05 ed aa bc b2 6e 58 bd
       -0.06638529 -0.053882577 -0.020864973 -0.052839942
0000c0 52 08 6e bd b2 5d 1b bd f4 36 2a bc ff 37 6d bd
       -0.058113404 -0.03793115 -0.010389078 -0.05791473
0000d0 b8 f6 39 bd 2d eb f2 bd ba 76 1b bd af 77 a0 bd
       -0.045401305 -0.118612625 -0.037955023 -0.07835328
0000e0 ae a9 5a bd be 0e 9c bd 72 a9 01 bd 5b 2e d0 bd
       -0.053384475 -0.07619999 -0.031655736 -0.101650916
0000f0 85 e2 2f 3d 3d e9 6e 3c 8f 4f aa 3d 7f 7f 42 bd
       0.042940635 0.0145819755 0.08315956 -0.04748487
000100 ff f1 0b bc 5d 4d 91 bd 2b c4 b0 bc 7e 61 c8 bd
       -0.008541583 -0.07094834 -0.021577915 -0.0978422
000110 bc 7a 41 3d 97 32 10 bc ad f6 04 be 33 60 d3 bc
       0.04723619 -0.008801124 -0.12984724 -0.025802707
000120 ba 27 2c bd 50 b7 d8 bc 60 7b 1f bd a6 0c 9f 3c
       -0.042030074 -0.026454598 -0.03893602 0.019415211
000130 9f db 65 bd 6d 7b c2 bc 58 d6 10 bc 10 96 ef 3b
       -0.05611765 -0.023740495 -0.008840166 0.00731159
000140 e5 b6 0c be b8 20 5b bc 35 f1 f2 bb a0 1b 66 bb
       -0.13741644 -0.0133745 -0.007414008 -0.003511168
000150 63 08 b9 bb 88 70 49 3d 96 aa 2f bd e0 ba 2a 3c
       -0.0056467517 0.049179584 -0.042887293 0.010420531
000160 e4 01 02 bd 56 5b fa bd e3 a5 05 be a5 97 af 3c
       -0.031740084 -0.12224452 -0.13051562 0.021434614
000170 3b d8 dd bc ca 41 a5 3c 18 2b 96 bd 2a 15 b7 bd
       -0.027080646 0.020172972 -0.07332438 -0.089395836
000180 32 b9 be bd 38 12 2b bc 28 72 d9 bc 21 8b 17 bb
       -0.09312667 -0.010441355 -0.026543692 -0.0023123699
000190 a2 5b 2f bd 5a 41 9d 3b 1b b1 2b bd e4 3c 6c bd
       -0.042811997 0.0047990503 -0.041916948 -0.057675257
0001a0 56 bf 1c bd 30 c9 5d bc 40 e1 02 bb da 14 79 bd
       -0.03826841 -0.013536736 -0.0019970685 -0.0608109
0001b0 70 c2 1d bd a5 30 24 bd b0 b9 6f bd ad 81 03 be
       -0.03851551 -0.040085454 -0.058526695 -0.12842436
0001c0 b1 40 94 bc 00 ed 86 b9 5f 70 6c 3c b0 aa e2 bc
       -0.018097254 -0.0002573505 0.014431088 -0.02766928
0001d0 fd 8f 8b bd 2e 63 09 3d ec 11 93 3c f9 12 e0 bd
       -0.06814573 0.03354185 0.017952882 -0.10941119
0001e0 08 32 79 bc 70 34 5a bd 43 e0 a6 bd 4a 7c a7 bc
       -0.015209682 -0.053272665 -0.08148243 -0.020445008
0001f0 0d 38 2f bd cd 54 4f bd ec cc 47 bd 55 6e ab bd
       -0.042778064 -0.05061798 -0.048779413 -0.083706535
000200 74 26 74 3d 33 53 30 bd ad 9b cc bd 42 9b 5b bd
       0.059606984 -0.043048095 -0.0999063 -0.053614862
000210 e0 69 75 3c c8 6a 1a bc cd 5b 18 bd 0d 47 fd bd
       0.014978856 -0.009424873 -0.037196923 -0.123670675
000220 c6 7f 48 bd 22 1c 93 bc a9 7b d0 3c 28 ec 62 3c
       -0.04894998 -0.01795775 0.02544959 0.013850249
000230 9b 65 b0 bd 35 02 ae bb a1 5d 57 bd d2 c9 15 bd
       -0.0861313 -0.0053103217 -0.052579526 -0.036569424
000240 1c c1 ad bd b8 1c ad bd a8 a0 f8 3c 98 33 e0 bd
       -0.08484098 -0.08452743 0.030350044 -0.10947341
000250 e0 b5 ed bc 70 16 ef 3c d0 9e 88 3c 54 ee 21 bd
       -0.029017389 0.029185504 0.01667729 -0.039533928
000260 53 3d a1 bc 68 2b 25 bd f0 ec 9a 3c 3d 38 14 bd
       -0.019682562 -0.0403246 0.018911809 -0.036186446
000270 bc f2 01 be d7 8c 04 be ba 7e 4b 3d 85 0e 2e bc
       -0.12690252 -0.12944351 0.049681403 -0.010623579
000280 21 32 db bd 9a 2d 23 bd f9 49 bd bc d7 96 ad bd
       -0.10702921 -0.03983841 -0.023106562 -0.08476036
000290 88 e1 11 3c 52 51 38 3d 8e 6f 77 3d 64 9d bc bd
       0.0089038685 0.044999428 0.06040912 -0.092097074
0002a0 84 44 64 3c 81 37 0e ba b7 f9 0e bd 6b c9 dc bc
       0.013932351 -0.0005425141 -0.034906115 -0.026951512
0002b0 10 2f 56 bd d8 c5 58 bd 77 44 3d bc ac 74 0f 3d
       -0.052290976 -0.052923054 -0.011551968 0.035023376
0002c0 e2 82 a5 bd f7 90 a8 3b cb 51 99 bd ab 75 da 3c
       -0.080816045 0.0051442343 -0.07486304 0.026667437
0002d0 0e 72 13 bd c0 00 0f bb fc 6a 2b 3d 69 d9 09 bd
       -0.035997443 -0.0021820515 0.041850075 -0.033654604
0002e0 74 75 3b 3d 60 9a 21 bc 1e 38 8b bd 02 dd 81 bd
       0.04576631 -0.009863466 -0.06797813 -0.06340982
0002f0 ce 48 5a 3d 16 6e 40 bc c4 4e 8d bd 7b d3 10 bd
       0.05329209 -0.0117449965 -0.06899789 -0.035357933
000300 fc e4 e0 3c f2 0e 6e bd 4f 58 c0 bd 8b f8 9e bd
       0.027452938 -0.05811972 -0.093918435 -0.077622496
000310 66 ee 07 bc 7e 87 74 bc df 21 ab bd 0e 23 1e bc
       -0.008296585 -0.014924882 -0.0835607 -0.009651912
000320 50 78 eb bb 17 2b 11 3d be bb 18 bd b0 6a c2 3c
       -0.007185973 0.035441484 -0.03728842 0.023732513
000330 c4 4f b0 bc dd f1 e8 bd d8 36 e6 3c de 4d 4d bd
       -0.02152241 -0.11374257 0.028102323 -0.050123088
000340 3f a3 a2 bd 18 3d 20 3d 46 1a 6c bd 3a 59 6c bd
       -0.07941293 0.039120764 -0.057642244 -0.05770228
000350 95 ad 4e bd 36 ab c5 bc 5d 91 34 bd c0 65 92 bb
       -0.05045851 -0.024129491 -0.04408394 -0.004467696
000360 70 0e f7 3b bb 30 ee bd 0f 9a a7 bc b1 e9 b1 3d
       0.007539563 -0.11630388 -0.020459203 0.08687151
000370 5b c3 b9 bd fb 91 61 bb cb d8 b3 bd 6f 70 11 bd
       -0.09070464 -0.0034419287 -0.08781584 -0.035507616
000380 d0 ad ec 3b 70 c5 52 bd 26 32 43 bd df cd 84 bc
       0.0072228685 -0.051457822 -0.047655247 -0.016211448
000390 88 8c 47 3c 7b f8 4d bd 70 1d 7e bd 03 13 5e bd
       0.012179501 -0.050285798 -0.062039793 -0.05421735
0003a0 0a 3b 0b be e6 c1 4d 3d bf 59 f0 bd e0 5b 75 bb
       -0.1359674 0.050233744 -0.11735868 -0.0037438795
0003b0 fc 8c 9d bd 44 a4 a3 bd 61 29 ec bd 8e 54 18 bd
       -0.07692906 -0.079903156 -0.1153133 -0.037190013
0003c0 04 3a 95 3c c5 bc 69 bd a5 46 e2 ba 54 c4 36 3d
       0.01821614 -0.05706479 -0.0017263485 0.044620827
0003d0 e4 f9 53 bb 6e 6a 8c bd 51 50 c2 bd c4 df 19 3a
       -0.0032344991 -0.06856237 -0.094879754 0.00058698305
0003e0 2e 74 c7 bd b1 c3 f4 bd f1 f4 6c bd d5 1e 9c bd
       -0.097389564 -0.11951388 -0.05785078 -0.07623068
0003f0 e2 2a 59 bd 77 a4 e0 bd 17 3b 9a 3c 6b 7f 0f be
       -0.05301941 -0.10968869 0.018827004 -0.1401345

net.2.bias f4 [256]
000000 4c aa f7 bd 7f 70 99 3c 66 60 0b 3d 00 9d cb 3b
       -0.120930284 0.0187304 0.03402748 0.006213784
000010 d4 02 77 bd 35 a9 8b bb 58 59 0b 3c d1 69 16 bd
       -0.06030543 -0.0042621144 0.008505188 -0.03672201
000020 8c 48 38 bd 44 dd 1d bd ac d6 12 3d 6d 46 d6 3c
       -0.04499106 -0.038541093 0.03584926 0.026156629
000030 2d 57 ce bc 2c 75 86 3c f1 a1 0c be 8a ba ec 3c
       -0.025188053 0.016413294 -0.1373365 0.028897543
000040 49 69 73 bd 7e 2d 23 3b 98 ad d4 bc 61 d3 c7 bb
       -0.05942658 0.0024898942 -0.025961682 -0.0060981964
000050 a1 2e 36 bd 12 02 f9 bc 78 0a 2b bd 58 c4 f6 bd
       -0.044478063 -0.030396495 -0.04175803 -0.12049168
000060 42 89 d8 bd bc 87 5d 3d 3d f1 ec bc 51 0d 94 bc
       -0.10573055 0.054084525 -0.028923625 -0.018072756
000070 a0 53 c9 bd be f9 8b bd 47 f4 6c 3d f0 9d 11 bc
       -0.09830403 -0.06834744 0.05785015 -0.008887753
000080 c2 2c 22 bc 52 eb a1 bd 14 90 e7 3b e7 c1 19 bc
       -0.009898366 -0.07906212 0.007066736 -0.009384609
000090 54 9a 39 bc 98 c9 76 bd 28 3e 60 bc 70 19 8f bc
       -0.011328299 -0.06025085 -0.013686694 -0.017468184
0000a0 9c 10 8e bd 28 c7 d4 bc 8a ae c9 3b a9 7c b0 bd
       -0.06936762 -0.025973871 0.00615484 -0.08617527
0000b0 5c c8 ae 3a 3f c8 b4 bc 48 fb 29 bd 96 11 14 bd
       0.0013334858 -0.022068141 -0.041499406 -0.036149584
0000c0 4b 1f d3 bc 28 88 97 bd c0 f4 c5 3c cc c8 d6 3b
       -0.025771758 -0.073990166 0.024164557 0.0065546986
0000d0 74 be 56 bd 58 8b 10 bc 33 89 93 bc b8 af 2b bc
       -0.052427724 -0.008822285 -0.018009758 -0.010478906
0000e0 24 16 1e bd 68 61 6f 3c 3d d5 71 bd 37 09 4a bd
       -0.038595334 0.014610626 -0.05904125 -0.049325194
0000f0 18 38 26 bd f3 ea dd bd be fc 69 3c 20 f8 19 3c
       -0.04058084 -0.10835829 0.01428145 0.0093975365
000100 f4 5f da bc c0 89 3f 3d 56 fc 87 3b 0d 1c 25 bd
       -0.026657082 0.046762228 0.004149954 -0.040309954
000110 53 ea 8c bd df fc 2f 3b 0f 1a be bd f2 65 65 bc
       -0.06880631 0.0026853604 -0.09282314 -0.014001356
000120 7e 21 56 3d 8d a2 c4 3c 03 a3 91 3c 7e b6 d3 bd
       0.052278034 0.024003292 0.017777925 -0.10337542
000130 cf 03 ee bc cf 7f 8e bd b4 20 2a 3a 60 b0 68 3b
       -0.02905455 -0.06957971 0.00064898585 0.0035505518
000140 4f 8b 77 bd e6 4f cb 3c 4b 65 e1 bd 54 3e 0a 3d
       -0.06043559 0.024818372 -0.11005648 0.033750847
000150 ce 29 7d bd 2a 75 b0 bd 1c e5 a9 bd 4c 07 b1 bc
       -0.061807446 -0.08616097 -0.08295652 -0.021609925
000160 36 e3 0d be b2 da a3 bc da 02 b0 bc 3f 46 7e bd
       -0.13856205 -0.020001743 -0.021485735 -0.06207871
000170 fe 3d 22 bd 24 20 20 3d 29 05 8b bd 08 5a 04 bc
       -0.0396099 0.03909315 -0.067880936 -0.008078106
000180 83 d0 4b bd 26 c7 98 ba 05 6c 71 bd b2 d9 9c 3c
       -0.0497594 -0.001165603 -0.058940906 0.019146774
000190 49 57 72 bd 85 c4 07 bd a1 e5 2a bd 77 92 22 bb
       -0.059165273 -0.0331464 -0.041722897 -0.0024806538
0001a0 ce 53 8b bc 1f 66 07 bd 24 26 0f bc aa 5a e1 bc
       -0.017007735 -0.033056375 -0.008737121 -0.027509052
0001b0 59 d0 27 bd 79 8d d5 bd 1a 98 76 3e 7d 28 c8 bd
       -0.04097018 -0.104273744 0.2408146 -0.097733475
0001c0 4c 6e 70 3d 52 cc 7b bd bc e8 eb bc 7e 62 57 bd
       0.058698937 -0.061474152 -0.0287975 -0.052584164
0001d0 b6 97 55 3c e8 68 68 bb 0e 62 e9 bd ae ce da bd
       0.013036659 -0.003546292 -0.113956556 -0.10683952
0001e0 92 5b 17 3d 17 8f 54 3c a0 11 56 3b 2c ea f3 3c
       0.036952563 0.012973568 0.0032664314 0.029774748
0001f0 f2 99 34 bd 60 b2 60 bc c3 2d 59 bd d4 ae a9 3d
       -0.044092126 -0.013714403 -0.053022157 0.08285299
000200 d0 4f 52 bc e6 f5 9e 3a bf b3 d1 bd c8 ce 71 bc
       -0.012836412 0.0012127727 -0.10239362 -0.014758773
000210 54 b9 04 bb 50 04 8b 3b d9 f9 28 bd 64 34 13 bd
       -0.0020252066 0.0042424574 -0.0412539 -0.035938635
000220 0f b8 50 bb 81 06 1e bc c0 7c 46 bd e6 bc 05 bd
       -0.0031847989 -0.009645105 -0.048458815 -0.03265085
000230 4a 26 25 3d 8d 3b d4 bd a1 e8 40 bd cb 12 82 3b
       0.04031972 -0.10362921 -0.047096852 0.0039695255
000240 7d 57 c0 bd 93 91 5e 3c 93 d0 f3 bd 7d d7 a0 bd
       -0.09391687 0.013584512 -0.11905017 -0.07853601
000250 08 2d 60 bd 9a 5f 21 bd dc ec 1d bd 24 c6 4e bd
       -0.054730445 -0.039397813 -0.038555965 -0.05048193
000260 14 89 64 bd 3e 51 54 bd bc 28 90 3d 66 d2 45 bd
       -0.05579479 -0.05183529 0.070390195 -0.048296355
000270 de 5c e3 bd 80 0e a6 bb 58 7f 9d bd 0f 05 18 3d
       -0.111016974 -0.0050676465 -0.076903045 0.0371142
000280 92 f6 2d bd ba 7b 65 3d 08 b5 2e 3c fe 2c 13 bd
       -0.042471476 0.056026198 0.010663278 -0.03593158
000290 41 0f ce 3c 56 9f 53 bd fd c6 92 bc f8 22 71 bc
       0.025153758 -0.051665626 -0.01791715 -0.01471781
0002a0 7d 5a 95 bd f8 fb 71 3d d0 e2 1d bd 3e 6a 90 bc
       -0.0729265 0.059078187 -0.038546383 -0.017628785
0002b0 08 83 fa bc 32 fb 0a 3d 1c 47 c1 bc 7f f2 f6 bd
       -0.030580059 0.033930965 -0.023593478 -0.12057971
0002c0 77 9c 61 bd 05 f2 b3 bc 53 1f ae bd 3e ed 7c bd
       -0.055080857 -0.02196599 -0.08502068 -0.06174969
0002d0 4e 6b ff bc 87 14 7b 3d 66 4e 69 bd b3 d0 ef bd
       -0.031179097 0.061298873 -0.056959532 -0.11709728
0002e0 c1 7a 46 bc 98 02 5b bc 34 b6 f6 3c a5 8e 05 bc
       -0.012114228 -0.013367318 0.030116178 -0.008151685
0002f0 a8 a3 69 3d 03 fb a2 bd ca 71 08 3c b4 01 78 bd
       0.05704084 -0.07958033 0.008327911 -0.0605485
000300 e0 c5 6f 3c fb 4f cf 3a df d2 90 ba d0 8e c7 bd
       0.014634579 0.0015816683 -0.0011049173 -0.09744036
000310 19 0a 93 bd b4 d8 5c bd 30 f2 c8 bd dc 2a db bd
       -0.0717966 -0.0539176 -0.098118186 -0.10701534
000320 a5 18 74 bd 70 43 b2 bc 0e e8 8d bd b0 8c 20 3c
       -0.059593815 -0.021760672 -0.069290265 0.0097991675
000330 46 33 d2 bd 8a 91 e2 bc 72 16 01 3d ee 2d d2 bd
       -0.10263686 -0.027657289 0.031515546 -0.10262667
000340 1c d6 83 bc 38 05 52 bd 6f 71 e2 3c 13 9d 6f 3c
       -0.016093306 -0.05127451 0.02764198 0.014624852
000350 ac aa 95 bd 40 37 88 bb 16 21 c7 bd 29 f0 1d 3b
       -0.07307944 -0.004156977 -0.097231075 0.0024099445
000360 79 94 dd bd 77 50 8f bd 95 17 14 bd c0 8b 61 bb
       -0.108193345 -0.06997769 -0.036155302 -0.0034415573
000370 36 4f 17 3b 00 6a 3f bc 28 3e 8f bd 10 66 85 3c
       0.0023087985 -0.011682987 -0.06994277 0.016284019
000380 e2 15 98 bd 71 c7 8b bd 90 70 5f 3c ef 49 62 bc
       -0.07426049 -0.0682515 0.013637677 -0.013811572
000390 9e d6 4e bd ee 2e 09 bd 2a f4 b3 3b c6 26 7b bc
       -0.050497644 -0.03349202 0.005491753 -0.0153290685
0003a0 bc 16 b1 bd 6c 42 79 bd 2c 00 f3 3c 4c 7b 8f bc
       -0.08646914 -0.06085436 0.029663168 -0.017514847
0003b0 c4 f5 66 bd 71 c1 5c bd 4f 92 23 bd 20 02 75 bd
       -0.056386724 -0.053895418 -0.039934453 -0.05981648
0003c0 31 ea 3d bd 8b 50 96 bd 43 36 82 bd e0 a5 57 3d
       -0.04636592 -0.07339581 -0.06358006 0.052648425
0003d0 5d c3 f0 bd 31 26 09 bd f7 df 2c bc 4a 0e 45 3d
       -0.117560126 -0.033483688 -0.010551444 0.04810933
0003e0 08 12 5f 3d 13 02 2e bd 3f 43 ca 3d a2 4d ab bd
       0.054460555 -0.042482447 0.098761074 -0.08364417
0003f0 dc 12 f3 3c 46 5d 73 3d 2f 16 9f bd 1b 5c 72 bd
       0.029672079 0.059415124 -0.07767903 -0.05916987

net.4.weight f4 [2, 256]
000000 3c fd 28 3c a9 4b 1d 3a ae 03 15 bd 80 cb 38 bd
       0.010314282 0.0006000349 -0.036380462 -0.045115948
000010 d8 5f 8a 3c 29 7a 1a 3d c2 f1 37 3d e4 f4 56 3a
       0.016891405 0.037714157 0.044908293 0.00081999437
000020 d2 64 1d bd f8 12 08 bd 60 a0 31 bd 84 81 fe 3c
       -0.038426228 -0.033221215 -0.043365836 0.031067617
000030 f4 45 db bc 10 c6 c1 bc 38 3c b1 bd d7 38 ad bc
       -0.026766755 -0.023654014 -0.08654064 -0.021145267
000040 34 4d cc 3b 12 c4 96 bc ae e2 58 3d d4 8b e4 3a
       0.0062347893 -0.01840404 0.052950554 0.0017436692
000050 8c d7 7a bc 1c cb be 3c 8b dd 39 3c 65 27 3c 3d
       -0.015310179 0.02329021 0.011344324 0.045936007
000060 51 21 98 3c eb c8 05 3d 82 4d 2e 3c c4 05 88 3c
       0.018570574 0.032662313 0.0106385965 0.016604312
000070 80 8b 1f bd 39 86 54 3b 3a ff 8b bc d0 21 fb 3c
       -0.038951397 0.0032428636 -0.017089475 0.030655771
000080 0e 50 56 bd 88 ad b2 3b 93 bc 4d bc 97 4a 3f 3c
       -0.05232244 0.0054528154 -0.012557167 0.011675498
000090 b7 b9 85 bd e4 9f 53 3d 80 a9 8c 3d bc 93 9d bd
       -0.06529563 0.051666155 0.06868267 -0.07694194
0000a0 e8 a5 29 3d 90 7e e6 3b 28 3e b6 bc 47 51 c8 bd
       0.041417986 0.0070341304 -0.022246435 -0.097811274
0000b0 fe a3 c8 bd 4a b5 54 bd 5c 87 84 3c 7f 0b ef bc
       -0.09796904 -0.051930703 0.016177826 -0.029180286
0000c0 41 40 8d 3c db a6 73 3d 80 7e df bc d4 43 1a bd
       0.017242553 0.059485298 -0.027282 -0.037662342
0000d0 a0 4d 5d bc 3c c4 d2 bc 12 52 ce 3d 68 ef 4a bc
       -0.013507277 -0.025728337 0.100742474 -0.01238618
0000e0 6e 92 51 3d d0 1d d6 3c a6 42 92 3d 27 2e a0 3c
       0.051165037 0.026137263 0.071416184 0.019553257
0000f0 fb b9 cf 3d 8b b0 b5 bc db 85 8c bd 1c b3 f6 3c
       0.10142895 -0.022178909 -0.068614684 0.030114703
000100 da ab 9e 3d 80 25 81 ba 47 57 92 bd 02 39 55 3d
       0.07747622 -0.0009853095 -0.07145553 0.05205632
000110 ec 16 50 bb fd 79 27 bd 54 22 25 bd a8 34 2d 3c
       -0.0031751944 -0.04088782 -0.04031594 0.010571636
000120 2c 90 11 3d e4 e5 5f bd 7d 09 9d b9 a3 9a a7 ba
       0.035537884 -0.0546626 -0.00029952443 -0.0012787174
000130 e2 e7 86 3d fd 99 f9 bc b2 6d 24 bc 44 1b 79 bd
       0.06587197 -0.030468935 -0.010035919 -0.06081702
000140 00 1d bc 3c b9 ef 8f bd 8b b0 86 3c 60 30 e1 bb
       0.022963047 -0.07028145 0.016441604 -0.006872222
000150 a8 37 a6 bc 0e de 11 bd cf 03 2d bc 04 1c 84 bc
       -0.02029021 -0.03561216 -0.01055999 -0.01612664
000160 4b 94 69 3c 4a a7 4b bd e8 73 ee bb fd fd 14 3d
       0.014256547 -0.049720086 -0.0072770007 0.036375035
000170 e2 e5 39 3d 3e b4 74 bd a4 5a ae 3d 5c 28 e9 3c
       0.04538525 -0.059742205 0.08513382 0.028461628
000180 92 fe 82 3d 8c 60 8e 3d a7 58 18 bd 3c 75 10 bb
       0.06396212 0.069520086 -0.03719392 -0.0022042533
000190 b5 0e 1d bd 9c 43 00 bd bd fe 29 bd c5 c3 7f 3d
       -0.038344104 -0.031314477 -0.041502703 0.06244256
0001a0 c0 c9 b8 3c be d2 d7 bc cf 31 21 bd 8d 2e 18 bd
       0.02255714 -0.026345607 -0.03935414 -0.03715377
0001b0 24 5d e0 3c a1 0f c8 3c 9e 2e e6 3d f4 13 a2 bc
       0.027388163 0.024421515 0.1123936 -0.019784905
0001c0 70 9c b5 3c b4 3a 51 3d bd 37 2e 3c 04 45 c6 3c
       0.022169322 0.051081374 0.010633406 0.024202831
0001d0 09 37 0a 3d 97 95 01 bb 95 e9 33 3d f9 68 b6 3c
       0.033743892 -0.0019773 0.043923933 0.022266852
0001e0 ea b3 2a bd a8 20 5d bd 1c 2d 8c 3c 2c f1 72 bd
       -0.041675486 -0.05398622 0.017111354 -0.05931203
0001f0 07 80 94 bd 9c 51 24 3d b6 69 b1 bb 78 cc 12 3e
       -0.07250982 0.04011689 -0.005414213 0.14335811
000200 28 37 46 bc fd 60 5a 3d 72 07 84 3d 88 eb 83 3c
       -0.012098111 0.05331515 0.064467326 0.016103521
000210 ff bb d1 bc e8 76 3c bd a2 d3 49 bd d0 6b 06 3d
       -0.025602339 -0.046011835 -0.049274094 0.03281766
000220 05 e9 db 3c bb a3 be bd ea 46 4a 3c e3 f2 91 3c
       0.02684451 -0.09308573 0.012346009 0.017816013
000230 cf e6 12 bd 11 a2 18 3d 59 54 93 bd 71 7d a3 b9
       -0.035864647 0.037263934 -0.071938224 -0.00031183244
000240 2d 20 3c bc d0 f0 b1 3d 81 24 ef 3a 02 b6 a8 bd
       -0.011482281 0.086885095 0.0018245132 -0.0823784
000250 76 51 0e 3d 86 2f 0c 3d 78 df 7a 3d 94 60 ca bc
       0.034745656 0.03422501 0.061248273 -0.024704255
000260 0c 3f f7 bc d6 88 7c bd 8e 52 ad 3a c0 4b e3 bb
       -0.03018143 -0.061653934 0.0013223456 -0.0069365203
000270 e0 5f 42 ba d2 78 09 bd 58 e8 6e 3d c2 47 ca bb
       -0.0007414799 -0.03356249 0.05832705 -0.006173105
000280 0f 79 e8 3c 1d 2f 44 bd 60 6b 31 bd c8 4d 08 bd
       0.028378038 -0.047896493 -0.04331529 -0.033277303
000290 c4 bc 0b bc a6 db 64 bd 76 dc 96 bc 30 c3 4f 3d
       -0.008528892 -0.055873536 -0.01841567 0.050723255
0002a0 45 1a b2 bc 55 ba eb 39 9d e0 2d bd 9a 2c 98 3b
       -0.021741042 0.0004496152 -0.042450536 0.004643989
0002b0 28 e7 df bc f9 17 3e bc 2c 5a 50 bd 35 a9 66 3d
       -0.027331904 -0.011602395 -0.050867245 0.056313712
0002c0 aa 0a e4 bc 7b 26 7f 3c 62 d6 88 bc 4c da 9a 3d
       -0.027837116 0.015573139 -0.016703788 0.07561168
0002d0 8a ce 96 3d e6 09 c3 3c 58 f7 b7 bc 92 db 15 3c
       0.07363613 0.02380843 -0.02245681 0.009146588
0002e0 fe 14 44 bd 97 c7 1b 3c 1c 33 68 bd fa 78 43 bc
       -0.047871582 0.009508035 -0.056689367 -0.0119306985
0002f0 a3 eb 92 3a 99 9a b2 3d 28 15 8d 3c 4c d2 57 bd
       0.0011209141 0.087208934 0.017222002 -0.05269079
000300 02 c6 19 bd 7c d4 16 bc ba f7 3e ba bf aa dc 3c
       -0.03754235 -0.009205934 -0.0007284839 0.026936887
000310 61 00 1a bc af 49 84 bc 3d 62 74 3c 19 4d 28 3d
       -0.009399504 -0.016148416 0.014916 0.04108915
000320 04 9d 57 3c c2 ff 38 3b c5 f5 b2 3b a8 a5 44 bd
       0.013159994 0.0028228615 0.005461427 -0.048009545
000330 da 0b 24 bb b3 6d 1a 3d bd 35 15 bc 5d 96 a0 3c
       -0.0025031478 0.037702274 -0.0091070505 0.019602949
000340 e8 8d 65 3d 70 81 29 3d 49 4b a7 bb a8 5f a1 bd
       0.056043535 0.041383207 -0.0051054102 -0.07879573
000350 8b 31 30 be 28 0c c5 b6 d7 8a 2d 3d 3a 66 3b bd
       -0.17206399 -5.8724727e-06 0.042368736 -0.045751788
000360 61 7f a0 3c fd e9 84 bd 24 09 44 3d b0 e7 0b bc
       0.019591989 -0.06489942 0.04786028 -0.008539125
000370 60 1a 4b 3c 54 31 fe bc 86 bb 65 bc 6c 21 55 bc
       0.012396425 -0.03102938 -0.01402176 -0.013008457
000380 2d e8 c2 3c 28 59 63 3c 1c 5e 17 3c df 9c 96 3d
       0.02379235 0.013876237 0.009238746 0.073541395
000390 be 28 b8 bc b7 e9 80 3c 55 32 95 bc ce 27 a9 bb
       -0.022480365 0.015736444 -0.018212477 -0.005162216
0003a0 ba 5b 3c bc 11 6b b6 bc 72 4d 1d bd 19 19 99 3d
       -0.011496479 -0.02226785 -0.038403936 0.0747549
0003b0 67 4c 8d 3c 50 79 47 bd 1b 75 30 bb 91 78 56 3a
       0.017248346 -0.048699677 -0.002692527 0.0008181418
0003c0 b7 79 40 3c 52 73 5e 3d 6f cb 0f bd f2 45 1c 3d
       0.011747769 0.054309197 -0.03510612 0.038152643
0003d0 2c ed 06 3d 7a f7 90 bc 8d 64 60 3c 94 8e 79 bd
       0.03294103 -0.017696131 0.013695848 -0.06092699
0003e0 a8 86 7a bd 56 39 2d bc a3 f1 dd 3d cc 85 76 3d
       -0.061163574 -0.010572752 0.10837104 0.060186192
0003f0 e4 c4 75 3d c8 a6 61 bc 02 81 bc 3d 35 b2 3a 3b
       0.060002223 -0.013772674 0.09204294 0.0028487567

net.4.bias f4 [2]
000000 70 fa 99 3d 78 06 f8 bc
       0.0751847 -0.030276522
