flappyb/models/cross_entropy/batchsize=100-hiddensize=256-lr=0.01-gamma=.99-PART=210.pt (torch_old, 272411 bytes, 6 tensors)

net.0.weight f4 [256, 5]
00000000: c833 39be 6817 8ebe b781 dfbe 0838 06be
00000010: 66fc 9bbc ea0e 873e 5b89 583e 0361 aabd
00000020: d3d2 5a3d 6286 e1bd d391 9bbe 5693 983e
00000030: 04f4 cbbd 3c29 1bbe 39bb 82be 80dd 0dbd
00000040: 1100 e0be 2076 bbbd 4d5a e0be d201 d33e
00000050: 53e6 9abe cfc9 2f3e 212d 9c3d 9c93 41be
00000060: 4bf8 c4be cbc8 cbbd e435 063e a1c6 debc
00000070: 6845 7e3e fb64 30be 18b5 82be 38ff 403d
00000080: 6686 bf3e ea72 8c3e 767e dcbe ce3e 7d3e
00000090: 38a0 a43d 8485 53be 20ae 50bd 78ae 6abe
000000a0: 2768 ae3d 6920 87bd 7556 83bd 1675 e3be
000000b0: 9b2b 5c3d 78b3 1fbe 14e3 28bb 0597 97bd
000000c0: 771e dfbe e941 c63e ec0a 873e d682 97be
000000d0: 5022 c5be 2409 28be 4e66 dfbe d813 593e
000000e0: 7188 a43e b977 b93e 33f0 67be d12a 6dbe
000000f0: cd0a 943e 3f51 dbbe e8f2 a93d 8062 5d3e
00000100: 1ce1 7c3e ca8c 6d3e 2033 423e aba7 b03e
00000110: 3bf7 c03e f67e d4be 71d9 123c 2a39 8ebe
00000120: ab4a c23d 9a8f 9f3e 1007 cdbe ccac b63c
00000130: 55c3 9bbe 88da c0be ffa9 b4be f7dd 4b3e
00000140: e684 c6bd 572d 87be 2449 52bd af58 6bbe
00000150: 8ac2 70be 8099 073d 3eef 87be fe1e 52be
00000160: f436 3a3e 6cf0 183e 9037 9ebc ea23 d73e
00000170: b8e8 5abd d0ac a13d 5081 65be a8e1 773b
00000180: 9c54 ee3e ed6d dcbe 8014 cd3d be24 833d
00000190: 3b1f a5be aa59 d63e 20b8 dcbe 602e cd3d
000001a0: 1cbc 9ebe 3129 ff3d 7bd2 883d cdf7 9fbe
000001b0: 2499 11be 45d1 74be f40b 0dbc 2470 7a3e
000001c0: e74d 8a3e c400 ac3d 86c7 42be 4042 5b3d
000001d0: 9607 85be b48a efbd bff9 c9be 2caa 923e
000001e0: 1a2c 4cbe 0044 f43b 00d5 c43d 5c4f 4b3e
000001f0: 78ba 2e3d c41b 633e ba9c ae3e 71c2 b33e
00000200: e020 c7bd 1bba 9d3e aee0 b83e 8021 843e
00000210: 5da4 973e 4295 95bc c1c3 e9bd e85b 84be
00000220: 2a4b b03e cd4f 8abd a7bf 153d b3c1 44be
00000230: 75fd bf3e a9e9 1cbe 444f babd 80d0 cabd
00000240: 186e 0c3e bac6 78be 80ae ad3e 116f d83e
00000250: 65d4 e8bd ca1f b83e 3c76 613e ad3f 99be
00000260: 1352 bcbe f5a6 58be a759 aebd 73c7 ec3d
00000270: 5d32 ab3e 1494 9c3e 4673 f33e aca2 87be
00000280: 9533 02bf ab55 b13e 790b fabe d8de 163e
00000290: 698b fbbe ca5c a03e 5ff4 af3e 0cf5 bebd
000002a0: f086 2d3e b285 d5be 6ce7 e9bd d471 253d
000002b0: 3e48 213e e257 57be 7014 5fbe 6ae9 ba3d
000002c0: e2c9 1d3e 8164 c3be bde5 9cbe c933 19be
000002d0: 874c 633e 2993 223d e7f7 62be ea66 693e
000002e0: a2fd 973e 0d8a f1be 47e1 84bf 3c86 b43c
000002f0: 9d43 f4be a81f 66be d0d1 193d 3aff d93e
00000300: 81af c3be 60b9 dabc 1441 bbbe 0b52 18bd
00000310: 2de3 96bb a2ac a63e e5d2 f3be 17b0 c3be
00000320: 6882 803e 0f59 84be c762 0bbe 7b8d ab3e
00000330: bb06 ebbe 9886 cbbe 1521 1abe 1b73 3abe
00000340: 424a a63e bb3a cf3d 0781 c03d 1053 89be
00000350: 987e 1c3d 0a4d bf3d f3e6 a4be c939 a2bd
00000360: 9798 19be b7fc f1be 756e efbe b455 143e
00000370: e05b 223e eec2 e4be 6e11 3dbe 73aa 393e
00000380: ad16 cabe 41d7 9f3e a089 193e c9ad 9bbe
00000390: 9f91 763e f879 87bd d991 e8be f002 debd
000003a0: aced b3bd f39f 8dbd c57c 963e b8c0 8dbe
000003b0: bd5c b13d 132f 923e 6fcb 703d 30c4 dcbd
000003c0: 754a b13e 537b 66be d110 8a3e 86a5 af3e
000003d0: 9f13 cfbe 08ce d4be 59b6 e73d 499e c2be
000003e0: 8de5 c43e 757a 57bd 713d c3be 558b 873d
000003f0: cf8b 82be e632 8ebe 9dfa 19be 74f4 ab3e
-0.18086159 -0.27752233 -0.43653652 -0.13107312 -0.019041251 0.26378566 0.21146147 -0.08319285
0.053423714 -0.110119596 -0.30384693 0.29799908 -0.09958652 -0.15152448 -0.25533465 -0.034635067
-0.4375005 -0.0915339 -0.43818894 0.41212326 -0.30253848 0.17166828 0.07625795 -0.18903965
-0.38470683 -0.099504076 0.13106495 -0.027194323 0.24831164 -0.17226021 -0.2552879 0.047118396
0.37407225 0.27431422 -0.43065232 0.2473099 0.08038372 -0.20656401 -0.05094731 -0.22918117
0.08515959 -0.065979786 -0.06412975 -0.44425267 0.053752523 -0.15595806 -0.0025770115 -0.074018516
-0.4357793 0.3872216 0.2637552 -0.29592007 -0.3850274 -0.16409737 -0.4363274 0.21198976
0.32135347 0.36224154 -0.22650222 -0.23160864 0.2891449 -0.42835423 0.08298284 0.21619606
0.24695247 0.23198238 0.18964815 0.3450292 0.37688622 -0.41503114 0.008962975 -0.27777988
0.09486898 0.31164247 -0.4004445 0.022299193 -0.30422464 -0.37666726 -0.35285947 0.19908892
-0.09693317 -0.2640178 -0.051339284 -0.22983049 -0.23511711 0.033105373 -0.26549715 -0.20519635
0.18185025 0.14935464 -0.019313604 0.42019588 -0.053444594 0.078942895 -0.2241261 0.003782371
0.46548927 -0.43052617 0.10013676 0.064034924 -0.3225039 0.41865283 -0.43109226 0.10018611
-0.3100289 0.124590285 0.06680771 -0.31243744 -0.14218575 -0.23907955 -0.008608807 0.24456841
0.2701256 0.083985835 -0.19021425 0.053529978 -0.2598235 -0.116963774 -0.39448354 0.28645456
-0.19938698 0.0074543953 0.09610939 0.19854492 0.0426583 0.2217856 0.34103948 0.35109285
-0.09723067 0.3080605 0.36108917 0.25806808 0.29617587 -0.018259648 -0.1141429 -0.2585137
0.34432346 -0.06753502 0.036559727 -0.19214515 0.3749806 -0.1532351 -0.0909715 -0.099030495
0.13713872 -0.24294558 0.33922195 0.42272237 -0.11368636 0.35961753 0.22017759 -0.29931393
-0.36781368 -0.21157439 -0.085131936 0.115614794 0.33436862 0.30581725 0.47548884 -0.26491296
-0.5085996 0.34635672 -0.48836878 0.14733446 -0.491298 0.31320792 0.34366128 -0.09324083
0.16946006 -0.41703564 -0.11421093 0.040391758 0.15750214 -0.21029618 -0.2178514 0.091265514
0.15409043 -0.38162616 -0.30644026 -0.1496116 0.22197162 0.039691124 -0.2216488 0.22793165
0.29685694 -0.47175637 -1.0381249 0.022036664 -0.47707835 -0.22473013 0.03755361 0.42577535
-0.38219836 -0.026699722 -0.36573088 -0.037187617 -0.004604718 0.32553583 -0.47621837 -0.38220283
0.25099492 -0.25849196 -0.136119 0.3350638 -0.45903572 -0.39751124 -0.15051682 -0.18207972
0.3247853 0.10118624 0.0939961 -0.26821184 0.038206667 0.09340866 -0.3220745 -0.07921178
-0.14999615 -0.4726312 -0.4676396 0.14485818 0.1585536 -0.4467997 -0.1846368 0.18131427
-0.39470425 0.31218913 0.14993906 -0.30406025 0.24078988 -0.066150606 -0.45423773 -0.10840404
-0.08785567 -0.069152735 0.29392067 -0.27686095 0.086602665 0.2855154 0.05878776 -0.10779607
0.3462712 -0.22507982 0.26965955 0.34305972 -0.40444657 -0.4156344 0.11314077 -0.38011387
0.38456383 -0.05260702 -0.38132814 0.06618372 -0.2549729 -0.27773207 -0.15037008 0.3358494

net.0.bias f4 [256]
00000000: 0ab8 8c3e 3397 323b c22b a9be 5417 9cbe
00000010: ad75 383e f457 c03d dacb c9be 8803 a73d
00000020: 2600 b3bc e4e6 c1bd 2e80 7abe e9bf 8e3e
00000030: 1235 203e 5cb5 bb3e 995c 593e 804c d33e
00000040: 16de 803e d667 abbe 70e5 dbbe 2611 673c
00000050: 0029 3f3c b545 c33e 7922 d5be fac4 9fbe
00000060: a581 8ebe e593 5a3e 3361 cfbe c886 a3bc
00000070: defc 8abe b0a2 9ebe ab70 a43e 0608 02be
00000080: db37 843e 3697 833d cc52 9cbc d3e0 5d3e
00000090: f4c5 8c3e eb33 cd3e fa16 37be d264 593e
000000a0: 60e1 dd3d 75dc e43e b9f3 ac3e b745 613e
000000b0: 2141 db3d ee0a d5be 727f b8bc 947d 053e
000000c0: d185 a3bb 8f6c 9bbd 4b33 973e 2617 cebe
000000d0: b4c6 0c3e 809a 46be 0c67 9dbe 2673 11be
000000e0: 8590 473e 230c cebe ca22 89be b0f9 98bd
000000f0: 2267 e53d a0df c73e 3242 8b3e d55e 303e
00000100: 3032 8ebe 6b9d d13d 10ca dc3d 9f01 563e
00000110: c992 6dbe 003b bcbe 009e e2ba 007a 76be
00000120: 5dee 093e c8af 99bd 59a5 183c 51fd a4be
00000130: b12c eabe 92d8 debe 35c9 0e3c 1fb3 e1be
00000140: 18f7 44be a65e 733e a2c1 1b3d f235 d5be
00000150: 0d19 1bbe 712d b03b 7d25 b1be a8fc dbbe
00000160: 23aa 7abe cece 2cbe ee3b 9dbe 00d7 453d
00000170: 8c10 82be 7c33 e7be 3e73 00bf 240b a13e
00000180: d57e a2bd 8fa8 c8be ac10 10be 4791 a43e
00000190: ed17 8e3e 216a e5be 993a 8bbe a32b e4be
000001a0: 20b2 cbbe d01f 91be fce6 50be ed70 743e
000001b0: b5f4 933e 55c1 593d 40f0 b4bd 1984 a5be
000001c0: 1070 43be 613f 6e3e 403d eebd f012 8abe
000001d0: 72ef f03e a7e2 a8be 5846 af3e 8737 fe3a
000001e0: 7a83 aa3e af8c 11be 56f0 b5be 0210 a33e
000001f0: 4252 36be 1eef bdbe 984e 9cbc c2c8 fabe
00000200: 837a 97be dad2 3dbc a4b2 d6bd fc36 ddbe
00000210: 2684 90be 5641 c43e 2c7a 8fbe 0367 07be
00000220: 60db 9fbd c308 973d 3d61 c43e 28fe a8bc
00000230: b5f8 d6be 0e64 0dbd 412a 303e da3c d1be
00000240: 1531 193d 5685 b33d 74ae 303b 2110 7c3d
00000250: 8e64 aebe 9a6c 163e e86d 4b3e 6268 94be
00000260: b4ff 363d 1200 5f3e 57c3 8c3d 0133 03bf
00000270: 7fec 24be 9bed cfbe 9179 a8be 3013 8a3e
00000280: 39ea c6be 65f6 cabe 4d75 50be c721 5c3e
00000290: 79d5 293e 8e2c e33e 5914 88be 5a1e 9c3e
000002a0: 3522 b1be 3e3b 9f3d 90c2 883d 2948 ebbe
000002b0: d95d cd3e 00bf 69be c398 63be 3848 2fbe
000002c0: e354 453e 23c5 1f3e fcbc 1e3d f629 903e
000002d0: 9065 7ebe 94b4 d43d ae32 3d3e 3528 bbbe
000002e0: 0fbb 863e 5295 31be 0cf6 49bd 20d4 cbbe
000002f0: 794a 023f 598f 013e c994 8d3e 050c 143e
00000300: b64b 053e d750 803e c523 ed3c 00f9 cdbd
00000310: da77 fcbe 9519 1ebe 4ffe a8be 4531 46be
00000320: bfcc 78be 5158 dbbe ace4 99bd 2c25 7a3e
00000330: adab 47be 7961 cbbd 7360 e3be fedb 4cbc
00000340: b035 73bd 238d d2be 8262 333e 3fef 43bd
00000350: 5d66 b3be da99 8abe 1d97 6f3e cec9 4ebe
00000360: c0b0 7a3b 7fd6 ccbe 17a0 b73d b54d f8be
00000370: 4ff1 703e d610 07be eeff a7be 666d 023e
00000380: a474 f3bd 1f43 73be 448c b83d b47e c13e
00000390: fe8e 80bd eb5e d33d cee7 e8bd 606d c1be
000003a0: beec d1be 5935 9cbc c908 5e3e 71a8 0f3d
000003b0: 68a7 553e e124 3c3d aecb 02be 519d b03e
000003c0: c41e 943e 0151 643e 5c01 6b3e 08a3 acbe
000003d0: 6648 d03d 1603 9ebe a5d2 89be 826c 2b3e
000003e0: 1e29 d53e a61f b13e ea7b 14be 8265 afbc
000003f0: 9a98 663e 33c6 3cbe 65ce 5b3e 2d33 903e
0.2748416 0.0027250766 -0.33041197 -0.30486548 0.1801364 0.09391776 -0.3941334 0.081549704
-0.021850657 -0.09467867 -0.24462959 0.2788079 0.15645245 0.36661804 0.2122673 0.41269302
0.25169438 -0.33477658 -0.42948484 0.01410321 0.01166749 0.3813912 -0.41627863 -0.3120497
-0.27833286 0.2134548 -0.40503845 -0.01996173 -0.27146047 -0.30983496 0.3211721 -0.12698373
0.25823864 0.064253256 -0.01908245 0.21667795 0.27494776 0.40078673 -0.17879859 0.21229866
0.108340025 0.44699445 0.33779696 0.2199925 0.10705782 -0.416099 -0.022521708 0.13036186
-0.0049903174 -0.07589065 0.2953132 -0.40252036 0.13747674 -0.19394875 -0.3074268 -0.14204082
0.19488724 -0.40243635 -0.26784354 -0.07469499 0.11201312 0.390378 0.2719894 0.17223676
-0.27772665 0.10235103 0.10780728 0.20899056 -0.23200525 -0.36763763 -0.0017289519 -0.24069977
0.13469835 -0.07504231 0.009316766 -0.32224515 -0.45737222 -0.43524605 0.008714964 -0.4408197
-0.19234884 0.23766574 0.03802646 -0.4164272 -0.15146275 0.005376511 -0.34598914 -0.429662
-0.24478965 -0.16875765 -0.30709785 0.048300743 -0.2540325 -0.45156467 -0.50175846 0.31453812
-0.079343475 -0.391911 -0.1406886 0.32142088 0.2775263 -0.44807532 -0.27193144 -0.44564542
-0.39784336 -0.28344584 -0.20400614 0.23871203 0.28897634 0.05316289 -0.088348866 -0.32327345
-0.19085717 0.23266365 -0.11632776 -0.26967573 0.47057682 -0.32985422 0.34233356 0.001939521
0.33303434 -0.14213823 -0.35534924 0.3184815 -0.17804816 -0.37096494 -0.019080445 -0.4898129
-0.29585657 -0.011585915 -0.10483292 -0.43206012 -0.2822582 0.38331097 -0.28022897 -0.1322289
-0.07805514 0.07374718 0.38355437 -0.020629004 -0.41986623 -0.034519248 0.17203619 -0.4086674
0.037400324 0.08765666 0.002695945 0.06153882 -0.34061092 0.14689866 0.19866145 -0.28985888
0.04467745 0.2177737 0.068731956 -0.512497 -0.16105841 -0.40610966 -0.32905248 0.26967764
-0.38850573 -0.3964111 -0.20357247 0.2149726 0.1658534 0.4436993 -0.26578024 0.30491906
-0.3459641 0.077749714 0.06677735 -0.4595349 0.40110663 -0.22826767 -0.22226243 -0.17117393
0.19270663 0.15602545 0.03875445 0.28157014 -0.2484343 0.10386005 0.18476364 -0.36554113
0.2631459 -0.17342117 -0.049306914 -0.39810276 0.50894886 0.12652339 0.27652577 0.1445771
0.13017163 0.25061676 0.02894772 -0.100572586 -0.4931019 -0.15439446 -0.33006522 -0.19354732
-0.24296854 -0.42840818 -0.07514319 0.24428242 -0.19499083 -0.09930701 -0.44409522 -0.012503622
-0.059377372 -0.41123304 0.17518046 -0.047835585 -0.35039034 -0.27070504 0.23397489 -0.2019417
0.0038252324 -0.40007398 0.089660816 -0.48496786 0.23529552 -0.13190016 -0.32812446 0.12737045
-0.11887482 -0.23756073 0.090111285 0.3779198 -0.062772736 0.103208385 -0.11372338 -0.3777876
-0.41000932 -0.019068407 0.21683039 0.035072748 0.20864642 0.045933608 -0.1277301 0.34495023
0.28929722 0.22296526 0.22949737 -0.33718133 0.10170059 -0.3086173 -0.26918522 0.16740611
0.41632932 0.34594458 -0.14500394 -0.021410707 0.2251915 -0.18434982 0.21465452 0.28164044

net.2.weight f4 [256, 256]
00000000: 7737 9abd aa7a cebd 80c3 a63c 70d8 96bb
00000010: 1745 f8bd ee37 94bc 7848 5f3c cccc a3bd
00000020: 04c0 91bd fbcc 2bbd 0846 1a3c a442 8ebd
00000030: 3e87 a1bc c02d e4bd caa5 b7bd 03d0 babd
00000040: 363b bcbc 3835 91bc 0862 5e3c c250 f6bc
00000050: 145c a53c 1404 9fbc 82a2 b7bd f062 c13c
00000060: b886 973c d8e3 12bd 10a6 0dbd 48aa 653c
00000070: 8480 e9bd 053f 8dbd 4680 f9bd 4a7f 003c
00000080: 14d1 af3c a1f2 96bd 9cf6 85bd 57f5 6dbd
00000090: 8cc2 3fbb 9ca7 c3bd 323b 41bd a4ea e7bd
000000a0: d77e debc 391b d1bd 873b c6bd 4867 62bc
000000b0: b069 cebc 0134 a3bd 90fc e1bd 7764 92bd
000000c0: 05e5 97bd 6987 9cbc 68cb 1a3d 8854 d03c
000000d0: bf15 c3bd 389c bdbc f89d 2abd 029d 63bd
000000e0: f070 6dba a467 27bd 8830 373c c684 30bd
000000f0: 69ba bdbc dd47 90bd d789 71bd 7ac8 c23c
00000100: 7c03 64bd 7ce5 55bd 18de 56bd 5219 7cbd
00000110: ee4a 51bd b840 e4bc 42de 4f3d 3b0d acbc
00000120: 5acf d7bd fbe8 cabc 06dd 623d be15 85bc
00000130: b406 21bd f802 77bd 1ad9 6cbc 5040 e03b
00000140: f491 54bd 1cf8 49bd 6981 cb3c c871 93bc
00000150: b752 fcbc a661 55bd 0075 3bbb 6d6e 9f3a
00000160: dac1 b33d 249d 923c f439 3e3d f69c cfbd
00000170: b013 6ebd 4698 80bd cbdc 52bd 7351 8ebd
00000180: e381 c6bd f6d9 3cbd 8c78 f6bd 0d9c 39bd
00000190: c341 8abd d7e7 cc3a 16c4 aabc 4ed5 053d
000001a0: e83d 433c 8425 1dbd 77d1 2abd f844 d0bd
000001b0: daab d2bd 5421 85bb 57a9 8bbc 80de 413c
000001c0: c0ac debb d151 fabd d0cb 7b3d 195b 7dbd
000001d0: efb9 83bd 7a36 863c c05e d7bd 5ea7 24bd
000001e0: a7af e8bd e925 09bd 14e9 b1bc bee2 d3bd
000001f0: e4ef 61bd f009 19bc 0efe abbd e0a4 0bbd
00000200: 5af4 5a3d 0ad7 1abd 7572 36bd 7088 24bd
00000210: d09c 8ebb 8c75 ddbd f88d f43c 8f21 1cbd
00000220: d4af 363d 34af 393d 9161 d5bd cea2 8dbd
00000230: d87a d7bd 5cae 65bd 7080 2fbc 65d6 5d3d
00000240: 0cc2 3bbd 3922 2bbd d295 f9bc 5c6e f7bd
00000250: 4abd 65bd 9a19 c4bb 3703 8cbd b647 603d
00000260: 006a cfbd 267d ddbd b886 333c 7a7c d9bc
00000270: b42d f8bb eb54 29bd 502b e93c 82ee d1bd
00000280: 6e2e e4bd 84fe 31bd d600 46bd ec78 95bd
00000290: c0a4 c6bc 927b 3ebd 8006 48bd 520d 88bd
000002a0: 8896 01bc ce90 91bb b82f 103c 7893 bfbd
000002b0: 755c f3bc d6f2 cebd 880f e13c 7aad b1bc
000002c0: 0079 5bba c3a0 81bd 6e87 9bbc a1b2 32bd
000002d0: 68c5 5dbc 6678 c2bb 142a c2bc 267e d7bd
000002e0: f4f9 3639 c6aa e6bd 5469 95bc 029d 57bd
000002f0: 56e4 213d 1cdd 9fbc 9cf5 18bd 40c9 bdbd
00000300: a31c 8dbd ef2f 23bd f694 f0bd a019 613b
00000310: 2f5b b6bd 2d58 57bd c85f e2bd 5225 9bbd
00000320: 092e 4abd 25c3 87bb 08b6 6a3c f277 243d
00000330: fa50 babd 0e61 18bd 10b8 583c 630c f1bd
00000340: 56bf 773d 5271 113d 617d d9bc 74eb 0d3d
00000350: 0423 c7bc 9a76 3e3d 2b0d 28bc cc5b 3fbc
00000360: 0744 b8bd 2b1d 61bd 55f0 013b 461f 9ebd
00000370: b40c 8dbd 00a9 20bb 069f 57bd 5920 94bd
00000380: f6fd 3dbd 847b b93c 1093 efbd a6c7 2dbd
00000390: 658c 8cbc 2378 8abd de23 cbbd a4af 5d3d
000003a0: 8498 13bc 905b b4bd bc76 d03a ec87 5bbd
000003b0: 74b1 d1bd 8b9b d3bd 1613 88bd e50f a6bd
000003c0: c30f d8bb 1253 76bd 6019 b9bc 7606 133d
000003d0: 3871 b9bd a888 e4bd ea01 e9bd 2bff aabd
000003e0: 226e cdbd ef4d 70bd 50d3 82bb e46a fbbb
000003f0: 0bed 91ba 164f 4bbc 2214 4ebd 330e d1bd
-0.0753011 -0.1008199 0.020356894 -0.004603438 -0.12122553 -0.018093076 0.013628118 -0.07998046
-0.07116702 -0.04194353 0.009416111 -0.069463044 -0.019717809 -0.111415386 -0.08967169 -0.09121706
-0.022977453 -0.017725572 0.013573177 -0.030067805 0.020185508 -0.019411124 -0.08966543 0.023606747
0.018496856 -0.03586182 -0.034582198 0.014017649 -0.114014655 -0.06896786 -0.12182669 0.007842848
0.021462 -0.073704965 -0.06541178 -0.058095302 -0.0029260246 -0.09553453 -0.047175594 -0.11324051
-0.027160091 -0.102102704 -0.09679323 -0.0138185695 -0.02519688 -0.07968903 -0.110345006 -0.071480684
-0.07416729 -0.019107537 0.03779164 0.025430933 -0.09525632 -0.02314578 -0.041654557 -0.055569656
-0.00090576615 -0.040870324 0.011181004 -0.043095373 -0.023160176 -0.07044957 -0.058969345 0.023777235
-0.055667385 -0.052220806 -0.0524579 -0.061547585 -0.05109685 -0.027862892 0.05074907 -0.021002403
-0.10537596 -0.024769297 0.055386566 -0.016245719 -0.039313033 -0.060305566 -0.014456058 0.006843604
-0.051897004 -0.04930888 0.024841981 -0.017998591 -0.03080116 -0.052095078 -0.0028603673 0.0012163647
0.087772086 0.017897196 0.046441987 -0.1013736 -0.058124244 -0.06279044 -0.051480096 -0.06949129
-0.09692743 -0.0461063 -0.12034711 -0.045314837 -0.06750824 0.0015633059 -0.020845454 0.032674126
0.011916615 -0.038365856 -0.041703667 -0.10169405 -0.10286684 -0.004062811 -0.017048521 0.011832833
-0.0067954957 -0.122226365 0.061473668 -0.061854456 -0.064319484 0.016383398 -0.10516119 -0.040198676
-0.11361628 -0.03348342 -0.021717586 -0.10345982 -0.05516042 -0.009340748 -0.083980665 -0.034092784
0.053455688 -0.037802733 -0.04454275 -0.04016918 -0.0043521896 -0.10813436 0.029852852 -0.03811794
0.044601277 0.045333102 -0.10419 -0.06915818 -0.105214775 -0.056074485 -0.010711774 0.05415954
-0.045839354 -0.041780684 -0.030466948 -0.12081596 -0.056088723 -0.0059844973 -0.06836551 0.05475589
-0.1012764 -0.10814886 0.010957412 -0.026548613 -0.0075738076 -0.04134075 0.028463036 -0.1025057
-0.11141668 -0.043455616 -0.04834064 -0.07298455 -0.02424848 -0.046504565 -0.048834324 -0.06643166
-0.007909425 -0.004442311 0.00880044 -0.09354299 -0.029707173 -0.10104911 0.027473226 -0.021689165
-0.00083722174 -0.06329491 -0.018985476 -0.043627385 -0.013535835 -0.005934763 -0.023701705 -0.10522108
0.00017449987 -0.11263041 -0.0182387 -0.05263997 0.0395244 -0.019514613 -0.037343606 -0.09266901
-0.06890228 -0.039840635 -0.11747162 0.003434755 -0.08904111 -0.052574325 -0.11053425 -0.07575478
-0.04936031 -0.004143136 0.014325626 0.04015345 -0.09097476 -0.037201934 0.013227478 -0.11769941
0.060485207 0.03550846 -0.026549043 0.034648374 -0.024308689 0.046499826 -0.010257046 -0.011679601
-0.0899735 -0.054959457 0.0019827087 -0.07720809 -0.068871886 -0.0024514794 -0.05264189 -0.07232732
-0.046384774 0.022641905 -0.11697972 -0.042426728 -0.01715679 -0.067611955 -0.099189505 0.054122582
-0.0090085305 -0.08806527 0.0015904526 -0.053596422 -0.102389246 -0.10332402 -0.06644265 -0.081085004
-0.006593676 -0.060137816 -0.022595108 0.035894834 -0.09054798 -0.111588776 -0.11377318 -0.08349451
-0.10030772 -0.058668073 -0.0039924756 -0.0076726545 -0.0011133266 -0.012408992 -0.05031217 -0.102077864

net.2.bias f4 [256]
00000000: c182 d2bc 167d 2f3d 8e4c 293e afe2 fa3b
00000010: 42fc 84bd d2ad d9bd d220 1dbd b449 2abc
00000020: 0068 94bc 38e3 f2bd 8d02 71bd 8e4d 2cbc
00000030: ce17 acbd 74ba 1fbd 57a7 0bbd 9ab8 9bbd
00000040: fa82 69bd 6c87 8d3c 521f 18bd 7cf4 d5bd
00000050: a434 38bd daac a0bd c5ea 81bd 723b 0dbd
00000060: 6800 b1bd 100a 62bd 7677 2cbd cd00 adbc
00000070: c683 39bc de74 41bd 0bd0 81bd a635 543d
00000080: 6646 95bd 9aee b53c e030 8f3c 0677 d7bd
00000090: 4212 01bd b6fa 983d 881c 94bc 4069 ceba
000000a0: c07e a43a acf8 a7bd 8c6d 063c 74a9 05bd
000000b0: 291f 36bb 42bf 1bbb 0fb8 8bbd a032 bdbc
000000c0: 16d8 c6bb 710f d2bd 9edb b6bd 00cd 23bc
000000d0: ed03 8dbd fa78 d7bc b2ae 6fbc 3c46 e8bc
000000e0: 3000 06bc c4ba 18bd 27eb aabd 95c9 143e
000000f0: 15fb cfbd d50f 81bd d021 84bd fa93 bebb
00000100: 9bd1 8bbd 8142 44bc 71d7 b1bc 42c0 70b9
00000110: e615 c83b 3439 d1bd 5e20 87bd 3413 59bc
00000120: acd1 a8bd 6650 9a3b cdca 2a3b cdd0 82bd
00000130: 48b9 dd3c 3a9f c33c 4d2f 48bc f421 35bd
00000140: dfd8 0fbd e7d8 8abb ccf5 bf3c 01f1 96bc
00000150: 7414 17be 7fb7 16bc 7cdd d0bc ff5b 8ebb
00000160: a887 a9bd 4a27 66bd c8d1 36bd 8c1a e6bd
00000170: 3c3c d5bd aa1c 84bd b954 f5bd 9323 a1bd
00000180: 27bb cebd 54e7 13bd 58a1 abbc 9da0 b5ba
00000190: 2dbd 703c 8f97 2ebb c25b e9bc 2e32 bdbd
000001a0: 4318 1abd edb9 efbd 8e20 19bd cc76 34bd
000001b0: e10c abbd 97ec 06bc c2a8 7bbd 2c07 d9bd
000001c0: 1b7b aebd ef82 67bd f211 83bd fe0f b6bd
000001d0: 6f8a 33bd e7a1 f9bc 26d7 cfbd f3a7 c3bd
000001e0: 4cfc 63bc 6a5b 073d 7e4d 1b3e 5be6 68bc
000001f0: 1edc 05bd 59da 03bd a779 103b b5d9 90bd
00000200: b470 b3bd b868 7dbc de90 c1bd d97d cfbd
00000210: 8944 77bc f4c2 e0bc 5fc7 5cbd 749f 15bd
00000220: cc1b dcbc 61b3 7ebd fe92 013e 18ee febc
00000230: 30de 09bd 23f3 a1bc 0c6b 2dbd 28d3 bcbc
00000240: cff1 33bd dc13 a1bc a5ad 533c 73b3 9bbd
00000250: c845 edbd 1e9a c5bd d049 a0bb 861a b3bc
00000260: a09a 93bc 5675 75bc 237d bbbb b135 acbc
00000270: c2c4 4abd 33ea fdbc f83e 61bd 65c7 7fbd
00000280: 10db ebbd 9f26 c0bd c675 4cbc b45e 1abd
00000290: 3a8a c7bd e430 ddbd b6a3 79bd f4cc 81bd
000002a0: eebb 27bd 37d1 fb3b 7380 c7bd ce69 0dbd
000002b0: 885e ccbc 28e0 59bd f282 48bd fb1e 87bd
000002c0: cda3 e0bd 981b 153c f57d 21bd d316 babd
000002d0: aed7 05bd b36b 7ebd 43fe e038 1861 06bc
000002e0: d8b5 54bd b87b 2a3d 6db6 a8bd 7d61 a0bc
000002f0: 61bb f3bd da82 7c3d e8c0 553c 7449 fabc
00000300: 131b 4abc 27dd c0bd a3b2 50bc 1b50 3fbd
00000310: ed34 acba 7f0d 36bc 0646 b7bd 1c15 6ebd
00000320: ddce c3bd 3a16 c5bd 68f2 83bd 556a c1ba
00000330: 1400 68bd 1608 b4bd 1c77 d2bc d7d6 adbc
00000340: c2df 3ebd 0e20 00bd 241e b5bd f8ec a9bd
00000350: 38bc 13bc bc74 6cbd 0861 08bd 4aa8 3e3d
00000360: 1007 2a3c 407c 27bd a2a5 33bd b871 d6bd
00000370: 836e 8bbc 92cc 6cbd d3fc e9bd 31cf f5bd
00000380: 6edb c1bd 6183 48bd 2e28 d0bd 0212 75bd
00000390: 4541 c6bd 8da7 fcbc 1512 51bd c897 10bc
000003a0: 6410 adbd ba37 d2bd d6cf 37bd fa4d aebd
000003b0: 7170 bfbd 9c9c 0cbd 785e efbc 9a07 9ebd
000003c0: 1553 babd e6b1 f0bc ba2d 48bc 0f62 05bc
000003d0: 281f b9bc b6ed 81bc 4b68 33bd f4f1 73bd
000003e0: dbda 28bd 0323 90bd 9f3b 89bc 8ea8 533d
000003f0: 48a4 34bd c868 b6bb e8f1 5b3c 10f1 d9bd
-0.025697114 0.0428439 0.1653311 0.0076564173 -0.06493427 -0.10628857 -0.038361378 -0.010393549
-0.018115997 -0.11859745 -0.058840323 -0.010516537 -0.08402978 -0.038996175 -0.034095135 -0.07603569
-0.057009675 0.017276488 -0.037139244 -0.10447022 -0.044972077 -0.07845469 -0.06343607 -0.03448052
-0.086426556 -0.055185378 -0.042106114 -0.021118546 -0.011322921 -0.047230594 -0.06338509 0.051808976
-0.07288818 0.0222085 0.01747936 -0.10520749 -0.031511553 0.07469694 -0.018080011 -0.001574792
0.0012549981 -0.08201727 0.008204829 -0.032632306 -0.002778957 -0.0023765122 -0.06822216 -0.023095429
-0.00606824 -0.102568515 -0.089286074 -0.009997606 -0.068855144 -0.026302803 -0.014629053 -0.028353803
-0.008178756 -0.03728749 -0.08345633 0.14530022 -0.10155312 -0.06301848 -0.06451762 -0.00581598
-0.068270884 -0.011978746 -0.021709176 -0.00022959805 0.006106126 -0.10215989 -0.065979704 -0.013249207
-0.08243117 0.0047092913 0.002606082 -0.06387482 0.027065888 0.023879636 -0.012218309 -0.044221833
-0.035118934 -0.0042372826 0.023432635 -0.018425466 -0.14753896 -0.009199022 -0.025496237 -0.004344463
-0.082778275 -0.056189813 -0.044633657 -0.11235532 -0.104118794 -0.0645078 -0.1197905 -0.07868113
-0.1009429 -0.036109284 -0.020950958 -0.0013857071 0.0146935405 -0.002664063 -0.028486136 -0.09238087
-0.037620794 -0.117053844 -0.037384562 -0.044058606 -0.08352066 -0.008235118 -0.061440237 -0.10597071
-0.08519574 -0.056521352 -0.06399907 -0.08889769 -0.043833192 -0.030472709 -0.10148458 -0.09553518
-0.013915133 0.033046164 0.1516628 -0.014215077 -0.032680623 -0.032190654 0.0022045167 -0.07072774
-0.08761731 -0.015466861 -0.09451459 -0.101314254 -0.015092024 -0.02743671 -0.053901073 -0.03652902
-0.026868723 -0.062182788 0.1265373 -0.031119391 -0.03365916 -0.019769257 -0.042338416 -0.023049906
-0.04393178 -0.01966279 0.012919818 -0.076025866 -0.11585575 -0.09648536 -0.0048916116 -0.021863233
-0.018018067 -0.014981588 -0.0057217046 -0.021021696 -0.04950405 -0.030995464 -0.054991692 -0.062446017
-0.11516392 -0.093823664 -0.012479251 -0.037687972 -0.097431615 -0.10800341 -0.060947143 -0.0633792
-0.040950708 0.0076848525 -0.097412966 -0.03452473 -0.02494742 -0.053192288 -0.048953004 -0.06597706
-0.109687425 0.009100817 -0.039426763 -0.090863846 -0.03267639 -0.06211443 0.00010728512 -0.00820186
-0.051931232 0.041621894 -0.0823792 -0.019577736 -0.11900974 0.061648227 0.013046481 -0.030552603
-0.012335557 -0.094171815 -0.012737903 -0.046707254 -0.0013138332 -0.011111616 -0.08948903 -0.0581256
-0.095609404 -0.0962338 -0.0644272 -0.0014756421 -0.0566407 -0.08790605 -0.025691561 -0.021220608
-0.04660011 -0.03128057 -0.088436395 -0.08297151 -0.009017043 -0.057728514 -0.03329566 0.04654721
0.01037766 -0.04088998 -0.04385913 -0.10470909 -0.01702047 -0.05781228 -0.114251755 -0.12002409
-0.09465681 -0.048953418 -0.10163914 -0.059831627 -0.09680418 -0.030841613 -0.051042635 -0.00882525
-0.08450392 -0.10264535 -0.044875942 -0.085109666 -0.09347618 -0.03432904 -0.02921985 -0.07716294
-0.09097878 -0.029381704 -0.012217933 -0.008141055 -0.022597864 -0.01586042 -0.043800633 -0.059556916
-0.04122434 -0.07037928 -0.016752062 0.05167442 -0.044101983 -0.00556669 0.013424374 -0.10641682

net.4.weight f4 [2, 256]
00000000: 73bd d73d c0c4 cf3a 0b0b 1b3e 33e0 43bd
00000010: 0ec7 87ba 7c31 08bd 1e6b 643d ca65 ab3d
00000020: 1122 71bc c3b9 ac3d 1bb7 13bb 3db4 6b3d
00000030: e94d a2ba e55d 853d 637e 4cbb ec9e a9bd
00000040: c430 6ebd 56c2 2f3d 1805 e4bc 796a 663d
00000050: f66d ad3d ae6f 74bd 6af7 a9bc 7d5e 4b3c
00000060: efdf bfbc cef8 1bbd 9cf7 803d 5472 5dbd
00000070: 6266 36bc aa95 9a3d 37b3 37bd 1e3e 03bd
00000080: abb7 0cbc 7fad 51bd a435 023d 96e6 b73c
00000090: 0aef ecbd dd32 b43d fb19 1bbb 0efa 093d
000000a0: 6ae2 3dbd 0b6e dcbc 15fd 1dbd 04cc 9cbd
000000b0: 9766 c43c 7990 2cbc 9d7c a83d 00c4 aeb8
000000c0: 056a 22bd 599f 1abd 0b79 5e3d cc12 e63c
000000d0: 24e6 303d 3751 583d ee05 e33c a99f ed3c
000000e0: 9cf5 643c a6b0 29bd c948 973d 2bc7 563f
000000f0: e842 173d 9fd5 c43c cb2b 093d ee39 683b
00000100: 8171 853c 356b 04bd db61 3e3c 5358 b03c
00000110: d22e a03b 63dc 293d 9807 02bd a058 e1ba
00000120: fe03 05bd 0b29 c13b a48a 213d d31d 6e3d
00000130: 3201 3e3d 5e28 ef3e 1ba6 2cbc d0d4 833b
00000140: 4317 6cbd 432d cbbb d8a1 50bd a9ff 933d
00000150: 21ba c6bc 1186 0b3d 5651 f13c 6640 ecbc
00000160: 8fda 903c f98d 07bd 40a6 d93a 94e9 17bc
00000170: 560b 0ebd e445 843d ec7e 16bb c049 273b
00000180: 346b 1a3c 2412 36bc b5cf 873c e0b5 b43c
00000190: d47e 82be 84bc 0eba d822 17bc bccb 183d
000001a0: ce4e fd3c cf2c e83c 9041 ce3b 4de9 963d
000001b0: 3ddc 5abc d8cf 5c3d 90ef dd3c 28e7 313d
000001c0: 4c66 05bd 775d 80bc 840e 9ebd 78e7 06bd
000001d0: 143b c83b e84e 603d 553e 9b3d 5a8f 46bc
000001e0: c277 54bd d049 6abd cf11 153e 14d8 63bc
000001f0: 6e68 053d 8602 45bd dda3 afba e30f 8a3c
00000200: 7886 973b 30f7 c03c baaf b4bb eeaa c739
00000210: 4fe0 d63d 6752 4c3c 4d8d 8e3d d6b3 3a3d
00000220: 8ed0 373c 0a48 2bbd 1c04 d23c e42c 233d
00000230: 73ef 5d3d 0637 51bd 7e07 8abb 48f2 183d
00000240: ba1c 05bd 50a8 b2bb 3d67 97bd bb89 24bd
00000250: 8881 77bd 7e86 2c3d 9761 a5ba cba6 033c
00000260: caf1 1cbd dba2 913d 86b8 6a3c 7b67 c6bc
00000270: f2a5 9b3b 8e32 973d 84da ca3b de9e ae3c
00000280: 5ccc 083a d9db 8b3d b750 103b e030 20bb
00000290: 30d7 0dbd 88c5 523d b0cd 4abc e1c9 f23c
000002a0: 4dd0 f93a ba0a 3dbd f290 4e3d ec64 ef3c
000002b0: 6806 04bd a085 1c3b 504c b6bb 0fff 78bd
000002c0: 2d21 acbc ede7 53bc 7cee 7d3c 39d9 263c
000002d0: 6a25 dcba d444 3f3b 827a cfba cff4 92bc
000002e0: 8451 2c3c 1c4d d3bc c7a0 4c3d 0803 943d
000002f0: 24c8 5d3d 60f2 7dbb 0888 11bc b815 183d
00000300: a859 613d bac0 af3d 7969 22b9 ffcc 9e3c
00000310: 7506 89bd 5894 943c 4972 0cbc b08c f93b
00000320: 558f 453d 1041 4e3c 4ee6 88bd c09c 603d
00000330: 86b8 d23d 0854 363d 2366 69ba 122f a6bc
00000340: 16e8 00bd c837 f8bc be16 81bc dd15 563d
00000350: 2ae4 77bd 5b19 a8bc 4895 9dbc 8a40 283d
00000360: 5080 7a3d 45d4 533c 9249 02bd c340 6abc
00000370: 9830 1fbd fa2c 253c 6016 b73d f064 483c
00000380: 676d 623d 58c8 cfbd 2207 2f3d ff49 423d
00000390: 423e 183d 92af 90bc 0b8b 67bd 3870 a33d
000003a0: 4690 7cba adae 9ebc 1c00 c73c 96aa 8e3d
000003b0: 39f5 13bc fd4f 193d 4d4d 5b3d 5446 9b3d
000003c0: cc05 133d ff3d 5dbc 22f1 0f3c 86bf 74bc
000003d0: 3dfb a43d 79ce 55bd 2970 e63d 983e a93c
000003e0: df48 95bd 9776 623b 30df 0dbc 68ce 393d
000003f0: 4f7c 8bbd b7fa ba3c 9074 49bd 8bc3 82bd
0.105341814 0.0015851483 0.15140931 -0.047821235 -0.0010359006 -0.033250317 0.055766217 0.08369024
-0.014717595 0.08433869 -0.002253956 0.057544935 -0.0012382838 0.065120496 -0.0031203262 -0.08282265
-0.058151975 0.042909943 -0.02783446 0.056253884 0.08468239 -0.05967682 -0.020747859 0.0124126645
-0.02342221 -0.038079076 0.06297228 -0.05406411 -0.011132808 0.075480774 -0.044848647 -0.03204166
-0.008588712 -0.05119085 0.031789437 0.02244882 -0.115690306 0.08798764 -0.0023666609 0.033685736
-0.046358503 -0.026907941 -0.038571436 -0.076561004 0.0239747 -0.010532492 0.08226893 -8.3334744e-05
-0.03965189 -0.037749622 0.054314654 0.028085135 0.04318823 0.052811828 0.027712788 0.029006796
0.013974573 -0.04142823 0.073869295 0.83897656 0.03692904 0.024027644 0.03348903 0.003543492
0.016289474 -0.032328803 0.01162001 0.021526491 0.004888394 0.041469943 -0.031745523 -0.001719255
-0.03247451 0.0058947853 0.03943886 0.05813391 0.04638786 0.46710485 -0.0105376495 0.004023172
-0.05763937 -0.006200464 -0.050935596 0.07226498 -0.024258675 0.034063403 0.02945773 -0.028839301
0.017682342 -0.03309438 0.0016605332 -0.009271998 -0.03467878 0.06458643 -0.0022963835 0.0025526136
0.009424973 -0.0111127235 0.016578535 0.022059381 -0.25487387 -0.0005444961 -0.009224616 0.03730367
0.030921366 0.028341679 0.0062944368 0.07368717 -0.013358173 0.053909153 0.027091771 0.04343334
-0.03256826 -0.015669568 -0.077176124 -0.03293559 0.0061105583 0.05476275 0.07580248 -0.012119139
-0.051872022 -0.0571993 0.14557575 -0.0139064975 0.032570295 -0.04809811 -0.0013400275 0.016853279
0.004624184 0.023555368 -0.0055141123 0.0003808359 0.10492002 0.012470818 0.06960545 0.04558166
0.011219157 -0.04181675 0.025636725 0.039837733 0.054183435 -0.051077865 -0.004212319 0.037340432
-0.0324981 -0.0054521933 -0.07392738 -0.040170413 -0.060426265 0.04212045 -0.0012617585 0.008035372
-0.038316526 0.0711114 0.01432622 -0.024219265 0.004750007 0.073826894 0.0061906 0.021315988
0.000521844 0.06829042 0.0022020766 -0.0024443194 -0.034629047 0.05145791 -0.012378141 0.029637279
0.0019059271 -0.046152808 0.0504312 0.029222928 -0.032232672 0.0023883358 -0.0055632964 -0.060790118
-0.021011913 -0.012933713 0.015498754 0.010183626 -0.0016795818 0.0029185312 -0.0015829357 -0.017939
0.010517482 -0.025793605 0.049958017 0.07227141 0.054145947 -0.0038749203 -0.00888253 0.037130088
0.055017143 0.085816815 -0.00015488816 0.01938486 -0.06690685 0.018137142 -0.00857217 0.007615648
0.048232395 0.012588754 -0.06684552 0.05483699 0.10289101 0.044513732 -0.0008903464 -0.020286117
-0.031471334 -0.030300036 -0.015757915 0.052266944 -0.06052033 -0.020519903 -0.019236222 0.041077174
0.061157525 0.012929027 -0.031808443 -0.014297667 -0.038864702 0.010081524 0.089398146 0.012231097
0.055280115 -0.101456344 0.04273141 0.04743385 0.03716875 -0.017661843 -0.056529086 0.079803884
-0.00096345355 -0.019370401 0.024292044 0.069661304 -0.009030634 0.0374298 0.053540517 0.075817734
0.0358942 -0.013503551 0.008785518 -0.014938241 0.080557324 -0.05219886 0.112518616 0.02065973
-0.0728929 0.0034555548 -0.008659169 0.04536286 -0.06810819 0.022824628 -0.04918343 -0.06384953

net.4.bias f4 [2]
00000000: d3dc 10bd e93f 903d
-0.035366844 0.0704344
