models/flappy-bird-cross-entropy-advanced-64x64.pt (torch_old, 19726 bytes, 6 tensors)

net.0.weight f4 [64, 5]
000000 be 22 48 3e 71 f3 ef 3f dd 0f 04 3f 49 d4 bc be
       0.19544503 1.8746167 0.51586705 -0.3688071
000010 a8 38 1b 3e 6b 9a a2 be dd b6 fb 3e 38 ef c9 bd
       0.15158331 -0.31758437 0.4916295 -0.098600805
000020 f8 80 1a 3f ce eb 53 3e d4 95 e6 be 85 d2 b2 3f
       0.6035304 0.20695421 -0.45036185 1.3970495
000030 22 e3 8a 3e 87 f3 eb 3d 5d 83 e3 3e 7a 92 0c 3e
       0.27126414 0.115210585 0.4443616 0.13727751
000040 19 fe 73 be 6c 00 c6 be 17 5e 17 3f 8b c4 bb bd
       -0.238274 -0.38672197 0.59127945 -0.09168347
000050 d9 3c d8 be ee 34 93 3f aa 0c 3e bf cb 02 e2 3d
       -0.42233923 1.1500528 -0.74238074 0.11035689
000060 26 89 76 bc c3 e9 a5 bd cd ba 0f c0 20 86 28 3e
       -0.015047347 -0.08101227 -2.2457764 0.16457415
000070 ab 29 5a 3d bd 24 f4 bc ce 72 3f 3e b4 f7 e0 3f
       0.053262394 -0.029802674 0.18696138 1.7575593
000080 cd e4 15 3e 30 be 1d bd 14 8d 8f 3d 03 da d0 be
       0.14638062 -0.038511455 0.070093304 -0.4079133
000090 e4 dc 55 40 bd 5e 44 3e f3 7e 23 3d f0 01 64 bf
       3.341607 0.19176765 0.03991599 -0.89065456
0000a0 83 39 0f 3f 4d 09 02 40 8d d7 9c be 1b 71 d5 be
       0.5594713 2.0318177 -0.30633202 -0.41687855
0000b0 f6 12 a2 3e bd 9c 8f 3e 61 9d df 3e 78 98 41 3d
       0.3165509 0.2804927 0.43674758 0.047264546
0000c0 1e 12 a7 3b 9d 40 f7 bd 58 1d 0b 3f ca 52 dd bf
       0.0050985953 -0.12072871 0.5434165 -1.729089
0000d0 84 6e ca be 8d 2f d3 3e cc f5 05 3e 60 fd 45 be
       -0.39537442 0.41247216 0.13082045 -0.19334936
0000e0 06 f7 16 bf 23 6f ee 3e e1 b6 57 bf 1b 70 13 bf
       -0.5897068 0.46569166 -0.84263426 -0.57592934
0000f0 24 29 00 3f db 36 db 3f 60 a9 f8 3e e3 07 7c be
       0.50062776 1.7126116 0.48566723 -0.24612384
000100 c0 fd b3 3d 53 78 e0 be 88 34 37 be a8 d5 bb 3d
       0.08788633 -0.438418 -0.17891133 0.09171611
000110 88 59 01 3e ae e4 0f be 96 1b 03 be 6a c4 be bf
       0.1263181 -0.14052078 -0.12803492 -1.4903691
000120 97 6d 71 be 56 35 9d 3e f2 6e aa 3d 70 21 5c 3d
       -0.23576961 0.30704755 0.083219424 0.053742826
000130 76 a3 d8 be e8 5b 9b be d0 93 de bc 24 4d 41 3e
       -0.4231221 -0.30343556 -0.027170092 0.18877083
000140 bb fb 63 bd bf d2 0b bf 48 61 c2 3e 0d 31 de 3e
       -0.05565999 -0.5461845 0.37964845 0.43396798
000150 34 d9 b2 bb d1 55 08 be 0e d1 8a bf ee 8a d9 3d
       -0.0054580215 -0.13313986 -1.0845048 0.10622202
000160 f6 e5 e5 3e b0 18 dc 3d 6b f2 65 bd 84 d2 00 3f
       0.4490201 0.10746896 -0.05613939 0.5032122
000170 8e 63 97 3e 25 c4 70 be bc 23 c5 be 20 00 be 3e
       0.29568142 -0.23512323 -0.38503826 0.3710947
000180 91 a8 d1 3f c8 91 05 be 07 ec d5 be 46 39 1b be
       1.6379567 -0.13043892 -0.41781637 -0.15158567
000190 fd 97 dc 3e cd 54 13 3f 81 4c 22 3e e4 0d f9 bf
       0.43084708 0.5755127 0.15849496 -1.9457364
0001a0 3a 11 10 bf 5b c2 63 3c 6f d2 d4 3d 88 08 63 3c
       -0.56276286 0.013901318 0.103916995 0.0138570145
0001b0 71 80 94 be 7b 87 52 be 13 28 9a 3e 20 d8 e6 be
       -0.29004243 -0.20559494 0.301087 -0.45086765
0001c0 b3 83 bf 3d 41 73 92 be d0 2c ea be e3 e3 74 3e
       0.093512915 -0.28603557 -0.45737314 0.23915057
0001d0 bc 8d d5 3e c8 95 be 3e 08 d5 02 bf 54 89 fa be
       0.41709697 0.3722365 -0.5110631 -0.48932898
0001e0 33 c2 30 3e 6d 4f 3b 3f d8 4a 5d be 96 0d 03 be
       0.17261581 0.7316807 -0.21610582 -0.12798151
0001f0 49 59 94 be fe e7 8d 3e 7a 9c 76 40 d6 c6 67 bd
       -0.2897437 0.27716058 3.8533006 -0.05658611
000200 23 b9 4f 3e 47 20 8e 3e 87 90 44 be 07 26 e8 be
       0.20285468 0.27759 -0.19195758 -0.45341513
000210 22 98 a6 3e 7e e7 c9 be 5e 9a 33 3d f7 f0 37 bf
       0.32537943 -0.39434427 0.043848388 -0.7185206
000220 26 fa be 3f 63 d9 49 bf 58 d6 9b be e1 84 fa 3e
       1.4920089 -0.7884733 -0.3043697 0.48929504
000230 40 66 ac bd f8 e6 bc 3d 34 dc 9f 3e a2 e3 b5 bc
       -0.0841794 0.09223741 0.3122269 -0.02220327
000240 af 50 92 3d ee 95 9b bd 72 57 20 3f 20 40 5d 3e
       0.071442954 -0.07596956 0.6263343 0.21606493
000250 33 55 e3 be 5d 6a b0 be da 04 f6 bd 29 01 16 3f
       -0.4440094 -0.3445615 -0.12012644 0.5859552
000260 d5 88 7a 3e 38 3f 60 bb 77 2f b2 3e 8e 5b 6d 3e
       0.2446626 -0.0034217369 0.34801838 0.23179457
000270 ea 56 41 40 e9 46 a2 be 17 68 1e 3e 66 d8 14 3f
       3.0209298 -0.31694725 0.15469395 0.581427
000280 1a bb f4 be df 4d c9 be b2 16 11 3f 96 f7 97 3e
       -0.47798997 -0.39317223 0.56675255 0.2968108
000290 6a 95 66 bd a2 14 16 3d d3 cf 95 bf cd 4e c4 bf
       -0.056294836 0.03664077 -1.1704048 -1.5336548
0002a0 1b c4 ea 3d 10 22 96 3d 59 61 1e 3e e6 9a 45 3e
       0.114631854 0.07330716 0.15466823 0.1929737
0002b0 f7 55 09 bf 0c 63 f7 3e 99 37 04 3f 5f a6 30 3f
       -0.53646797 0.48317754 0.51647335 0.6900386
0002c0 b5 8c c8 bf 56 0a 06 be ed d9 62 bc 1d 06 eb be
       -1.566794 -0.1308988 -0.013845903 -0.45903102
0002d0 5d 31 20 bd b0 4a eb bf 96 91 ef 3c 19 4c af be
       -0.039109576 -1.8382168 0.029244225 -0.34237745
0002e0 27 29 2b 3d ac 85 2e bf c2 89 9b 3f 34 b1 b0 3e
       0.041787293 -0.6817272 1.2151415 0.34510195
0002f0 d0 c4 36 3e c1 3f 92 be f5 bc b3 3e e5 ac 1b bf
       0.17848516 -0.28564265 0.351051 -0.6081069
000300 e1 b0 82 3e e6 8b bc 3e db d4 01 3e f4 f0 ce 3d
       0.25525573 0.36825484 0.12678854 0.10104552
000310 a4 58 dc bf e2 04 cd 3d a9 0b d3 3e a1 9e 3d 3e
       -1.7214551 0.10010697 0.41219833 0.18517543
000320 c0 7e c7 3e 37 c3 00 c0 3a 11 02 bf 08 81 a6 bd
       0.3896389 -2.011915 -0.50807536 -0.081300795
000330 da 54 00 bc 1b 14 2e 3e 3d 2f a3 be 52 7b 08 3f
       -0.00783273 0.16999857 -0.31871977 0.5331317
000340 25 5b b1 be 7d ed cd 3e fc 49 c2 3e 42 ad 13 40
       -0.3463985 0.40220252 0.3794707 2.3074498
000350 5e 97 a2 3e e0 d5 bc be d5 7d 5f 3e 5f 3a e1 3d
       0.3175611 -0.36881924 0.21825345 0.109974615
000360 2a f1 02 bf 66 e6 8c 3e 48 cd 31 be d6 22 48 3e
       -0.5114924 0.2751953 -0.17363465 0.19544539
000370 4a af cf bd 36 fe f6 bd cd 00 2b be d6 f5 0c be
       -0.101408556 -0.12060206 -0.16699524 -0.13765654
000380 14 4b e4 3d 92 cc 0f 3f 2b bd d1 be 2f d0 b7 3e
       0.111471325 0.56171525 -0.40964636 0.3590102
000390 05 c7 fc 3d 45 c0 56 be ed 3d 0f be c5 65 e8 bf
       0.123426475 -0.20971783 -0.13988467 -1.8156058
0003a0 89 9b ab be 76 cd c2 be d7 1b 06 3f 42 28 03 bf
       -0.335171 -0.3804738 0.5238623 -0.51233304
0003b0 87 59 74 c0 20 0c 67 3e 4c 7c 84 be 42 42 b2 bd
       -3.8179643 0.22563219 -0.2587608 -0.08704044
0003c0 3d 7c 41 bf 87 58 61 c0 99 fc b3 3e 91 3c 46 3d
       -0.755802 -3.5210283 0.35153654 0.048397604
0003d0 22 8e 52 be 1a 46 69 3e a3 da 0c c0 17 f0 96 be
       -0.20562032 0.22780648 -2.2008445 -0.2948005
0003e0 32 b3 ad 3e 24 f9 f6 be 21 0b c6 be 40 20 94 3c
       0.33925778 -0.48236954 -0.38680366 0.018081784
0003f0 4c da 01 be 20 5b ae be 18 3c fa 3d 45 ac 1c bf
       -0.1268093 -0.34053898 0.12218493 -0.6120036

net.0.bias f4 [64]
000000 a1 ab 47 3e d0 f2 29 bd 5d 74 68 3e dd 2d c5 3e
       0.19499065 -0.04149133 0.22700639 0.38511553
000010 d3 a3 94 3e 5b e7 06 3f 81 0b 1c 3e 8f 80 6f 3d
       0.29031238 0.5269677 0.15238763 0.058472212
000020 0a 81 b4 3e 82 0a 46 3e bb 1f 8d bd 7c c9 f0 bd
       0.352547 0.19339946 -0.06890818 -0.1175718
000030 8e 8c 52 3d c3 08 a4 be a4 a2 05 3f 92 6a 8a be
       0.051403575 -0.32037935 0.52201295 -0.27034432
000040 3e b4 28 3e e0 88 6f 3e 27 9c cb 3e ef 7e a9 3e
       0.16475007 0.23392057 0.39767572 0.33104655
000050 21 ae 01 bf 47 0d 17 bd 8c df cc be 93 4b a6 3e
       -0.50656325 -0.036877897 -0.40014303 0.32479534
000060 ad ad e2 3e 06 8b 21 be 40 43 bd be ec 33 55 bd
       0.4427313 -0.1577569 -0.3696537 -0.05205147
000070 6a 18 cb be 73 c0 64 3e 1c 5b ea 3d b1 43 5e 3e
       -0.39667064 0.22339039 0.11443159 0.2170551
000080 15 ff 91 3e ce 9f c8 3d e7 1b 75 3e 51 8f de 3e
       0.28514925 0.09796105 0.23936425 0.43468717
000090 d8 e9 e8 3e f4 da 62 3e 6c 99 a8 bc e3 37 a0 bc
       0.4549091 0.22153836 -0.02058097 -0.019557899
0000a0 1d 65 06 3f 00 53 13 be b3 00 e6 3d de eb d5 3e
       0.52498037 -0.1438713 0.11230602 0.41781515
0000b0 7c c3 f6 bd ef e9 6e 3c 4f fe 85 3e 13 e2 b3 3c
       -0.120490044 0.014582141 0.26170585 0.021958387
0000c0 92 c3 bb 3e c8 49 4d 3e 06 59 3d be 94 03 59 3c
       0.36672646 0.20047677 -0.18490991 0.013245482
0000d0 23 b3 83 3e 9d 52 50 be eb c0 ad be 6d 34 75 3e
       0.25722608 -0.20344014 -0.33936247 0.2394578
0000e0 a4 5c e0 bd d9 25 bb bd fc 52 77 3e 58 fd 9f be
       -0.1095517 -0.09138078 0.2415275 -0.31247973
0000f0 01 85 13 3e b9 d6 84 3e eb f7 86 be 4f 5d 9f be
       0.14406206 0.2594507 -0.2636102 -0.31125876

net.2.weight f4 [64, 64]
000000 9c 65 34 3d 1f 9c 1c bf ab 3d 66 be 29 3f d2 bc
       0.044042215 -0.6117572 -0.22484462 -0.025664883
000010 b8 23 93 3d 43 2e f4 3d 5b 00 29 bd 95 fb 29 bf
       0.07184547 0.11922886 -0.041260105 -0.6639951
000020 c3 e7 98 3d 4e f7 56 3e ea 23 d2 3b c4 5a f6 bf
       0.0746608 0.20992777 0.0064129727 -1.924645
000030 13 56 13 3e ee d2 aa bd b8 de 04 bc e6 57 9e bd
       0.14388303 -0.08341013 -0.008109741 -0.07731609
000040 dc fb d4 bd af d6 2e bd 4a 4d 1a 3e c5 00 3a 3e
       -0.10399601 -0.042685207 0.15068546 0.18164356
000050 69 73 dc bf ab 87 d5 bc 38 70 49 3d 46 93 48 3e
       -1.722272 -0.026065668 0.049179286 0.1958743
000060 b0 1e 9a 3d 80 64 d9 3d 4b b7 84 3c 2b 8a d4 be
       0.075253844 0.10614872 0.016200682 -0.41511664
000070 2e bc e7 3d 20 01 48 be ec 2a 9a bb 78 90 b1 3b
       0.11315189 -0.19531679 -0.0047048237 0.0054188333
000080 6e ca 37 3d a2 dd 59 3f 47 59 95 3d c2 aa 52 3e
       0.044870786 0.8510381 0.07292419 0.20572951
000090 42 5a 89 3c 76 e7 08 bf 91 6b c3 bb 6c bd 8c bd
       0.016766671 -0.5347818 -0.0059637506 -0.06872067
0000a0 a1 72 40 3e 4d 25 89 3e dc 7d 35 3e 45 6c 02 3e
       0.18793727 0.2678627 0.17723793 0.12736614
0000b0 00 b0 7a 3c a2 44 3c 3e ca 4e 7e be 6e 12 cb be
       0.015300751 0.18385556 -0.24834743 -0.39662498
0000c0 ac 5e 8d be de 33 90 be 7c 61 2f 3d 68 bf e3 bf
       -0.2761129 -0.28164572 0.042817578 -1.7792788
0000d0 7c 81 42 bf ca 29 a0 3d 80 83 f5 3d 4d 09 c3 3b
       -0.7597883 0.07820471 0.11987972 0.0059520365
0000e0 1e a0 05 c0 9e f0 46 bf 57 96 8e 3d 70 18 f8 bd
       -2.0878978 -0.777109 0.06962269 -0.12114036
0000f0 b8 ee 75 3e 6b 9e d5 bc 49 0d 82 3e 5c bc 27 bf
       0.24016845 -0.026076516 0.2540076 -0.6552179
000100 d7 eb ee 3c 54 b6 29 3e 0e fb e2 3d fa 35 95 bd
       0.029165192 0.16573459 0.11083041 -0.07285686
000110 9c d3 e9 3e c0 b5 27 3d dd 16 a2 3d 3e 93 7e 3e
       0.45669258 0.040944815 0.07914517 0.24860856
000120 82 ab a5 bc 21 0f 3c bd ea 26 e6 3d 40 9b 25 3f
       -0.020223383 -0.045912866 0.11237891 0.6469002
000130 95 48 ab 3d 20 8b c7 bc 53 bb eb 3d 7c e2 f4 3d
       0.08363453 -0.024358332 0.11510339 0.11957261
000140 2c 15 03 bd f2 dd 17 bd fb 23 8e bc 0b 48 3e bc
       -0.032002613 -0.037076898 -0.017351141 -0.011613856
000150 d9 ae 8b 3f cc da d8 bd e4 94 79 3b 01 5e 71 bb
       1.0912734 -0.10588607 0.003808313 -0.0036829712
000160 59 d6 0d be fe 36 af ba 6e 7f 07 bd 6a cb d9 3e
       -0.13851298 -0.0013367829 -0.03308051 0.42538005
000170 2d 7e 94 3d 91 42 4c 3e 40 20 ce 3d 4b 3f d4 bc
       0.072506286 0.19947268 0.10064745 -0.025909087
000180 7a 4f 43 3c 2e 44 de be 2a 67 d7 3c ff c0 0e 3e
       0.011920804 -0.43411392 0.02629431 0.1394081
000190 84 a5 22 3e 65 c3 03 3e 98 66 e7 3d d3 82 12 bd
       0.15883452 0.12867506 0.11298865 -0.035769295
0001a0 81 dd b7 3d 1a 1a 84 bd 26 cf 4d 3d 98 9b b0 3d
       0.089777954 -0.06450291 0.05024638 0.08623427
0001b0 6b ab c3 3c 71 4c dd bd 3f dd 3b 3e f7 d7 b4 bd
       0.02388545 -0.10805596 0.18346117 -0.088302545
0001c0 75 3a db 3c fd 4e 84 3d 98 f2 bd bc 31 4e c7 be
       0.026761273 0.06460378 -0.023186967 -0.38926843
0001d0 79 07 60 3e e8 56 3c 3d d0 1a 5d 3c 78 58 db bb
       0.2187785 0.045981318 0.013495162 -0.006693896
0001e0 30 3f 3e 3e e1 81 fe be 3f 72 22 3e 7c cf b8 3d
       0.18578792 -0.49708465 0.15863894 0.090239495
0001f0 96 6e 08 be 6d b7 57 bd 33 8c 12 be 5e 0e a7 3e
       -0.13323435 -0.052665163 -0.14311294 0.3262815
000200 e9 a4 f4 bd 95 47 9f bf 8a b8 1b be ba 0f 9e bf
       -0.119455166 -1.244372 -0.15207115 -1.2348549
000210 90 aa 66 bd b9 24 0b 3e 88 5f 37 bd 35 62 e3 3e
       -0.056315005 0.13588227 -0.04476884 0.44410864
000220 a2 8d 68 be e5 bd a1 3d 07 b6 22 bf ad a0 41 3e
       -0.22710279 0.07897548 -0.63559 0.18908949
000230 71 0a a3 3d 40 b0 52 bb df 41 a3 bd c0 1a 09 3b
       0.07960976 -0.003214851 -0.07971548 0.0020920485
000240 b1 7b 0b bd 21 1e 8d bd 4b 99 1b 3e 98 04 28 3d
       -0.03405351 -0.06890512 0.15195195 0.041020006
000250 94 7c 20 c0 6f 46 bb bd e0 33 a1 3c eb f4 da 3c
       -2.5076036 -0.091442935 0.019678056 0.026728114
000260 a3 29 f4 3d 84 39 05 40 ba 42 90 ba e6 11 d4 3d
       0.11922004 2.0816355 -0.0011006214 0.10354976
000270 68 2e 33 3d a3 74 30 3e 40 63 d6 3c 25 2f d8 bf
       0.04374543 0.17231993 0.026170373 -1.6889387
000280 df f3 10 3e 58 e7 c6 bd a4 60 9e be 2c 36 f7 3e
       0.1415553 -0.09712094 -0.30933106 0.48283517
000290 e1 37 d6 3c 8a 7a ee 3d ba b4 8e 3d 90 4b 46 3e
       0.026149692 0.11644466 0.069680646 0.19364762
0002a0 26 e4 57 bf 11 cd c3 bd f9 5f 7a 3d 05 05 cf bd
       -0.843325 -0.09560598 0.061126683 -0.10108379
0002b0 80 03 cd 3d 9b 3e 45 3e 8e 8f df bf c5 e9 d2 be
       0.10010433 0.19262163 -1.7465684 -0.41193977
0002c0 49 11 16 be e6 46 ac 3e 24 b2 51 bd 79 d0 0b be
       -0.14655031 0.3364784 -0.05119528 -0.13653745
0002d0 1c 5d 9d 3e 62 ac d5 bd 08 7a 03 bd 74 45 4a bf
       0.307351 -0.1043327 -0.0320988 -0.7901223
0002e0 d1 0c 90 3d cf 94 fc 3e 97 db 6a bf 3a 4e d1 3d
       0.070336945 0.49332282 -0.9174132 0.10219999
0002f0 8b 69 39 3d 29 a7 c7 bd fa 12 23 c0 88 13 b0 3f
       0.04526667 -0.0974868 -2.5480332 1.375596
000300 18 67 10 bd 86 a9 dc 3d 58 7d 3d bd 8c 78 fe bd
       -0.035254568 0.107745215 -0.046262115 -0.12425336
000310 3e 04 a2 3d 28 18 e4 bc 50 65 75 3c 24 dd cf 3d
       0.079109654 -0.02784355 0.014977768 0.10149601
000320 a8 1b 10 bd 4a d9 ae bd f0 a2 01 bc 06 d8 f4 3d
       -0.035182625 -0.08537538 -0.0079123825 0.11955266
000330 ac 49 11 bd e4 f6 4f bd c0 1e 8f bb fc 52 b3 bd
       -0.03547065 -0.050772563 -0.0043676794 -0.087560624
000340 40 f6 49 3b e8 7d 6a bd d8 af a4 3c 78 0c c0 bc
       0.0030816942 -0.05724898 0.02010338 -0.023443446
000350 00 7e cd bc c0 d8 19 3c 5e 2b c3 bd fc 17 c1 bd
       -0.025084496 0.009390056 -0.09529756 -0.09428403
000360 c4 63 c0 3d 5c 73 ca bd 0a 05 a8 bd 60 2c 32 bd
       0.09394029 -0.09885284 -0.08204086 -0.04349935
000370 b8 5c 68 bd 5c 83 91 3d 8e d9 b9 bd 00 37 fd 3d
       -0.05672905 0.07105133 -0.090746984 0.12364006
000380 4a 48 a9 3d a0 d3 ca 3c 5c e2 a2 bd 60 ad 29 3d
       0.08265741 0.024759114 -0.07953331 0.04142511
000390 f2 61 d6 bd 16 c3 87 bd ae c4 b3 3d 2c da 4d 3d
       -0.104679 -0.066290066 0.08777748 0.050256893
0003a0 00 dc ad bd 90 d3 c7 bc d6 4d fc 3d 00 cf a8 bb
       -0.08489227 -0.024392873 0.123195335 -0.0051516294
0003b0 e0 85 b7 bd 78 e0 a0 3d 10 df f0 bc 9c 14 4f 3d
       -0.089610815 0.07855314 -0.02940324 0.050556764
0003c0 ba 56 91 3d ee d7 a4 3d fa 38 f1 3d 22 ba 9d 3d
       0.0709662 0.08048998 0.117784455 0.07701518
0003d0 fa c9 d6 bd 9e 8c ca 3d 60 fa c2 bd 3a ad ec 3d
       -0.10487743 0.09890102 -0.095204115 0.11556478
0003e0 b0 c4 5a 3c c4 34 81 bd e0 69 5b bd 76 27 b1 bd
       0.013352558 -0.06308892 -0.053567767 -0.08650105
0003f0 38 88 b3 bc 20 88 fa bd 10 45 85 3d c4 ed 4f bd
       -0.02191554 -0.12232995 0.06507313 -0.05076386

net.2.bias f4 [64]
000000 0e 98 b7 3c 2b 2e b7 3d f8 2b 23 bd a4 52 ec bd
       0.022411373 0.08944353 -0.039836854 -0.115392
000010 8e 29 f0 3c 98 70 97 3d ae 36 24 3e 97 bb 11 3e
       0.02931669 0.073945224 0.16036484 0.14231716
000020 9d ef 90 bd 95 e4 90 3d a3 5f b5 3d 74 48 1a bd
       -0.070769526 0.070748486 0.08856132 -0.037666753
000030 98 4d 1e 3c 26 e6 d0 3d 0e 28 0d 3e a2 a2 13 3d
       0.0096620545 0.10200147 0.13784811 0.03604377
000040 1c 98 9c bd b8 91 b6 bd 89 d6 13 3e 43 78 53 ba
       -0.076462 -0.089145124 0.14437307 -0.00080669316
000050 34 30 ec bd 0a 9e ee bd ca 38 ce 3d fb 0a 30 bd
       -0.115326315 -0.11651237 0.100694254 -0.04297922
000060 cd 02 04 3e a0 ac 5f 3d e2 c4 46 bc c0 32 c1 3d
       0.12891693 0.054607987 -0.012131901 0.09433508
000070 84 d7 0d bd 35 ba 9e bb a1 d4 7e bd be 0a cd 3d
       -0.03462936 -0.004843975 -0.062214497 0.100118145
000080 b5 39 3d bd 07 fc 83 3b 85 d6 de 3b aa 67 be bd
       -0.04619761 0.0040278467 0.006800475 -0.09297116
000090 a2 83 dd bd b8 a5 d6 ba 1a c2 5d 3d 88 34 b6 3d
       -0.108161226 -0.0016376292 0.054140188 0.08896738
0000a0 e7 99 66 3d 86 e9 6e bd 82 d0 21 b8 3a e3 ff bd
       0.056299116 -0.058328174 -3.857958e-05 -0.12494512
0000b0 36 d4 b5 bc 78 01 24 bc 57 b7 bb 3d cb 5d 50 bd
       -0.022195917 -0.010010116 0.09165829 -0.050870698
0000c0 08 63 27 bc 7a 8c 83 3d ec 4c bf 3d 5e 51 85 bd
       -0.010216482 0.06423278 0.093408436 -0.0650966
0000d0 20 bd ea 3d 45 81 ef bc 7b 3d 2d 3d 15 7f 89 bd
       0.11461854 -0.029236445 0.04229496 -0.06713692
0000e0 4a c9 fd 3c 22 9e 03 bd f6 47 3a be e5 a1 e8 3d
       0.030979771 -0.03213323 -0.18191513 0.11359004
0000f0 f7 35 dd 3d 9a da f5 bd bf ae 4a 3d 7e 34 0b bd
       0.108013086 -0.120045856 0.049483057 -0.033985607

net.4.weight f4 [2, 64]
000000 b6 0e 9d be ad 5f ff 3d 30 29 25 c0 cc 3e ee bd
       -0.30675286 0.124694206 -2.580639 -0.11633071
000010 89 2b da 3d d3 2e 44 be f8 24 58 3f b3 f6 94 be
       0.10652835 -0.19158487 0.8443141 -0.29094467
000020 ac 8a c6 bd 8f 32 b2 3e 6b 5d b4 3d ac 86 e8 3d
       -0.09694418 0.34804198 0.088068806 0.113538116
000030 8a 85 22 3e a8 16 e1 3e 94 cc 30 3e 35 74 c5 3d
       0.15871254 0.43962598 0.1726554 0.09641305
000040 bc b6 0c c0 b9 74 7a be 33 e9 8c be d9 ad 53 bc
       -2.1986532 -0.24458589 -0.27521667 -0.0129198665
000050 76 59 13 3e 0f f6 2a bd df a7 b7 be 9b ad f7 bd
       0.14389595 -0.041738566 -0.35870263 -0.120936595
000060 a0 d9 8b 3d 42 fe 97 be 73 fe 19 be aa bc ae be
       0.06828618 -0.2968617 -0.15038471 -0.34128314
000070 38 c6 86 be 00 96 03 3f 56 68 a7 be 34 a1 3b 3d
       -0.26323104 0.51400757 -0.3269679 0.045808032
000080 a7 96 ec 3d ec fd 44 3e 4d 11 18 be 53 0d 06 3e
       0.11552172 0.19237489 -0.1485035 0.1309102
000090 98 6d 56 3d 98 96 b1 bc 14 51 c3 be 30 e9 af be
       0.05235061 -0.021678254 -0.38147795 -0.34357595
0000a0 c2 7d 84 bf 2a 2a 88 bd a1 88 00 be ec ce 73 bd
       -1.0350878 -0.06648667 -0.1255212 -0.059523508
0000b0 39 7d 0c 3d 7e 6b a6 3d c0 f9 1c 3e 20 88 4e 3e
       0.03429911 0.08125971 0.15329647 0.20169115
0000c0 92 53 03 3d 0f 29 8b be 89 57 34 3e 63 9b 07 3f
       0.03206212 -0.27179763 0.17611517 0.52971476
0000d0 e5 47 dd be 9f 15 d9 bd f7 81 9a bf 22 9f 36 3d
       -0.43218914 -0.10599827 -1.2070912 0.044585355
0000e0 a7 f0 f1 be d3 40 57 bf 1a 12 3a 40 0f 79 ab be
       -0.47253916 -0.8408329 2.9073548 -0.33490798
0000f0 d4 e9 4d 3e f8 d8 f7 3e a1 b4 8b bc b5 3f 58 3e
       0.2010873 0.48407722 -0.017053904 0.21118052
000100 cc 6c 9c 3e a2 0e e5 bd 37 4a 23 40 98 0d 94 3d
       0.30551755 -0.111844316 2.5514047 0.07229155
000110 1f 02 83 be e9 e1 d0 3d 1b 2e 47 bf 02 d2 a1 3e
       -0.25587556 0.10199339 -0.77804726 0.31605536
000120 6e f3 1d 3c ba ee e7 be 79 c9 ca bd fa a1 d7 3d
       0.009640558 -0.4529932 -0.09901709 0.105289415
000130 98 a1 32 3c f1 61 ef be d7 e4 d0 bd 3b b6 ff bd
       0.010902785 -0.4675441 -0.10199898 -0.124859296
000140 0b c1 0b 40 c9 33 4b 3e 0c 6f 85 3e 31 58 ec bd
       2.1836574 0.19843973 0.26061285 -0.11540259
000150 7d c7 de bc 8a 1d 1c bd 27 c9 04 3f 7a 8c 1b 3e
       -0.027194733 -0.03811411 0.51869434 0.15190306
000160 e0 f4 1f be 2b 46 87 3e e3 ad 51 3e 5f 0d a1 3e
       -0.15620756 0.2642072 0.20476489 0.31455514
000170 ba b7 a9 3e 03 01 04 bf 34 a2 e2 3d 74 98 ce 3d
       0.33147985 -0.51564044 0.11066094 0.10087672
000180 26 2a db bd 8e 03 45 be 03 88 5f 3e 04 7f 1d be
       -0.107013986 -0.19239637 0.21829228 -0.15380484
000190 b0 3c a9 3d 81 89 68 3d af fb b4 3e c3 5a a7 3e
       0.08263528 0.05677176 0.3534827 0.32686433
0001a0 d2 cc 81 3f 67 31 b5 bc 3d e4 42 3e c8 23 7c bd
       1.0140631 -0.022118283 0.19032378 -0.06155756
0001b0 ec 11 b8 bd 9e 25 ff bd 91 90 2a be 3f c3 ad bd
       -0.08987793 -0.12458347 -0.1665671 -0.08484506
0001c0 32 ec df 3c eb 50 86 3e db ac 64 be e2 eb fe be
       0.027334306 0.2623361 -0.22331564 -0.4978934
0001d0 ef 6a 98 3e e3 90 cc 3c c2 b7 9f 3f 67 12 14 bd
       0.29769084 0.024971431 1.2477953 -0.036150362
0001e0 da 4b bc 3e 38 ab 4d 3f 93 77 49 c0 40 40 1a 3e
       0.3677662 0.80339384 -3.1479232 0.15063572
0001f0 d0 a0 44 bd ad 14 05 bf 65 e3 bc 3d 00 c7 be 3c
       -0.048004925 -0.51984674 0.092230596 0.02328825

net.4.bias f4 [2]
000000 a4 09 53 3d b1 72 af bd
       0.051522866 -0.085667975
