models/flappy-bird-cross-entropy-advanced-64x64-real.pt (torch_old, 137472 bytes, 8 tensors)

net.0.weight f4 [128, 5]
00000000: 9bc0 f03e 4631 f13e 035c d4bd 0309 e73c
00000010: 7925 d5be c507 fbbe cccd f5be 8416 163e
00000020: 7c5b bcbe 6741 de3e 9706 533e 5dcd 77be
00000030: 224a a5bd 530f 18be 2482 c8bd b552 273e
00000040: 879d 8a3d 63d8 32bd e275 3639 3042 9e3e
00000050: 1425 a8be 404a 13bf e289 d63e 0921 8fbe
00000060: 4920 a6be 6850 933d ee5a 29bf 0add bdbe
00000070: 6981 363e 0677 a6bd afb7 ebbe 27d2 cabe
00000080: 87ca 8a3e 78f8 c63d 6ded ea3e c640 803e
00000090: 1f08 07be 19a3 e23e 672d 0abd 3dfc ac3e
000000a0: d415 b23e e605 323f 9f89 3e3e df85 ee3d
000000b0: 5461 303e 352f b03e 1ed4 193e 0879 9b3e
000000c0: eff9 83be 76a5 9fbe 8b30 5a3d 307d d4bc
000000d0: b733 f43b 3548 733d ff74 14bd e087 b93e
000000e0: 4d6e 20bf 88d7 28be a85b ba3d 086b 2fbd
000000f0: 1b3f cc3e 14cc 4cbe b327 67be 5c50 b5be
00000100: 1356 43bd 6e0f a73e bf43 74be 00d6 c43d
00000110: e715 803d fbf8 89bf eda5 87be 13e8 a4be
00000120: 48eb c13e 6401 b5bd 51d7 e33e c0b1 c53d
00000130: d86d 073d 6825 bd3d 44c2 96be 14d2 c9bd
00000140: 9ceb 98be f04a eabd b8a5 61be 8d8e bdbe
00000150: 69d3 063e 0082 2e3b 1852 333e 8801 08be
00000160: 6c90 1a3e 9812 afbd de13 e8be 7a8e a53e
00000170: 62b4 83be e005 76be 241f 193e 051f 813d
00000180: 46e3 a6be c808 78be 5ae0 1abd c65c 2a3e
00000190: 7ebd cb3d 5302 ac3e a2f4 21be 63d1 1bbe
000001a0: 706f 4e3e c9c2 a33e 33e5 b33d 5b8d f8bd
000001b0: 3d0a ac3d 49de 46bd 9de5 473d e746 4cbf
000001c0: 2618 eb3e ae88 663e 3291 18bf a21d bd3e
000001d0: 4c28 1abf c39a 09bd ec86 58be e23c 70be
000001e0: a055 86bd e979 f13d d623 2e3e a08b ce3d
000001f0: c1c9 adbe 5957 903e fe29 b53e 5f16 853e
00000200: 5818 b13e 1b34 273e e3f8 41bf c43f 083e
00000210: 6576 d03e abfd 75be 6f9b debd ea80 d93e
00000220: f094 003f 00ce 47be 28e8 963e 8472 8ebe
00000230: 01c5 bdbd 73a5 153f 782e 6cbe 711c 28bc
00000240: c885 edbe 0c4d 92be 74d1 773f 14b8 2abf
00000250: 6633 fb3e 7b90 81bc b6c3 963e d0b9 fcbd
00000260: 188d bb3e b9ff c13e c050 a3be ccdf 6c3e
00000270: e48e 8d3e f0a6 0abd f08c 913c 18b7 9bbe
00000280: c44a 0f3e c0b9 893e 20a1 6e3d 75a5 c4be
00000290: d854 afbe 59ba 34bd b1ea 733d 5933 193e
000002a0: 2b57 8c3d 4752 ce3e c291 71be 2476 863d
000002b0: 268c 843c 1de3 58bd 8179 d33e ccc4 ae3e
000002c0: 1911 653e 36b8 a03e 4679 35be a51f 6a3e
000002d0: 53ae d23e f99a cabd 9594 413e ce9d b0be
000002e0: c5a3 a43e 296e dbbd c675 713d 67a6 523e
000002f0: 302b d73e 2714 a03d ac3e 40bd 18eb e1bd
00000300: 3a09 cfbe 295c ce3e 23ae 093e a000 683d
00000310: 9089 a43d 7614 c6be 9c04 d3bd a81f d1bd
00000320: 046c 84be 38b5 3dbe bb8b e4be 0a8b a0be
00000330: 5020 8abc 24f8 e6bd 8a0b a93d 0670 76be
00000340: cbfb d3be 2e88 aebe 8808 a1bd 89e8 72bb
00000350: c9bb 393e c0d3 2abf 1f8f 003e d353 fcbe
00000360: 4835 01bf 8288 e63d 18af b8be bfcb b3be
00000370: 7b95 c13e 04d5 6fbd ec43 b93d c2c1 b93e
00000380: 97c7 d93e fd15 773e b89d c9be 3774 dabd
00000390: 90a2 1ebc 0c2a 5b3d b21d ccbe 443b ac3e
000003a0: 3584 083d a824 52be b0a1 d13d db19 b73d
000003b0: 1699 f9be 9d2b a83e 2c53 60be 6600 aabe
000003c0: e9a2 2dbe d9ac 163f 5501 773e 21f7 9b3e
000003d0: 26eb 07bf deee 713e fd4e e73e 7080 7a3e
000003e0: 2149 acbe 146e e33c bf8a cdbe 5b04 d8be
000003f0: 2d00 c3be 124c 40be 0ff5 c2be 491e a8be
0.47021946 0.47107905 -0.10369112 0.02820254 -0.41630152 -0.49029365 -0.48008573 0.14657027
-0.36788547 0.43409273 0.20607983 -0.24199434 -0.0807078 -0.14849596 -0.09790447 0.16340144
0.06768327 -0.043663394 0.00017400787 0.30909872 -0.32840788 -0.5753517 0.4190207 -0.2795489
-0.32446507 0.07193071 -0.6615437 -0.37082702 0.17822804 -0.08128171 -0.46038577 -0.3961346
0.2710764 0.097153604 0.45884266 0.25049418 -0.13186692 0.4426506 -0.033734705 0.33786193
0.3478228 0.6954025 0.18607186 0.11646628 0.17224628 0.34411016 0.15022323 0.30365777
-0.25776622 -0.31180924 0.05326895 -0.0259386 0.007452454 0.059395034 -0.03624439 0.36236477
-0.62668306 -0.16488469 0.09099513 -0.042826682 0.39891896 -0.19999725 -0.22573738 -0.35412872
-0.04768951 0.3262896 -0.23853968 0.0961113 0.062541775 -1.0779108 -0.2649378 -0.3220831
0.37874818 -0.08838156 0.4450021 0.09653044 0.03306374 0.0923565 -0.29445088 -0.09854522
-0.29867256 -0.114400744 -0.22035873 -0.3702282 0.13166584 0.002662778 0.17511785 -0.13281834
0.15094155 -0.08548468 -0.45327657 0.32335263 -0.2572356 -0.24025679 0.14953285 0.06304745
-0.3259527 -0.242221 -0.037811615 0.16636953 0.09948252 0.33595523 -0.15815976 -0.15216593
0.20159698 0.31984547 0.08783951 -0.121363364 0.0840039 -0.04855183 0.04880296 -0.7979569
0.4591686 0.22513077 -0.5959655 0.3693667 -0.6021774 -0.033594858 -0.21145219 -0.23460725
-0.065593004 0.11790831 0.17005858 0.10085225 -0.3394299 0.2819164 0.353836 0.2599363
0.34588885 0.1632847 -0.75770396 0.13305575 0.40715328 -0.24022548 -0.1086949 0.42481166
0.5022726 -0.19512177 0.29473996 -0.27821743 -0.09266091 0.5845558 -0.23064601 -0.010260687
-0.4639113 -0.28574407 0.96803975 -0.6668713 0.4906265 -0.015815964 0.2944619 -0.123401284
0.36631083 0.37890413 -0.31897545 0.23132247 0.2764808 -0.03385061 0.0177674 -0.30413127
0.13993365 0.26899529 0.05825913 -0.38407484 -0.34244418 -0.044123027 0.05954999 0.14960994
0.068525635 0.40297148 -0.23590758 0.06565502 0.01618011 -0.052950967 0.41303638 0.3413452
0.22369803 0.31390542 -0.17722043 0.22863634 0.41148624 -0.0989284 0.18904336 -0.34495395
0.32156196 -0.10714371 0.058950208 0.2057129 0.42025137 0.07816344 -0.04693477 -0.11031169
-0.40436727 0.40304688 0.13445334 0.05664122 0.080340505 -0.38687485 -0.103036135 -0.10211116
-0.2586366 -0.1852616 -0.44637856 -0.31356078 -0.01686111 -0.11277798 0.08254154 -0.24066171
-0.4140304 -0.34088272 -0.07862955 -0.0037064871 0.1813804 -0.66729355 0.12554596 -0.49282703
-0.50471926 0.112565055 -0.36071086 -0.35116383 0.37809357 -0.058552757 0.09046158 0.36280638
0.42535087 0.24129482 -0.39378142 -0.106666975 -0.009682313 0.053506896 -0.39866406 0.33638966
0.033329207 -0.20521796 0.102359176 0.089404784 -0.48749608 0.32845774 -0.21906728 -0.3320343
-0.16956677 0.58857495 0.24121602 0.30461982 -0.53093183 0.23626277 0.4517745 0.24463058
-0.33649543 0.02776245 -0.40144917 -0.42190823 -0.38086072 -0.18779019 -0.3807759 -0.32835606

net.0.bias f4 [128]
00000000: 0637 ff3e d681 66be 4e13 7c3e 7717 093d
00000010: bceb da3e a34e 483e 9c7a d5be c474 e3bd
00000020: a14d 943e e512 e63e 0cd2 02be dbb8 cc3e
00000030: cae2 533e 3856 cdbe 182c bf3e f61d a2be
00000040: 4761 d63e f037 bbbe 273e 383e 002f c73e
00000050: 69da e63c cff8 d33d 7ce8 e0be 560e 9f3e
00000060: 37ab 6b3e f64d a8bd 57ae d23c 515b 6dbe
00000070: 47a0 a13e e67a 85be 295a b6bd 4f4a b1be
00000080: 7189 95be 29bb 8e3e 1775 9ebe 56cb c53d
00000090: f578 debc fa83 30be cabe 3b3e bce5 d5be
000000a0: ca08 c6be a240 d53e 4ec1 88bc 9838 28bd
000000b0: a89d 52be a5fa 4d3e dbc7 bb3e 4300 8bbc
000000c0: 64ae 85be aff0 a23e ffc7 9dbe 43f1 873e
000000d0: 3122 c7bd 8fdb 843e 281e a13e e90f 8f3e
000000e0: 0bb3 cdbe 6d5a 15be f227 cf3d 31c4 89be
000000f0: 8579 c1be 1323 5bbe ac30 d0be f18e 3ebd
00000100: 60d8 14bd 69e8 893e 53b7 483e 1dfd a93e
00000110: d546 d93e 8f6f e1be 945e 79be bd1f 393e
00000120: eb29 e3bc 2a6c 5a3d 0780 97be f8e4 a5bd
00000130: 41d0 8abe a3fa ae3e f9e8 843e 65cf 453d
00000140: 1425 52be 89a4 de3d 17d4 2c3e 9527 5d3e
00000150: 7774 cdbe ea45 94be 7456 2bbe 7ee0 b7bc
00000160: 5647 d4be 4945 b73e 10ff d93e 98d2 0c3e
00000170: cc39 9ebe ea77 f93d c74d 2fbe 8a7a b63e
00000180: 0432 38be dc83 de3d 10e8 a83c b1b4 15bc
00000190: a2bd a83e 8c2a 373e 2ff5 883e bd61 8abe
000001a0: a0a8 523e e68b 42be b956 bb3e 2390 8ebd
000001b0: 083e 6abe bb7e 64be 0f94 7f3d a946 1a3d
000001c0: 9d3c 523e 4758 b33e dca6 8a3e 10ad 363e
000001d0: 8c24 80be a842 9bbd e600 7fbe 6f89 3f3d
000001e0: 5c46 76be 137c d53e bf1e 9b3d c0b1 81bd
000001f0: 9101 d43e 555f 753e a61a c53e 99c3 9c3e
0.49846667 -0.22510466 0.24616739 0.033469643 0.42757976 0.19561248 -0.41695106 -0.11106256
0.28965476 0.4493629 -0.12775439 0.39984784 0.20691982 -0.40104842 0.37338328 -0.31663483
0.41871092 -0.36566114 0.17992459 0.38903046 0.028180318 0.10350191 -0.43927372 0.31065625
0.23014532 -0.08217995 0.025717897 -0.23179366 0.31567594 -0.26070327 -0.089039154 -0.34627005
-0.29206422 0.27877167 -0.30948707 0.09657924 -0.027157286 -0.17237845 0.18334499 -0.41776836
-0.3867858 0.41650873 -0.016693737 -0.041069597 -0.20567954 0.20115145 0.36675915 -0.016967898
-0.26109612 0.31824252 -0.30816647 0.26551256 -0.09723318 0.2594876 0.3146832 0.27941826
-0.4017566 -0.14585276 0.10115041 -0.26907495 -0.37788025 -0.21400099 -0.40662134 -0.04652304
-0.036339164 0.26935127 0.19601183 0.33200923 0.42436853 -0.44030425 -0.24352485 0.18078513
-0.027729949 0.05332581 -0.29589865 -0.08100313 -0.2711201 0.34175596 0.25958994 0.04829349
-0.20521957 0.10871226 0.16877781 0.2159713 -0.40127918 -0.2895959 -0.16732198 -0.022445913
-0.41460675 0.35795048 0.4257741 0.1375221 -0.3090347 0.12181075 -0.17119513 0.35640365
-0.1798783 0.10864994 0.020618469 -0.0091373185 0.32957178 0.17887324 0.2674956 -0.27027693
0.20572138 -0.1899868 0.36589602 -0.06961086 -0.22875226 -0.22313969 0.06239706 0.037665043
0.20530935 0.35028288 0.2708043 0.17839456 -0.25027883 -0.07581073 -0.24902686 0.046761926
-0.24050277 0.41696224 0.07574224 -0.06332731 0.41407445 0.23962148 0.38496894 0.3061798

net.2.weight f4 [128, 128]
00000000: 2189 2dbd f98d 843c 9b2e dbbd 8323 8f3d
00000010: e473 363d 1278 773d fe1b 8bbe ab16 2bbc
00000020: 160a 3c38 3bb8 75bc 7c39 86bc 209f 9dbd
00000030: 95fb efbe 508b a4bb 3093 38bd 7c85 a3bd
00000040: cef4 103e f6b7 8abd a934 4b3e a471 9b3d
00000050: 7184 3e3d bd05 113c 8f9a 9dbd a3e0 09be
00000060: 6886 fdbc 13ac 6abd 4aa7 8d3c 4f77 69be
00000070: f502 12be 3209 423e 77c4 0abd bae9 86bd
00000080: 56ed 7cbd 2d00 f9bb 89ee a73d 582d 2ebd
00000090: 68c3 033d 35c8 49be 513d 853d e08f 0d3b
000000a0: 8074 333a e2d6 623e d658 80bc 61f2 a43d
000000b0: 5f77 67bd 9a14 a9bc ffbb 5e3d 50b8 183d
000000c0: 7d89 41be 9c46 82bd cca2 8f3c aa6c 743d
000000d0: bf4c 0fbd de78 64bd 25bf 9d3d 1bd6 813d
000000e0: 3aac f8bc 460f adbe 7cbd 6dbd a0b6 bcbd
000000f0: e244 473d aaf9 d2bc 5026 aabd e780 bebb
00000100: 80cf 723b 7cd7 b73d af9d e73c 45ea 283c
00000110: 4d2a 2f3d f0d8 733e 6e88 2f3d aba3 063f
00000120: ec59 043d ad28 1b3d 5d98 afbd 1e21 b0bd
00000130: 769e 76be 2d6b bdbd 44e5 193c 5f39 fe3d
00000140: c54d babe 1e98 f439 97b3 8cba 89f6 013e
00000150: 936b e8be 5a11 9cbd e0b1 5abb 3891 73bd
00000160: 90a5 563c 636a 9e3d 7cb6 97bd 28bc af3d
00000170: 88d0 f03c 5927 e9bd 9932 c0bd c1b8 d7bd
00000180: 7623 0ebd df22 cb3d 803d 78bd 962b 8dbd
00000190: b935 22bc 6c5c 013d 3190 13bd 0282 07bf
000001a0: 31d6 093e 641a bbbd 45eb b33d 86e5 08bc
000001b0: 899e b13e 1ddd 1cbe fb6d 5bbd 6eb3 443d
000001c0: d974 82bc cbbe a83d 59e3 433d 5dbd 70bb
000001d0: aa05 82bd b31f 86bd f36f 9a3d ea80 303d
000001e0: 8164 5dbe e52d 053e dc5b dd3e 1ff8 4f3d
000001f0: c66d 853a f029 713d 0ac7 54bd 4988 4cbc
00000200: 3464 60bd ad57 1c3d 665c 0bbd 9bc7 343c
00000210: 3e5d a3bc 7f74 6b3d 0118 ddbd 3f8c 843d
00000220: df06 b2bd ccd5 203d 5925 4a3d a6ff 0f3d
00000230: 1ff7 d9bd 2ee8 c83e 04a6 b93c 9004 913c
00000240: 83e8 053e 8c48 82bd bb22 ca3c 6084 9d3d
00000250: 87a7 fe3d 6557 193d 39d0 c1be 3648 183d
00000260: 0266 f0bd 024f 983d f918 4a3c 3fd5 adbd
00000270: 0d54 aa3d 9232 85be f9de 9d3d 2faa 913d
00000280: e046 f3bb db27 f63c e73a 373e 6bdd 183d
00000290: 983f 9f3d 1427 10be 6c2f b53d a20e d5bc
000002a0: b000 cabb 3d87 823c 6601 9cbc eef1 ab3d
000002b0: cb61 873d 9fc5 9d3c 9d28 fb3c 11d4 d0bd
000002c0: 12a1 08bd 18a4 783d a81a 0a3d f1a5 e7bb
000002d0: 6d1f f0bd 9fab b2bd fc36 ba3d a195 d93c
000002e0: 1171 83bd fb64 f0bd 227e ab3c cf41 d53d
000002f0: 3432 24bd 9e5b b03d 4e55 7fbd ae3c d73a
00000300: 5020 7c3c 3e10 f83c efab 0c3e 02c5 8fbd
00000310: 29b8 363d 1fa5 cb3d a6fd 0e3d 520a 073e
00000320: c8cb f3bc 2a8f 1a3d 3eb9 56bd 4097 c33c
00000330: 713b 08bb 63e1 b43d 49e0 85bd 11a4 433d
00000340: a5ba 503d fae3 7cbd 6404 873a 8d3d 6b3d
00000350: 49ee a03d 28d9 91bd 0c33 70bc 27e3 27bc
00000360: e07f 813b 133e bdbd 03a5 b1bd 805d 80bd
00000370: 092e 923d eed7 12bd b4ca ffbb 2080 81bd
00000380: be27 edbc 3179 58bc b9b6 b23d 79b2 e33c
00000390: 6fe1 03be be65 943d e574 583d 6869 bbbb
000003a0: 5f8d 893d f10b 3b3d 963e 9d3d bef1 4b3b
000003b0: 51cd 133e d65b c7bc 6c9b fdbc a8c9 bf3d
000003c0: 0b1d 0f39 2830 9f3d 3205 abbd e48c bf3d
000003d0: 3fbf 49bd c60a a1bc e6af 223d 0c87 6abe
000003e0: 446a 083e edca 37bc 80f7 9ebe 5a76 573d
000003f0: a7a5 75bd 440a 06bc 0a9c b63b 8bda 05bd
-0.042367104 0.01618098 -0.10702249 0.06989195 0.044544116 0.060417242 -0.27169794 -0.010442416
4.4832086e-05 -0.014997537 -0.016384833 -0.07696366 -0.4687163 -0.00502149 -0.045062244 -0.079844445
0.14155886 -0.06773369 0.19844307 0.075900346 0.046513025 0.008851466 -0.07695495 -0.13464598
-0.030947879 -0.05729301 0.017291684 -0.22799419 -0.1425894 0.1894882 -0.03387877 -0.065875486
-0.06174978 -0.007598898 0.08199794 -0.042523712 0.032168776 -0.19705279 0.06505836 0.0021600649
0.0006845668 0.22152284 -0.01566736 0.080540426 -0.056510326 -0.020639706 0.054378506 0.03728515
-0.18900104 -0.06361124 0.017533682 0.059673943 -0.0349853 -0.05577933 0.077024736 0.063396655
-0.030355562 -0.33800715 -0.058042035 -0.092145205 0.048649676 -0.025753815 -0.08308089 -0.005813706
0.003704995 0.08976647 0.028273432 0.01030976 0.04276495 0.23813224 0.04285472 0.5259349
0.03231232 0.03788059 -0.08573983 -0.086000666 -0.24083886 -0.09248958 0.00939304 0.124132864
-0.36387458 0.00046652643 -0.0010734674 0.12691702 -0.45394573 -0.07620497 -0.0033370182 -0.059464663
0.013100997 0.077351354 -0.07407853 0.0858081 0.02939631 -0.11384458 -0.09384651 -0.10533286
-0.034701787 0.099187605 -0.060605526 -0.06893079 -0.009900504 0.03158228 -0.036026184 -0.5293275
0.13460614 -0.09135893 0.087851085 -0.008355504 0.34691265 -0.15318723 -0.053571682 0.04802268
-0.015924858 0.08239516 0.047824237 -0.0036733963 -0.063487366 -0.06549015 0.07540884 0.043091692
-0.2162037 0.13005789 0.43234146 0.050773736 0.001017981 0.058877885 -0.05194763 -0.012483665
-0.05478306 0.03816955 -0.034023665 0.011033918 -0.019941922 0.057484146 -0.10795594 0.06472062
-0.08692717 0.039266393 0.049352024 0.035155915 -0.10642838 0.3923964 0.02266217 0.01770237
0.13076977 -0.063614935 0.024674764 0.07691264 0.12434297 0.03743686 -0.37854174 0.03717824
-0.117382064 0.074369445 0.0123350555 -0.08487939 0.08316813 -0.26015145 0.07708544 0.07112538
-0.0074242204 0.030048301 0.17893563 0.037320536 0.077758014 -0.14077407 0.08846936 -0.026007954
-0.0061646327 0.015933627 -0.019043636 0.08395754 0.066104494 0.019259272 0.030659014 -0.101966985
-0.033356734 0.060703367 0.033716828 -0.0070693423 -0.11724744 -0.087241404 0.09092519 0.026560606
-0.0641805 -0.117380105 0.020934168 0.104129426 -0.04008694 0.086112246 -0.062337212 0.0016421282
0.015388563 0.030281182 0.13737462 -0.07019998 0.044609223 0.09943604 0.034909867 0.1318753
-0.029760256 0.03773419 -0.052422754 0.023875833 -0.0020787383 0.088320516 -0.065369196 0.047763888
0.050959248 -0.061740853 0.0010300991 0.057431746 0.07857949 -0.071214974 -0.014660608 -0.010247028
0.0039520115 -0.09240355 -0.086740516 -0.06267834 0.07137687 -0.035850458 -0.0078061465 -0.06323266
-0.028949615 -0.013212488 0.08726258 0.027795063 -0.12878965 0.07245968 0.052845854 -0.0057193525
0.067164175 0.045665685 0.07677953 0.0031119431 0.1443379 -0.024335783 -0.0309579 0.09364635
0.00013648362 0.07772857 -0.083506 0.09353045 -0.049254652 -0.019658457 0.03971853 -0.22903079
0.13321787 -0.011217815 -0.31048203 0.052603103 -0.05997243 -0.008181158 0.0055728005 -0.032679122

net.2.bias f4 [128]
00000000: fdce b8bb d424 d3bc 6065 eb3c 055c 3b3d
00000010: a8eb 72bd f775 513d cc68 8dbd 516a ccbc
00000020: 21fc e6bb 5fe9 b1bc e867 063d 0d3c b43c
00000030: 6ba6 b43d 7343 bdbd dd65 cbba 355b 643d
00000040: 4626 ecbc b0fb 1a3d 5103 81bd 642c 86bd
00000050: ff77 4fbd 486a 55bc 54fc 893d 463b 49bd
00000060: 3fdc 2dbc acb8 933c 4fbf b03c 1b4c 933d
00000070: 5df3 983d 5939 4dbd 3b55 a23d 4a70 cd3c
00000080: 605e a0bd e166 32bd 2104 6abd e734 63bd
00000090: bad8 113c 198d 023d 2cec 8d3d 2239 f5bb
000000a0: 47e5 233d 5585 a23d 67d6 a03a febd 5f3d
000000b0: b801 4cbd 73e9 ecbc fa21 093d 43b7 9abd
000000c0: a8ec 9abd 1e16 843c 7602 0fbd 1970 3f3d
000000d0: 35e4 153c 1308 e1bc 9872 013c 6bc2 2abd
000000e0: a8f4 a8bd 0156 08bd e067 d0ba da0d 673d
000000f0: 65d0 4f3d a500 b4bc dd9a 82bd 4843 bcbd
00000100: a78d 6a3d b2a2 4b3d 67a4 71bd 3282 98bb
00000110: 025e 1cbd a0cd fb3b cc92 8cbc f732 4dbd
00000120: 5177 513d 94df b43c 59f0 0dbd f255 013d
00000130: 2374 933c 851e 74bd 1cd4 b3ba 43cf 2ebd
00000140: 2067 1b3d 4a62 0dbd 6061 1e3b e93d cd3d
00000150: f49c 963d 14d9 7fbd ad9a f43c b8e4 ddbb
00000160: cde7 6f3d d3ae 853a 74cb 72bc 4f48 0fbb
00000170: 9904 9e3d 1259 a4bd a03d d63b 316e 9f3d
00000180: 3e11 6d3c e8ea 8c3c 59f3 a53d 0090 8f3c
00000190: d160 1abd 4848 acbd 9b93 5cbd bb6a 9e3d
000001a0: de60 7ebd 5d12 093d 959e a9bb 64e1 6fbb
000001b0: 70a5 dabb e0c3 87bd 04b6 d33d 60f6 503c
000001c0: aeef 88bd 3f81 00bc 2cc7 22bd 23c2 5a3d
000001d0: 3e2e 21bd 889d 933d ab38 f7bb 30ff 5e3d
000001e0: af23 e9bc b498 2a3d e4fc 33bd 2dfb 07bd
000001f0: 4aa8 22bd 8056 c43c 7851 18bd 5582 793d
-0.0056399093 -0.025774397 0.028734863 0.045742054 -0.05930677 0.05113789 -0.06904754 -0.02495304
-0.007049099 -0.021717725 0.032813936 0.02200129 0.08820804 -0.092413805 -0.0015518029 0.055751044
-0.028826844 0.037837684 -0.06299461 -0.065514356 -0.050651547 -0.013025828 0.06737581 -0.049128793
-0.010611593 0.018032394 0.021575598 0.0719225 0.07468293 -0.05010352 0.07926413 0.025077958
-0.078305006 -0.043555144 -0.057132844 -0.055470373 0.008901769 0.031872842 0.06929812 -0.0074836174
0.040013578 0.07935587 0.0012270928 0.05462455 -0.049806327 -0.028919911 0.03347967 -0.07554486
-0.0756467 0.016123828 -0.034914456 0.046737764 0.009148647 -0.02746967 0.007900856 -0.041689318
-0.082497895 -0.033285145 -0.0015900098 0.056409694 0.05073585 -0.021972964 -0.06377194 -0.091925204
0.057263996 0.049715705 -0.058994677 -0.0046541924 -0.03817559 0.0076844245 -0.017159842 -0.050097432
0.05113918 0.022079267 -0.03465304 0.031576104 0.017999714 -0.05959942 -0.001371983 -0.04267813
0.037940145 -0.034517564 0.0024166927 0.10021574 0.07354155 -0.06246288 0.029858911 -0.00677165
0.05857067 0.0010199196 -0.014819015 -0.0021863168 0.07715721 -0.08024801 0.006538108 0.07784689
0.014469443 0.017201856 0.081030555 0.01752472 -0.037689988 -0.08412224 -0.053851705 0.07735201
-0.0621041 0.03346478 -0.005176375 -0.003660285 -0.0066725537 -0.06629157 0.10337451 0.012754053
-0.0668634 -0.007843315 -0.039740726 0.0534078 -0.03935074 0.07207781 -0.007544597 0.054442585
-0.028459398 0.041649535 -0.043942347 -0.033198524 -0.039711274 0.023967028 -0.03718707 0.06091531

net.4.weight f4 [128, 128]
00000000: 9986 ee3c ba03 86bc 1cd1 b8bc 33ac e6bb
00000010: cc7b 32bd 65e2 53bd f12b 96bd 2c61 7abd
00000020: 0a81 87bd 97c8 783c 4848 3cbc 9ade 743d
00000030: 8c65 963c a9eb b33d e7fe 0d3d a8b4 b3bc
00000040: b093 713c 20c1 103c f3ef cb3b f0df b73b
00000050: 00e4 5aba 8036 a23c 56c4 a5bb 0663 a4bd
00000060: 5088 e0bc 9fb5 863d df23 253c c0f2 90ba
00000070: be98 b0bd 63d3 833d 805e 6bbd 767d 7d3d
00000080: 50b7 87bb d05a 103d 8a71 7c3d 02ee 163d
00000090: 784e 7d3c 36fe 473d 119e 013d b8f4 9dbd
000000a0: 2953 88bd 4a1d 6b3d 46cd b8bc c931 18bd
000000b0: 0cbd 843d bf97 96bd f779 913d c006 e2bb
000000c0: 9ce4 ab3c 0c50 c9bc 8381 a8bd d00c a63b
000000d0: 6810 57bd ecac 773d 26df 70bd df27 89bd
000000e0: 00ca 343c fb4d 39bc 4b98 ab3d 0028 f838
000000f0: 29ec 99bd 785e 04bc 1ed0 03bc 406f 88ba
00000100: 62e6 063d 4efd 723d bfb5 94bd e21d 2c3d
00000110: 3fe9 ccbc daa2 4bbd 4e7b 8a3c 2d14 bdbc
00000120: 2ce6 dc3c 403e 8ebb 7e37 6d3d 4d3b 67bd
00000130: 0a5a 843c e0f5 e83c bc1e acbc 90ce 21bd
00000140: 5293 98bd 6a4b 2e3d 90f6 793c a45f 9abd
00000150: 1138 a9bd e49f e8bc 93c7 2ebd e42b a83c
00000160: 2bee 3bbd 7bf9 ab3d c0b1 50bc 0e2b 853a
00000170: ccf7 2abd e887 4dbc 71c1 84bd f6d2 ab3d
00000180: a2ed 203d 7a65 2e3d 409d 31bc 8862 79bc
00000190: 8ce0 b13c d070 afbc cfc6 6d3d 17d7 74bd
000001a0: 45b8 13bd ccef 893d 40b0 143c d8e9 5f3c
000001b0: b05c 583c ae74 56bd 870d b4bd fe91 513d
000001c0: 568c 96bd e1f0 3e3b 9135 9d3d 0e81 563d
000001d0: 68c4 f2bc 51f9 b13d ea6f 0abc d028 17bc
000001e0: 3d8e a83d 38d3 d83c aa28 b4bd 7d1c 62bd
000001f0: b306 05bd 2e57 373d 1c65 a23d 9c74 81bd
00000200: b357 1a3d f788 663d 6afb bfbc d565 863d
00000210: 0e22 543d ae1c cabc 509f e2bb 606b f9bd
00000220: 0df8 623d 7204 81bd d6be 3ebd 0092 883d
00000230: 80b8 8e3c cb73 43bd 1bf9 16be 6af4 87bd
00000240: 96d9 283d d4ea 02bc c7cb 6b3d 4e15 403d
00000250: 5a95 e5bb 701f 7dbc 977b 983d b91b 873d
00000260: c8cc e3bd 14d9 e03b 5ef1 a9bd 402c 293d
00000270: 8d05 7fbd 604e b8bd 20ab 5abd 4b4b 133d
00000280: a8f6 57bd e587 a73d 5171 84bd 5cc2 b3bc
00000290: 3045 513d 8e40 a13d 66a1 a1bd e6b8 823d
000002a0: fb72 10bc c4c0 6bbd b75b 913c f257 0d3d
000002b0: 8555 91bd 8455 c23b b4c8 a13d 623e 863d
000002c0: 2067 28bd 997b 4a3d 22c9 3cbb 29d2 093d
000002d0: 96ab 2e3d 004b 9b3c b652 003d af20 8dbc
000002e0: 9195 a03d 499a 86bd df70 3c3d 3093 913d
000002f0: 39b2 4d3d 5f7b a93c 2b64 86bc d5c7 a2bd
00000300: e536 cd3b c0bf 103d 3bae 073d 864f 313d
00000310: 1d7e dd3c 2394 b0bd fa40 d4bd f068 893b
00000320: f1d8 41be 2c96 b2bc 5351 9e3c 22be 4d3d
00000330: 2254 7dbd bad7 3b3d 96af c43c ebe8 933d
00000340: 02d2 17b9 29c7 72bd 57b5 9e3d 3c03 12bd
00000350: d8cd 94bd 106c 063a 86ef c6be 7c6b 92bc
00000360: 8421 95bd 6acf 96bd 5958 74bc 7ef3 2d3d
00000370: 1272 253d 4bac 26bd 016f 30bd 0b47 2fbd
00000380: 8caa 19bd 50a6 023c ff92 8e3d 6718 7d3d
00000390: 1c0f f23c d89c 6c3c 5210 86bd 6165 8dbd
000003a0: 84f3 0d3c f17a 203d f754 0bbd 7949 9ebc
000003b0: 4601 333d e27b 89bc a607 723c 8e93 a4bd
000003c0: 2e98 ffbd d814 8cbd dad1 4a3d d4fc cabb
000003d0: daf5 90bd 5554 adbd 2e99 03bd 0a1c 713d
000003e0: 002d 383c ca96 3a3d 4648 883c 9275 a7bd
000003f0: e300 b4bd 6d62 efbc 34d9 81bd fe44 01bd
0.029116916 -0.016359199 -0.022560649 -0.0070395707 -0.043575093 -0.05172958 -0.073326 -0.061127827
-0.06616409 0.015184543 -0.011491843 0.059782602 0.018358968 0.08785183 0.034666922 -0.02193673
0.014744684 0.008835107 0.0062236725 0.005611412 -0.00083500147 0.019801378 -0.0050588055 -0.080267
-0.027408749 0.0657761 0.010079353 -0.0011058673 -0.08622883 0.06436803 -0.05746317 0.061887227
-0.0041417256 0.035242856 0.061631717 0.036848076 0.015460603 0.04882642 0.031644884 -0.07712692
-0.066564865 0.05740098 -0.02255882 -0.037156854 0.0648137 -0.07353162 0.07103341 -0.0068977773
0.020983033 -0.024574302 -0.082278274 0.0050674453 -0.05250588 0.060467646 -0.05880656 -0.06697058
0.011034489 -0.011310096 0.08378657 0.00011833012 -0.07515747 -0.008079164 -0.0080452245 -0.0010409132
0.032934554 0.0593236 -0.07261228 0.042020686 -0.025013564 -0.049715854 0.0169045 -0.02308091
0.026965223 -0.004340917 0.05791425 -0.056453038 0.016156215 0.028437555 -0.021010749 -0.039503634
-0.07449974 0.04255239 0.015256539 -0.07537773 -0.08262647 -0.028396554 -0.042670798 0.020528741
-0.04588143 0.08397194 -0.012737691 0.0010159926 -0.041740224 -0.01254461 -0.064822085 0.08389847
0.039289124 0.042577244 -0.010840714 -0.015221246 0.021713518 -0.021416098 0.058050927 -0.05977544
-0.036064405 0.06735191 0.009075224 0.013666593 0.013205692 -0.05235737 -0.08791643 0.05116462
-0.07350986 0.0029135274 0.076762326 0.05236917 -0.02963467 0.086901315 -0.008449534 -0.009226039
0.08230255 0.026467904 -0.087968186 -0.05520295 -0.032477092 0.044760875 0.07929441 -0.063210696
0.037681293 0.056282964 -0.023435313 0.06562392 0.05179029 -0.024671879 -0.006915964 -0.12178683
0.05541234 -0.06299676 -0.046568714 0.06668472 0.01742196 -0.04771785 -0.14743464 -0.06638415
0.04122313 -0.007990558 0.057567384 0.046895318 -0.0070063295 -0.01544939 0.07445448 0.065970846
-0.11123043 0.006861815 -0.0829799 0.041301966 -0.062261153 -0.08999324 -0.053385854 0.035960477
-0.052725464 0.08180217 -0.06466926 -0.021943264 0.051091373 0.07873641 -0.078921124 0.06382923
-0.008816476 -0.057556883 0.017743928 0.0345077 -0.0709639 0.0059306044 0.07899609 0.06554867
-0.041113973 0.04943428 -0.0028806408 0.03364769 0.042644106 0.018956661 0.03132888 -0.017227499
0.078410275 -0.06572396 0.04600608 0.07108152 0.050218794 0.02068871 -0.016405186 -0.07948271
0.0062626475 0.035339117 0.033125143 0.04328873 0.027037675 -0.08622005 -0.10363956 0.0041934177
-0.18930413 -0.021800123 0.019325888 0.050230153 -0.061847813 0.04586003 0.024009507 0.0722216
-0.00014478716 -0.059271965 0.077494316 -0.035647616 -0.07265824 0.0005127797 -0.38854617 -0.017873518
-0.07281783 -0.0736378 -0.014913642 0.04246854 0.04039199 -0.040691655 -0.04307461 -0.04279236
-0.03751616 0.007974222 0.06961631 0.06179085 0.02954822 0.014441691 -0.065460816 -0.06904102
0.008664016 0.039179746 -0.034016576 -0.019322144 0.043702386 -0.016782705 0.014772331 -0.08035956
-0.12480198 -0.06839913 0.049516536 -0.0061946902 -0.070781425 -0.08463351 -0.032128505 0.05886463
0.011241198 0.04555396 0.016636025 -0.08176722 -0.08789232 -0.029221738 -0.06340256 -0.031559937

net.4.bias f4 [128]
00000000: 2de1 873d 1c37 c5bb 6bf7 b53c 4b78 5b3d
00000010: ed3c 8d3c eeb8 a73c 2ce4 28bc 9f8c 80bd
00000020: 951a 1c3d 8482 aa3d 9d66 8c3c 2a45 da3c
00000030: 259f 51bb 8fef 013d 0c5c 68bd fb6c b83d
00000040: a13b 7abd a03a a33d d47e 3abd 4501 4bbd
00000050: 1436 583d fd95 cfbc 7ae7 b63c b491 26bd
00000060: 3dda f8bb 1e13 f7bc 1312 be3c a712 60bd
00000070: 8567 aebb 5040 953c 237e 7dbd 165c f23c
00000080: eb6e 603d 4468 6a3d a74f 70bd 8e55 423c
00000090: de98 ed3c dada 96bd 8b4b 9a3c 2c2c f13c
000000a0: 2603 bc3d 52e2 78bd 8e47 07bd 717e 90bc
000000b0: 3229 7ebd 21d2 263d 6e8a 193d 0102 2c3c
000000c0: 3317 703d ac3d 90bd 71f7 2e3d 8193 713d
000000d0: e80c 933c 3d77 3abd 03ec 91bd 8ed4 13bd
000000e0: 1758 4d3d ecce 663d 657a 093d e69e eeba
000000f0: b300 75bd 715f 15bd 733b 553d 715c 9a3d
00000100: 5970 0e3d 429e adbd e9d3 a4bd 5c4d 8d3d
00000110: 6ec3 843d 6f70 a43d 9a57 28bd 58a4 8b3d
00000120: 4a1b 213d 4003 f13c 4707 4c3b dd43 9a3d
00000130: aa64 64bd 0e4a 253a afb5 7bbd 6f2f b2bd
00000140: 21f2 8fbd e98c c1bd 699c be3d 7496 153d
00000150: d939 57bd bc91 81bd 72a3 4e3d 01a9 3d3c
00000160: e5af b6bb b64e 173d f858 4ebc 15fe 6bbd
00000170: 406c 5f3d ff58 7fbd 1965 663d 6ea6 29bc
00000180: f8ab b13d 5dcb cabd 924d a63c da6e 12bc
00000190: 882b 4d3d 3c99 5d3d 4add 2e3d 1673 66bd
000001a0: fdfc 8bbd fad1 553c 0718 4cbb 4dbe 153d
000001b0: 05ee bc3c 54e4 903d fc30 dabc 78af 68bd
000001c0: 8a18 b8bb 4ffa a33d f106 363d 5ac5 adbd
000001d0: d9f5 9a3d f85c 683d 5ef3 81bd 6d1c 363a
000001e0: ede4 cf3c 2c59 413d d0be 83bb e783 8d3d
000001f0: 5df6 963d d0a3 973d 56e9 5dbd 4d82 ac3d
0.06634746 -0.0060185324 0.022212705 0.053581517 0.017240966 0.020473924 -0.010308307 -0.06276821
0.038111288 0.08325675 0.017138774 0.026644308 -0.0031985727 0.0317226 -0.056728408 0.090051614
-0.061092023 0.07970166 -0.04553111 -0.049561758 0.052785948 -0.025340075 0.022327174 -0.040666297
-0.0075943754 -0.030160483 0.023201978 -0.05470529 -0.005322399 0.018219143 -0.06188787 0.029584926
0.05479328 0.05722834 -0.058669712 0.011861218 0.029003557 -0.073659614 0.01883485 0.029440008
0.09180288 -0.06076271 -0.033027224 -0.017638417 -0.062051006 0.04072774 0.037485532 0.010498525
0.058615874 -0.07043013 0.042716447 0.05897856 0.01795049 -0.04552387 -0.07125094 -0.03609138
0.050132837 0.05634968 0.03356399 -0.0018205314 -0.05981512 -0.036467973 0.05205865 0.07537163
0.03477511 -0.08477451 -0.08048231 0.06899521 0.06482588 0.080292575 -0.04109917 0.068184555
0.039332666 0.029420495 0.0031132267 0.07532475 -0.055760063 0.00063052855 -0.061452564 -0.087004535
-0.07028604 -0.094507046 0.093071766 0.036520436 -0.052545402 -0.06326625 0.050448842 0.011575938
-0.0055751675 0.0369403 -0.012594454 -0.05761536 0.054546595 -0.062340733 0.056248758 -0.010354621
0.086753786 -0.0990207 0.02030066 -0.008937562 0.050090343 0.054101214 0.042691506 -0.0562621
-0.06835363 0.013050551 -0.003114225 0.036558438 0.023062715 0.070748 -0.026634686 -0.056807965
-0.0056181597 0.08006727 0.044440214 -0.084849074 0.07566423 0.056729287 -0.06345247 0.0006946985
0.025377715 0.04720418 -0.0040205494 0.06909924 0.07371209 0.07404292 -0.054177605 0.084232904

net.6.weight f4 [2, 128]
00000000: 7513 7b3c f507 8cbd 27a1 a53d 20a8 93bd
00000010: 3f24 af3d f0bb a83e 8715 e03b 1878 633c
00000020: fb8b 3a3d 156e 0d3c 7cf4 57bd 4d88 bc3c
00000030: 7892 9a3d ce87 043d a3ac 363e 523e 1c3d
00000040: fbba 303f 70b6 af3b ccd0 6f3d 155f 013d
00000050: a63e 97bc 4d4b 67bd 230e 85bd d4c9 39bc
00000060: 9ded 1b3c a20c a53e 704b 94bb cc20 77bd
00000070: 837f a3bd 86ac 9dbd ad47 153e 7e63 6fbd
00000080: 92f6 6fbd 041d d63d b6e9 a8bd 431c 8ebd
00000090: e80b 953c 12d2 b03c e8d1 d03d 1626 463d
000000a0: d116 f53c 226a 4c3d 4c64 f33d 7d95 3f3d
000000b0: 8ca8 5abc 85eb debb f2f4 d0bc 6d92 06bd
000000c0: 881f 5d3d a8f9 69be e902 433c 54c0 86bb
000000d0: fc2c 0ebd 2ff8 543d 4083 b43d ce9e 32bd
000000e0: 4a43 3cbd 5f95 a1bd 471d 9cbc 45bd 7b3c
000000f0: 837b ce3d 8b03 4c3c c998 bdbd f4bb a13d
00000100: 2f1d 7dbc 69f5 26bc d2c1 6f3d da16 d73d
00000110: 1d43 6a3d f672 82bb 94ab da3d 6b19 863c
00000120: 7508 0f3d fbe9 df3d cb3f a0bd 583b 933d
00000130: 5bd0 c3bc 90ef 763d d534 5ebd 332b 3ebd
00000140: e75e b43e cd6e acbc 469f 593d 76d2 de3d
00000150: e3f2 b0bd d15c e9bd c215 8c3d 37ae 5e3c
00000160: 636f af3d 6772 aa3b d209 e83d 1712 3f3e
00000170: c4eb 66bd ba40 f43d 69e9 8b3d 03ff 8cbd
00000180: d436 bb3d eee8 8d3d 9d2a cbbd cbab 99bf
00000190: 78c3 5fbd 1dd1 9fbc b476 aabd 9376 8c3d
000001a0: 9fd7 163d 9edd 8bbc fee8 893d 6b21 a73c
000001b0: dc1c a53d b463 973d ca17 25bd 8361 8c3d
000001c0: bac9 6fbe 8285 283c afe6 f23e 27c8 81bd
000001d0: ad83 83bd d0b9 a8bc 67a9 dcbd 2e52 b8bc
000001e0: 280e 5e3d 9927 9ebd c452 6dbd 953b f7bd
000001f0: 3b66 bd3d 8391 8f3d e396 abbd 4f9d 813d
00000200: c2ff 2bbc 72de 9b3d 2e0e fc3b ae64 6b3d
00000210: 9956 04be 4ccd a7be 5e36 553c 757e 38bd
00000220: 0de9 b8bc bc0d e4bd 06ea 20bc e5fc 2e3c
00000230: 1890 89b9 7985 33bd 2a1c 94bc 6167 b4bd
00000240: 4451 34bf e240 b4bd 3abc d43b 8ff7 933d
00000250: 853a 963d 1551 a33d cbb3 b8bd 8668 d53d
00000260: 2bb2 e3bd 410e 4dbe d35b 6c3c b108 213e
00000270: 226f 22bd cb8f eb3d d9b4 ebbd 6692 193d
00000280: 84a2 783b ed9e 17bc a271 0a3c f14b e63d
00000290: 84db 243c 9f41 5cbb ea2e 24bd 1464 cfbc
000002a0: 1d66 c8bd 1221 143c 9251 bf3c bb9f 763b
000002b0: 89d9 e93c a49b a63c e4d6 64bc 121c 263c
000002c0: 4860 6f3b 1f69 9a3e 3095 df3c c851 c5bd
000002d0: 94f5 c0bc e071 92bd b076 c6bc f8bd b5bc
000002e0: 9c51 843d f9a7 943d 09bb 8f3d d5f9 b4bd
000002f0: 7f22 66bd 4fc5 2c3d 4e3d 9d3d 3d93 383d
00000300: 0e16 823c f61e aabd dd8f 9e3d 00f7 7ebc
00000310: 2612 ebbd 308f acbd f973 aabd 8504 87bd
00000320: 2115 d1bd 219f 22bd 860c 953d f8d0 bbbd
00000330: 43dd d23d b9e6 cfbc f94e 753d a399 283d
00000340: c170 aabe 2172 833d 01d5 e7bd 51f9 d83c
00000350: b658 8dbd 1f51 053e 0c9d d3bc 5567 d43c
00000360: bb98 8b3d ce03 84bd 503e a5bd 9f5b 74be
00000370: f1e0 9dbc 8625 c8bd 4550 98bd 9bb3 90bd
00000380: 4037 a93c 7360 b7bc e53d dd3d dcd9 9c3f
00000390: adfc 903d e68b b53d bf96 b93d 931d f1bd
000003a0: 7574 e8bc fd50 61bc 2dc9 00be 212b 873d
000003b0: 0e86 fbbc 758f 883d 45e7 873c 02d1 81bd
000003c0: 55e2 883d 7bd1 d5bd 9f25 04bf 96d4 183d
000003d0: 9c9c 2b3e e8fb e93c 2312 fe3d e080 8cbd
000003e0: a152 b0bd bab0 103d 584e 093d 6786 863a
000003f0: 2836 febd c1b2 2abd 54a8 d8bb 586a 34bd
0.015324463 -0.06837455 0.08087378 -0.07209802 0.08551835 0.32955885 0.0068385038 0.013883613
0.045543652 0.008632203 -0.052723393 0.023014212 0.07547468 0.032356076 0.17839293 0.03814537
0.6903531 0.0053623244 0.058548734 0.031584818 -0.01846249 -0.056468297 -0.06496837 -0.0113396235
0.009517101 0.322362 -0.0045255944 -0.060334012 -0.07983305 -0.07698922 0.14578123 -0.058444493
-0.058584757 0.10454753 -0.08247702 -0.06938984 0.018194154 0.021584544 0.101962864 0.048376165
0.029918106 0.049905904 0.118843645 0.046773423 -0.013345849 -0.0068029785 -0.025507424 -0.032854486
0.05398515 -0.22849143 0.011902549 -0.004112283 -0.03471087 0.0519945 0.088140965 -0.04360848
-0.04596261 -0.078898184 -0.01905693 0.01536495 0.10082152 0.012452017 -0.09257657 0.07897177
-0.015448852 -0.010190346 0.05853445 0.105024055 0.05719291 -0.0039809896 0.10677257 0.016369542
0.034920175 0.109333 -0.078246675 0.07189053 -0.023903063 0.06028706 -0.054249603 -0.046427917
0.35228655 -0.021048928 0.05313041 0.10879986 -0.08640077 -0.113946564 0.068400875 0.013591341
0.08566167 0.005201626 0.11329998 0.18659244 -0.056377187 0.11926408 0.06831629 -0.06884577
0.09141317 0.069291934 -0.09920237 -1.2005552 -0.054629773 -0.019508893 -0.08323422 0.06858554
0.036826726 -0.017073449 0.06733893 0.020401677 0.08062145 0.07392064 -0.04030589 0.068545364
-0.23416796 0.010285737 0.47441623 -0.06337004 -0.064215995 -0.020596415 -0.107744984 -0.022500124
0.05421272 -0.077223964 -0.05794026 -0.12071911 0.092480145 0.07010176 -0.08378389 0.06328832
-0.010497989 0.076107875 0.00769212 0.057469063 -0.1292366 -0.32773817 0.01301345 -0.045042474
-0.022572065 -0.11135432 -0.009821421 0.010680412 -0.00026238034 -0.04382846 -0.018079836 -0.088087805
-0.704365 -0.08801438 0.006492165 0.072249524 0.073353805 0.079744495 -0.09018668 0.10420327
-0.11117967 -0.20024969 0.0144261895 0.15725972 -0.039656766 0.11502036 -0.11509103 0.037493132
0.0037938664 -0.009254199 0.008449944 0.112449534 0.010062102 -0.003360845 -0.040083803 -0.025316276
-0.097851016 0.009041088 0.023354325 0.0037631828 0.028546112 0.020337887 -0.01396725 0.010138528
0.0036525894 0.30158326 0.027292818 -0.09634739 -0.0235546 -0.07150626 -0.024226516 -0.02218531
0.06460878 0.07258601 0.07018096 -0.08836714 -0.05618524 0.042180356 0.076777086 0.045062292
0.015879657 -0.083066866 0.077422835 -0.015561819 -0.11478071 -0.08425748 -0.08322901 -0.06592659
-0.10209108 -0.03970254 0.07277779 -0.09170717 0.102961086 -0.025378572 0.059889767 0.041162144
-0.3328915 0.06418253 -0.11319924 0.02648607 -0.06901686 0.13019226 -0.025831722 0.025928179
0.068162404 -0.06446038 -0.08068526 -0.23863076 -0.0192723 -0.09772782 -0.07437185 -0.07065507
0.020656228 -0.022384858 0.10802821 1.2253985 0.07079444 0.08864574 0.09061956 -0.11773219
-0.028375844 -0.013752219 -0.12576742 0.06600023 -0.03070357 0.06667987 0.01658977 -0.06338693
0.066837944 -0.10440346 -0.51619905 0.037312113 0.1675896 0.028562501 0.12405803 -0.068605185
-0.0860951 0.03532479 0.03352198 0.0010263444 -0.12412673 -0.04167438 -0.006611863 -0.04404673

net.6.bias f4 [2]
00000000: 5369 463d 4a76 753d
0.04844029 0.059927262
